gym-multigrid-master/results/mappo/key/steps_1000_ngames_7/mappo_agent_model.pth (torch, 523098 bytes, 22 tensors)

actor.0.weight f4 [64, 294]
-0.06418193 -0.0070959395 0.021096788 0.035255335 0.022044176 -0.06051871 0.090425245 0.21162339
0.031841334 -0.05709558 -0.016983112 0.069518335 0.06673269 -0.045794737 0.017938245 -0.085359626
-0.095253035 -0.0356053 0.0006853226 -0.092625946 -0.011145591 -0.19019276 0.0057684947 -0.07060191
-0.016875915 0.11445567 0.12001748 0.066109404 -0.056626406 -0.018758144 -0.059337545 0.062353615
0.011289159 -0.05900931 -0.02816678 -0.0053794784 0.08324912 0.020433355 0.011234514 -0.050998017
0.04566383 -0.032291047 -0.00325958 -0.0023456078 -0.06330734 0.124076396 0.027113276 -0.059682388
0.033007048 -0.06837863 0.104255736 0.18257506 0.04959856 -0.0536902 -0.006492823 -0.10496367
0.0026691416 0.12876266 0.026141023 0.0738445 0.0320139 0.12151186 0.015508718 0.023333754
0.017906172 0.10306428 -0.023790803 -0.02484442 -0.09260996 0.09626518 0.01989952 0.059506338
0.05952508 -0.08407109 0.027193328 0.1315584 -0.08158846 0.022345575 0.0337226 0.073660605
-0.05065027 -0.16564363 -0.18899806 -0.12709136 0.13198623 0.101628214 -0.100247785 -0.029016314
-0.034286823 0.1830224 -0.055167094 -0.023509687 -0.06390268 -0.003303943 0.07443374 0.0014931221
-0.008985446 0.041888334 0.0937697 -0.041764114 -0.019034926 -0.098034516 0.17723392 0.023028947
0.08103688 0.021611776 0.07068448 0.04950132 -0.10347755 0.017898047 -0.0030923814 -0.00826479
0.10200246 0.036466666 -0.12214302 0.07804667 -0.049082242 0.041226845 0.11639351 0.03126529
-0.090578556 0.06396846 0.13724023 0.070549645 0.10386201 0.04611102 -0.014166704 0.00029879657
0.024852548 0.05018225 0.044616263 -0.023924004 -0.16536908 0.034438767 -0.043074198 -0.009078982
-0.085901596 0.043031976 -0.1016705 0.01237342 0.10971659 -0.07954137 -0.05830015 0.09335502
0.036399603 0.017944736 0.06846834 -0.120213315 0.12037008 -0.11776238 0.058297116 -0.009167663
-0.0075297123 -0.008706952 -0.03640669 0.043747183 0.0110887345 0.09252638 -0.003914743 0.07064444
-0.039217718 0.25524226 0.04340245 0.18150797 0.036184084 0.08017574 -0.03945358 0.055575036
-0.0421752 -0.024598468 0.080905095 -0.114414245 0.084632926 -0.01952915 -0.023774287 -0.014556682
0.0030948657 0.020012759 0.02694828 0.069797546 -0.085300356 0.1148977 -0.036225915 0.06604579
0.08596145 0.07038698 -0.04002161 0.11204579 -0.043889645 -0.0008501371 0.06304066 0.034942236
0.13261166 0.0412025 0.016340792 -0.013702645 -0.098531015 0.16472465 0.036074355 0.1504622
0.013768437 0.14811912 -0.09560977 0.17566852 -0.116001666 -0.12413108 -0.048891466 -0.027924288
-0.011623275 -0.2177323 0.06848106 -0.07721863 0.019907689 0.012931403 -0.03910116 -0.056450523
0.050132986 0.0043092603 0.123810135 0.11819872 -0.07142927 -0.023317566 -0.1584294 -0.056925774
0.13931088 0.10288018 0.04084801 -0.08780909 0.01830753 0.009306503 -0.11192585 0.052650977
-0.050753176 0.07430964 -0.015997142 -0.019612696 -0.10537144 -0.1685119 0.116541505 0.14407295
-0.04514765 0.007751687 -0.15283321 0.083881736 -0.11044492 -0.07323461 0.13463409 0.06120162
0.04642993 0.005960334 0.093254514 -0.022157306 0.116870455 0.07125579 0.03661066 -0.044368125
00000000: d171 83bd 0e85 e8bb 2cd3 ac3c e667 103d
00000010: fd95 b43c 78e2 77bd df30 b93d cdb3 583e
00000020: 0f6c 023d 0edd 69bd 2b20 8bbc a15f 8e3d
00000030: 26ab 883d 4393 3bbd 3af3 923c 07d1 aebd
00000040: 0614 c3bd ddd6 11bd 39a7 333a acb2 bdbd
00000050: ff9b 36bc e4c1 42be a405 bd3b bc97 90bd
00000060: 5c3f 8abc bc67 ea3d b9cb f53d 5e64 873d
00000070: 17f1 67bd aeaa 99bc ed0b 73bd 8166 7f3d
00000080: 2af6 383c bfb3 71bd 05be e6bc 5646 b0bb
00000090: 847e aa3d da63 a73c f810 383c 4ce3 50bd
000000a0: ff09 3b3d 9e43 04bd ad9e 55bb c5b8 19bb
000000b0: 47a7 81bd c41b fe3d a91c de3c 8575 74bd
000000c0: 6632 073d 180a 8cbd 0884 d53d f5f4 3a3e
000000d0: dc27 4b3d 41ea 5bbd bfc1 d4bb 31f7 d6bd
000000e0: c4ec 2e3b 5cda 033e b325 d63c c93b 973d
000000f0: 0221 033d 36db f83d 4718 7e3c 6e26 bf3c
00000100: f7af 923c 5d13 d33d eee4 c2bc 8686 cbbc
00000110: 4aaa bdbd ae26 c53d 5104 a33c ebbc 733d
00000120: 92d0 733d 772d acbd 8bc4 de3c 3fb7 063e
00000130: da17 a7bd 110e b73c b620 0a3d 5fdb 963d
00000140: a876 4fbd 7c9e 29be b588 41be 3d24 02be
00000150: 6627 073e 7422 d03d b64e cdbd 9fb3 edbc
00000160: 5770 0cbd 396a 3b3e e4f6 61bd 6397 c0bc
00000170: 69df 82bd f786 58bb b770 983d ddb4 c33a
00000180: b137 13bc 1a93 2b3d 540a c03d d910 2bbd
00000190: 22ef 9bbc 52c6 c8bd cf7c 353e 34a7 bc3c
000001a0: aaf6 a53d 2e0b b13c 06c3 903d e5c1 4a3d
000001b0: 0aec d3bd ed9e 923c 8da9 4abb 0b69 07bc
000001c0: aae6 d03d 125e 153d 1f26 fabd efd6 9f3d
000001d0: 760a 49bd 7bdd 283d b85f ee3d 0810 003d
000001e0: 4081 b9bd e501 833d b488 0c3e 557c 903d
000001f0: 9bb5 d43d e9de 3c3d 771b 68bc cca7 9c39
00000200: 9297 cb3c e78b 4d3d 8bbf 363d 46fc c3bc
00000210: 8356 29be aa0f 0d3d 926e 30bd 03c0 14bc
00000220: 2ded afbd 4c42 303d a038 d0bd e3b9 4a3c
00000230: 17b3 e03d 96e6 a2bd 23cc 6ebd eb30 bf3d
00000240: c017 153d d700 933c 2139 8c3d 6632 f6bd
00000250: 9784 f63d 672d f1bd f5c8 6e3d f733 16bc
00000260: cebb f6bb 9ba7 0ebc 2e1f 15bd 3f30 333d
00000270: 86ad 353c 797e bd3d 3f47 80bb 08ae 903d
00000280: c2a2 20bd 1daf 823e c4c6 313d 3add 393e
00000290: c335 143d 2e33 a43d 149a 21bd a6a2 633d
000002a0: e7bf 2cbd ba82 c9bc 92b1 a53d 0452 eabd
000002b0: 0754 ad3d 99fb 9fbc 4bc2 c2bc 267f 6ebc
000002c0: 3bd3 4a3b ccf1 a33c a4c2 dc3c 04f2 8e3d
000002d0: f4b1 aebd 7c4f eb3d a061 14bd 0443 873d
000002e0: 8f0c b03d 0d27 903d b3ed 23bd 4378 e53d
000002f0: a1c5 33bd bcdb 5eba 761b 813d 971f 0f3d
00000300: 5acb 073e f4c3 283d 20dd 853c 0f81 60bc
00000310: a1ca c9bd 94ad 283e b4c2 133d c312 1a3e
00000320: 0395 613c 8aac 173e 0ecf c3bd 73e2 333e
00000330: 4892 edbd 7038 febd 6b42 48bd 7ac1 e4bc
00000340: 8c6f 3ebc 37f5 5ebe cc3f 8c3d cd24 9ebd
00000350: 7315 a33c 3cde 533c 8a28 20bd aa38 67bd
00000360: 3f58 4d3d b234 8d3b 2b90 fd3d 2c12 f23d
00000370: 8249 92bd 7b04 bfbc 513b 22be 002b 69bd
00000380: 83a7 0e3e d8b2 d23d 3e50 273d 41d5 b3bd
00000390: acf9 953c 4e7a 183c 6139 e5bd 8da8 573d
000003a0: 90e2 4fbd a72f 983d 700c 83bc ceaa a0bc
000003b0: fbcc d7bd 628e 2cbe 50ad ee3d dc87 133e
000003c0: beec 38bd dd01 fe3b 4f80 1cbe 30ca ab3d
000003d0: f230 e2bd 07fc 95bd 85dd 093e 8dae 7a3d
000003e0: 4f2d 3e3d e84e c33b 39fc be3d 3d83 b5bc
000003f0: c759 ef3d 8eee 913d 0ff5 153d 5abb 35bd

actor.0.bias f4 [64]
0.00017145563 0.002664634 0.00041815315 -0.00057424605 -0.0005319756 -0.004539123 0.001346096 0.002812953
0.0017064038 0.0040781815 -0.0032372337 0.0058700247 -0.0033350962 -0.0002036483 -0.00048743025 -0.004336735
0.0023614129 0.0010603279 0.002607583 -0.0007969443 -0.0051275 -0.00502877 -0.0019398795 -0.0042784703
0.0023311053 0.0034710127 0.0015804829 0.0006412786 0.00095547823 0.0022849373 0.0023154297 0.0030869972
-0.0027237781 -0.0006256011 0.002823749 -0.0023988574 0.0037598964 0.00022683303 -0.0005361125 -0.00045896939
0.005552681 0.0029391707 0.0035007917 0.0018992559 -0.0014196842 -0.0009631016 -0.0047141933 -0.0010337641
0.0008301639 0.0013175734 0.004098344 -7.257265e-05 0.00093027746 -0.003509431 -0.0005172253 0.004596846
0.0020381839 -0.004234489 -0.0014886017 0.00056722417 0.0026502972 -0.0024010716 -0.0015991391 -0.0031322439
00000000: c5c8 3339 24a1 2e3b 913b db39 0089 16ba
00000010: 4774 0bba ecbc 94bb 7d6f b03a 8559 383b
00000020: 69a9 df3a 44a2 853b c527 54bb 5659 c03b
00000030: a191 5abb 6d8a 55b9 c88d ffb9 2b1b 8ebb
00000040: efc1 1a3b b3fa 8a3a fce3 2a3b 07ea 50ba
00000050: 9604 a8bb 61c8 a4bb 8e43 feba 6932 8cbb
00000060: 75c5 183b ee79 633b 3528 cf3a 7a1b 283a
00000070: 0f79 7a3a e3be 153b 77be 173b 384f 4a3b
00000080: 6a81 32bb 61ff 23ba a60e 393b 2636 1dbb
00000090: 9868 763b 07da 6d39 e789 0cba d4a1 f0b9
000000a0: 44f3 b53b 1a9f 403b 8a6d 653b 74f0 f83a
000000b0: b214 baba a778 7cba 8579 9abb 5e7f 87ba
000000c0: 5b9f 593a 6db2 ac3a 674b 863b 2532 98b8
000000d0: dddd 733a 7bfe 65bb 6796 07ba 24a1 963b
000000e0: 0d93 053b 78c1 8abb 2f1d c3ba c5b1 143a
000000f0: 9cb0 2d3b 4c5b 1dbb 349a d1ba 5546 4dbb

actor.2.weight f4 [128, 64]
0.03552114 0.010187094 0.03245763 0.08198285 -0.046530753 0.06650811 0.111504085 -0.25831297
0.06221137 0.21771006 0.33577532 -0.032989666 -0.064406216 -0.106736995 -0.09424135 -0.062006235
-0.008904642 -0.032004166 0.07638143 0.09401806 0.21675193 -0.15331103 0.054941818 0.015631646
-0.110153675 0.1864782 0.12027013 0.082726836 0.0011279096 -0.11056336 0.0042679496 -0.009259711
0.22266297 -0.1639567 -0.20139311 0.052453578 0.10934039 -0.068114825 0.1011035 -0.0060643083
-0.058147587 -0.10142917 -0.0035957363 0.044894025 0.1580979 -0.07113773 0.1079746 -0.14709088
0.07391271 0.022252245 0.03878226 -0.13384064 0.17091937 -0.09689966 -0.36279583 0.1043444
0.06387045 0.08173135 0.07590513 0.08063252 0.0013528705 -0.03305487 0.11503508 0.05110419
0.21819256 0.13506013 0.103055626 -0.010979033 -0.06509247 -0.06354045 0.074441664 -0.13119388
0.020802127 -0.15986212 -0.1228758 0.054436132 -0.06801715 0.15613912 -0.013758844 0.17219767
-0.05745587 0.1618201 0.14197233 -0.024426652 0.026983414 0.0013474778 -0.0231047 0.16901259
0.08829321 0.15535021 0.20761302 -0.13497786 -0.18689546 0.1329157 0.15357083 0.040349673
-0.13413534 0.30984077 0.20548908 -0.09112926 -0.025036842 -0.06916328 0.14320818 0.09934165
0.13463126 0.11352465 -0.056208227 -0.06090381 -0.09099664 -0.21844688 0.20571129 0.043049425
-0.061506495 0.119897716 0.055383384 -0.18403894 0.039810196 -0.10797418 -0.01772859 0.027408885
0.08460508 -0.18305613 0.08097073 -0.020187773 0.19938238 -0.0064869397 0.10860604 0.27535543
-0.1654029 0.11925986 -0.29427764 0.06682318 -0.08274953 0.08541668 0.13596714 0.02314964
-0.044256654 -0.009550033 -0.00072616077 0.16521586 -0.065982595 -0.15639167 -0.16080302 -0.11802559
-0.0055741854 0.16335562 -0.06428985 0.11950876 -0.07213738 -0.010719668 0.309447 0.043982424
-0.09874991 -0.17130132 -0.15310994 0.09399938 0.095305204 0.14854793 0.23053063 -0.11368493
0.00069709483 0.1768397 -0.120235026 -0.30820936 0.035658196 0.11778292 -0.016636495 -0.01327296
-0.2224464 0.0791013 0.098353684 -0.09042146 -0.032051306 0.034722265 0.20816658 -0.04261893
0.12687464 -0.037181176 -0.24589445 0.0059149563 -0.13673283 0.23480374 0.04915077 0.19140877
-0.08691029 -0.111812524 0.1279644 0.038350474 0.17199734 0.18715423 -0.019644666 -0.010185284
0.04201734 0.04618556 0.010650856 -0.21446316 0.027042467 -0.080648676 -0.19965866 -0.082183614
0.024152083 -0.0676465 0.04362636 -0.007869705 -0.049772486 0.12552725 0.10424445 -0.051006965
-0.2871418 0.03231812 0.17020045 -0.07220167 0.08121873 0.17134872 0.028148133 -0.09473701
-0.048139174 0.002287494 0.025143411 0.049807366 0.13747054 0.1932211 -0.036381777 -0.054130465
-0.06979501 -0.11224483 0.031195153 0.13660133 0.19224598 0.0038405333 0.11643993 -0.15828894
0.2678237 0.0584764 0.084284805 -0.0042882944 -0.17387147 0.12943009 0.07513955 -0.26140755
-0.07737993 0.03266622 -0.15357666 -0.15890953 -0.09051671 0.21057487 -0.1553341 0.09367582
-0.11162954 -0.062423155 -0.13459949 0.19140872 -0.06713596 0.07948237 -0.090663485 -0.04795288
00000000: 9d7e 113d c5e7 263c 4bf2 043d a0e6 a73d
00000010: 0897 3ebd 6735 883d 415c e43d 9941 84be
00000020: 59d1 7e3d 63ef 5e3e beea ab3e 2c20 07bd
00000030: 68e7 83bd ed98 dabd 9c01 c1bd 40fa 7dbd
00000040: c7e4 11bc cd16 03bd de6d 9c3d 8a8c c03d
00000050: 38f4 5d3e 91fd 1cbe ac0a 613d f00d 803c
00000060: 4098 e1bd 24f4 3e3e 3050 f63d b06c a93d
00000070: 5ed6 933a 0b6f e2bd 28da 8b3b 0bb6 17bc
00000080: c301 643e 44e4 27be ff39 4ebe 90d9 563d
00000090: dbed df3d c97f 8bbd 5a0f cf3d 1bb7 c6bb
000000a0: 2a2c 6ebd 19ba cfbd 72a6 6bbb cce2 373d
000000b0: 6ae4 213e a8b0 91bd c921 dd3d fe9e 16be
000000c0: 8c5f 973d 574a b63c 26da 1e3d 850d 09be
000000d0: 7d05 2f3e 5473 c6bd 60c0 b9be 84b2 d53d
000000e0: 83ce 823d c462 a73d 2674 9b3d aa22 a53d
000000f0: cd52 b13a 8b64 07bd 8397 eb3d a152 513d
00000100: df6d 5f3e 344d 0a3e d40e d33d 67e1 33bc
00000110: 334f 85bd 7f21 82bd df74 983d b057 06be
00000120: 3969 aa3c e5b2 23be 4fa6 fbbd 6cf8 5e3d
00000130: 934c 8bbd efe2 1f3e c66c 61bc 9654 303e
00000140: d956 6bbd 2bb4 253e 3261 113e 671a c8bc
00000150: 520c dd3c da9d b03a 1146 bdbc a311 2d3e
00000160: 12d3 b43d 2014 1f3e 8298 543e a337 0abe
00000170: 8661 3fbe 0e1b 083e ac41 1d3e b345 253d
00000180: c65a 09be 73a3 9e3e bb6b 523e faa1 babd
00000190: 101a cdbc 7aa5 8dbd 2aa5 123e a373 cb3d
000001a0: c7dc 093e 9d7f e83d 993a 66bd 4676 79bd
000001b0: 725c babd 8ab0 5fbe fba5 523e 9854 303d
000001c0: 3cee 7bbd ef8c f53d b0d9 623d b474 3cbe
000001d0: 0410 233d 9121 ddbd 8c3b 91bc 9988 e03c
000001e0: 6e45 ad3d 1173 3bbe fbd3 a53d d460 a5bc
000001f0: e52a 4c3e 6590 d4bb d86c de3d 63fb 8c3e
00000200: 615f 29be 833e f43d 8fab 96be 97da 883d
00000210: 9678 a9bd f1ee ae3d f83a 0b3e 50a4 bd3c
00000220: 7746 35bd be77 1cbc d35b 3eba 592e 293e
00000230: e221 87bd 2325 20be 8ca9 24be 67b7 f1bd
00000240: a8a7 b6bb b246 273e 66aa 83bd 02c1 f43d
00000250: c3bc 93bd 8ca1 2fbc d66f 9e3e ea26 343d
00000260: 653d cabd 9d69 2fbe dac8 1cbe bf82 c03d
00000270: 602f c33d f31c 183e 3910 6c3e a5d3 e8bd
00000280: 3ebd 363a 7715 353e c83d f6bd 9ecd 9dbe
00000290: 540e 123d 2c38 f13d 4249 88bc d476 59bc
000002a0: fdc8 63be ddff a13d a86d c93d e32e b9bd
000002b0: 3b48 03bd ef38 0e3d 9f29 553e 3091 2ebd
000002c0: 6deb 013e 4a4b 18bd c1cb 7bbe 40d2 c13b
000002d0: b103 0cbe 6470 703e 5152 493d a900 443e
000002e0: 06fe b1bd f7fd e4bd 1a09 033e 6315 1d3d
000002f0: 1220 303e 5ca5 3f3e daed a0bc 2de0 26bc
00000300: 601a 2c3d 122d 3d3d ee80 2e3c 3b9c 5bbe
00000310: 2a88 dd3c 222b a5bd 5273 4cbe e24f a8bd
00000320: 97da c53c 408a 8abd 8eb1 323d efef 00bc
00000330: 3cde 4bbd 378a 003e 1d7e d53d aeec 50bd
00000340: 4004 93be 0160 043d 0749 2e3e 78de 93bd
00000350: 0156 a63d 0a76 2f3e ea96 e63c 7a05 c2bd
00000360: 952d 45bd c8e9 153b 8ef9 cd3c cf02 4c3d
00000370: 14c5 0c3e c1db 453e 0f05 15bd e8b7 5dbd
00000380: b0f0 8ebd 9ee0 e5bd fa8c ff3c 38e1 0b3e
00000390: 21dc 443e 75b1 7b3b 0f78 ee3d 7f16 22be
000003a0: 3020 893e f384 6f3d 839d ac3d d284 8cbb
000003b0: 5d0b 32be 5289 043e c4e2 993d 36d7 85be
000003c0: 5e79 9ebd 04cd 053d 3343 1dbe 2eb9 22be
000003d0: d360 b9bd f0a0 573e e70f 1fbe 1cd9 bf3d
000003e0: 079e e4bd 6caf 7fbd 73d4 09be a600 443e
000003f0: 947e 89bd a7c7 a23d c7ad b9bd 3d6a 44bd

actor.2.bias f4 [128]
-0.00549091 0.0053631966 -0.0014022515 0.0039290604 0.0024414058 0.005062176 0.0036951571 -0.0016131665
-0.0013196258 -0.00015827865 -0.00093645963 0.0065649017 0.004129681 -0.0059411866 -0.0017941693 -0.0026350655
0.0034673223 -0.0040236292 -0.004692989 -0.005487788 0.0030593495 0.006096948 0.00197156 -0.0037014699
0.003062206 0.0007922568 6.753138e-05 -3.2473723e-05 0.0030122665 0.00037607076 0.0035407895 -0.00096856494
-0.0019699093 -0.0038464093 -0.0045655384 0.0028347005 -0.0028211605 -0.0037077894 0.002855164 0.001573433
0.00144207 -0.0024559624 -0.0031874403 -0.0011601769 -0.0059870942 0.00091735687 -0.0022027662 -0.0018598802
-0.0036463852 -0.0030148542 0.0015305359 0.00010373061 0.0014194454 -0.0045105824 0.0028204932 0.0014421081
-0.0034751035 0.0048061716 0.004609097 -0.0024258136 0.0033448369 -0.0008539232 -0.0045210314 -0.002362133
0.0026508637 0.0031553952 -0.00078261056 0.001824943 0.0065456047 -0.0026043989 -0.0058180275 -0.001248242
-0.0005679647 -0.003432321 -0.0038334224 -0.002717904 -0.0024770994 4.2423922e-05 0.005730215 -0.002187992
-0.0053541763 0.0015594156 -0.0055881734 -0.0007327067 -0.0016895981 0.0011880775 -0.003198926 -0.005118513
-0.0035064241 -0.00419409 0.0023999861 -0.0039906004 -0.0021424035 -0.0011483168 0.0036547363 -0.00041566903
-0.00259297 0.0016984479 0.0045667114 0.0011756857 -0.0036457374 -0.0035781402 -0.004019841 0.003705223
0.0027255937 -0.0035289607 -0.002133429 -0.00010245285 -0.0037114 -0.001681835 0.005984815 0.00018626578
-0.0031732284 -0.0001912782 0.0010315025 0.0020779169 -0.0036772501 0.0010819619 0.0012927317 -0.0005906195
-0.0063411673 -0.0012432138 0.0014964679 -0.0062746047 0.0043303035 -0.0011031621 -0.0045451685 -0.0035702034
00000000: 17ed b3bb c1bd af3b c1cb b7ba 59bf 803b
00000010: feff 1f3b 9ce0 a53b 732a 723b e370 d3ba
00000020: 4bf7 acba 9af7 25b9 be7c 75ba 631e d73b
00000030: 4652 873b 49ae c2bb 552a ebba 10b1 2cbb
00000040: 043c 633b a6d8 83bb a5c7 99bb e7d2 b3bb
00000050: 5e7f 483b e8c8 c73b 4a35 013b 5c94 72bb
00000060: 4baf 483b 74af 4f3a a29f 8d38 6534 08b8
00000070: 7269 453b 5d2b c539 970c 683b 4be7 7dba
00000080: 9819 01bb 0a14 7cbb 839a 95bb 62c6 393b
00000090: 38e3 38bb 62fe 72bb b41d 3b3b a73b ce3a
000000a0: d703 bd3a 36f4 20bb 60e4 50bb 1411 98ba
000000b0: 632f c4bb c77a 703a 495c 10bb 39c7 f3ba
000000c0: 31f8 6ebb dc94 45bb 439c c83a f289 d938
000000d0: af0c ba3a 82cd 93bb 06d8 383b 1e05 bd3a
000000e0: 90be 63bb 177d 9d3b e807 973b 66fa 1ebb
000000f0: 0d35 5b3b d1d9 5fba 2925 94bb 04ce 1abb
00000100: 1dba 2d3b bfca 4e3b 1b28 4dba ed32 ef3a
00000110: 837c d63b 90ae 2abb 27a5 bebb 0d9c a3ba
00000120: 77e3 14ba caf0 60bb 283a 7bbb dd1e 32bb
00000130: d556 22bb 57f0 3138 87c4 bb3b 6a64 0fbb
00000140: 1672 afbb 4e65 cc3a ff1c b7bb 1d13 40ba
00000150: 8175 ddba 44b9 9b3a 13a5 51bb 33b9 a7bb
00000160: 09cc 65bb 946e 89bb 1649 1d3b 95c3 82bb
00000170: 9167 0cbb 1e83 96ba 4d84 6f3b 27ee d9b9
00000180: d1ee 29bb 749e de3a 5aa4 953b 7719 9a3a
00000190: 53ed 6ebb 3b7f 6abb dfb8 83bb 54d3 723b
000001a0: e09f 323b 2346 67bb 00d1 0bbb f4db d6b8
000001b0: f63a 73bb 0571 dcba 441c c43b 5750 4339
000001c0: f0f5 4fbb da91 48b9 7b33 873a a92d 083b
000001d0: 05fe 70bb 9ed0 8d3a e170 a93a ced3 1aba
000001e0: 91c9 cfbb 55f3 a2ba 2125 c43a 339b cdbb
000001f0: 38e5 8d3b fa97 90ba a3ef 94bb 13fa 69bb

actor.4.weight f4 [64, 128]
-0.0057166163 0.041351788 -0.0021218131 0.1060844 0.0005170398 0.021020947 0.1089914 0.10521186
0.08507606 0.039233673 -0.15094893 -0.10123078 -0.08853003 0.06508516 -0.107535355 -0.175599
-0.14278449 0.1438979 0.10432889 0.2403697 0.016488342 0.09742594 0.028349457 0.06284722
0.20177443 -0.18671432 -0.22432244 0.11329449 -0.072484836 -0.07035103 0.124708176 -0.20872347
-0.17774864 -0.2401182 -0.103865996 0.024654483 -0.11841291 -0.061713845 0.21439202 -0.1436688
0.2720699 0.12068628 -0.060402814 0.005955494 -0.105912775 0.2349664 -0.1457041 0.06281514
0.1270637 0.096344225 0.03411838 0.007525816 0.20807682 0.02706583 -0.045931157 -0.10423036
0.074945614 -0.083329074 -0.1292623 -0.078980036 -0.24247618 -0.08390631 -0.1378685 -0.13555105
0.09634952 -0.018530365 -0.15496184 -0.046741817 0.11203356 0.07819775 -0.16055517 0.17468502
-0.07123787 -0.09592276 -0.0977981 -0.0064626546 0.05760368 0.068576634 -0.05095112 0.14975743
-0.11316234 0.070419855 -0.2028286 0.11352985 0.10125413 0.16453843 -0.12435673 0.0018832545
0.07978833 0.021806506 0.16326976 0.133669 -0.12241035 -0.016228886 -0.14111376 -0.07226443
-0.057148166 -0.08749347 0.08167206 -0.054478746 0.19587171 -0.13118953 -0.0023590408 -0.03866482
0.20863 -0.08712884 -0.027526794 0.11052306 0.11058522 0.027468989 0.10289896 -0.07360561
0.037491184 -0.25165352 -0.16076936 -0.39664018 -0.01754731 0.08413702 0.15405637 -0.16474497
0.06153414 -0.10872844 0.02544171 0.0968599 0.13838618 -0.114072144 -0.18968591 -0.03832945
0.08308459 0.09229018 -0.111522 0.056825835 -0.075305335 -0.0042078285 -0.04543928 0.077983044
0.034304526 0.020107018 0.022691809 0.017596073 0.0057030856 -0.06541853 0.1356949 0.04676816
-0.029567637 -0.041317753 0.1456592 0.15935321 -0.016984897 0.0038966818 -0.11920153 0.06540649
0.10564146 0.080053724 -0.095178545 -0.03909855 0.09862345 -0.012889386 -0.20492111 -0.023253057
0.12581095 0.10406483 0.018956477 0.20024085 -0.22739834 -0.2917154 -0.110418744 0.04016859
-0.15131047 0.10269148 0.14398792 0.073654324 -0.021677043 -0.11193275 0.0403564 0.03730203
0.12508178 -0.0642923 -0.0044546816 -0.18101427 0.18871959 0.038677078 -0.21999024 0.07399625
0.20707233 0.16820988 0.06514354 -0.0065350356 0.018527322 -0.14347112 0.06872671 0.1505555
-0.06508834 -0.28759253 0.05289606 0.19594236 -0.12669547 -0.043335054 0.0765847 0.043718673
0.090606414 0.0057711997 -0.028273724 -0.036684062 -0.15351173 -0.012556434 -0.097913496 -0.0044168415
0.21588594 -0.07009668 -0.16579176 0.086044125 -0.032028116 0.15792903 0.11877294 0.07955967
0.29385638 -0.045788635 0.25355557 0.03994287 0.10351726 -0.09388754 0.08528078 0.13878573
0.15039144 0.020828633 0.0965686 0.21088246 0.20823778 0.00067784317 -0.19096081 -0.05772896
-0.11130998 -0.04595406 0.24143198 0.076276205 -0.14027251 -0.31179246 -0.10053385 0.07277862
0.23400462 0.11616809 0.006933859 -0.13813756 -0.16000105 -0.054483198 0.04910794 -0.06477123
-0.18844676 0.20329551 0.092476286 0.2872778 -0.09780148 -0.016319793 -0.10210669 0.036813293
00000000: 7452 bbbb 7e60 293d 1e0e 0bbb c742 d93d
00000010: f489 073a 1f34 ac3c e236 df3d 5179 d73d
00000020: 5b3c ae3d 7db3 203d 5b92 1abe 1552 cfbd
00000030: 3b4f b5bd 5e4b 853d 7f3b dcbd 39d0 33be
00000040: 1936 12be f959 133e 63aa d53d 7a23 763e
00000050: 8f12 873c 4087 c73d 1f3d e83c 0bb6 803d
00000060: f59d 4e3e 0a32 3fbe c8b4 65be f106 e83d
00000070: ee72 94bd 3314 90bd 0067 ff3d 9bbb 55be
00000080: bd03 36be 8ce1 75be b2b7 d4bd 33f8 c93c
00000090: 7882 f2bd a8c7 7cbd 9589 5b3e ea1d 13be
000000a0: bf4c 8b3e 5e2a f73d f168 77bd 4e26 c33b
000000b0: cce8 d8bd 089b 703e 7533 15be 39a5 803d
000000c0: fd1c 023e 1f50 c53d b7bf 0b3d 1f9b f63b
000000d0: 1712 553e 29b9 dd3c 4f22 3cbd ba76 d5bd
000000e0: 167d 993d 6fa8 aabd 565d 04be 49c0 a1bd
000000f0: ad4b 78be 12d7 abbd 662d 0dbe e5cd 0abe
00000100: e652 c53d fecc 97bc 51ae 1ebe 5974 3fbd
00000110: da71 e53d 2426 a03d 9368 24be a1e0 323e
00000120: 29e5 91bd 2773 c4bd 5f4a c8bd adc4 d3bb
00000130: d6f1 6b3d e871 8c3d 1fb2 50bd 035a 193e
00000140: a8c1 e7bd 4938 903d 4db2 4fbe 5782 e83d
00000150: 535e cf3d c37c 283e beae febd 89d7 f63a
00000160: 1068 a33d 8fa3 b23c 3030 273e 87e0 083e
00000170: 47b2 fabd 71f2 84bc 2080 10be 60ff 93bd
00000180: 3214 6abd c72f b3bd ae43 a73d 1b25 5fbd
00000190: 9892 483e 8c56 06be 239a 1abb 015f 1ebd
000001a0: 1aa3 553e 9b70 b2bd df7f e1bc ea59 e23d
000001b0: 817a e23d a506 e13c b1bc d23d 8abe 96bd
000001c0: 5b90 193d bbd8 80be b9a0 24be 6c14 cbbe
000001d0: 60bf 8fbc 0850 ac3d f4c0 1d3e e8b2 28be
000001e0: 390b 7c3d 04ad debd 226b d03c 7c5e c63d
000001f0: 1bb5 0d3e a89e e9bd 063d 42be 57ff 1cbd
00000200: 4128 aa3d a202 bd3d a565 e4bd 35c2 683d
00000210: af39 9abd d3e1 89bb 8a1e 3abd 93b5 9f3d
00000220: e782 0c3d 79b7 a43c 2ce4 b93c a425 903c
00000230: f3e0 ba3b 26fa 85bd 9bf3 0a3e f88f 3f3d
00000240: d437 f2bc ce3c 29bd af27 153e 7d2d 233e
00000250: e923 8bbc 795f 7f3b ef1f f4bd d6f3 853d
00000260: 8d5a d83d 35f3 a33d f8ec c2bd cd25 20bd
00000270: 17fb c93d 012e 53bc d7d6 51be 327d bebc
00000280: 96d4 003e f11f d53d 9d4a 9b3c f00b 4d3e
00000290: 1cdb 68be b95b 95be 3923 e2bd d287 243d
000002a0: 22f1 1abe e94f d23d 9271 133e 14d8 963d
000002b0: 0e94 b1bc ff3c e5bd c14c 253d 03ca 183d
000002c0: 7015 003e aeab 83bd 94f8 91bb ce5b 39be
000002d0: b53f 413e db6b 1e3d 1f45 61be 598b 973d
000002e0: c50a 543e 363f 2c3e fa69 853d da23 d6bb
000002f0: 9cc6 973c 18ea 12be 97c0 8c3d 392b 1a3e
00000300: 094d 85bd 543f 93be 8aa9 583d 1da5 483e
00000310: 75bc 01be 1980 31bd 70d8 9c3d 5a12 333d
00000320: db8f b93d 551c bd3b 4c9e e7bc 0742 16bd
00000330: 2e32 1dbe 80b9 4dbc df86 c8bd 27bb 90bb
00000340: 3411 5d3e d98e 8fbd 51c5 29be e737 b03d
00000350: ea2f 03bd 26b8 213e 3a3f f33d 2ef0 a23d
00000360: 5874 963e dd8c 3bbd 09d2 813e 239b 233d
00000370: db00 d43d 1c48 c0bd b1a7 ae3d d91d 0e3e
00000380: 3700 1a3e cfa0 aa3c c2c5 c53d 92f1 573e
00000390: 493c 553e 49b1 313a 3b8b 43be 3475 6cbd
000003a0: 7df6 e3bd 533a 3cbd f239 773e b336 9c3d
000003b0: 99a3 0fbe 43a3 9fbe b1e4 cdbd f50c 953d
000003c0: e89e 6f3e 89e9 ed3d 6d35 e33b ef73 0dbe
000003d0: 51d7 23be c629 5fbd 6825 493d c7a6 84bd
000003e0: 30f8 40be b32c 503e 3564 bd3d 1316 933e
000003f0: 244c c8bd 16b1 85bc 501d d1bd 89c9 163d

actor.4.bias f4 [64]
0.004570249 -0.0023818081 -0.0037250821 0.0022277997 0.00056363485 0.0023456672 -0.0018662979 -0.0018690585
0.0033876162 -0.0029366496 0.003964055 -0.0012887773 -0.0045817834 -0.001792677 0.0019187563 0.0042060125
0.0034905132 -0.0002480379 0.0035998905 -0.0072755944 0.00061469595 -0.000469065 -0.004518549 -0.0033955867
-0.0033508176 0.0031890923 0.0032708668 0.0038027402 -0.006156994 0.0011505522 0.0049792603 0.004948012
-0.0027323933 -0.004352786 -0.0009857027 0.002128352 0.003049892 0.002786728 0.0018659685 0.0019264892
-0.0016447164 -0.0016780847 0.002604622 -0.0007013878 -0.001678601 0.0028261722 0.0037213967 -0.00047801042
-0.0039283023 0.0030016745 8.474133e-05 -0.0041644634 0.0033699325 0.0045096143 0.0014118018 -0.0061655366
-0.0035520333 0.0046767103 -0.0027743594 -0.0026339262 0.002419172 -0.0017738056 0.0047851317 -0.0040467964
00000000: 07c2 953b 1c18 1cbb 8220 74bb 4700 123b
00000010: e5c0 133a c4b9 193b 919e f4ba 32fb f4ba
00000020: c502 5e3b ce74 40bb e7e4 813b 31ec a8ba
00000030: c922 96bb 42f8 eaba c77e fb3a 97d2 893b
00000040: 18c1 643b 150b 82b9 24ec 6b3b 1c68 eebb
00000050: 8c23 213a d7ec f5b9 5610 94bb 7e88 5ebb
00000060: 6499 5bbb 1700 513b 0a5c 563b 6537 793b
00000070: 9cc0 c9bb 20ce 963a 1029 a33b ef22 a23b
00000080: f411 33bb d1a1 8ebb b232 81ba d27b 0b3b
00000090: b2e0 473b 8aa1 363b 8393 f43a 4082 fc3a
000000a0: 8693 d7ba 2ef3 dbba 4eb2 2a3b 57dd 37ba
000000b0: 8104 dcba 4d37 393b ade2 733b 799d fab9
000000c0: fdb8 80bb beb7 443b 28b7 b138 0d76 88bb
000000d0: 16da 5c3b 63c5 933b 350c b93a 4508 cabb
000000e0: 3bc9 68bb 173f 993b 07d2 35bb f39d 2cbb
000000f0: f98a 1e3b 0a7f e8ba 98cc 9c3b fd9a 84bb

actor.6.weight f4 [3, 64]
-0.0017251472 0.0015072669 -0.004355174 0.0019843471 0.0020532848 0.0029076177 0.00013035131 -0.0035187441
0.001775492 -0.0070769 0.0008723659 0.0029641332 -0.001544879 -0.0010387495 0.0005153204 -0.0036096924
0.002604768 -0.002019997 -0.000839876 0.0016165482 0.0026727237 0.0021123758 0.000354976 0.006058858
-0.0010325764 -0.0037159072 0.0007907589 0.0009501015 -0.0009079076 5.5761475e-06 0.0023528188 0.0030754444
-0.0023003197 -0.0017477315 0.0018379885 0.0028057306 0.003610953 0.0029335136 0.0021798268 0.0022418275
0.0004351548 -0.004563964 -0.001883504 0.00073194166 -0.006023412 0.003912199 0.0027324874 -0.0046712197
-0.00021010534 0.0024820988 -0.0059302873 -0.0008209794 -0.00023499064 7.60598e-05 0.0042325505 0.00323544
-0.0032647224 -0.002540475 0.0032318449 -0.0017470227 0.0038088853 0.0032346412 0.0018067416 0.0015748258
-0.0037950347 0.00022945984 0.0069583724 -0.0025368284 -0.0011341099 -0.0036076866 -0.0015577993 0.0023456872
-0.001085425 0.0042536603 -0.0034109168 -0.008440546 0.0024402947 -0.00070505857 -0.008213531 0.0004188048
-0.006523053 -0.0015840207 -0.001636941 0.003072602 -0.0001311208 0.0026937001 0.0038584187 -0.0017134795
0.003448266 -0.0051219906 -0.00032415797 -0.004879134 0.008338261 0.001435593 -0.0028171916 -0.0030418583
0.0052878666 0.0037597509 0.0018411455 -0.00420551 -0.006779079 -0.00039601597 -0.0061057163 0.006493634
0.0023357577 0.0049585025 -0.0025920703 -0.0010498202 0.0013530825 0.001410509 -0.0012801138 0.0054862476
0.0033342962 -0.0068690763 0.00461276 0.00018780144 -0.0040311324 -0.0060342066 -0.00046268702 0.004771852
0.003820068 -0.0018787931 0.0030603742 0.004795267 -0.0066308444 0.0032846483 -0.0026680839 0.0033143784
0.0053648907 -6.738984e-06 -0.0035544904 0.0028949233 -0.00026489532 0.0061524585 -0.0003733292 0.0016492405
-0.0020749327 0.00069525494 0.004069792 0.0046045217 0.0017175544 0.0012540995 0.007949178 0.004964849
0.0012449017 0.001702446 0.0020859079 -0.0031152458 0.001146576 -0.0030914263 -0.0030852798 -0.005740666
-0.006375075 0.0046981876 -0.0002017187 0.0017631539 -0.004783191 0.0018852958 -0.001252207 -0.0010319299
-0.004845641 -0.0036036018 -0.0029256903 0.0014572337 0.0044113635 0.0024000735 0.0024519528 -0.008016742
-0.0020099222 -0.001595395 0.0062453826 0.0016532178 -0.0001011308 -0.0044531026 0.001891314 -0.00023085852
-0.001880235 0.006695683 0.004561868 -0.004352364 0.006158803 0.00831609 -0.0033980669 -0.005467134
-0.0035074612 0.0028502396 -0.008833181 0.0016152587 0.003804622 -0.004029094 0.008054155 -0.005852403
00000000: 561e e2ba 7c8f c53a d9b5 8ebb d20b 023b
00000010: 6790 063b bb8d 3e3b eaae 0839 bb9a 66bb
00000020: a0b7 e83a 57e5 e7bb 7caf 643a e741 423b
00000030: 8a7d caba a626 88ba 9116 073a 9790 6cbb
00000040: c1b4 2a3b ed61 04bb 202b 5cba 5be2 d33a
00000050: dd28 2f3b c96f 0a3b 121c ba39 6289 c63b
00000060: 8457 87ba 9486 73bb ee4a 4f3a 3b10 793a
00000070: a600 6eba be1a bb36 c031 1a3b 658d 493b
00000080: f6c0 16bb 2314 e5ba a9e8 f03a 59e0 373b
00000090: bda5 6c3b 3140 403b 6ddb 0e3b a0eb 123b
000000a0: 7d25 e439 4e8d 95bb e8df f6ba c6df 3f3a
000000b0: 0b60 c5bb e731 803b 8813 333b 0811 99bb
000000c0: b94f 5cb9 b5aa 223b db52 c2bb ff36 57ba
000000d0: d267 76b9 4b82 9f38 35b1 8a3b ad09 543b
000000e0: f4f4 55bb 197e 26bb 5ccd 533b 5bfc e4ba
000000f0: 7e9e 793b 46fc 533b 30d0 ec3a 636a ce3a
00000100: 1eb6 78bb 289b 7039 0f03 e43b eb40 26bb
00000110: 6aa6 94ba f06e 6cbb 122f ccba 1aba 193b
00000120: d244 8eba 4a62 8b3b b089 5fbb 374a 0abc
00000130: 5aed 1f3b aed3 38ba 0c92 06bc 0793 db39
00000140: 56bf d5bb ea9e cfba a08e d6ba b55d 493b
00000150: 797d 09b9 ca88 303b 86dd 7c3b d596 e0ba
00000160: 4efc 613b 5fd6 a7bb bff3 a9b9 24e1 9fbb
00000170: 349d 083c 822a bc3a a2a0 38bb ea59 47bb
00000180: d745 ad3b 2766 763b 9752 f13a 60ce 89bb
00000190: 0923 debb 5da0 cfb9 7612 c8bb 8dc8 d43b
000001a0: 8313 193b ef7a a23b b9df 29bb 1f9a 89ba
000001b0: ea59 b13a d4e0 b83a 7ec9 a7ba fbc5 b33b
000001c0: 3584 5a3b fd15 e1bb a326 973b 91ec 4439
000001d0: 9717 84bb 98ba c5bb cd94 f2b9 325d 9c3b
000001e0: 1b5a 7a3b d641 f6ba 8f90 483b 9d21 9d3b
000001f0: 8e47 d9bb 4143 573b 05db 2ebb 0b36 593b
00000200: f7cb af3b 6f1f e2b6 74f2 68bb c1b8 3d3b
00000210: a6e1 8ab9 909a c93b 66bb c3b9 542b d83a
00000220: 98fb 07bb c541 363a e45b 853b 87e1 963b
00000230: 901f e13a 9960 a43a 453d 023c 2cb0 a23b
00000240: f82b a33a 9c24 df3a bab3 083b 2729 4cbb
00000250: b548 963a 8799 4abb 6832 4abb 321c bcbb
00000260: 01e6 d0bb 41f3 993b 7484 53b9 a119 e73a
00000270: 50bc 9cbb 081c f73a 1821 a4ba d241 87ba
00000280: 2fc8 9ebb 682a 6cbb f0bc 3fbb a600 bf3a
00000290: 338d 903b 8d4a 1d3b f1b0 203b a758 03bc
000002a0: e6b8 03bb 931c d1ba 11a6 cc3b c9b0 d83a
000002b0: 2f16 d4b8 55eb 91bb f8e5 f73a 9d12 72b9
000002c0: 3872 f6ba 7667 db3b b97b 953b 479e 8ebb
000002d0: c9cf c93b 3640 083c 1ab2 5ebb a525 b3bb
000002e0: 6fdd 65bb 16cb 3a3b 0cb9 10bc 17b7 d33a
000002f0: f756 793b 7d06 84bb 93f5 033c 84c5 bfbb

actor.6.bias f4 [3]
0.0016001196 -0.0043479246 0.004893293
00000000: 1bbb d13a 0979 8ebb eb57 a03b

critic.0.weight f4 [64, 1176]
0.020049311 -0.07064345 -0.023348464 -0.073992155 0.05480172 -0.0345519 -0.060320616 0.017183779
-0.009581188 0.033154506 -0.050344124 -0.031850006 0.004783319 -0.03913793 0.04662221 -0.0024580958
0.06420012 -0.00560045 -0.09280153 -0.00879701 -0.00067761895 0.027901137 -0.016296674 0.004801285
0.09734591 -0.046330433 -0.07587514 -0.019031111 -0.060720854 0.024708843 -0.029104022 -0.089016005
0.0031415243 -0.0036231445 0.037251562 -0.011711992 0.023384193 -0.0063346424 -0.06160594 -0.03180552
-0.036807004 -0.02161566 0.030729497 0.0657293 0.053084023 -0.0384603 0.04614211 -0.012733754
0.057462268 -0.01845592 0.12028164 0.0058393637 0.018504797 -0.040042423 -0.030341202 0.0076453076
-0.030618068 -0.015583748 -0.021352455 0.049342833 -0.008169026 0.031784873 -0.020712508 0.02644582
0.012045063 0.08356866 0.045797322 -0.029435208 0.051581107 -0.0428517 -0.037772052 -0.024098951
0.036528815 0.022235721 -0.015883945 0.04306929 0.013640447 -0.04422208 0.05442712 -0.029493114
-0.058305662 0.0005000491 -0.08106524 0.02431485 -0.052923806 -0.042011686 -0.03329003 -0.0032225884
0.020152045 -0.014321903 -0.026351772 -0.028795194 0.018036054 -0.030661069 -0.022324113 -0.029287076
-0.028605347 0.029191054 -0.025935141 0.023834055 0.009428081 -0.08866229 -0.015832482 0.040284146
0.05402638 -0.033624694 -0.03596907 0.09550911 -0.0060001533 0.047051214 -0.0062040607 -0.018965358
0.013401485 0.02485303 -0.04719479 -0.07670679 0.037071258 0.021015774 0.069570675 -0.057217564
0.04081075 0.049008396 0.026079418 -0.038991027 -0.085830845 0.07836061 -0.039158277 0.008586594
-0.029734146 0.054783095 0.006988664 -0.040232625 -0.022349777 0.04863004 0.066962145 -0.05124595
-0.1141978 0.042955473 0.057725202 -0.030732531 0.099629484 0.06716291 0.0010669217 0.034624245
0.044079453 0.04254754 0.040813364 -0.019027146 0.005219669 0.05437806 -0.062075198 0.02017583
0.02415589 0.010493082 -0.017751742 -0.0023657305 0.06343806 0.021960227 -0.050137978 0.003387077
0.041015822 0.003934135 -0.054146033 -0.0061886567 0.016057478 0.03985192 -0.047803096 -0.053849086
0.04847558 -0.01620268 -0.045108654 0.05324124 0.002960613 -0.012572635 0.041417807 -0.074051976
-0.033875532 0.025861492 -0.027965939 -0.018253488 0.025608731 0.015426975 0.015887149 -0.09353986
-0.0267366 -0.00625613 0.027088279 0.029757991 0.024973657 -0.0017682409 -0.01202876 0.009688446
-0.01262188 0.0018518833 -0.04835039 -0.016324153 -0.011154012 0.04599211 -0.051123254 0.057470817
-0.06435476 0.012197811 0.0017752647 0.025424883 0.09156804 0.04764292 -0.0061599975 -0.04624149
0.069522485 0.034110565 -0.078572944 0.024789063 0.09731422 0.00090996485 0.021556562 0.00877733
-0.011550394 -0.019105213 -0.04693088 -0.01559923 0.0023688762 -0.056337982 0.080611125 -0.0072942586
0.05134612 0.0013732017 -0.023859838 -0.027894322 -0.023097338 0.08036122 0.028126985 0.052534446
-0.032537103 -0.012199643 -0.035085097 -0.04073279 0.0060383184 0.021400271 0.0649657 -0.044795554
-0.07800932 0.05016191 -0.016048461 0.009193821 0.066971 0.074304245 0.015697494 0.011085906
0.013154917 0.02092153 0.08798581 0.03017543 0.0496718 -0.010047124 0.042879548 0.005498248
00000000: 743e a43c 83ad 90bd 4745 bfbc 3389 97bd
00000010: c577 603d 4b86 0dbd c012 77bd ffc4 8c3c
00000020: 6afa 1cbc 05cd 073d a435 4ebd 2775 02bd
00000030: 63bd 9c3b 184f 20bd eef6 3e3d 0118 21bb
00000040: 5a7b 833d fb83 b7bb bb0e bebd 5621 10bc
00000050: 3da2 31ba ed90 e43c 9a80 85bc 1954 9d3b
00000060: 4b5d c73d fbc4 3dbd 6d64 9bbd 22e7 9bbc
00000070: 6eb6 78bd 336a ca3c 8f6b eebc 064e b6bd
00000080: 08e2 4d3b 4772 6dbb 1895 183d a8e3 3fbc
00000090: 3590 bf3c d592 cfbb 8356 7cbd 8146 02bd
000000a0: f1c2 16bd 5313 b1bc 6dbc fb3c 159d 863d
000000b0: a26e 593d 8c88 1dbd 82ff 3c3d 3ca1 50bc
000000c0: 8e5d 6b3d df30 97bc 3856 f63d 2258 bf3b
000000d0: 5f97 973c 8603 24bd 1d8e f8bc 7d85 fa3b
000000e0: bed2 fabc fa52 7fbc 58eb aebc b61b 4a3d
000000f0: 61d7 05bc db30 023d 47ad a9bc e8a4 d83c
00000100: a858 453c 0c26 ab3d f995 3b3d 1b22 f1bc
00000110: b646 533d 4485 2fbd deb6 1abd 2a6b c5bc
00000120: 3d9f 153d b027 b63c 0c1f 82bc 6d69 303d
00000130: 2e7c 5f3c 3622 35bd f9ee 5e3d 8b9b f1bc
00000140: ebd1 6ebd ba15 033a 8805 a6bd f02f c73c
00000150: a2c6 58bd 7214 2cbd 205b 08bd 1032 53bb
00000160: e715 a53c 6aa6 6abc acdf d7bc e6e3 ebbc
00000170: 59c0 933c ec2c fbbc 0fe1 b6bc 73eb efbc
00000180: c355 eabc 1422 ef3c ef75 d4bc a33f c33c
00000190: 3d78 1a3c 9394 b5bd 1fb3 81bc fd00 253d
000001a0: c44a 5d3d 0cba 09bd 4e54 13bd 489a c33d
000001b0: ef9c c4bb c6b8 403d 6f4b cbbb 3d5d 9bbc
000001c0: e791 5b3c 9598 cb3c 534f 41bd 7318 9dbd
000001d0: 08d8 173d 4629 ac3c 127b 8e3d f75c 6abd
000001e0: 2c29 273d 07bd 483d 81a4 d53c 0eb5 1fbd
000001f0: 15c8 afbd 877b a03d 6e64 20bd c9ae 0c3c
00000200: 0695 f3bc 3d64 603d 2a01 e53b f7ca 24bd
00000210: e116 b7bc 4b30 473d 7323 893d 46e7 51bd
00000220: 89e0 e9bd 14f2 2f3d 4371 6c3d cac2 fbbc
00000230: 8b0a cc3d b58c 893d f4d7 8b3a 27d2 0d3d
00000240: a88c 343d 5446 2e3d ea2b 273d d1de 9bbc
00000250: c209 ab3b 87bb 5e3d 9042 7ebd c847 a53c
00000260: 93e2 c53c 2deb 2b3c 1a6c 91bc 5f0a 1bbb
00000270: d0eb 813d efe5 b33c 7b5d 4dbd b9f9 5d3b
00000280: 3500 283d ebe9 803b 3bc8 5dbd 37ca cabb
00000290: f98a 833c c43b 233d 2ecd 43bd dc90 5cbd
000002a0: 548e 463d 7cbb 84bc dac3 38bd 7d13 5a3d
000002b0: d806 423b 74fd 4dbc b8a5 293d 90a8 97bd
000002c0: 12c1 0abd 7bdb d33c d318 e5bc 5788 95bc
000002d0: 67c9 d13c 6cc1 7c3c c425 823c d391 bfbd
000002e0: b706 dbbc 3900 cdbb 3de8 dd3c 08c7 f33c
000002f0: 8e95 cc3c 52c4 e7ba 4714 45bc 4abc 1e3c
00000300: 00cc 4ebc e4ba f23a 0f0b 46bd 3bba 85bc
00000310: 51bf 36bc 3962 3c3d 9e66 51bd 8566 6b3d
00000320: 6ecc 83bd 54d9 473c 00b0 e83a d847 d03c
00000330: 0688 bb3d 3925 433d ced9 c9bb b767 3dbd
00000340: ce61 8e3d 85b7 0b3d daea a0bd 6f12 cb3c
00000350: ae4c c73d b58a 6e3a 6397 b03c cace 0f3c
00000360: dd3d 3dbc 8982 9cbc 983a 40bd ea93 7fbc
00000370: 263f 1b3b a8c2 66bd 7217 a53d ad04 efbb
00000380: 4f50 523d 01fd b33a b575 c3bc a282 e4bc
00000390: a136 bdbc 6c94 a43d 906a e63c 5c2e 573d
000003a0: a045 05bd 03e1 47bc 64b5 0fbd 6dd7 26bd
000003b0: 16dd c53b 9f4f af3c bd0c 853d 8b7b 37bd
000003c0: 5ac3 9fbd 9376 4d3d 1078 83bc aea1 163c
000003d0: 1728 893d d32c 983d 0898 803c a9a1 353c
000003e0: b987 573c a163 ab3c e831 b43d 7732 f73c
000003f0: a874 4b3d b19c 24bc 77a2 2f3d a62a b43b

critic.0.bias f4 [64]
0.0061805407 -0.0076600276 0.007120697 0.0071614166 -0.006883459 -0.0072135525 0.007121847 0.0055483356
0.00091429806 -0.0060034823 0.0067839352 -0.007016328 0.004134728 0.0012913438 0.007953528 0.004021799
0.0074916324 0.0006487997 0.006347791 -0.006810306 -0.0049729915 0.0067216177 0.0066174637 -0.008108253
-0.007458577 0.006014318 -0.0054425066 0.006090346 -0.0066660764 -0.0074387207 0.0018300224 0.006553887
0.005832978 0.006435744 0.0064623146 0.0055944975 -0.0063651833 -0.0077986345 0.0005137498 -0.0032107346
-0.006063641 -0.006425398 0.007051385 0.0056938063 -0.0069782906 0.0078115105 -0.006789401 -0.006818734
-0.0069544013 0.0066687693 -0.0075230026 -0.007052155 0.0061287205 -0.006047992 -0.008025212 0.0076865177
-0.0015650011 -0.0059170155 0.006743281 0.008109643 -0.0073051127 -0.0067816055 -0.006782842 0.0068341373
00000000: 2286 ca3b f800 fbbb bc54 e93b 51aa ea3b
00000010: a48e e1bb aa5f ecbb 625e e93b d0ce b53b
00000020: 81ad 6f3a dcb8 c4bb c64b de3b 3ae9 e5bb
00000030: 9d7c 873b 4f42 a93a 844f 023c 4cc9 833b
00000040: 5e7c f53b 3614 2a3a 2101 d03b fd28 dfbb
00000050: 7af4 a2bb 0441 dc3b 4fd7 d83b 7ad8 04bc
00000060: 1467 f4bb c213 c53b 0e57 b2bb 8691 c73b
00000070: 1a6f dabb 83c0 f3bb 5ddd ef3a fdc1 d63b
00000080: 9122 bf3b efe2 d23b d3c1 d33b 0c52 b73b
00000090: 0793 d0bb b08b ffbb 2aad 063a 306b 52bb
000000a0: 82b1 c6bb 258c d2bb 4e0f e73b 1c93 ba3b
000000b0: 25aa e4bb b3f7 ff3b a079 debb b06f dfbb
000000c0: bfe1 e3bb b185 da3b 8583 f6bb c415 e7bb
000000d0: 6fd3 c83b 3c2e c6bb 2e7c 03bc 2fdf fb3b
000000e0: b920 cdba 86e3 c1bb bef6 dc3b 4fde 043c
000000f0: ba5f efbb 3b38 debb 9a42 debb e6f0 df3b

critic.2.weight f4 [128, 64]
-0.11667582 0.06477924 0.07855656 -0.07887717 -0.007385465 0.1765529 0.2670328 -0.09475502
-0.09869099 0.04586011 0.079934746 -0.16664743 0.030257838 -0.16338842 -0.03639282 0.0136871245
0.16116904 -0.022748055 -0.12464241 -0.10216471 0.058361158 0.119869 -0.2472645 0.0039688474
0.02594053 -0.07841983 0.053851925 0.022354573 -0.012952581 -0.19279344 -0.09010725 0.23106244
0.16722612 -0.1766935 0.1664668 0.012380309 -0.011097988 -0.25216335 -0.14163487 -0.2167495
0.055733625 -0.053606354 -0.09557681 -0.08819285 -0.06307362 0.20905203 -0.0093145305 0.121522844
0.026168337 -0.10150542 -0.071147874 0.0028291093 -0.1359317 0.03314631 -0.1556293 0.21441132
-0.0018312361 0.013737163 0.07717603 0.07066969 -0.053445186 0.09412751 -0.07656801 -0.11862246
0.05831591 -0.14295052 0.19963577 0.18792473 0.13347831 -0.05289076 0.014585238 0.009332178
-0.10716068 -0.05770769 -0.061368383 0.02525599 -0.1246707 -0.0031596967 0.061928894 -0.07412395
0.002463775 0.15514311 -0.14588201 -0.1465085 -0.060700633 -0.06274686 -0.07641155 0.0664276
-0.09777076 -0.02954983 0.11008465 0.052602675 0.030513197 0.057466473 0.046976496 -0.0948035
-0.18252128 0.0068494864 0.21905904 0.035756387 -0.18632916 0.06886544 0.19988775 -0.033381972
-0.055802386 0.0706698 -0.021523884 -0.00049786293 0.19634312 -0.026380833 0.12938315 0.027486911
0.03059952 0.16482954 0.17283863 0.073505096 -0.18634507 0.12185446 -0.059472527 -0.080682635
-0.05223264 0.035089925 -0.2130278 -0.055546727 -0.13848166 -0.10272539 -0.051160224 -0.07178393
0.009044031 0.057748716 -0.11855436 -0.1996169 0.23686351 0.026952388 -0.09618389 -0.029830553
-0.13195217 -0.11542854 -0.13965225 0.09970833 0.27666873 -0.15675642 0.05940055 0.10981404
-0.03206699 -0.09595935 0.09682806 0.08355723 -0.19572525 -0.13210942 -0.11864372 0.033467215
-0.010128812 0.12552229 -0.04502311 0.09886217 0.2260092 -0.23590563 -0.04222829 0.009636193
0.1849599 -0.11158262 0.066200994 -0.07191932 -0.26262906 0.09569802 -0.024627842 -0.10223979
0.16287847 0.43681383 -0.058189396 0.15008909 0.097421415 0.000114756 -0.0871333 0.01056625
0.02876154 0.051788073 0.3662469 -0.045435473 -0.13784571 0.0025010922 0.06909839 -0.24855553
-0.056405667 0.045144536 0.008409171 0.04639693 0.17411354 0.17931499 -0.11337804 0.01591327
-0.1858027 0.024326196 0.021711478 0.04968651 -0.07420416 0.022261748 -0.069155216 0.033247873
0.25990036 0.05922137 0.0073681287 -0.012851803 0.002730447 0.15789305 -0.034102257 -0.19789526
0.25278798 0.09740806 0.3129479 0.11375323 -0.12909918 -0.018033795 0.047886115 0.033147335
-0.13142306 0.24677108 0.22130519 0.13172252 -0.10534299 -0.03603985 -0.00025309392 -0.0064472416
0.13517536 0.105263844 0.10951087 0.054377 -0.212296 -0.11425232 -0.16532737 0.003426786
-0.17429289 0.098158106 0.046456654 0.029174278 0.023215497 -0.1997489 0.19310446 -0.005082681
0.045703262 -0.02009445 0.19160385 0.04521448 0.15247892 0.14291276 -0.10944077 0.101823315
0.008870616 0.071601845 0.016266027 -0.20430455 -0.22848721 0.11267697 0.17059416 0.08631575
00000000: bbf3 eebd faaa 843d 43e2 a03d 5b8a a1bd
00000010: c501 f2bb 49ca 343e 86b8 883e ec0e c2bd
00000020: 801e cabd d0d7 3b3d d4b4 a33d a0a5 2abe
00000030: 49df f73c 4b4f 27be a310 15bd f63f 603c
00000040: 7f09 253e 215a babc 8544 ffbd bb3b d1bd
00000050: 1c0c 6f3d e17d f53d e832 7dbe 1b0d 823b
00000060: 3c81 d43c 939a a0bd d693 5c3d f020 b73c
00000070: 1037 54bc a56b 45be 268a b8bd a29b 6c3e
00000080: 533d 2b3e 24ef 34be 4676 2a3e c8d6 4a3c
00000090: 56d4 35bc 8e1b 81be bb08 11be 95f3 5dbe
000000a0: f148 643d 5692 5bbd c6bd c3bd 749e b4bd
000000b0: be2c 81bd bc11 563e f99b 18bc f8e0 f83d
000000c0: fb5e d63c 13e2 cfbd fab5 91bd 9468 393b
000000d0: ae31 0bbe 6dc4 073d 4a5d 1fbe a48e 5b3e
000000e0: 1606 f0ba d611 613c 770e 9e3d 45bb 903d
000000f0: 57e9 5abd edc5 c03d b0cf 9cbd 55f0 f2bd
00000100: aadc 6e3d 9f61 12be 526d 4c3e 576f 403e
00000110: 8aae 083e fba3 58bd ecf6 6e3c fee5 183c
00000120: 0f77 dbbd e65e 6cbd 6a5d 7bbd a6e5 ce3c
00000130: 5a53 ffbd ea12 4fbb 27a9 7d3d 4cce 97bd
00000140: 4977 213b d6dd 1e3e 1862 15be 5306 16be
00000150: 3aa1 78bd 6d81 80bd a97d 9cbd 320b 883d
00000160: 093c c8bd 7c12 f2bc 1074 e13d e775 573d
00000170: d0f6 f93c f761 6b3d 6d6a 403d 5628 c2bd
00000180: dce6 3abe a871 e03b 0351 603e 4a75 123d
00000190: 12cd 3ebe 5309 8d3d 60af 4c3e 89bb 08bd
000001a0: 0b91 64bd 54bb 903d db52 b0bc 0483 02ba
000001b0: 2c0e 493e 9e1c d8bc 047d 043e 3b2c e13c
000001c0: d8ab fa3c 13c9 283e 9cfc 303e d789 963d
000001d0: 3ed1 3ebe d58e f93d 7799 73bd f03c a5bd
000001e0: e5f1 55bd 74ba 0f3d f623 5abe f784 63bd
000001f0: 23ce 0dbe b061 d2bd 628d 51bd 7403 93bd
00000200: 6a2d 143c eb89 6c3d a1cc f2bd 5f68 4cbe
00000210: 598c 723e 41cb dc3c 0ffc c4bd 345f f4bc
00000220: 781e 07be cc65 ecbd 0001 0fbe e233 cc3d
00000230: 86a7 8d3e c184 20be fe4d 733d 2fe6 e03d
00000240: ad58 03bd 5686 c4bd ca4d c63d 0e20 ab3d
00000250: 336c 48be b147 07be 7bfb f2bd eb14 093d
00000260: 51f3 25bc ea88 003e 276a 38bd 4078 ca3d
00000270: f56e 673e 3f91 71be 92f7 2cbd 1fe1 1d3c
00000280: 2166 3d3e 6e85 e4bd 6394 873d 704a 93bd
00000290: 5177 86be 53fd c33d 54c0 c9bc 1863 d1bd
000002a0: 9dc9 263e 10a6 df3e 0158 6ebd f4b0 193e
000002b0: e184 c73d 29a9 f038 f272 b2bd 111e 2d3c
000002c0: 529d eb3c bb1f 543d b784 bb3e 8c1a 3abd
000002d0: 6d27 0dbe 5de9 233b 7583 8d3d 5785 7ebe
000002e0: a109 67bd 7ae9 383d 9fc6 093c b50a 3e3d
000002f0: d24a 323e 599e 373e bf32 e8bd 8c5c 823c
00000300: 1043 3ebe bb47 c73c 45dc b13c 1584 4b3d
00000310: 5af8 97bd 455e b63c 40a1 8dbd ec2e 083d
00000320: a911 853e 1b92 723d 5870 f13b 5e90 52bc
00000330: 4df1 323b b7ae 213e cfae 0bbd 0ea5 4abe
00000340: 6d6d 813e e17d c73d b53a a03e 74f7 e83d
00000350: 9332 04be 9cbb 93bc 3b24 443d 80c5 073d
00000360: c493 06be 8fb1 7c3e d49d 623e 45e2 063e
00000370: 11be d7bd 869e 13bd b1b1 84b9 6243 d3bb
00000380: 696b 0a3e 9294 d73d 3c47 e03d 6bba 5e3d
00000390: 1f64 59be 1ffd e9bd 944b 29be ee93 603b
000003a0: d679 32be 1e07 c93d 5549 3e3d e5fe ee3c
000003b0: 6d2e be3c fa8a 4cbe 2dbd 453e 9e8c a6bb
000003c0: 5833 3b3d 1e9d a4bc cd33 443e d232 393d
000003d0: 6f23 1c3e b957 123e 7b22 e0bd be88 d03d
000003e0: 0f56 113c fda3 923d 5540 853c 3635 51be
000003f0: 8df8 69be 2fc3 e63d 3cb0 2e3e 50c6 b03d

critic.2.bias f4 [128]
0.008623847 -0.008031846 -0.0077723246 0.0077375956 0.007835759 -0.008245332 0.007858145 0.004939212
0.006893038 0.007569461 0.0018209519 0.0051898784 0.006397141 0.008086705 0.0031249325 -0.006561475
-0.0075983545 0.007861591 0.008553301 -0.0068815667 0.008413272 0.008389211 -0.0075911405 -0.0074246973
-0.0070746606 0.0077682408 0.008082216 0.007597343 -0.0071099894 0.004826378 -0.00793853 -0.007386276
-0.007531548 -0.0071230223 -0.007160817 -0.005688487 -0.007251661 -0.007871221 0.008423202 0.0011401441
0.003537839 0.0013186795 -0.0077525424 0.008358225 -0.006908166 -0.005940494 -0.008254267 0.009007766
-0.0072400244 0.0077528744 0.006412437 -0.0080643315 -0.0065702433 0.00908986 0.007968908 -0.0072703473
-0.006888106 0.008074499 0.0010067166 0.007103509 0.007389254 -0.00812273 -0.008260174 -0.0077921944
-0.0022870968 0.0007129042 0.0063454504 -0.0060373163 -0.008721107 -0.0063493648 -0.006698924 -0.008121203
0.007627226 0.006905082 -0.008795109 0.0034592052 -0.0076939464 -0.002769924 -0.0030890417 -0.008489826
0.005004606 -0.0077468352 0.008363401 -0.0009766965 -0.008092754 0.008323537 0.0077436687 0.007179224
-0.005964087 0.0074482486 -0.007917014 0.004354912 0.0016216581 -0.007935296 0.007636641 0.008185342
-0.0060555725 -0.0075553153 0.0074432977 -0.0078503 -0.001708717 -0.008077616 -0.009334774 -0.0075139464
-0.006908912 -0.0077294055 -0.007793619 -0.008186902 -0.005496704 -0.006771705 0.008153846 0.005904235
-0.00473074 0.0073323427 -0.006953106 -0.0069502117 0.0084087 0.0059975674 -0.008163531 0.006207982
0.008479513 0.008333186 -0.0069744107 0.007825002 0.006850257 -0.0067905295 0.008621263 -0.008296795
00000000: 094b 0d3c 0198 03bc fcae febb a88b fd3b
00000010: 8e61 003c 6e17 07bc 73bf 003c 1dd9 a13b
00000020: fede e13b 3e09 f83b 02ad ee3a db0f aa3b
00000030: 1c9f d13b 197e 043c abcb 4c3b a401 d7bb
00000040: 9efb f8bb e7cd 003c 2523 0c3c c47e e1bb
00000050: d2d7 093c e772 093c 1abf f8bb e04a f3bb
00000060: 8ed2 e7bb ba8c fe3b 456b 043c 22f3 f83b
00000070: eafa e8bb 9826 9e3b 9c10 02bc 9308 f2bb
00000080: 34cb f6bb 3e68 e9bb 49a5 eabb 7d66 babb
00000090: 579f edbb 4bf6 00bc 7801 0a3c e370 953a
000000a0: 17db 673b 8bd7 ac3a 0a09 febb f0f0 083c
000000b0: e65d e2bb 7aa8 c2bb e83c 07bc 4f95 133c
000000c0: ba3d edbb d30b fe3b 6c1f d23b 4220 04bc
000000d0: 324b d7bb a3ed 143c 0690 023c 183c eebb
000000e0: 9fb5 e1bb e74a 043c cef3 833a 8dc4 e83b
000000f0: 8e21 f23b 3315 05bc ae55 07bc aa55 ffbb
00000100: 1ee3 15bb 31e2 3a3a 7fed cf3b aed4 c5bb
00000110: f9e2 0ebc 550e d0bb a682 dbbb cb0e 05bc
00000120: cfed f93b 0744 e23b 5c19 10bc d5b3 623b
00000130: 801d fcbb 9d87 35bb 8571 4abb e918 0bbc
00000140: aefd a33b 2ad9 fdbb a506 093c 7f04 80ba
00000150: 7897 04bc 725f 083c 9abe fd3b b23f eb3b
00000160: 636e c3bb 7010 f43b 5db6 01bc a6b3 8e3b
00000170: d18d d43a 0b03 02bc ca3c fa3b d01b 063c
00000180: d36d c6bb 9492 f7bb e8e6 f33b 8b9e 00bc
00000190: 07f7 dfba fa57 04bc e1f0 18bc 8d37 f6bb
000001a0: 2864 e2bb f446 fdbb 9d61 ffbb 5b22 06bc
000001b0: b21d b4bb 2ee5 ddbb b597 053c 5078 c13b
000001c0: 5304 9bbb 2644 f03b e1d6 e3bb 9abe e3bb
000001d0: a5c4 093c 3e87 c43b 55c0 05bc 546c cb3b
000001e0: a8ed 0a3c ea87 083c 9989 e4bb 7034 003c
000001f0: 1f78 e03b 1783 debb 3340 0d3c 48ef 07bc
