gym-multigrid-master/results/mappo/simple/clip_epoch_800K_noKG_fixed_rollout_128/mappo_agent_model.pth (torch, 523034 bytes, 22 tensors)

actor.0.weight f4 [64, 294]
000000 08 97 8a bd 1f aa 2c 3d 40 4b ad 3c 24 aa 10 3d
       -0.06767088 0.042154428 0.021154046 0.03531851
000010 94 d4 87 bc 78 e2 77 bd 51 fb d3 3b ad d8 4c 3e
       -0.016580857 -0.06051871 0.0064691682 0.2000453
000020 67 1e 05 3d 48 7d 68 bd 2f a8 80 bd a1 5f 8e 3d
       0.032499697 -0.056760103 -0.062820785 0.069518335
000030 b0 b9 74 3d 0e b1 d0 bc 16 b9 9d 3c 15 48 ae bd
       0.059747398 -0.025475051 0.019253295 -0.08509842
000040 7a 34 eb bd dd d6 11 bd d2 64 06 bc 09 78 06 be
       -0.114846185 -0.0356053 -0.008202748 -0.13131727
000050 e9 90 6c bc 92 b1 45 be a9 d1 87 3d bc 97 90 bd
       -0.014438846 -0.19306019 0.066317864 -0.07060191
000060 62 5e bd bd 64 b5 8e 3d c0 0c f2 3d 7b 64 85 3d
       -0.09246518 0.06968191 0.11818838 0.06513306
000070 0d e0 82 bd ae aa 99 bc 65 4d 43 be 22 c6 b8 3c
       -0.063903905 -0.018758144 -0.19072492 0.022555415
000080 d5 1a 4f 3c ac 9f 71 bd a4 88 45 bd 56 46 b0 bb
       0.012640675 -0.058990166 -0.048226014 -0.0053794784
000090 f2 53 ee 3c 5c cd 70 3d ca f2 14 3c 99 2e 52 bd
       0.029092763 0.058789596 0.009091089 -0.05131397
0000a0 7c f2 f1 3d 9e 43 04 bd 64 ef 8b 3c 83 e0 0e 3d
       0.11813828 -0.032291047 0.017081924 0.03488208
0000b0 38 a6 7e bd 03 1b fe 3d 79 0b 3a 3d 85 75 74 bd
       -0.062170237 0.12407496 0.045421097 -0.059682388
0000c0 0a 18 0e 3d 52 b6 a1 bd ad 6a d5 3d f5 f4 3a 3e
       0.034690894 -0.07896103 0.104207374 0.18257506
0000d0 90 d0 cb 3d 41 ea 5b bd 88 41 9f 3c 07 1c 9c bd
       0.099518895 -0.0536902 0.019440427 -0.07622533
0000e0 af 24 a6 3a ab 0d 04 3e 85 76 f0 3d c9 3b 97 3d
       0.0012675727 0.12895839 0.11741356 0.0738445
0000f0 92 83 6c 3c fb 66 55 3d 36 a0 76 3c bb c3 bc 3c
       0.014435666 0.052100163 0.015052846 0.02304255
000100 92 fc 03 3d 5d 13 d3 3d ba 80 5c bd 97 37 c5 bd
       0.03222329 0.10306428 -0.0538337 -0.096297435
000110 44 7a c0 bd f0 2d c5 3d 3f 65 62 3d eb bc 73 3d
       -0.0939832 0.096279025 0.055272337 0.059506338
000120 02 7e 5d 3d ce f2 03 be 78 78 e1 3c c4 e1 07 3e
       0.05407525 -0.12885591 0.027523264 0.13269717
000130 39 99 a5 bd 11 0e b7 3c d9 6d 1b bc 25 49 8f 3d
       -0.080858655 0.022345575 -0.009486639 0.06996373
000140 10 e4 58 bd 8f 06 2c be 97 7f d4 bd 3d 24 02 be
       -0.052951872 -0.16799377 -0.10375898 -0.12709136
000150 a9 ce 1a 3e 2d 09 30 3e 85 ac ce bd 5f 40 ee bc
       0.15117897 0.17191 -0.10091499 -0.029083429
000160 2d c1 00 bc 39 6a 3b 3e aa 53 89 bd c0 8d 69 3c
       -0.007858557 0.1830224 -0.06705411 0.014254987
000170 20 8b 7c bd 9d 25 5b bb b4 f1 8b 3d dd b4 c3 3a
       -0.061656117 -0.0033439167 0.068332106 0.0014931221
000180 01 56 e3 3d c3 e7 11 3e a1 8a c3 3d be ef 29 bd
       0.11100388 0.14248566 0.09547926 -0.0414884
000190 ad c6 0c 3e 52 c6 c8 bd 6f 4b 45 3e d0 df c8 3c
       0.13747664 -0.098034516 0.19267057 0.024520785
0001a0 d0 fd 9f 3d 63 bc 9f 3c 61 db 18 3e e5 c1 4a 3d
       0.07812083 0.01949901 0.14927436 0.04950132
0001b0 3c e2 cd bb 3f 3b ad 3d de 78 44 3a fd 4b e0 bb
       -0.0062830728 0.08458566 0.0007494817 -0.006844996
0001c0 57 07 0d 3e 12 5e 15 3d 26 be 8f be b6 23 0b 3c
       0.13772331 0.036466666 -0.2807476 0.008492401
0001d0 0f 93 4f bd 43 f1 2b 3d b5 a3 48 3d 08 10 00 3d
       -0.050677355 0.041978132 0.04898425 0.03126529
0001e0 70 14 97 be 30 5d bf 3d 6c 37 0a 3e 1f 88 8d 3d
       -0.2950778 0.09343946 0.13497704 0.06910729
0001f0 5f 2c fa 3d e9 de 3c 3d e3 18 12 bd 46 cd 6a 3c
       0.12215494 0.04611102 -0.035668265 0.014331168
000200 77 8d d8 3c 40 5c 4d 3d bd 91 91 3d 46 fc c3 bc
       0.026434643 0.050136805 0.071078755 -0.023924004
000210 8c 8b 3c be 00 e6 05 3d a6 ad 2b bd 99 c1 1e bc
       -0.18412608 0.03269005 -0.04191365 -0.009689712
000220 1b b3 c2 bd 4c 42 30 3d 73 e1 83 bd 3e 57 1e 3d
       -0.09506818 0.043031976 -0.064394854 0.03865742
000230 9e 41 e1 3d a8 db a0 bd eb c2 f7 bd eb 30 bf 3d
       0.109988436 -0.07854396 -0.120977245 0.09335502
000240 d4 da 8c 3d b7 f2 b6 bc ba 6e 8c 3d 08 80 f7 bd
       0.06877676 -0.022332532 0.06857057 -0.12084967
000250 2e 5d 79 3e 67 2d f1 bd 66 0d 30 3d 28 3a d9 bc
       0.24351951 -0.11776238 0.042981528 -0.026516989
000260 51 96 c0 bb 93 a0 0d bc 63 fa fa bd 3f 30 33 3d
       -0.005877294 -0.008644241 -0.12254789 0.043747183
000270 6b 64 47 3c 3b c0 c3 3c d1 fc 80 bb e6 49 90 3d
       0.012169938 0.023895374 -0.003936388 0.07045345
000280 e2 30 2f bd 1d af 82 3e f9 02 50 bc cc b6 09 3e
       -0.042771228 0.25524226 -0.012696021 0.13448638
000290 b7 5d 17 3d 38 3a a4 3d 8d 65 aa bd 14 09 18 3b
       0.036954608 0.08018917 -0.083201505 0.002319877
0002a0 14 12 5b bd 91 5f 93 bd 93 4c a0 3d 08 75 ec bd
       -0.053484038 -0.07195962 0.078271054 -0.115457594
0002b0 2a 86 d3 3d 99 fb 9f bc a9 c1 29 bd 1b 29 bf bd
       0.10328324 -0.01952915 -0.041444454 -0.09334012
0002c0 6e 0f 20 3b 80 e8 a1 3c 37 ef 45 3d 04 f2 8e 3d
       0.002442326 0.019764185 0.048323836 0.069797546
0002d0 5d a6 1c be 68 47 90 3d 7c d4 0f bd 9c ec 88 3d
       -0.15297838 0.0704487 -0.03511475 0.06685755
0002e0 bc af 65 3d 0d 27 90 3d c6 10 c0 bd 1e 92 18 3d
       0.056075796 0.07038698 -0.09378199 0.037248723
0002f0 f1 00 2e bd 3c 51 21 bb b1 73 e8 3c 97 1f 0f 3d
       -0.042481367 -0.002461507 0.028375478 0.034942236
000300 31 2d 1b 3e dd db e5 bc a2 1f 93 3c 93 ba 45 bc
       0.15153958 -0.02805894 0.01795942 -0.012068409
000310 a6 09 c6 bd 94 ad 28 3e 52 2c 71 bc 4a 5a 90 3c
       -0.09669809 0.16472465 -0.014720039 0.017621178
000320 a8 03 4c 3c 0e c5 16 3e 19 ab 97 bd 73 e2 33 3e
       0.012452044 0.14723608 -0.07405681 0.17566852
000330 c5 3d bd bc 69 40 97 be 50 d1 42 bd 81 bc f6 bc
       -0.023100743 -0.2954133 -0.047562897 -0.030119183
000340 45 22 97 bd 37 f5 5e be b2 f5 0e 3e 78 40 80 bd
       -0.07379583 -0.2177323 0.13960913 -0.062622964
000350 db 12 a4 3c 49 e6 53 3c 73 26 ae 3d aa 38 67 bd
       0.020028522 0.012933322 0.08503427 -0.056450523
000360 e7 4c d4 3d 67 a5 1c 3c 4d 0c fb 3d 8e b8 f1 3d
       0.103662305 0.009560919 0.122582056 0.11802779
000370 43 db c9 3d 7b 04 bf bc e1 86 de bd 0d fc 06 bd
       0.09856274 -0.023317566 -0.1086557 -0.032955218
000380 66 02 0d 3e 2d f5 d1 3d 42 72 3f 3d 41 d5 b3 bd
       0.13770446 0.10251842 0.046739824 -0.08780909
000390 c2 29 ba 3b aa 3e 04 bd b5 a1 df bd f1 b7 59 3d
       0.0056812475 -0.032286324 -0.10919515 0.053153936
0003a0 1d 90 95 bd a7 2f 98 3d 46 e4 e1 ba de c0 a6 3b
       -0.07302878 0.07430964 -0.0017234168 0.0050889095
0003b0 1d 37 d4 bd 68 5d 2a be a9 04 2c 3d dc 87 13 3e
       -0.103620745 -0.16637194 0.04199663 0.14407295
0003c0 a4 a5 3f 3d 07 c2 0d bd 9d 94 1b be 8c 24 ad 3d
       0.046788827 -0.034608867 -0.1519341 0.084542364
0003d0 ac c4 d5 bd 07 fc 95 bd 96 98 6a 3e e5 d7 ec 3c
       -0.10437903 -0.07323461 0.2290977 0.02891154
0003e0 d9 66 3b 3d ad 46 bf 3b 3d c4 b8 3d 3d 83 b5 bc
       0.04575238 0.0058372826 0.090218045 -0.022157306
0003f0 d6 3e 4f 3e 1f eb af 3d 0a 43 16 3d 53 9b 35 bd
       0.20238814 0.08589768 0.036685027 -0.04433758

actor.0.bias f4 [64]
000000 64 28 33 3e a3 51 6d be c7 da 76 3e a7 cf 50 3e
       0.17495877 -0.23175673 0.24106894 0.20391713
000010 16 2a a5 3e 01 4c b2 be 65 e4 8b 3e c4 72 86 be
       0.32258672 -0.3482361 0.2732269 -0.26259434
000020 cb 12 3c 3e 07 ad 21 be 25 ac 1c be 51 6d 1a be
       0.18366544 -0.15788661 -0.15300043 -0.15080763
000030 c8 f7 87 bd 30 d3 3f be 9c d1 99 3e 6b da 4c be
       -0.066390574 -0.18732905 0.30042732 -0.20005195
000040 bd 14 5f 3e 12 c6 2b be 82 22 26 be 62 c0 6e be
       0.21785255 -0.16774777 -0.16224101 -0.23315576
000050 f7 ef 8a be 44 f2 4a 3e 4d 56 30 be e2 44 91 be
       -0.27136204 0.1981898 -0.17220421 -0.28372866
000060 d4 f3 7d 3e 08 56 82 be f7 ba 43 3e 9c 44 38 3e
       0.24800044 -0.25456262 0.1911429 0.17994922
000070 7c d8 c0 3d 43 c2 f9 3d 93 7a 9f 3e ba 84 0d bf
       0.09416291 0.121952556 0.31148204 -0.5528065
000080 9b 31 66 3e 70 7d 65 be 9c 1a 51 be 32 89 8d be
       0.2247986 -0.22411132 -0.20420307 -0.27643734
000090 73 1c b5 bd 18 d0 0a 3e 9a 82 52 be b4 d7 ea 3d
       -0.08843317 0.13555944 -0.20557633 0.11466923
0000a0 28 5b 9c 3e 59 2b 18 bd 99 c2 65 3e f2 c5 56 be
       0.30538297 -0.037150715 0.22437514 -0.20973948
0000b0 5d a8 39 be 04 79 99 3e bd 7e 83 3e cf 58 9e 3e
       -0.18130632 0.2997514 0.2568263 0.3092713
0000c0 5b f4 04 3e b8 b9 61 3e 16 69 43 be d6 54 5c 3e
       0.12983839 0.22043502 -0.19083056 0.21516737
0000d0 f6 3b 3f 3e 35 62 54 3e 46 ad 7a 3e 6f 85 12 be
       0.18675217 0.20740588 0.24480161 -0.14308713
0000e0 ef 77 16 be e1 eb 2e be a2 85 06 be 55 90 81 be
       -0.14694189 -0.17082168 -0.13136914 -0.2530543
0000f0 c0 c6 8c be 5a b1 74 3e c1 04 5e 3e f7 f4 38 3e
       -0.27495384 0.23895779 0.21681501 0.18062197

actor.2.weight f4 [128, 64]
000000 4f ae c6 3c 98 ae 2e bc 37 97 85 bd b7 7a bc 3d
       0.024253039 -0.010661744 -0.065229826 0.092030935
000010 db d4 ad bd 5c 85 ef 3d 6d bf e2 bc 6b 59 6e be
       -0.084878646 0.11695358 -0.02767917 -0.23276298
000020 c7 50 43 3d 59 cc 97 3e e9 b0 be 3e 7b 56 3e 3b
       0.047684457 0.29648092 0.37244347 0.0029043246
000030 70 47 93 3d ee a4 a6 bc 56 38 da bd 32 b6 1b 39
       0.0719136 -0.020342316 -0.106552765 0.00014849825
000040 81 b9 26 bd e6 cc ed bc 49 95 73 3b 3d 6b df 3d
       -0.040704254 -0.029028367 0.0037167838 0.10909126
000050 37 77 80 3e 69 27 26 be c0 3e 3a 3d 46 d2 8e 3c
       0.25090954 -0.16225971 0.04547 0.01743425
000060 31 0e 65 be 38 90 8d 3e 93 e9 51 3e 0d ab 68 3d
       -0.22368695 0.27649093 0.20499258 0.05680375
000070 c4 91 61 3b 68 96 21 be 88 e7 9b bd 43 50 dd 3d
       0.0034419158 -0.15780032 -0.076125205 0.10806324
000080 b3 63 56 3e c1 f8 29 be bf 64 77 be 0c 4c fc 3d
       0.2093647 -0.16598798 -0.24159525 0.12319192
000090 d5 06 9a 3d a0 b7 c2 bd 79 8f b7 3d eb 65 2d 3d
       0.07520834 -0.0950768 0.08962912 0.042333525
0000a0 41 1a 79 bd ae 7c 79 bd a6 16 70 bd f3 75 a2 3d
       -0.060816053 -0.06090992 -0.05861535 0.07932653
0000b0 c4 86 25 3e 9a 8f 02 be 80 67 1c 3e 3a b7 63 be
       0.1616469 -0.12750092 0.15273857 -0.22237864
0000c0 23 e7 96 3d 8a 10 6a bd 79 88 19 3c 02 ca 17 be
       0.073683046 -0.05714468 0.0093709165 -0.14823154
0000d0 cc ae b2 3d f2 3b fc bd 33 8a d2 be 92 28 b3 3c
       0.08724746 -0.12316121 -0.41121063 0.021869931
0000e0 a0 76 03 3e 5a 99 3c 3e 7a 5b 75 3d 33 8d 06 3e
       0.1283822 0.18417874 0.059901692 0.131398
0000f0 3c 22 b5 bd c0 4a 5e bd 96 b8 e2 3d 5f 91 4b ba
       -0.0884442 -0.054270506 0.11070363 -0.00077654974
000100 f9 52 49 3e c9 2e 2e 3e 78 44 28 3e c7 7b a0 bd
       0.19660558 0.17010035 0.16432369 -0.07836109
000110 9c 57 03 be 66 22 be bd ef 82 12 3e cf db 03 be
       -0.12826389 -0.09283905 0.1430776 -0.12876819
000120 51 a5 18 3c 1b 91 3d be c8 d3 e9 bd 79 22 44 3c
       0.009316758 -0.18512385 -0.11417347 0.01197111
000130 0b 3a 1d be 44 ca 60 3d f9 bb 11 3c 3e d2 29 3e
       -0.15354173 0.054880396 0.008894914 0.16584107
000140 85 58 9e bd 31 8c 11 3e 38 66 78 3e 13 57 67 bd
       -0.077317275 0.14213635 0.24257743 -0.056479525
000150 b3 17 5b 3d cb f1 19 bd f5 a1 d3 bd 28 b2 81 3e
       0.0534894 -0.037584107 -0.10333625 0.25331235
000160 ed 0c 14 3e c5 d9 cf 3d 83 01 12 3e e9 b1 bb bd
       0.14458056 0.10148958 0.14258389 -0.09164793
000170 de 8c 6e be eb ad 90 3d ce 5f 18 3e a6 78 c2 3c
       -0.23295924 0.07064422 0.14880297 0.02373917
000180 fd 4e 01 be da 9a b4 3e 10 e8 7a 3e 2f 83 be bd
       -0.12627788 0.35274392 0.24502587 -0.09302365
000190 c6 00 f8 bc 83 04 b5 bd 67 61 29 3e 6a f1 e0 3d
       -0.030273806 -0.08838751 0.16541062 0.10983546
0001a0 83 87 f9 3d 49 40 ef 3d 18 8d a8 bd 45 60 3b be
       0.1218405 0.11682183 -0.082300365 -0.18298443
0001b0 e6 97 87 bd 81 17 8a be 26 a0 2c 3e dc ec 3a 3d
       -0.06620769 -0.26971057 0.16857967 0.045636043
0001c0 ef ff b6 bd fc 40 24 3e 88 93 f7 3d d2 ba 42 be
       -0.08935534 0.16040415 0.12088686 -0.19016579
0001d0 51 8d 01 3e b2 36 41 be 29 d5 5b 3d eb 3a af 3d
       0.12651564 -0.18868521 0.053670082 0.085561596
0001e0 a5 77 c9 3d a7 f0 8b be 9f 3a 22 3d 80 72 70 bd
       0.098372735 -0.2733204 0.039606687 -0.058702946
0001f0 f3 c7 82 3e 5f d4 11 3d b5 5e 23 3e 46 cf 91 3e
       0.25543174 0.035602923 0.15954097 0.2847845
000200 42 31 c2 bd 38 2f 0a 3e 6c 7e 8a be 25 6a 32 3e
       -0.094820514 0.13494575 -0.27049577 0.17423303
000210 d7 85 3b be 52 ff d4 3c 9e a1 4f 3e 85 86 c7 bc
       -0.18312775 0.026000652 0.20276496 -0.024356136
000220 7b de ce bd 8b 29 b5 bc e8 25 67 3d 8e a0 3d 3e
       -0.101010285 -0.022114536 0.056432635 0.18518278
000230 a7 fa 1b be 9b bc 78 be 47 bd 8b bd 2d ef 0c be
       -0.15232335 -0.24290697 -0.06823211 -0.13763113
000240 ae 68 a5 3c 82 d6 1a 3e 3c fb 90 3c 4c ed 79 3e
       0.020191517 0.1512089 0.017697923 0.24406928
000250 dc c1 2a bd 1f 73 8a bc 3b 6e 98 3e 76 4a 90 bc
       -0.041688785 -0.016900597 0.297716 -0.01761363
000260 d2 26 91 bd f6 40 1e be 31 6f 46 be 25 7b 4a 3e
       -0.070874825 -0.15454468 -0.19378354 0.19773538
000270 3f 6e 0e 3e 70 91 44 3e 3f 28 92 3e b8 1f b0 bd
       0.13909243 0.19196105 0.2854633 -0.085998
000280 84 9e a8 bc 44 45 40 3e 7c bc 3e be d0 3e 9a be
       -0.020583399 0.18776423 -0.18626589 -0.30126047
000290 96 0a 16 bd 26 9d 69 3d eb 5f f7 bd 8b 84 be bd
       -0.03663119 0.057034634 -0.12078842 -0.09302624
0002a0 db f9 17 be ac 97 0f 3e d1 6f 19 3e 67 11 8a bd
       -0.14841406 0.14022702 0.14984061 -0.067416005
0002b0 17 90 5d bd 40 a7 58 3c 31 54 a0 3e da 17 ec 38
       -0.054092493 0.013223469 0.31314233 0.000112577996
0002c0 79 94 6b 3d 49 e7 6b bc 4a 08 8b be 99 13 79 3c
       0.05751464 -0.014398404 -0.27154762 0.015202426
0002d0 7d 5e 0d be ca 5e 36 3e 96 33 19 3e 96 cc 5f 3e
       -0.13805576 0.17809597 0.14961085 0.21855387
0002e0 26 ce fe bd 62 7c 04 be ea 59 59 3e c3 f4 af 3c
       -0.124416634 -0.12938073 0.21225706 0.021479016
0002f0 d4 1f 19 3e a8 42 73 3e f6 46 17 bd df ec 0d bd
       0.14953548 0.23755896 -0.036932908 -0.034649726
000300 25 68 c6 bc 7e 3b 40 3d c3 2d fe 3d 14 a4 8f be
       -0.024219582 0.046931736 0.12411072 -0.2805487
000310 49 38 d1 3c 13 e0 cc bd 42 99 9b be dc 63 99 bc
       0.025539534 -0.10003676 -0.30390364 -0.018724374
000320 6d 2b aa 3c 32 24 75 bd 43 54 37 3d d9 42 dc 3b
       0.02077266 -0.05984897 0.044758093 0.006721836
000330 af c1 bf bd ee 9f 1b 3e 5f 62 41 3d a6 04 03 bb
       -0.09363114 0.15197727 0.047212955 -0.0019991784
000340 64 27 ac be 9f 89 76 3d 84 15 4f 3e fb 58 25 be
       -0.33623803 0.06018984 0.20223051 -0.16147225
000350 6f 91 e7 3d 42 d1 be 3d 7a a4 29 bd 42 b6 ef bc
       0.11307036 0.093172565 -0.041416623 -0.029261712
000360 6d 52 8e bc 0b 41 12 3d db a4 9e 3d cb 2f af bd
       -0.017373288 0.03570656 0.077462874 -0.08554038
000370 32 39 09 3e 85 f2 38 3e b6 d3 f9 bd 6f 81 b8 bc
       0.13400725 0.18061264 -0.12198584 -0.022522656
000380 49 90 5d bd ec 52 06 3b 3d e6 9c 3d a4 70 22 3e
       -0.05409268 0.0020496203 0.07661102 0.15863281
000390 83 bc 88 3e 4a 2f 7f bd b7 c4 46 3e 78 a0 27 be
       0.26706323 -0.062300958 0.19410978 -0.16369808
0003a0 b9 cd 6d 3e 90 5d 99 3d 59 07 c5 3c 1d 5e 2c bc
       0.23223008 0.07488549 0.024051355 -0.010520485
0003b0 60 5c 30 be ee 9b 6e 3d 5d 27 36 3d 57 c1 a2 be
       -0.17222738 0.058254175 0.044471134 -0.31788132
0003c0 3f b4 00 be 1e 2a 82 bc 82 68 d1 bd 6f e2 74 be
       -0.12568758 -0.015889224 -0.102250114 -0.23914503
0003d0 5d fc cb bd 2c be fb 3d d3 6a 8c be d8 d3 d2 3d
       -0.09960244 0.12292132 -0.2742525 0.10294312
0003e0 b7 be bf bd c8 61 d9 bd 81 08 04 be c4 26 53 3e
       -0.09362548 -0.106143534 -0.12893869 0.20620257
0003f0 c2 bb 4a bc 07 9d 17 3d dd 2a f5 bd d3 85 14 bc
       -0.0123738665 0.037014987 -0.11971066 -0.009065109

actor.2.bias f4 [128]
000000 ae 3c 02 be d4 e7 c1 bd c9 93 34 3e b5 ad 02 be
       -0.1271846 -0.09468046 0.176345 -0.12761576
000010 97 2b 38 3e 09 76 3a 3e 8f f4 0e be 5a d9 0c 3e
       0.17985378 0.1820909 -0.13960479 0.13754788
000020 52 ef 0c 3e 06 f0 b6 3d 8b 48 52 be e0 e2 19 be
       0.13763168 0.089324996 -0.20535485 -0.15027952
000030 d7 2e f7 3d f0 e7 b0 bd 3a d3 36 3e 4e 5e 6f be
       0.12069481 -0.086379886 0.17854014 -0.23375818
000040 ae 86 e1 bd e9 a6 1b 3e 36 93 53 3d a2 7f ae 3d
       -0.11012016 0.1520039 0.051654063 0.08520438
000050 25 3b 31 be 30 ec 07 3e c5 f1 1d be 0c 36 5f bd
       -0.17307718 0.13273692 -0.15424259 -0.054494902
000060 22 e3 1e 3e 72 2e 9d bd c3 93 16 3e fd 3b 3f be
       0.15516332 -0.07674874 0.14704804 -0.18675227
000070 7e b3 09 3e a2 e4 9b 3d 23 dc 71 bd 7d 25 d5 bd
       0.13447377 0.076119676 -0.05904783 -0.10407541
000080 37 06 20 be f9 07 13 3e 00 29 21 3d e6 77 50 bc
       -0.15627371 0.1435851 0.03934574 -0.0127238985
000090 44 50 25 bd c6 ef 69 3d 36 a9 51 bc 00 f7 a2 bd
       -0.04035975 0.05711343 -0.012796691 -0.07957268
0000a0 79 f7 c4 bd 82 c2 6a 3e 18 97 f1 3d 0b b8 d9 3d
       -0.09617514 0.22925761 0.11796397 0.106308065
0000b0 be 82 26 be bb 9a 14 3e 69 90 84 bc a3 7a 7e 3d
       -0.16260812 0.1451215 -0.016182141 0.062128674
0000c0 43 d5 12 3e dd 32 b2 3c 28 77 82 3d 18 19 cb 3d
       0.14339165 0.02175277 0.063703835 0.09916896
0000d0 06 3a 0a 3e 6d c3 16 3e 61 7d 55 bc 58 d7 11 3e
       0.13498697 0.14722987 -0.013030381 0.14242303
0000e0 45 c1 17 3e 2c 05 07 3e 14 80 d8 3d 42 95 cc 3d
       0.1481982 0.13185567 0.10571304 0.09989406
0000f0 49 25 ac 3b 57 a6 42 be e2 f5 17 3e d0 5f 0f be
       0.005253468 -0.19008766 0.1483989 -0.14001393
000100 30 47 5e 3d 9e 4c 2b be 0c c1 fa 3d fd 14 b5 3d
       0.05426711 -0.16728446 0.12243852 0.08841894
000110 97 58 25 bd ae ff 53 3d 84 f0 64 3e 52 cc a9 bc
       -0.04036769 0.051757507 0.22357374 -0.02072731
000120 fc 65 49 3e 86 a1 ca bd b7 2d 17 3e 60 a9 0b 3e
       0.1966781 -0.098940894 0.14763533 0.1363883
000130 cc 6b 91 3d eb 4f 0e be eb 88 27 3e 77 62 57 bd
       0.07100639 -0.13897674 0.16360824 -0.052584138
000140 ce c2 6b be 84 a7 86 3d bc 51 00 3e f5 da 2b be
       -0.23023531 0.0657492 0.12531179 -0.16782744
000150 5d 39 e8 3c 9d f3 76 3d 15 ea 17 3d a1 01 0a 3e
       0.028347665 0.06029092 0.037088472 0.13477184
000160 30 73 dd 3d e4 06 be 3d d7 9b 08 3e f9 2f a8 3d
       0.10812986 0.09278658 0.13340698 0.08212275
000170 13 0a fb bd 75 c0 86 bd 88 99 35 3c 52 93 d7 bd
       -0.12257781 -0.06579677 0.011083968 -0.10526146
000180 0e 8f 0a be 1f 38 c6 bc c3 bb d3 3d 6c 36 2c be
       -0.13531134 -0.024196682 0.10338547 -0.16817635
000190 07 df 8c be eb fa 00 3e 0a dc e2 3d bb 72 d5 bd
       -0.27513906 0.12595718 0.11077125 -0.10422274
0001a0 ea f0 3e be 4a 02 08 be 11 9c 2b 3c bd 99 fb bd
       -0.18646589 -0.13282123 0.010474221 -0.122851826
0001b0 83 3a 7f bb 96 c8 73 bd 40 1d 0a be 55 6d 22 be
       -0.0038944788 -0.059517466 -0.1348772 -0.1586202
0001c0 92 b2 90 3d 98 5c e3 3d fc 12 b8 bd a9 e1 36 be
       0.070653096 0.11101645 -0.08987996 -0.1785952
0001d0 e3 f2 44 3e 6b b0 a8 3d 1a 1c 4e 3e e1 7a fc bd
       0.19233279 0.08236774 0.20127907 -0.12328125
0001e0 09 0f 4b be f9 7f e6 3d 10 56 06 3e ea 39 7e be
       -0.19829954 0.112548776 0.13118768 -0.2482678
0001f0 ac f6 1b 3e f3 aa 4b bd ef e2 47 be f6 06 fa 3d
       0.15230817 -0.049723577 -0.19520162 0.12208359

actor.4.weight f4 [64, 128]
000000 ba dc 7a bd fd 30 1d bd 7c 39 59 3d ff 70 a4 3d
       -0.061245658 -0.038376797 0.053033337 0.08029365
000010 be 74 9b 3d 5b 73 b2 3c 03 ae a7 3d 54 28 0d 3e
       0.07590626 0.021783521 0.08187487 0.13784915
000020 f4 36 52 3d 39 6c 0d 3d 1c 65 18 be 2d 98 f5 bd
       0.05132194 0.034527037 -0.1488232 -0.11991916
000030 55 d8 9d bd 69 06 a6 3d 27 c8 b8 bd 0b bc 2a be
       -0.07707278 0.081066914 -0.09022551 -0.16673295
000040 f3 5c 25 be bc b6 55 3e b8 9e db 3d 70 59 86 3e
       -0.16148739 0.20870489 0.107236326 0.2624011
000050 27 9e 8c bc 76 59 44 3e 5d 7b 46 3d ff 53 a0 3d
       -0.017165257 0.19174752 0.048457492 0.07828521
000060 df 6f 97 3e 8e 8b 60 be 3e 0f 81 be 08 7e fb 3d
       0.29577538 -0.21928236 -0.2520694 0.12279898
000070 8f 3d a0 bd c4 eb e5 bd 08 d7 ad 3d 67 f1 7d be
       -0.07824241 -0.11226609 0.084882796 -0.24799119
000080 8a 45 9c be 18 7a 46 be f2 8e e2 bd ac e4 72 bc
       -0.30521804 -0.19382513 -0.11062421 -0.014825027
000090 83 e1 10 be 61 eb eb bd c6 11 46 3e 90 85 4c be
       -0.14148526 -0.11519504 0.19342718 -0.19972825
0000a0 a1 33 66 3e b0 8d 32 3e fd 89 09 bc 8f 62 71 bb
       0.22480632 0.17436862 -0.008394715 -0.0036832427
0000b0 ff d2 3e be 1b 9e 43 3e 95 84 39 be c3 0b 41 3d
       -0.18635176 0.19103281 -0.18116982 0.047130357
0000c0 e2 9f ee 3d 44 b8 bb 3c 2b 18 90 3b 6e a8 d6 3d
       0.11651589 0.022915013 0.0043974123 0.10481344
0000d0 a3 61 a0 3e f5 78 42 3d a2 17 3c bd 59 b3 cc bd
       0.3132449 0.047478635 -0.045920976 -0.09995145
0000e0 6b af d6 3d 8b e5 62 bc b1 a0 70 bd 66 29 79 bd
       0.10482677 -0.013848673 -0.058746997 -0.060830496
0000f0 c9 9d 50 be 60 8a 1a be 4b db 0a be 34 53 52 be
       -0.2037269 -0.15091848 -0.13560216 -0.20539552
000100 9b 44 f0 3d c8 52 70 bd 88 45 2e be 9e 85 90 3c
       0.117318355 -0.058672696 -0.17018712 0.017641839
000110 32 41 06 3e 80 bd cf 3d 75 fb 07 be fc 43 eb 3d
       0.13110808 0.10143566 -0.13279517 0.11487576
000120 4c cf 46 bd d6 24 3a be cf af 34 be e8 a5 42 3c
       -0.048537537 -0.18178114 -0.1764519 0.011880375
000130 58 a4 de 3d 59 62 80 3d 8a 5c 26 3d 33 fc 1f 3e
       0.1087119 0.06268758 0.040615596 0.1562355
000140 b3 8d c8 bd 04 3f c9 3d fd 8b 17 be 8a f0 62 3d
       -0.09792652 0.098264724 -0.14799495 0.055405177
000150 99 df 08 3e 96 6f f8 3d fc 07 d3 bd b1 8d ab 3d
       0.13366546 0.12130658 -0.10304257 0.08376635
000160 2d 28 0b 3d 3e 95 f9 3c d1 2a 18 3e 54 0d a9 3d
       0.03397386 0.030466672 0.14860083 0.08254495
000170 22 56 36 bd 53 13 dd bb 60 a3 f9 bd 84 59 ec bd
       -0.044515736 -0.0067466884 -0.121893644 -0.11540511
000180 02 6b 9e bd e4 26 c7 bd 4c 28 92 3d 06 60 02 bd
       -0.07735254 -0.09724215 0.07136592 -0.031829856
000190 6c a3 16 3e d5 28 0b be f9 5a fe 3c d7 75 fc bd
       0.14710778 -0.13589795 0.031049239 -0.12327164
0001a0 4f 41 0e 3e 49 0e 23 be 22 23 37 be 45 4d f7 3c
       0.13892101 -0.15923418 -0.17884496 0.030188212
0001b0 92 2e 94 3d 8c 3c 3d bc 6b 28 95 3c 54 2a e1 bd
       0.07235445 -0.01155008 0.01820775 -0.109944016
0001c0 01 77 8e bc 3a 30 4d be 12 62 9d be 92 f2 d0 be
       -0.01739073 -0.20037928 -0.30738884 -0.40810066
0001d0 e6 df a2 bc 25 9b 7b 3d 03 95 48 3e 03 6d 81 be
       -0.019882154 0.061427254 0.19588093 -0.25278482
0001e0 42 65 81 bc 18 8d db bd 7f 50 3d 3d 69 c2 b8 3d
       -0.015795354 -0.10720271 0.046219345 0.09021456
0001f0 76 cc 5c 3e 47 4c 12 be b3 83 4b be 03 6e f1 bd
       0.2156237 -0.1428691 -0.19874458 -0.11788561
000200 2a 3e 85 3b 16 0f 01 3e 1e 13 6f bd 21 b8 7b 3b
       0.0040662484 0.12603411 -0.05836784 0.003840931
000210 5c ea 5b bd 14 9b 56 bd dd 40 a8 bd cd 51 e7 3d
       -0.0536903 -0.052393988 -0.08215497 0.11294899
000220 3d 9f 99 bd 30 60 15 3e 62 9d 4e 3d 1b 5e 8b 3d
       -0.075010754 0.14587474 0.05044306 0.068050586
000230 13 9d 43 3d 98 8d b8 bd 6a 51 b4 3d 1f c5 2f 3d
       0.04775722 -0.09011382 0.08804591 0.0429126
000240 3d 3a 4a 3c 53 aa 91 bb 16 4d 83 3d e6 78 3a 3e
       0.012342987 -0.004445353 0.06411187 0.18210182
000250 b6 eb d6 bb aa 46 11 3e 42 03 b1 bd be fc bb 3d
       -0.0065588607 0.14187112 -0.086431995 0.09179066
000260 a2 d0 f3 3c 20 15 0e 3e 1e bb 6d 3c 58 60 44 bd
       0.02976257 0.13875246 0.014509944 -0.047943443
000270 c6 4e 8c 3d 7c 1c e9 3a b2 34 7b be 4b 02 93 bd
       0.06850962 0.0017784978 -0.2453182 -0.07178172
000280 10 04 09 3e 72 c8 53 3e 34 fb 6b 3d 26 d2 21 3e
       0.13380456 0.20681933 0.057612613 0.15802822
000290 2d ed 77 be 4f be 71 be 1f b8 26 be cd 30 8e bd
       -0.24211569 -0.23607753 -0.16281174 -0.06942902
0002a0 ed 9b 31 be 06 9f b7 3d 6a 70 7e 3d fe e1 89 3c
       -0.17344637 0.08965878 0.062118925 0.016831394
0002b0 eb 59 ae bd c0 73 f6 bd ad f7 cd 3d b4 fe 57 3d
       -0.08513244 -0.12033796 0.10057006 0.05273314
0002c0 d2 79 5a 3d e9 78 81 bd b3 53 dd 3c 3c fd 4d be
       0.053338833 -0.0632189 0.02701745 -0.20116132
0002d0 41 41 62 3e 45 12 1b bc 50 18 91 be e5 58 f6 bb
       0.22095205 -0.009464805 -0.2833886 -0.0075179213
0002e0 ab bb 80 3e bf 68 78 3e 44 07 78 bc fe e7 52 bc
       0.2514318 0.24258707 -0.015138451 -0.012872694
0002f0 8b f7 de 3c a2 56 69 be f4 63 94 3d 0c c5 39 3e
       0.027217647 -0.22786954 0.07245627 0.18141574
000300 70 6b 6d 3d c9 dd 91 be c8 fa fd 3d ca 41 81 3e
       0.05796379 -0.2848952 0.12401348 0.25245506
000310 88 98 15 be 55 2f d0 3c 1b 35 99 3d 51 17 30 3d
       -0.14608967 0.025413195 0.07480832 0.042990986
000320 13 f2 53 3d 44 dd c9 3d 42 53 72 bd e4 88 0e bd
       0.05174453 0.09856656 -0.059161432 -0.034798518
000330 53 5a 8e bd d0 9d 6c bd 1a fa c1 3b 3b 65 1f 3d
       -0.06950822 -0.05776769 0.005919707 0.0389149
000340 26 44 66 3e fb 5b e3 bb db c2 e3 bd 7b 21 f6 bc
       0.22486934 -0.006938455 -0.1112115 -0.030045262
000350 66 05 ea 3c 4a 3c 71 3e b2 41 4a 3e 90 d5 1e 3e
       0.028567027 0.23558155 0.19751623 0.15511155
000360 d7 df 86 3e 93 a9 d9 3b dc 97 4d 3e 5d b1 13 bc
       0.2634265 0.0066425293 0.20077461 -0.009014455
000370 b9 b2 b1 3d 6a eb f6 bd 0f b0 1d 3e 24 52 29 3e
       0.08676667 -0.120566204 0.15399192 0.1653524
000380 a8 7a 30 3e 4b 2a de bc 7d f3 74 3e 05 65 35 3e
       0.1723429 -0.027119776 0.23921008 0.17714317
000390 bb 5a 85 3e 49 1b 02 3d 0e 29 62 be 28 e8 41 bc
       0.26045784 0.031764302 -0.22085974 -0.0118351355
0003a0 50 5c 8e bd 8a 54 0d be 3a 61 ac 3e d7 0e cb 3c
       -0.06951201 -0.1380178 0.33667928 0.02478735
0003b0 f6 0c 98 bb ec f0 90 be d3 fb 20 be 84 10 a5 3d
       -0.004640217 -0.2830881 -0.15721063 0.08059791
0003c0 71 59 59 3e 27 d7 2e 3e 79 f5 f2 3d 70 db 35 be
       0.21225525 0.17074262 0.118632264 -0.1775949
0003d0 95 13 82 be 5f 06 b8 bd d7 00 8e 3d c0 8e a2 bd
       -0.25405565 -0.0898559 0.06933754 -0.07937384
0003e0 f5 14 1e be f5 d5 c4 3e 4f f7 29 3e 48 4d 9e 3e
       -0.15437682 0.38444486 0.16598247 0.30918336
0003f0 9b 15 13 be 61 a1 a8 bd 64 23 13 be 94 e5 41 3e
       -0.1436371 -0.082339056 -0.14368969 0.18935233

actor.4.bias f4 [64]
000000 a2 b0 83 3d 8c 3d 02 3d c4 85 08 3d b6 a5 55 3e
       0.064301744 0.031796977 0.033330694 0.20863995
000010 3e c3 31 be f0 0b ee bd 9f 62 46 be 2d c9 1f 3e
       -0.17359635 -0.11623371 -0.19373558 0.15604086
000020 36 e1 9e 3d e4 69 0e bd 1c a3 2f 3e 98 f3 0f be
       0.07757799 -0.034768954 0.17152065 -0.14057767
000030 d1 c9 ff 3d 71 eb 88 3d 55 ec b7 bd ea e2 9b bd
       0.12489665 0.06685532 -0.08980624 -0.0761164
000040 ab 4f 25 bd 77 8c d0 3d 4d 23 08 bd 25 c4 d8 3b
       -0.04035918 0.101830415 -0.03323679 0.006615179
000050 29 43 05 be 1c 2a 2b 3d 59 cd 95 3d 89 ee 7e 3c
       -0.13013901 0.041788206 0.073145576 0.015559801
000060 c6 8f a2 3d 93 54 0c bd 19 c4 13 be 07 b7 26 be
       0.07937579 -0.034260344 -0.14430274 -0.16280757
000070 fc b3 01 3d a3 b7 7f 3d 7c 79 ff 3d dc 52 ea 3d
       0.031665787 0.06243099 0.12474343 0.114415854
000080 02 73 b6 bd 49 ad d0 3d a9 90 b9 3d 50 3b 08 be
       -0.08908655 0.101893015 0.09060795 -0.13303876
000090 8b e8 a5 bd 7f af 6b be 7b e5 12 3d 86 5f 6c 3d
       -0.08100995 -0.23016165 0.03586338 0.057708286
0000a0 a4 bc 4c bd 67 ad e8 3c f9 46 67 3e 4f e3 3e be
       -0.04998459 0.028402997 0.22585668 -0.18641399
0000b0 b9 20 8e 3d 1c e6 02 3e 64 7a 66 3d c8 f7 25 3d
       0.06939835 0.12783092 0.056269065 0.040519506
0000c0 81 5e 60 bc a2 ce 02 be bd e9 fe 3d 66 f3 b0 3d
       -0.0136944065 -0.12774137 0.12446926 0.086401746
0000d0 c4 3c 04 be ba 75 5c 3e ff ef 75 3c ea dc 4f 3d
       -0.12913805 0.21529284 0.015010833 0.05074779
0000e0 f4 3e 1e be ab 89 07 3d 7b b4 5c be ae 28 fd 3d
       -0.15453702 0.033090275 -0.21553223 0.12361275
0000f0 68 9d a7 3c 32 73 db bd 0f 1e c1 bd 24 f4 09 3e
       0.0204608 -0.10715331 -0.09429561 0.13472039

actor.6.weight f4 [3, 64]
000000 f0 8a 2f 3c da c9 bc 3d 5e 1b 2b 3d 47 97 e4 3d
       0.010714278 0.09218188 0.041774146 0.11161666
000010 5e 26 b5 bd 5e 11 d6 bd 7f 5e 13 be 4d e3 00 3e
       -0.088452086 -0.10452531 -0.14391516 0.12586708
000020 1c ff 65 3d 4f 20 d5 bd 50 1b cc 3d 23 c1 b7 bd
       0.056151494 -0.10406553 0.09966147 -0.08972385
000030 34 66 a0 3d 56 1e 0c 3d 90 dc c5 bd fc fa 4e bd
       0.07831994 0.034208618 -0.096612096 -0.050532326
000040 b8 03 81 bd 19 16 85 3d 86 e0 93 bd 01 1f ac 3c
       -0.062995374 0.064983554 -0.07220559 0.021010878
000050 71 5e f6 bd fe 9a ac 3d be 5c d3 3b a0 f2 cd 3d
       -0.12029732 0.08428 0.0064502647 0.10056043
000060 18 61 64 3d e0 c1 0a bd 4d e4 c6 bd 75 22 b1 bd
       0.05575666 -0.0338763 -0.09711514 -0.0864915
000070 79 f2 67 bd 10 57 d7 3c 8e 0c 9a 3d 27 8a 47 3d
       -0.056627724 0.026286632 0.07521926 0.048715737
000080 e8 f3 7e bd f7 12 cf 3d ae af e9 3d 93 7a b2 bd
       -0.062244326 0.10111039 0.11410461 -0.087147854
000090 e2 53 de bd 0a da 1a be 56 60 a3 3d c5 01 83 3d
       -0.10855843 -0.15122238 0.07977359 0.06396822
0000a0 d9 c6 08 bd 7f fb ac 3d 6b df f5 3d 8c ac aa bd
       -0.03339276 0.084464066 0.12005504 -0.08333692
0000b0 7a e5 ae 3d 03 e1 fb 3d c6 ef c6 3d 21 12 bc 3d
       0.08539863 0.12298777 0.09713702 0.09183145
0000c0 10 1a 63 bd e5 ec e0 bd 43 cd 14 3e 99 54 e5 33
       -0.055444777 -0.10982684 0.14531426 1.0679032e-07
0000d0 05 ae f3 bd 2f 34 e5 3d be 74 d9 3d 54 84 01 bd
       -0.11898426 0.11191594 0.1061797 -0.03162034
0000e0 59 26 fb bd 90 2b be 3d 96 2c a7 bd 42 94 f6 3d
       -0.122631736 0.09285653 -0.08162801 0.12039997
0000f0 b1 7a e0 bc a9 33 ee bc e2 12 76 bd 0b 77 cc 3d
       -0.027402254 -0.029077368 -0.0600766 0.09983643
000100 c6 88 ab 3c e7 2d 98 bd 80 a8 80 bd 69 21 14 bd
       0.020939242 -0.0743063 -0.06282139 -0.036164675
000110 f2 04 2b bc e4 e8 9f 3d 48 91 73 3d 9f a5 ac bc
       -0.010438191 0.07808092 0.059464723 -0.021075068
000120 59 9d 9b bc f5 7c 93 3d f4 55 6e bc 10 0d 24 3d
       -0.018995928 0.07201568 -0.01454686 0.04005152
000130 90 b5 f8 bc d2 72 e9 bd 3d d1 37 3d 46 53 12 3d
       -0.030360013 -0.11398853 0.04487728 0.035723947
000140 c0 83 68 3d d1 44 ca bd a6 2f d8 3c 69 a4 44 bd
       0.05676627 -0.09876407 0.026389908 -0.048008356
000150 06 18 74 3d 26 5f a6 bd d2 8b 88 3d 96 9b 99 bd
       0.059593223 -0.08123617 0.066672936 -0.07500379
000160 c0 ae de ba 76 65 2e b8 c9 66 10 3c 36 a1 42 3c
       -0.0016989335 -4.1579326e-05 0.008813568 0.011879256
000170 7b 04 ef 3d bc 5e 16 bd 36 22 4f bc e2 70 f6 bc
       0.116707765 -0.03671144 -0.012642434 -0.030083124
000180 b2 5e fa 3c 9e f0 98 bd c6 93 a7 bd 13 11 86 3d
       0.030562732 -0.07467769 -0.081824824 0.065462254
000190 44 34 bf 3d f1 04 60 3d 1b 8e 8f bd dc 94 16 b8
       0.09336141 0.054692212 -0.07009526 -3.5901423e-05
0001a0 dc 11 3f 3d f6 84 78 bd 8a 79 2c bd a3 6a 78 3c
       0.04664789 -0.060673676 -0.042108096 0.015162143
0001b0 a8 33 80 bd 83 23 e8 bc ef 1e 8b bd 57 31 82 bd
       -0.06259853 -0.028337246 -0.067930095 -0.06357067
0001c0 05 00 84 3d d6 03 7d 3d 99 b3 a6 bd c5 b6 ee bc
       0.06445316 0.061771236 -0.08139724 -0.029139886
0001d0 bb 12 80 3d 65 a6 87 bc d7 ca 9d bd 4c 85 84 3c
       0.062535726 -0.016558835 -0.07704704 0.016176842
0001e0 37 84 95 3d f3 6c 86 bd fb 11 2b 3d c5 9a 6c bd
       0.073006086 -0.06563749 0.041765194 -0.057764787
0001f0 b7 95 2d bd 6f 82 ed 3c f9 0e ad 3d 56 27 4c bc
       -0.042379107 0.02899286 0.084501214 -0.01246055
000200 c7 7b e2 3b 19 9a f9 bc 4c 88 12 bc 99 1a 08 bc
       0.006911728 -0.030468987 -0.0089436285 -0.008307123
000210 5c a4 55 3d 6e 4b c2 bb fe 81 8b 3c f8 c3 69 bd
       0.0521587 -0.005929402 0.017029759 -0.057071656
000220 f6 07 1b bd d7 fc 6a 3d 8b 98 92 bc 81 e8 39 3a
       -0.03784939 0.057370033 -0.017895004 0.0007091836
000230 e8 e5 b7 3b d5 7c 31 3d f0 fd 3f 3d bf 18 6f 3d
       0.0056121238 0.04333194 0.046873033 0.05837321
000240 a5 9b eb 3c c4 31 30 3d 9c 2f 72 3d db 03 c9 ba
       0.02876074 0.04301621 0.059127435 -0.0015336232
000250 35 53 29 3c a1 0e 3e bd 13 c6 5b bd cb 7c 81 bd
       0.0103347795 -0.04640067 -0.053655695 -0.063226305
000260 d0 de 84 bd f4 0f 99 3d 84 70 e4 3c e8 cd 01 3d
       -0.064878106 0.07473746 0.027885683 0.031690508
000270 29 ad b7 bd 99 31 a7 3c 8d 9d 9d bc a3 d5 a3 bc
       -0.089685746 0.020409392 -0.019240165 -0.01999933
000280 41 1d 1f 3d 2c d2 e3 3b 0f 24 26 bd f1 9f 39 3d
       0.038846258 0.0069525447 -0.040561732 0.045318548
000290 d3 e7 15 3d c6 c0 40 3d b7 f4 4a bd d7 71 94 bd
       0.036598038 0.047058843 -0.049549785 -0.07248276
0002a0 6b 8c c6 3c 93 82 41 bd c9 c3 6a bc ab 04 39 3c
       0.024236878 -0.047243666 -0.014328905 0.011292617
0002b0 23 7a 3c bd 52 64 4b bd 02 0a 7e bd e6 1d 81 bd
       -0.046014916 -0.04965622 -0.062021263 -0.06304531
0002c0 e1 47 09 3d f5 98 22 3d 64 49 62 bd b9 dc de 3c
       0.033515815 0.039696652 -0.055245772 0.027204858
0002d0 f2 2d 91 3d 3a db f8 bc 5d bb 8e bd b9 d1 a1 3c
       0.070888415 -0.030377973 -0.069693305 0.019753324
0002e0 6c 7e 18 bc 94 38 8a bd 99 1c bf bc 8c c1 b4 bc
       -0.009307485 -0.06749073 -0.023329066 -0.022064947
0002f0 fa c6 39 3d 84 b6 1f bd 1a 21 b3 3c 68 98 37 bd
       0.045355774 -0.03899242 0.02186637 -0.04482308

actor.6.bias f4 [3]
000000 da c7 0f 3e 83 41 02 bd c2 9a 52 bd
       0.14041081 -0.031800758 -0.05141712

critic.0.weight f4 [64, 1176]
000000 db 63 02 3d 2b 6e 59 bd 47 45 bf bc 33 89 97 bd
       0.03183351 -0.05308358 -0.023348464 -0.073992155
000010 6a 4b 65 3d 4b 86 0d bd c7 3d 34 bd 95 c9 20 3d
       0.055980124 -0.0345519 -0.044004228 0.039254744
000020 2b e1 23 bc ae 1d 06 3d 52 a1 4e bd 27 75 02 bd
       -0.010002415 0.03274315 -0.050446816 -0.031850006
000030 80 fb 99 3c 00 a7 89 bc 51 d5 3b 3d 4e 08 51 bb
       0.018796682 -0.016803265 0.04585773 -0.003189582
000040 22 45 85 3d fb 83 b7 bb 84 3d aa bd 95 26 60 3b
       0.06507327 -0.00560045 -0.083125144 0.0034202684
000050 d9 d6 f9 ba 68 7c da 3c 51 6e 5f bc 19 54 9d 3b
       -0.0019061222 0.02667065 -0.013637141 0.004801285
000060 e0 af e7 3d 53 d0 bd bc 67 9f 9f bd af 56 ad bc
       0.11312842 -0.023170626 -0.077940755 -0.021159498
000070 7c e7 76 bd 33 6a ca 3c 7c 3b 2c bc 8e 2f 84 bd
       -0.060279354 0.024708843 -0.010512229 -0.06454383
000080 24 37 da 3a f4 f1 99 bb 6b d8 22 3d a8 e3 3f bc
       0.0016648513 -0.0046980325 0.039757174 -0.011711992
000090 82 ca 20 3d 25 b1 6f 3c 52 ff 82 bd 5f 0f 0a bd
       0.039255626 0.014629637 -0.06396355 -0.033706065
0000a0 68 9f 15 bd 53 13 b1 bc 5d 79 35 3d 7d 7a 9c 3d
       -0.036528975 -0.02161566 0.044305194 0.0764055
0000b0 a2 6e 59 3d 8c 88 1d bd 76 f0 40 3d 3c a1 50 bc
       0.053084023 -0.0384603 0.04710432 -0.012733754
0000c0 dd 8d 91 3d bb b3 13 bc 38 56 f6 3d 22 58 bf 3b
       0.071071364 -0.009015019 0.12028164 0.0058393637
0000d0 57 31 9e 3c 86 03 24 bd d3 cd 6b bc 19 7a 73 3c
       0.019310636 -0.040042423 -0.014392334 0.014860653
0000e0 be d2 fa bc fa 52 7f bc 28 a0 98 bc b6 1b 4a 3d
       -0.030618068 -0.015583748 -0.018631056 0.049342833
0000f0 29 75 87 3a 67 f6 04 3d ee 3b b2 bc 35 88 d2 3c
       0.0010334599 0.03246155 -0.021757092 0.025699714
000100 f1 41 7a 3c 0c 26 ab 3d 11 1f 68 3d ef 22 8e bc
       0.015274511 0.08356866 0.056670252 -0.017350642
000110 4e 16 59 3d 7f 42 2b bd 14 4d 05 bd 2a 6b c5 bc
       0.052999787 -0.041811462 -0.03254421 -0.024098951
000120 67 7a 5e 3d 4b e3 1f 3d fa e6 75 bc bf 7b 33 3d
       0.05431595 0.039035123 -0.015008682 0.043819185
000130 fb 26 a5 3c 36 22 35 bd 34 1d 8a 3d 01 ed ae bc
       0.020160189 -0.04422208 0.06743851 -0.021353247
000140 e1 73 78 bd b9 bf 0c bb b3 18 a1 bd f0 2f c7 3c
       -0.060657386 -0.002147658 -0.07866039 0.02431485
000150 63 67 26 bd ff 37 e0 bc 93 83 0c bd a9 1f 5c bb
       -0.04062594 -0.027370451 -0.034305166 -0.0033588207
000160 d1 16 bd 3c 6a a6 6a bc 7a 8a 81 bc 0b d0 a0 bc
       0.023082169 -0.014321903 -0.015813101 -0.019630453
000170 7c 7a 94 3c ec ba fd bc d1 dd a7 bc 73 eb ef bc
       0.018124811 -0.03097292 -0.020491512 -0.029287076
000180 69 d8 73 bc c0 30 14 3d 7b 62 d7 bc a3 3f c3 3c
       -0.014883139 0.036179304 -0.026292076 0.023834055
000190 79 ea 2c 3c 93 94 b5 bd 51 9b 58 bb cc a9 3a 3d
       0.0105539495 -0.08866229 -0.003305156 0.045572087
0001a0 0c 22 5e 3d 5c 29 06 bd e0 58 ff bc 48 9a c3 3d
       0.05423169 -0.032754287 -0.031170309 0.09550911
0001b0 fe 60 4b 3c 11 71 82 3d f4 26 15 bc 89 9b a7 bc
       0.012413261 0.06369222 -0.009103525 -0.020459907
0001c0 dd 59 8b 3c 95 98 cb 3c 5e bc ca bc e8 54 6e bd
       0.017010624 0.02485303 -0.024748024 -0.05818644
0001d0 27 6a 0b 3d e6 1d 9b 3c bf 25 95 3d f7 5c 6a bd
       0.03403678 0.018935155 0.0728259 -0.057217564
0001e0 8c de 6d 3d a1 4e 68 3d cc d5 d5 3c 08 94 1d bd
       0.058073565 0.05671561 0.026102923 -0.03847125
0001f0 02 a9 aa bd 87 7b a0 3d b8 e8 fe bc e1 cb b5 3c
       -0.08333017 0.07836061 -0.031116828 0.022191944
000200 06 95 f3 bc 3d 64 60 3d 54 56 11 3c f7 ca 24 bd
       -0.029734146 0.054783095 0.00887068 -0.040232625
000210 6f 86 01 bc 05 54 70 3d d0 9a 85 3d 5f d3 54 bd
       -0.007905587 0.058673877 0.06523669 -0.05195939
000220 d1 c8 e8 bd 14 f2 2f 3d c0 a4 8c 3d ff ac b3 bc
       -0.11366428 0.042955473 0.06867361 -0.021933077
000230 f7 3e cb 3d 04 5b 89 3d 97 0e 39 3b 27 d2 0d 3d
       0.09924119 0.06706813 0.0028237456 0.034624245
000240 80 59 60 3d 93 99 34 3d 13 16 23 3d 5d 05 9c bc
       0.054772854 0.044091772 0.039815973 -0.019045526
000250 f1 14 ad 3b 87 bb 5e 3d 64 d2 35 bd 42 dc 1d 3d
       0.0052820374 0.05437806 -0.044390097 0.038540132
000260 05 c7 c5 3c 75 87 39 3c e3 50 80 bc 5f 0a 1b bb
       0.024142751 0.011323799 -0.01566357 -0.0023657305
000270 1e 64 9e 3d 77 d2 1a 3d 66 46 5a bd f4 31 d9 3a
       0.077339396 0.03779837 -0.053289793 0.0016570673
000280 5b 18 2b 3d eb e9 80 3b 65 18 ac bc 01 ce 14 3c
       0.041771274 0.003934135 -0.021007726 0.009082318
000290 f4 93 6d 3c 46 db 1c 3d 17 2c fa bc bc 03 1e bd
       0.014500607 0.038295053 -0.030538602 -0.03857778
0002a0 46 7b 7f 3d c3 06 64 bb 34 d0 35 bd 7d 13 5a 3d
       0.062373422 -0.003479407 -0.04438801 0.05324124
0002b0 a1 ea 4e 3b 74 fd 4d bc 7d f1 57 3d dd 95 7d bd
       0.0031572955 -0.012572635 0.052720536 -0.0619105
0002c0 56 96 0d bd 7b db d3 3c 2e fc be bc 57 88 95 bc
       -0.0345672 0.025861492 -0.023313608 -0.018253488
0002d0 03 8f 12 3d c0 fb c7 3c 2f 8a 6f 3c 3c 04 c1 bd
       0.035780918 0.024412036 0.014620348 -0.09424636
0002e0 20 dc b5 bc 39 00 cd bb 7b 04 18 3d 6a f4 06 3d
       -0.02219969 -0.00625613 0.037113648 0.032947935
0002f0 a5 e0 cb 3c bb 8e 13 bb fd ea 20 bc 4a bc 1e 3c
       0.024887392 -0.0022515494 -0.009821651 0.009688446
000300 9e 7e 45 3b a0 0e 86 3c 70 58 4c bd 7b c3 8f bc
       0.0030135284 0.016364396 -0.049889028 -0.017549267
000310 a4 7e 56 bc 39 62 3c 3d 2f fd 06 bd 6e f5 9a 3d
       -0.013091717 0.04599211 -0.0329563 0.07566343
000320 34 cd 83 bd 1d 35 50 3c f9 87 aa 3b d8 47 d0 3c
       -0.06435624 0.012707976 0.0052041975 0.025424883
000330 26 24 d1 3d f5 15 63 3d f0 df 13 bc 35 81 49 bd
       0.10211973 0.05544086 -0.009025559 -0.049195487
000340 43 80 89 3d 85 b7 0b 3d 0c 9a 84 bd bf 3c 26 3d
       0.06713917 0.034110565 -0.064746946 0.040585276
000350 73 ef c6 3d b5 8a 6e 3a 9f 3c ce 3c ca ce 0f 3c
       0.0971364 0.00090996485 0.02517539 0.00877733
000360 00 55 15 3b 01 65 0f bc f8 d6 45 bd b7 43 83 bc
       0.002278626 -0.008752109 -0.048300713 -0.0160235
000370 58 ed 87 3b a8 c2 66 bd a6 26 b1 3d 5d a5 14 3b
       0.0041481666 -0.056337982 0.0864995 0.0022681572
000380 f5 fd 4d 3d 53 d3 2e 3a 6e 4a c0 bc a2 82 e4 bc
       0.05029102 0.0006669063 -0.02347299 -0.027894322
000390 73 30 1f bc a6 35 ad 3d 4a e3 e0 3c 56 f2 58 3d
       -0.009716141 0.08457498 0.02745213 0.052965485
0003a0 d3 b3 d4 bc 03 e1 47 bc 87 0a f6 bc 44 7c dd bc
       -0.025964653 -0.012199643 -0.030034317 -0.027036794
0003b0 99 2b 8f 3b f1 45 ab 3c fd 90 88 3d 8b 7b 37 bd
       0.004369211 0.020907374 0.06668279 -0.044795554
0003c0 62 3c 74 bd 8c c2 83 3d 7b ea 94 bc d1 68 0c 3c
       -0.059627898 0.06433591 -0.018178215 0.008569912
0003d0 64 b3 8f 3d d3 2c 98 3d ed e0 01 3d be fb be 3c
       0.07016638 0.074304245 0.031708647 0.0233134
0003e0 ca 24 42 3c c1 98 b0 3c b5 e9 c1 3d 77 32 f7 3c
       0.0118495915 0.021557214 0.09468404 0.03017543
0003f0 1f 22 85 3d 48 b9 c7 3b 77 a2 2f 3d a6 2a b4 3b
       0.06500649 0.0060950853 0.042879548 0.005498248

critic.0.bias f4 [64]
000000 1e f5 86 bb 1a 30 89 3b 15 6d 8a bb 64 1c 8e bb
       -0.0041185757 0.0041866424 -0.0042244294 -0.0043368805
000010 85 54 86 3b 3f ca 8f 3b 35 11 8e bb 32 23 8a bb
       0.004099431 0.0043881233 -0.0043355473 -0.0042156214
000020 d2 44 82 3b aa 68 89 3b 95 2d a2 bb ba 41 98 3b
       0.003975489 0.004193385 -0.0049492815 0.004646507
000030 af 2f 87 bb f6 9a 87 bb 7b 7e 98 bb 62 3f 92 bb
       -0.0041255574 -0.004138346 -0.0046537495 -0.004463122
000040 eb f8 86 bb 17 d1 84 3b 60 ab 89 bb c3 3b 90 3b
       -0.004119029 0.0040532458 -0.0042013377 0.0044016554
000050 c6 52 86 3b 65 9b 8b bb bc 22 8a bb 9a 6f 88 3b
       0.004099223 -0.004260468 -0.0042155664 0.0041636946
000060 ba 1e 93 3b 71 e5 84 bb dc 93 8d 3b 5b af a0 bb
       0.004489747 -0.004055672 0.0043206047 -0.0049037165
000070 8d 41 89 3b 7d 97 98 3b 17 49 88 3b b8 81 85 bb
       0.0041887225 0.0046567307 0.0041591036 -0.0040743016
000080 ee 38 9e bb fe 8f 82 bb e2 b2 a0 bb 3b 4c 8c bb
       -0.004828564 -0.0039844504 -0.004904137 -0.0042815483
000090 ad 33 8e 3b 9b 6a 81 3b 3e 6c 90 bb 25 62 94 bb
       0.0043396563 0.003949476 -0.0044074347 -0.0045283013
0000a0 27 96 87 3b b3 cb 8c 3b 05 18 8b bb 3f d1 82 bb
       0.0041377726 0.004296744 -0.0042448067 -0.0039922292
0000b0 9c d4 94 3b 98 0d 8b bb b8 53 9d 3b 9f ef 8e 3b
       0.0045419466 -0.004243564 0.00480124 0.004362061
0000c0 7f 08 94 3b f2 1d 8f bb 33 cc 9b 3b 9d 96 96 3b
       0.0045176144 -0.0043675834 0.004754567 0.004595591
0000d0 4d 0a 87 bb f2 c8 8e 3b ed 8d a3 3b 1a 2c 85 bb
       -0.004121101 0.0043574506 0.004991284 -0.004064095
0000e0 3c a5 83 3b 98 7f 83 3b b3 9d 96 bb a0 a6 89 bb
       0.0040175 0.004013013 -0.004596436 -0.0042007715
0000f0 ec de 8d 3b 6d fd 8a 3b 1f df 98 3b 83 d7 93 bb
       0.004329553 0.0042416365 0.00466527 -0.004511775

critic.2.weight f4 [128, 64]
000000 d7 3c da bd 3c 80 63 3d 0e c2 bd 3d df c2 89 bd
       -0.106561355 0.055542216 0.092655286 -0.06726622
000010 2e a2 c3 bc a9 1e 30 3e 7c d9 8b 3e 54 46 bf bd
       -0.023881044 0.17199196 0.27314365 -0.09339586
000020 34 43 f4 bd 7e f6 05 3d fe c0 af 3d 0e 2d 3c be
       -0.119268805 0.032705776 0.08581732 -0.18376562
000030 62 a6 1f 3d 87 34 19 be fb 7a b3 bc c6 d2 67 3c
       0.038977034 -0.14961444 -0.021909228 0.014149373
000040 02 77 33 3e 42 5b 2a bd c2 0c e9 bd db a9 da bd
       0.17525867 -0.041590936 -0.113793865 -0.106769286
000050 fc bf 64 3d 28 b5 01 3e 73 f5 75 be 04 7d 91 3a
       0.055847153 0.12666762 -0.24019413 0.001109988
000060 a5 58 3e 3c b7 8c 93 bd 7d d3 48 3d ff 36 1b 3d
       0.011617814 -0.072045736 0.049029816 0.037894245
000070 05 ed b9 bc fc b5 4c be 16 c0 d0 bd 10 5a 7c 3e
       -0.022696028 -0.19991297 -0.101928875 0.24643731
000080 e4 a6 28 3e 91 59 32 be 7d eb 24 3e b5 fd a4 3c
       0.16469914 -0.1741698 0.16105457 0.020140508
000090 82 46 80 bc 9a 31 87 be 6c 4b 03 be 03 99 4e be
       -0.01565862 -0.2640503 -0.1282174 -0.20175557
0000a0 54 f4 4e 3d 9d 71 5d bd 27 d1 ac bd 7a 01 9c bd
       0.05052598 -0.05406343 -0.0843833 -0.07617469
0000b0 c2 d7 86 bd 11 2d 61 3e b6 e7 42 bc 2d 24 f5 3d
       -0.06584121 0.21989848 -0.0118960645 0.119697906
0000c0 71 bc e5 3c 70 ba b2 bd 77 7c a1 bd 06 03 33 bc
       0.028043957 -0.087269664 -0.07885068 -0.010926014
0000d0 56 dd 07 be 97 6f cf 3c 53 41 29 be 76 34 5c 3e
       -0.13268027 0.025321765 -0.16528825 0.21504387
0000e0 29 8f 58 bc f6 76 43 bb 34 e6 a4 3d bb a2 8f 3d
       -0.013217726 -0.0029825545 0.0805172 0.0701346
0000f0 f8 69 84 bd 6b ef af 3d cc 49 aa bd 91 21 f5 bd
       -0.064655244 0.08590587 -0.08314857 -0.11969293
000100 e4 3d 41 3d 26 17 0a be 0c fc 3d 3e f0 a9 33 3e
       0.047178164 -0.13485393 0.1855318 0.17545295
000110 49 c9 1a 3e 08 f3 3b bd f7 6e f2 3b 36 cc f9 3b
       0.15115847 -0.04588607 0.007398482 0.007623221
000120 91 9a 9c bd 5e 59 2d bd e7 20 93 bd 6a 4b 22 3d
       -0.07646669 -0.042321555 -0.0718401 0.0396227
000130 36 29 0b be 02 0a b2 bc 3d 96 3c 3d 69 55 9c bd
       -0.1358994 -0.021733288 0.046041716 -0.07633478
000140 c6 7d 4d bc d9 a3 3c 3e b0 81 20 be 89 86 10 be
       -0.012542194 0.18421878 -0.15674472 -0.14113821
000150 02 b6 68 bd 64 aa 8f bd b8 ce a9 bd 27 0c 92 3d
       -0.0568142 -0.07014921 -0.082913816 0.07131224
000160 43 46 ad bd 4c c8 17 bd 91 31 ec 3d e5 9b 22 3d
       -0.08460667 -0.037056252 0.115328915 0.039699454
000170 6a 6a 2b 3d 4d 53 8c 3d 6b 40 8d 3d d0 cc e0 bd
       0.04184953 0.06851826 0.068970524 -0.10976565
000180 bf c5 45 be d8 93 5a 3b 27 b5 57 3e 8a aa d5 3c
       -0.19313715 0.0033352282 0.21065198 0.026082296
000190 57 9e 38 be 80 24 aa 3d d4 fc 3c 3e 66 e3 52 bd
       -0.18029152 0.08307743 0.18455821 -0.051486395
0001a0 42 1c 3c bd 2a 8d a1 3d 70 75 09 bd a0 36 65 bc
       -0.045925386 0.07888253 -0.033559263 -0.013990074
0001b0 44 e5 51 3e 18 82 2e bd e4 54 09 3e ca c4 02 3d
       0.20497614 -0.042604536 0.1341129 0.031925954
0001c0 80 ea 12 3d d7 6d 19 3e 38 80 3c 3e 5a fd a8 3d
       0.035868168 0.14983307 0.18408287 0.08251448
0001d0 a3 e6 43 be b3 42 03 3e 1e 18 4b bd 5a 60 ab bd
       -0.1913095 0.12818412 -0.049583547 -0.08367987
0001e0 fb 0c 17 bd db e9 54 3d 11 1c 5f be 3a f4 6c bd
       -0.036877614 0.051980834 -0.2178805 -0.0578501
0001f0 da 53 04 be 5c 52 c1 bd 51 56 24 bd 08 e3 98 bd
       -0.12922612 -0.09439537 -0.04012138 -0.07465178
000200 da 0d 94 3c 1d 63 4e 3d fc 71 f9 bd 2a 81 4e be
       0.018073011 0.05038749 -0.12179944 -0.2016646
000210 3d b1 75 3e 7b b3 a1 3c cb 94 ba bd 8e e7 b2 bc
       0.23993392 0.019738903 -0.09110411 -0.02183893
000220 89 9e 01 be 96 a2 ee bd f8 16 06 be 13 5c d6 3d
       -0.12658133 -0.116521046 -0.130947 0.104667805
000230 97 7f 90 3e 7b 06 25 be 2f 54 76 3d e9 68 f4 3d
       0.28222343 -0.16115753 0.060138877 0.119340725
000240 f8 dd f0 bc 20 26 b6 bd 49 cb c7 3d 61 e2 9b 3d
       -0.029402718 -0.088939905 0.097555704 0.07611538
000250 b4 32 51 be 61 ac 03 be 35 09 ed bd 87 b4 b4 3c
       -0.20429498 -0.12858726 -0.11574022 0.022058738
000260 ca ed 21 bc 74 6b 06 3e 8d 91 51 bd a1 b9 be 3d
       -0.0098833535 0.13126928 -0.0511642 0.0931275
000270 d7 5b 63 3e 4c 21 7b be c5 a5 30 bd 9b b3 69 3c
       0.22203003 -0.2452442 -0.04312684 0.014264013
000280 90 ac 4b 3e b1 78 c9 bd ed ad 9d 3d e2 c6 8a bd
       0.19890046 -0.09837473 0.07699189 -0.06776215
000290 7c 27 8a be d0 f6 c2 3d 84 57 5c bc f9 d4 cc bd
       -0.2698325 0.09519732 -0.0134486 -0.10001559
0002a0 43 f0 18 3e e8 57 d8 3e 21 f5 5d bd 3a 58 1a 3e
       0.14935403 0.42254567 -0.05418885 0.15072718
0002b0 d0 e1 ac 3d 29 05 b0 3b 2b 6d bf bd 43 49 09 3b
       0.08441508 0.005371709 -0.09346994 0.0020948208
0002c0 63 44 57 3c 8d 2c 5d 3d 13 ba b8 3e a7 f6 32 bd
       0.013138863 0.053997565 0.36079463 -0.043692257
0002d0 87 f8 05 be 07 9c c1 3a 14 67 75 3d 0e c1 71 be
       -0.13083087 0.0014771231 0.059912756 -0.23608801
0002e0 64 83 6a bd 6d da 42 3d 92 23 7f 3c 8b 41 81 3d
       -0.05725421 0.04757159 0.0155724455 0.063113295
0002f0 b8 20 31 3e b6 eb 2b 3e aa 80 f0 bd b9 66 ec 3c
       0.17297637 0.16789135 -0.11743291 0.028857576
000300 7f e6 36 be c6 38 74 3c d5 2e 06 3d 12 86 6b 3d
       -0.17861365 0.014906114 0.032759506 0.057500906
000310 fb 36 b2 bd 73 7d 6c 3c 1d 0d 86 bd 50 64 0c 3d
       -0.08701893 0.014434206 -0.0654547 0.034275353
000320 b1 9a 70 3e 9f 6f 2f 3d 40 77 8e 3c 11 18 c1 bc
       0.2349651 0.04283106 0.017390847 -0.023571046
000330 31 e9 5a 3c c6 2c 31 3e f6 7c cb bc 09 91 49 be
       0.013361261 0.17302236 -0.02483986 -0.19684233
000340 01 03 87 3e 30 79 9c 3d 6c e9 a3 3e 9b 0e e0 3d
       0.2636948 0.07640302 0.32014024 0.10940286
000350 51 7a 05 be 1e 27 47 bc 84 0d 55 3d c6 17 e5 3c
       -0.13034941 -0.012155322 0.052014843 0.027965438
000360 ae f2 11 be cf e8 80 3e 67 a3 5e 3e cb 2a 10 3e
       -0.14252731 0.2517762 0.2174202 0.14078824
000370 38 16 e9 bd ce df 37 bd f6 a5 84 bc 33 d9 03 3c
       -0.11381191 -0.04489117 -0.016192418 0.00804739
000380 d5 a3 16 3e d6 74 db 3d 4a a8 be 3d 6a 1d 80 3d
       0.14710934 0.10715644 0.09309442 0.0625561
000390 a7 da 5e be e0 c8 01 be 38 ae 12 be d4 f2 8e 3c
       -0.21763097 -0.12674284 -0.14324272 0.017449774
0003a0 b9 90 3c be bb a0 b7 3d 45 50 72 3d 2b 4c 22 3d
       -0.18414582 0.08966204 0.059158582 0.03962342
0003b0 52 0b 48 3c a9 f1 3b be 5c 88 3b 3e 08 2c e8 bb
       0.01220973 -0.18353905 0.18313736 -0.007085327
0003c0 5b 44 2e 3d 5b 01 28 bc c5 7d 3a 3e df ae 25 3d
       0.042545658 -0.010254229 0.1821204 0.040449973
0003d0 b4 40 20 3e 75 d8 0e 3e fb b1 f5 bd 9b 0c d5 3d
       0.15649682 0.1394976 -0.11996838 0.10402795
0003e0 97 be 61 bb f0 f2 6e 3d 12 bf a1 3c d2 fd 4b be
       -0.0034445876 0.058337152 0.01974443 -0.19921044
0003f0 09 d4 6f be bd f8 d6 3d 41 94 23 3e d5 af bc 3d
       -0.23420729 0.10496662 0.15974523 0.09213225
