gym-multigrid-master/folder_test/actor_3_episode_30000.pth (torch, 101383 bytes, 11 tensors)

fc1.weight f4 [64, 294]
-0.060978107 0.023586642 -0.05050296 -0.052875057 -0.053500596 0.05800552 0.0240739 -0.028868966
-0.050934453 -0.031218512 0.022970688 -0.029412918 0.045773707 -0.045909148 -0.029725492 -0.053149316
-0.029425273 -0.0384349 0.011946213 -0.035067346 -0.021650784 -0.0010993816 -0.06399011 -0.036431536
-0.011078988 -0.02339966 0.023039512 -0.0037275702 -0.056685653 -0.010163706 0.026173847 0.03733982
-0.0025724135 0.044636436 0.052132744 -0.025265787 -0.0065999394 0.008101792 0.021304615 0.026906408
0.03171844 0.003216859 0.018237878 0.023610726 0.01037354 -0.041122854 -0.05469015 -0.055921778
-0.021081204 -0.048933372 -0.0068814233 0.046348408 -0.037099544 0.019695476 0.017388431 0.032168277
-0.03496076 0.005229965 -0.0319772 -0.000986591 0.02120046 -0.027645303 -0.049846575 0.038903594
0.029230164 -0.034642596 -0.050953183 0.028388673 0.017352782 0.02870959 -0.008727158 -0.006504163
0.032376576 0.046466466 0.04301498 -0.056270797 -0.019568903 0.038575083 -0.017110065 0.0048397146
0.011418976 0.004363604 0.0327507 0.014048412 -0.035505813 -0.05365291 0.056993835 0.04465606
0.0192253 0.04542627 -0.030533936 -0.033613104 -0.03421192 -0.053571433 0.029487541 0.05610764
-0.05215417 0.011343312 0.0098536685 0.031646132 -0.061540425 -0.03503927 -0.0044880346 0.041454755
0.01706206 -0.050988525 0.024416503 -0.052605823 -0.0381764 0.06393234 0.045527205 0.01646027
-0.010616568 0.038166456 -0.04466838 0.066439 0.029366896 0.009622484 0.02343581 -0.024231628
-0.008397524 -0.0075407745 -0.007878553 0.05181299 0.054134563 -0.02693145 -0.037443437 0.014004992
0.026012875 -0.038952682 -0.005037497 -0.013565484 0.01649408 0.012595829 0.057801 0.013349891
-0.00780111 0.03647217 -0.015151036 -0.022929873 0.029549375 -0.027789352 0.024037126 -0.027933747
0.03973053 -0.030440949 0.00022913888 0.01551903 -0.024028646 -0.0015875995 0.00155971 0.008333143
0.024533175 0.042556718 0.046210658 0.054005034 -0.0074674897 0.017371947 -0.045673087 0.042371064
0.005838644 -0.04482507 -0.009984117 -0.048671823 -0.005086001 -0.032892063 0.02251686 -0.028140666
-0.062065464 -0.010394388 -0.0023517907 0.03373406 -0.043238737 -0.0008052029 0.010446282 0.011503386
-0.00031613559 0.028473325 0.035717227 -0.015128218 0.012747243 0.030647043 0.044253692 -0.011731114
-0.032835305 -0.046562824 0.0074131405 -0.01881826 -0.03594797 -0.023128785 -0.02184832 0.014655687
0.045813564 0.032205705 -0.0069884807 0.039558187 0.011848853 0.053942144 0.0029417041 0.04295774
0.0041322373 -0.049048435 -0.054191064 0.049121387 0.03044475 0.006237979 0.00063353404 -0.05064937
-0.025490943 0.018614233 -0.0587394 0.004939937 0.03407626 -0.041557983 0.046711788 0.019636847
0.05243624 0.0035758005 0.019654244 0.025268942 0.044466708 0.056236587 0.0074752374 0.014023129
-0.05292476 0.05782132 0.046912223 -0.049553152 0.0014271729 0.015746646 -0.0032135174 0.03316561
-0.013748864 -0.0040274076 -0.0029111004 -0.04854575 0.036163695 0.043095693 0.008549284 -0.04707352
0.05180642 -0.043528423 0.036646783 -0.013031907 0.0012279655 -0.0012343675 0.004146125 0.022445038
-0.03730087 0.018487804 -0.04379345 0.055999994 -0.009861688 0.03484621 -0.006497003 0.017855056
00000000: 2ec4 79bd c638 c13c 31dc 4ebd 8493 58bd
00000010: 7123 5bbd 3297 6d3d a136 c53c 9c7e ecbc
00000020: a5a0 50bd f7bd ffbc 062d bc3c 5cf3 f0bc
00000030: 367d 3b3d 3b0b 3cbd e082 f3bc 19b3 59bd
00000040: 450d f1bc ea6d 1dbd 0dba 433c c7a2 0fbd
00000050: fc5c b1bc 2019 90ba 3f0d 83bd 3c39 15bd
00000060: a584 35bc a5b0 bfbc 5cbd bc3c 404a 74bb
00000070: 372f 68bd ac85 26bc 896a d63c a4f1 183d
00000080: f095 28bb b2d4 363d 2589 553d 32fa cebc
00000090: 4e44 d8bb 61bd 043c 0487 ae3c d46a dc3c
000000a0: 32eb 013d f0d1 523b 9a67 953c 486b c13c
000000b0: c8f5 293c 7070 28bd c702 60bd 3c0e 65bd
000000c0: 7db2 acbc 5c6e 48bd 907d e1bb d4d7 3d3d
000000d0: b1f5 17bd 6858 a13c 2f72 8e3c e2c2 033d
000000e0: 0433 0fbd 2060 ab3b 86fa 02bd 8050 81ba
000000f0: 96ac ad3c 6778 e2bc ec2b 4cbd 6059 1f3d
00000100: 1974 ef3c 65e5 0dbd 49b4 50bd 5d8f e83c
00000110: 6c27 8e3c 6030 eb3c 5bfc 0ebc e020 d5bb
00000120: 4d9d 043d 9f53 3e3d 7a30 303d 357c 66bd
00000130: f74e a0bc e800 1e3d 682a 8cbc 7896 9e3b
00000140: a816 3b3c 90fc 8e3b 9925 063d 502b 663c
00000150: 8b6e 11bd 27c3 5bbd 5e72 693d 46e9 363d
00000160: 607e 9d3c e610 3a3d 4e22 fabc e5ad 09bd
00000170: cc21 0cbd b86d 5bbd db8f f13c 20d1 653d
00000180: 9c9f 55bd 4dd9 393c 4871 213c 609f 013d
00000190: d011 7cbd 5685 0fbd 5d10 93bb 76cc 293d
000001a0: bcc5 8b3c 58d9 50bd 1e05 c83c 3479 57bd
000001b0: db5e 1cbd f5ee 823d bc7a 3a3d b0d7 863c
000001c0: 1df1 2dbc 6e54 1c3d 31f6 36bd 2c11 883d
000001d0: d892 f03c a0a7 1d3c 75fc bf3c 6881 c6bc
000001e0: c595 09bc 9a18 f7bb 0c15 01bc dc39 543d
000001f0: 34bc 5d3d 589f dcbc 4a5e 19bd 3275 653c
00000200: f418 d53c d98c 1fbd 9611 a5bb c441 5ebc
00000210: 981e 873c bc5e 4e3c bec0 6c3d 80b9 5a3c
00000220: 74a0 ffbb d863 153d 0d3c 78bc 6ed7 bbbc
00000230: 8811 f23c 7fa6 e3bc 82e9 c43c 50d5 e4bc
00000240: 7bbc 223d 4c5f f9bc 0045 7039 8843 7e3c
00000250: b9d7 c4bc 0017 d0ba 2f6f cc3a bc87 083c
00000260: ccf9 c83c f44f 2e3d 6347 3d3d 6234 5d3d
00000270: d8b1 f4bb 9d4f 8e3c b413 3bbd 488d 2d3d
00000280: 1952 bf3b 7e9a 37bd 6c94 23bc 1b5c 47bd
00000290: 78a8 a6bb d4b9 06bd 4775 b83c 4187 e6bc
000002a0: 5b38 7ebd 394d 2abc 8020 1abb ba2c 0a3d
000002b0: 1a1b 31bd 4014 53ba e226 2b3c b378 3c3c
000002c0: 00bf a5b9 e440 e93c 3a4c 123d 58dc 77bc
000002d0: d0d9 503c 820f fb3c 5c43 353d dc33 40bc
000002e0: 507e 06bd a9b8 3ebd eee9 f23b c028 9abc
000002f0: 2e3e 13bd 9478 bdbc 3ffb b2bc 681e 703c
00000300: 01a7 3b3d 21ea 033d a0ff e4bb c407 223d
00000310: b121 423c 70f2 5c3d 9bc9 403b 75f4 2f3d
00000320: b867 873b 03e7 48bd 73f7 5dbd 8233 493d
00000330: 4567 f93c f667 cc3b c013 263a b775 4fbd
00000340: 62d2 d0bc e07c 983c ba98 70bd 32df a13b
00000350: 8c93 0b3d b438 2abd dc54 3f3d 74dd a03c
00000360: 62c7 563d fa57 6a3b f001 a13c d000 cf3c
00000370: b922 363d 5658 663d d6f2 f43b 44c1 653c
00000380: a2c7 58bd 0cd6 6c3d 0827 403d 3ff8 4abd
00000390: fa0f bb3a 1cff 803c e099 52bb aad8 073d
000003a0: ea42 61bc 58f8 83bb 29c8 3ebb e9d7 46bd
000003b0: 6220 143d 1c85 303d 4c12 0c3c 2ad0 40bd
000003c0: f832 543d dc4a 32bd f01a 163d c883 55bc
000003d0: aff3 a03a 80ca a1ba 38dc 873b a8de b73c
000003e0: ccc8 18bd bc73 973c c360 33bd 4060 653d
000003f0: eb92 21bc e6ba 0e3d d0e4 d4bb c444 923c

fc1.bias f4 [64]
0.011990022 0.05547198 -0.06289672 -0.00989976 0.02493132 0.007092999 0.010576246 -0.013133439
-0.04865952 -0.04006977 0.025300805 -0.010581681 -0.006626833 0.025878724 -0.053955805 -0.0064245486
-0.05912465 -0.02548021 -0.026987834 0.006432996 0.050446503 0.006706959 -0.033082772 -0.02438475
0.04931619 0.008247761 0.04392612 0.053727146 -0.016692484 0.1033555 0.17128254 0.031992134
0.038369622 0.02633091 0.00058945804 0.097785875 0.011136935 0.11555096 -0.017358948 0.10804932
0.052868377 -0.045945846 0.013509929 -0.041951947 0.0295648 0.019144041 0.0154736135 -0.028574903
0.008153327 -0.0075260117 -0.04630892 0.01130036 -0.011270561 0.016243983 0.06344456 0.07780212
-0.0035355864 -0.06629435 0.03792805 0.030836333 0.0016985905 -0.014404779 -0.035051707 -0.020914797
00000000: cc71 443c 9636 633d ffcf 80bd 9a32 22bc
00000010: c53c cc3c 636c e83b fe47 2d3c a32d 57bc
00000020: 344f 47bd 3320 24bd a243 cf3c c95e 2dbc
00000030: e825 d9bb 9eff d33c c300 5dbd 0585 d2bb
00000040: b02c 72bd e0bb d0bc 9715 ddbc e2cb d23b
00000050: fea0 4e3d 0dc6 db3b cd81 07bd 87c2 c7bc
00000060: c6ff 493d 9e21 073c e0eb 333d ff10 5c3d
00000070: adbe 88bc 0cac d33d b164 2f3e 2f0a 033d
00000080: 7729 1d3d ecb3 d73c dc85 1a3a f643 c83d
00000090: b177 363c fba5 ec3d 5a34 8ebc f648 dd3d
000000a0: 838c 583d b631 3cbd c058 5d3c ced5 2bbd
000000b0: e131 f23c f7d3 9c3c 0a85 7d3c ea15 eabc
000000c0: 8895 053c c39c f6bb 6cae 3dbd 2525 393c
000000d0: 29a8 38bc 1a12 853c 39ef 813d b856 9f3d
000000e0: 4cb5 67bb 55c5 87bd 715a 1b3d 7a9c fc3c
000000f0: 3da3 de3a 0602 6cbc 6192 0fbd 8255 abbc

fc2.weight f4 [64, 64]
0.10078347 0.0051899077 0.023774981 -0.095561996 0.060552146 0.010845798 0.0316975 0.13193677
0.03078723 0.041855842 -0.090328686 -0.10584015 -0.08582713 -0.05162261 0.04312065 0.027201043
-0.020586904 -0.024108635 -0.03111933 0.010106347 0.116256095 0.04162719 -0.045247275 0.11942608
-0.019702274 -0.08546412 -0.050671197 0.10640729 0.07459506 0.059864495 0.12349812 -0.049831044
-0.06584581 -0.09037077 0.06258188 0.044106394 0.07977862 0.13535973 0.030952938 0.11686336
0.1054951 0.096087046 0.004902285 -0.08782473 0.06577601 -0.0305923 -0.05158091 -0.01838477
-0.0799678 0.05291523 -0.032005183 -0.035330877 0.09036418 -0.14318682 0.062423512 0.07499738
-0.078473784 -0.06924234 0.07849394 -0.019763367 -0.002028481 0.0031703261 0.08762799 0.12026766
0.10456076 0.13453703 0.11892799 -0.09598082 0.030629152 0.11681716 -0.093611926 -0.12537166
0.07451881 0.010790215 0.018359432 -0.019430704 0.13631049 0.09527368 0.1124986 0.029538812
-0.031199096 0.0026412 0.04871707 0.036056574 -0.056075275 -0.10033049 -0.014152622 -0.07607377
-0.11763901 0.09557873 0.021344133 -0.001708208 -0.06509911 -0.014613429 -0.16728286 0.08675677
-0.059409723 0.028861027 0.016711416 0.025482623 -0.037529845 -0.07992883 0.093371704 0.014953247
0.12220661 0.032982975 0.023827102 -0.09864682 -0.12723054 -0.10257977 0.08825453 0.04031656
0.11847316 0.05971105 0.0034753229 0.10054658 0.011184098 -0.08433704 -0.09005345 0.00033463884
-0.063218765 -0.106314294 -0.021512497 -0.009946876 0.023247274 0.010801786 0.060818132 -0.06222407
0.12451433 -0.0149778295 0.15077195 0.035295654 0.10614099 -0.114253275 0.044751897 -0.017432623
0.09503748 -0.107970044 -0.090265736 -0.05325472 0.09949686 -0.043029603 0.033711907 -0.010847879
0.031296674 0.14145783 0.025498547 -0.08384271 -0.108073704 0.14481178 -0.023679273 -0.07801302
0.12166204 0.09504114 0.07045669 0.010650916 0.09913306 -0.070025235 -0.061864745 0.067791924
-0.05206576 0.090061955 -0.08523652 -0.10668385 0.055383414 0.06970826 0.062192507 -0.10287774
0.08164726 0.088276654 -0.023826366 0.014421392 -0.10576716 0.0061297785 -0.10789848 0.11454239
0.016756047 -0.11419375 -0.029055467 -0.03501593 -0.09760444 0.074880905 -0.022222135 0.023190053
-0.009245663 -0.007966587 0.052537028 0.00739739 0.12098635 -0.02837484 0.022165827 -0.09380952
0.13726942 -0.014004135 0.124033906 -0.01416727 -0.0046981545 -0.017931221 -0.087841526 -0.21269566
0.12922318 0.07043565 -0.046628546 -0.12099884 -0.07552382 0.10365726 -0.06684906 -0.0018502307
0.12081049 0.061806906 0.011866596 0.05070976 0.10776882 -0.10434527 -0.008161885 -0.101798795
0.06643825 -0.07307608 -0.09421505 -0.08778119 0.0025272719 -0.06279586 -0.0494082 0.028221326
0.13060166 0.046099547 -0.09047521 -0.08149613 0.03558399 -0.14874357 0.034740932 -0.043171424
-0.10486644 0.030670866 -0.044071358 -0.06647379 -0.144893 -0.04122629 0.13747892 0.05729413
0.11157408 -0.03887247 0.04011863 0.11282882 -0.08073207 0.08290383 0.014935242 0.114725485
-0.00054726173 -0.07088126 -0.054894123 0.04032667 -0.08451055 0.056655087 0.03296609 0.02603254
00000000: 9067 ce3d 1a10 aa3b c0c3 c23c 02b6 c3bd
00000010: 8705 783d 93b2 313c 3dd5 013d 6f1a 073e
00000020: 8035 fc3c 0871 2b3d 3ffe b8bd b8c2 d8bd
00000030: 22c6 afbd 3b72 53bd 479f 303d b9d4 de3c
00000040: dea5 a8bc 797f c5bc f7ed febc 1795 253c
00000050: ad17 ee3d 4681 2a3d 3555 39bd a995 f43d
00000060: aa66 a1bc d007 afbd 9a8c 4fbd 11ec d93d
00000070: 4bc5 983d 7934 753d 95ec fc3d a31b 4cbd
00000080: 2bda 86bd 4f14 b9bd ee2a 803d e8a8 343d
00000090: f962 a33d be9b 0a3e 0491 fd3c 0f56 ef3d
000000a0: d10d d83d 49c9 c43d 59a3 a03b 74dd b3bd
000000b0: 93b5 863d b49c fabc 8146 53bd a89b 96bc
000000c0: 28c6 a3bd a4bd 583d de17 03bd 1cb7 10bd
000000d0: db10 b93d 919f 12be ccaf 7f3d 3a98 993d
000000e0: ddb6 a0bd eece 8dbd 6ec1 a03d c9e6 a1bc
000000f0: 44f0 04bb 3fc5 4f3b 4e76 b33d e44e f63d
00000100: f423 d63d 13c4 093e 8590 f33d 9891 c4bd
00000110: fde9 fa3c d63d ef3d 9cb7 bfbd 6e61 00be
00000120: 519d 983d 71c9 303c 8566 963c 242d 9fbc
00000130: fa94 0b3e d91e c33d aa65 e63d 61fb f13c
00000140: 3f95 ffbc fc17 2d3b 8d8b 473d 0fb0 133d
00000150: 30af 65bd 127a cdbd 66e0 67bc 91cc 9bbd
00000160: b9ec f0bd c8be c33d e4d9 ae3c f3e5 dfba
00000170: af52 85bd 2a6d 6fbc 334c 2bbe 89ad b13d
00000180: 9c57 73bd f66d ec3c 61e6 883c efc0 d03c
00000190: e5b8 19bd bab1 a3bd aa39 bf3d 77fe 743c
000001a0: 7647 fa3d 2819 073d 0e31 c33c 5807 cabd
000001b0: b948 02be 5815 d2bd cbbe b43d fa22 253d
000001c0: 0ea2 f23d 9393 743d 3ec2 633b 5eeb cd3d
000001d0: 823d 373c e6b8 acbd f16d b8bd 7772 af39
000001e0: d778 81bd 4fbb d9bd fa3a b0bc 39f8 22bc
000001f0: 1171 be3c f9f9 303c 6f1c 793d abde 7ebd
00000200: 5e01 ff3d 9265 75bc f663 1a3e 2d92 103d
00000210: 7360 d93d 9ffd e9bd c44d 373d dcce 8ebc
00000220: 03a3 c23d 661f ddbd 3edd b8bd 9f21 5abd
00000230: 02c5 cb3d cf3f 30bd 7f15 0a3d 4dbb 31bc
00000240: f130 003d 52da 103e 54e2 d03c bab5 abbd
00000250: bf55 ddbd 8a49 143e 09fb c1bc 4ac5 9fbd
00000260: f329 f93d eea4 c23d 994b 903d 2e81 2e3c
00000270: 4606 cb3d 6469 8fbd e365 7dbd 7ed6 8a3d
00000280: e842 55bd 6772 b83d 7c90 aebd 107d dabd
00000290: b8d9 623d 34c3 8e3d 92bd 7e3d 91b1 d2bd
000002a0: ae36 a73d 64ca b43d 832f c3bc b447 6c3c
000002b0: 749c d8bd 4fdc c83b e1f9 dcbd 3395 ea3d
000002c0: fa43 893c 6ade e9bd bb05 eebc dd6c 0fbd
000002d0: d6e4 c7bd 295b 993d 320b b6bc 11f9 bd3c
000002e0: 1f7b 17bc 4a86 02bc 1131 573d ce65 f23b
000002f0: b1c7 f73d 5a72 e8bc 1c95 b53c 351f c0bd
00000300: 5b90 0c3e 9971 65bc 7d05 fe3d d61d 68bc
00000310: faf2 99bb 7fe4 92bc 42e6 b3bd e4cc 59be
00000320: 1553 043e 9140 903d 93fd 3ebd 3dce f7bd
00000330: 3cac 9abd 424a d43d 29e8 88bd 7183 f2ba
00000340: 7d6b f73d 3d29 7d3d 1c6c 423c 0ab5 4f3d
00000350: e6b5 dc3d f9b2 d5bd 6db9 05bc e37b d0bd
00000360: c710 883d e9a8 95bd d2f3 c0bd a0c6 b3bd
00000370: 96a0 253b 1e9b 80bd 4160 4abd 6930 e73c
00000380: 71bc 053e e1d2 3c3d 114b b9bd 71e7 a6bd
00000390: 85c0 113d 3c50 18be 824c 0e3d 85d4 30bd
000003a0: 37c4 d6bd 7841 fb3c 2b84 34bd 6923 88bd
000003b0: d55e 14be e6dc 28bd 46c7 0c3e 40ad 6a3d
000003c0: f480 e43d bd38 1fbd 6f53 243d cc12 e73d
000003d0: db56 a5bd 7cc9 a93d f2b2 743c 32f5 ea3d
000003e0: 1d76 0fba 322a 91bd a9d8 60bd 942d 253d
000003f0: de13 adbd 2a0f 683d 7307 073d 3142 d53c

fc2.bias f4 [64]
0.13361096 -0.06927906 0.04415025 -0.075819425 -0.068476185 0.03961364 -0.04624042 0.04590089
-0.03653446 -0.049880743 -0.042215668 0.06065122 0.06995992 0.08979161 0.06355763 -0.050477438
-0.03145291 0.025629766 0.041293137 0.11077039 0.09153298 -0.01322478 0.07544132 -0.03480025
0.07569645 0.008995576 0.06155675 0.12933151 -0.037174344 -0.0051702713 0.052941024 0.039755665
0.06688149 -0.08538246 0.086133614 0.069037125 -0.08237682 -0.049648207 -0.09197114 0.11384791
0.006203237 -0.028567895 0.11296475 -0.11387062 0.099149294 -0.0066643422 -0.06989471 -0.10970388
-0.078062914 0.021033196 -0.014947191 0.055391666 0.0100334855 -0.0050335038 0.044999585 -0.023300003
0.107662804 0.028343577 -0.041311577 -0.04180788 -0.054166384 0.046370614 0.0028297966 -0.020431798
00000000: 50d1 083e 2ee2 8dbd e4d6 343d 3747 9bbd
00000010: 3e3d 8cbd ea41 223d 9866 3dbd 9202 3c3d
00000020: 28a5 15bd c04f 4cbd 56ea 2cbd 6a6d 783d
00000030: 2647 8f3d aae4 b73d 812a 823d 6ec1 4ebd
00000040: c4d4 00bd 84f5 d13c fe22 293d 96db e23d
00000050: a575 bb3d bfac 58bc fb80 9a3d b58a 0ebd
00000060: be06 9b3d 2e62 133c ee22 7c3d 7b6f 043e
00000070: 2044 18bd 616b a9bb b0d8 583d d6d6 223d
00000080: 2af9 883d 00dd aebd d266 b03d 5663 8d3d
00000090: 2eb5 a8bd eb5b 4bbd 5d5b bcbd 1829 e93d
000000a0: 8644 cb3b 3807 eabc 105a e73d 0035 e9bd
000000b0: c90e cb3d 8e60 dabb f524 8fbd 6eac e0bd
000000c0: 73df 9fbd cf4d ac3c 10e5 74bc 5fe2 623d
000000d0: 7d63 243c 17f0 a4bb 7c51 383d a6df bebc
000000e0: 517e dc3d ca30 e83c 5436 29bd bd3e 2bbd
000000f0: 92dd 5dbd 1def 3d3d 1c74 393b 9660 a7bc

actor_Q.1.weight f4 [8, 64]
-0.07969723 0.08754189 0.09119549 -0.10011744 -0.050383244 0.012990005 -0.19035912 0.098840974
0.02181223 0.10827126 0.15654437 0.1372898 -0.068378456 0.08852534 0.06981176 -0.04969481
-0.026465727 -0.13570929 -0.09399845 0.08851169 -0.003585584 0.0611441 -0.09673081 0.00488514
-0.08804652 -0.035486992 0.109060235 -0.0010455311 0.10958383 -0.0070508416 -0.080617525 0.038187638
0.07970487 0.10830619 0.112611346 -0.021984084 0.008376404 -0.1737005 0.13273998 0.1097335
-0.049970288 -0.0037011127 -0.05920956 0.016089711 0.14218956 -0.14055224 0.010762904 0.09999683
-0.030515226 0.083334886 0.0568558 -0.053684536 -0.10771674 -0.041888036 0.13567993 0.09299655
-0.011819998 0.077745155 0.071664676 0.036160696 -0.12306246 -0.05360109 -0.08038768 -0.03830406
0.042768136 -0.0522145 -0.09776316 -0.06936286 -0.009239396 -0.04189735 0.040559497 0.10422338
0.069414556 0.023954308 -0.034235593 -0.116413504 0.046067555 -0.08507976 -0.04957451 0.08938625
-0.1024624 -0.101048954 -0.050219912 -0.11093528 -0.01057768 0.064704046 0.08679895 0.09060202
0.0018550274 0.07753948 0.08702308 -0.09399858 0.11924046 0.08915679 -0.078489535 -0.09066942
0.032521594 0.09263778 0.08514633 -0.006615378 -0.026864562 -0.005976018 -0.044529986 0.1541655
-0.024026133 -0.025249043 -0.033223554 0.056422606 -0.008067274 0.04990032 0.024447568 -0.010719469
0.013216928 -0.06360799 0.12342358 -0.12731631 -0.068583496 0.0045624287 -0.05963276 -0.06350617
0.057671536 -0.025101854 0.0036349075 0.029771674 -0.004833967 0.09750931 0.11838143 -0.07598547
0.1338073 -0.056503832 -0.061091527 0.059442263 -0.07836801 -0.08251183 0.1768288 -0.062496282
-0.17934245 0.01824961 -0.00085454877 0.038020603 0.076550595 0.024568144 0.15143475 0.024216266
0.014147161 -0.078492425 0.07038791 0.0919621 -0.06351638 -0.15675913 0.11379548 0.13903388
-0.010308464 -0.033283204 -0.007858178 -0.022988142 0.075515404 0.09127967 0.17670426 -0.039708186
0.033605065 0.0029277462 0.036021344 0.034014612 0.004032242 0.19537179 -0.121544875 -0.03276427
0.051644627 -0.09524512 -0.0675657 -0.020023914 -0.14078927 0.11028189 -0.13490464 0.025433226
0.028974812 0.07610708 -0.049372938 0.0925707 0.012073674 0.06310014 -0.11615391 0.07848918
-0.09546171 0.031812623 0.13761212 -0.048964668 -0.008904788 0.07800814 0.11667865 0.058728166
-0.2044023 -0.063531615 0.12464619 -0.009185625 0.06861775 -0.14173557 -0.005906298 0.057237357
0.09679041 0.04495415 0.13488702 0.011021736 0.04464897 0.0464273 0.02017687 -0.044372406
-0.014757242 -0.01499832 0.012136962 -0.09349043 -0.031555623 -0.05182213 0.02068406 -0.1175881
-0.041851647 0.045293994 0.114931636 0.12227655 0.03748098 -0.10048725 0.064773895 0.024281261
-0.062481266 0.02600538 -0.012439587 -0.01803104 0.12601222 -0.1856107 -0.07551918 -0.088606685
-0.017033845 0.046396617 0.048218213 -0.02615095 0.1015771 -0.0450691 0.019946385 -0.024402924
0.051833186 0.08166262 0.0887906 -0.068952255 -0.04916285 -0.11281775 0.079501286 0.02753658
-0.03288521 0.063427426 0.051970553 -0.0069394293 0.08551225 -0.099062495 0.048496198 0.084262215
00000000: 4d38 a3bd 2a49 b33d b3c4 ba3d 5f0a cdbd
00000010: a95e 4ebd 08d4 543c 80ed 42be 236d ca3d
00000020: 90af b23c 53bd dd3d 2b4d 203e b395 0c3e
00000030: 010a 8cbd c64c b53d 78f9 8e3d c98c 4bbd
00000040: a7ce d8bc 60f7 0abe 4282 c0bd 9e45 b53d
00000050: 1efc 6abb 3c72 7a3d ce1a c6bd 8613 a03b
00000060: bc51 b4bd cf5a 11bd f95a df3d 340a 89ba
00000070: 7d6d e03d bf0a e7bb cd1a a5bd a46a 1c3d
00000080: 4f3c a33d a3cf dd3d c7a0 e63d f717 b4bc
00000090: 2f3d 093c 8bde 31be fdec 073e f5bb e03d
000000a0: a5ad 4cbd 5e8e 72bb b985 72bd 92ce 833c
000000b0: 249a 113e edec 0fbe e456 303c 23cb cc3d
000000c0: 11fb f9bc 7bab aa3d a1e1 683d 51e4 5bbd
000000d0: 989a dcbd ca92 2bbd aeef 0a3e fa74 be3d
000000e0: aaa8 41bc da38 9f3d eec4 923d 3d1d 143d
000000f0: 2c08 fcbd d18c 5bbd 4ca2 a4bd b8e4 1cbd
00000100: a42d 2f3d dfde 55bd 0d38 c8bd 1d0e 8ebd
00000110: d660 17bc 8e9c 2bbd b721 263d 1173 d53d
00000120: 3829 8e3d d33b c43c 9f3a 0cbd 346a eebd
00000130: 55b1 3c3d 4c3e aebd a40e 4bbd 2310 b73d
00000140: cfd7 d1bd c1f2 cebd 65b3 4dbd 0932 e3bd
00000150: 014e 2dbc 8e83 843d a6c3 b13d 8d8d b93d
00000160: 6424 f33a 05cd 9e3d 2839 b23d 5482 c0bd
00000170: 5834 f43d d697 b63d 1fbf a0bd e4b0 b9bd
00000180: 5d35 053d e0b8 bd3d 3361 ae3d d0c5 d8bb
00000190: 1213 dcbc 79d2 c3bb 1365 36bd 90dd 1d3e
000001a0: 74d2 c4bc 15d7 cebc 6c15 08bd 641b 673d
000001b0: 992c 04bc 4764 4c3d 4446 c83c b6a0 2fbc
000001c0: d08b 583c e844 82bd 80c5 fc3d 355f 02be
000001d0: 8175 8cbd 6d80 953b 7b41 74bd 860f 82bd
000001e0: fd38 6c3d 67a2 cdbc a137 6e3b bae3 f33c
000001f0: 4166 9ebb f6b2 c73d f771 f23d 459e 9bbd
00000200: c804 093e 9070 67bd 1c3b 7abd bb79 733d
00000210: 687f a0bd f6fb a8bd 9c12 353e 1afc 7fbd
00000220: 8ca5 37be 3580 953c cc03 60ba 7ebb 1b3d
00000230: 8fc6 9c3d 2243 c93c b611 1b3e 3161 c63c
00000240: 7ec9 673c a3c0 a0bd 8927 903d a056 bc3d
00000250: e014 82bd 7785 20be 9b0d e93d e65e 0e3e
00000260: d5e4 28bc f853 08bd 96bf 00bc a151 bcbc
00000270: d2a7 9a3d d6f0 ba3d f6f1 343e 0da5 22bd
00000280: 77a5 093d 6edf 3f3b 1e8b 133d e852 0b3d
00000290: e620 843b 8b0f 483e 85ec f8bd d433 06bd
000002a0: 5189 533d e00f c3bd e35f 8abd 3109 a4bc
000002b0: 102b 10be 79db e13d 7124 0abe 5759 d03c
000002c0: 965c ed3c 07de 9b3d 473b 4abd b595 bd3d
000002d0: a9d0 453c a53a 813d 1ae2 edbd efbe a03d
000002e0: 6e81 c3bd f44d 023d 31ea 0c3e 2d8f 48bd
000002f0: 63e5 11bc bbc2 9f3d 37f5 ee3d f28c 703d
00000300: d64e 51be dd1c 82bd 8046 ff3d 4e7f 16bc
00000310: 7787 8c3d 2123 11be 9e89 c1bb b871 6a3d
00000320: 0d3a c63d d821 383d d31f 0a3e 8394 343c
00000330: d7e1 363d 8d2a 3e3d f749 a53c d7bf 35bd
00000340: 5cc8 71bc 83bb 75bc 1cda 463c e977 bfbd
00000350: 7840 01bd 7143 54bd 9e71 a93c 08d2 f0bd
00000360: a26c 2bbd 3286 393d 4761 eb3d 216c fa3d
00000370: a885 193d 42cc cdbd 2da8 843d 7fe9 c63c
00000380: 5bec 7fbd 3c09 d53c 69cf 4bbc d5b5 93bc
00000390: 5909 013e bb10 3ebe cda9 9abd 6c77 b5bd
000003a0: 908a 8bbc 610a 3e3d 7680 453d 843a d6bc
000003b0: a807 d03d 609a 38bd 9a66 a33c a4e8 c7bc
000003c0: 094f 543d bb3e a73d d9d7 b53d d736 8dbd
000003d0: fc5e 49bd fe0c e7bd 92d1 a23d 6594 e13c
000003e0: a4b2 06bd 3de6 813d 13df 543d 2764 e3bb
000003f0: 0c21 af3d 47e1 cabd f3a3 463d ab91 ac3d

actor_Q.1.bias f4 [8]
-0.031625014 -0.0041988264 -0.10312104 0.09983322 0.08058739 0.08042969 -0.019302707 0.076061204
00000000: 3b89 01bd 4f96 89bb 2031 d3bd 5c75 cc3d
00000010: 000b a53d 52b8 a43d b620 9ebc fac5 9b3d

actor_K.1.weight f4 [8, 64]
-0.096473314 -0.12190597 -0.112150155 -0.036184136 -0.082203396 0.108462565 0.043111347 0.11634268
0.078598134 -0.020032963 -0.09195202 0.12058828 -0.096129194 0.08335829 -0.0641418 -0.09082217
-0.12131546 0.02856084 -0.004892544 -0.033078484 0.05861799 -0.123474546 0.083212696 0.07210238
0.08950238 0.054046746 0.014820493 0.02892609 0.02294543 0.05881213 0.05596381 -0.0825317
0.08243318 0.0034344625 -0.045566935 0.021947252 0.10137779 -0.11474145 -0.04210914 -0.090359256
-0.03680136 0.05878873 -0.045227382 -0.01743034 -0.024303922 0.021098606 0.068111055 0.119100116
-0.088179395 0.022242602 0.09729927 0.06267381 -0.012769189 -0.06838042 -0.06865295 -0.10169821
-0.022244068 -0.049356345 -0.08189829 0.030978436 -0.01029925 -0.06798269 -0.09606415 0.0421519
0.12238946 -0.008344218 0.13848765 0.09979084 0.14426355 0.07170737 0.10133962 0.03423282
-0.084885694 0.0874273 -0.037149277 0.052471455 -0.031838335 0.07921669 0.06809216 0.037459526
-0.09677613 -0.07015499 0.09338934 0.121896796 0.030740352 -0.0989431 0.06490796 -0.019361444
-0.074295826 0.15765816 -0.01246423 0.0015048396 0.010474712 -0.014943268 0.055258576 -0.09323739
0.06613097 0.037466917 0.13689935 -0.07275955 -0.08723918 -0.04372635 0.087227166 -0.05780431
0.01843765 -0.10744386 0.09636473 0.14263596 -0.03491086 0.058988657 0.022766307 -0.05639191
-0.035474055 0.11779882 -0.11545451 -0.03699609 -0.07063571 -0.048404828 -0.015133019 0.123385325
-0.047731206 0.109534256 0.108772166 -0.011743435 0.069571294 0.06540594 -0.0424768 -0.052376352
0.08069048 0.009362542 0.06958609 0.01672581 -0.062606156 0.025468452 0.08004179 0.09450859
-0.04892108 0.1263382 -0.039683245 0.055534203 -0.0870873 0.08546475 -0.01368381 0.1043808
0.19770032 0.007534996 -0.053073853 -0.08224794 -0.12084349 0.14141579 0.07952768 0.06264789
-0.1128416 -0.1051575 -0.07635706 0.054213144 -0.06360601 0.0914457 0.018200371 -0.0803596
0.091620766 0.10444418 0.033702057 -0.037701335 -0.05900005 0.08464387 0.13673148 0.064720176
0.055137828 0.057445172 0.15243793 0.046100773 -0.05453252 0.079691894 -0.07513878 0.11113516
0.1079659 -0.014360111 0.028888416 0.119295426 -0.038648296 -0.049361456 0.042187482 0.078998625
0.10966167 0.09573431 0.027733091 -0.0050507793 0.007418129 0.043057527 0.05885777 0.028127518
0.075840436 -0.099555604 0.01948692 0.0026533199 -0.12556775 0.1284642 0.0076948595 0.029470243
-0.008685723 0.09994079 -0.05743221 -0.11214957 -0.10285319 -0.10405082 0.044889435 0.08940329
0.02990414 -0.013779143 0.09582889 -0.08472758 0.023615375 0.03621538 0.046193574 0.039590914
-0.18399926 -0.088647254 -0.055802833 -0.06450422 -0.0147719495 0.06408507 0.07065528 0.04602367
-0.13494317 -0.02608626 0.0003619529 -0.08440054 0.1206853 0.0131297475 -0.045429263 -0.066581964
-0.04485032 0.016211474 0.12664656 -0.08464863 0.03618657 0.10762676 0.009508486 0.07920354
0.07758415 -0.022900665 -0.120012306 -0.08970645 -0.0177842 -0.082320906 -0.0836295 -0.11953652
-0.103161655 -0.05722314 0.10090886 -0.16343708 -0.034163967 0.12524986 0.081529714 -0.099632464
00000000: cd93 c5bd d6a9 f9bd fbae e5bd d135 14bd
00000010: 415a a8bd 9f21 de3d 8695 303d 1245 ee3d
00000020: 0ff8 a03d 2b1c a4bc 5751 bcbd fdf6 f63d
00000030: 62df c4bd c0b7 aa3d c75c 83bd f900 babd
00000040: 3d74 f8bd 6cf8 e93c a251 a0bb 4e7d 07bd
00000050: 6b19 703d 39e0 fcbd 6b6b aa3d 6aaa 933d
00000060: 064d b73d 1f60 5d3d a7d1 723c 68f6 ec3c
00000070: 0ef8 bb3c fde4 703d 4f3a 653d 6106 a9bd
00000080: bad2 a83d b814 613b 65a4 3abd b9ca b33c
00000090: 299f cf3d 91fd eabd a27a 2cbd 460e b9bd
000000a0: 06bd 16bd 74cc 703d 5940 39bd 13ca 8ebc
000000b0: 0519 c7bc fcd6 ac3c cf7d 8b3d c3ea f33d
000000c0: 6697 b4bd 1e36 b63c d744 c73d 205b 803d
000000d0: dc35 51bc 090b 8cbd eb99 8cbd 2747 d0bd
000000e0: 3139 b6bc e129 4abd 4aba a7bd 7dc6 fd3c
000000f0: 2fbe 28bc 823a 8bbd 48bd c4bd 78a7 2c3d
00000100: 53a7 fa3d 30b6 08bc b5cf 0d3e 245f cc3d
00000110: d3b9 133e 50db 923d 268b cf3d b737 0c3d
00000120: 8dd8 adbd 160d b33d d729 18bd 4fec 563d
00000130: ea68 02bd 5c3c a23d e773 8b3d 296f 193d
00000140: 9032 c6bd 6bad 8fbd e942 bf3d 07a5 f93d
00000150: 31d3 fb3c aea2 cabd 77ee 843d e49b 9ebc
00000160: 6928 98bd 2471 213e c536 4cbc 0a3e c53a
00000170: 209e 2b3c 9cd4 74bc d156 623d 3ff3 bebd
00000180: ad6f 873d e976 193d 582f 0c3e f502 95bd
00000190: 75aa b2bd 671a 33bd 28a4 b23d 36c4 6cbd
000001a0: 8e0a 973c 870b dcbd df5a c53d 290f 123e
000001b0: b1fe 0ebd 179e 713d 6880 ba3c 34fb 66bd
000001c0: 3e4d 11bd 8240 f13d 6a73 ecbd 3689 17bd
000001d0: 75a9 90bd 2444 46bd 7bf0 77bc 72b1 fc3d
000001e0: cc81 43bd 7f53 e03d f1c3 de3d 8967 40bc
000001f0: 657b 8e3d 8df3 853d 27fc 2dbd 9688 56bd
00000200: 0d41 a53d 5965 193c 2783 8e3d 9104 893c
00000210: a837 80bd 37a3 d03c f3ec a33d b88d c13d
00000220: 7861 48bd cd5e 013e e68a 22bd d577 633d
00000230: d45a b2bd 2508 af3d 0f32 60bc 9ac5 d53d
00000240: f471 4a3e 21e8 f63b f863 59bd 9c71 a8bd
00000250: cb7c f7bd 4dcf 103e 69df a23d 894d 803d
00000260: 7f19 e7bd d15c d7bd 1761 9cbd 9a0e 5e3d
00000270: de43 82bd e247 bb3d f218 953c 9393 a4bd
00000280: aba3 bb3d d5e6 d53d 2b0b 0a3d b76c 1abd
00000290: 09aa 71bd c459 ad3d 5603 0c3e 038c 843d
000002a0: 34d8 613d a14b 6b3d b018 1c3e 2ad4 3c3d
000002b0: 7e5d 5fbd 8135 a33d 5ce2 99bd d59a e33d
000002c0: 3a1d dd3d ac46 6bbc 66a7 ec3c 2951 f43d
000002d0: ad4d 1ebd 3d2f 4abd c8cc 2c3d 08ca a13d
000002e0: 4c96 e03d 5a10 c43d 8230 e33c 0281 a5bb
000002f0: c713 f33b 175d 303d d814 713d ae6b e63c
00000300: 3b52 9b3d cfe3 cbbd 09a3 9f3c 52e3 2d3b
00000310: d594 00be 1f8c 033e 2925 fc3b 946b f13c
00000320: 904e 0ebc c2ad cc3d 093e 6bbd acae e5bd
00000330: b1a4 d2bd 9918 d5bd fcdd 373d 1219 b73d
00000340: 87f9 f43c eac1 61bc f041 c43d a785 adbd
00000350: 0875 c13c 9456 143d 7935 3d3d 152a 223d
00000360: 4d6a 3cbe b18c b5bd 8391 64bd ca1a 84bd
00000370: 0c06 72bc 083f 833d b7b3 903d 5183 3c3d
00000380: 8b2e 0abe dab2 d5bc 7fc4 bd39 31da acbd
00000390: db29 f73d 271e 573c 0914 3abd 205c 88bd
000003a0: f8b4 37bd edcd 843c a3af 013e 435c adbd
000003b0: 5e38 143d 6b6b dc3d 7bc9 1b3c 7735 a23d
000003c0: 70e4 9e3d 2d9a bbbc 03c9 f5bd 04b8 b7bd
000003d0: 2cb0 91bc dd97 a8bd f145 abbd 90cf f4bd
000003e0: 6b46 d3bd d062 6abd 4ea9 ce3d 0d5c 27be
000003f0: 84ef 0bbd 8041 003e 0df9 a63d 1b0c ccbd

actor_K.1.bias f4 [8]
0.020290291 -0.08645087 -0.015441129 0.032806028 0.069483936 -0.06889349 -0.038938787 -0.018645683
00000000: d337 a63c 270d b1bd cafc 7cbc 9d5f 063d
00000010: 984d 8e3d 0818 8dbd 477e 1fbd d5be 98bc

actor_V.1.weight f4 [3, 64]
-0.108969785 -0.10058826 0.052685592 -0.009052719 0.019529939 -0.06155648 0.023969296 0.06389681
0.001728838 0.07982923 -0.03291229 -0.09149107 -0.14526871 -0.10594668 -0.13955085 -0.06884919
-0.117722265 0.106929585 -0.20105135 0.039886493 0.084071115 -0.17805088 0.014989808 0.1016876
-0.105912186 0.091729425 -0.03744752 -0.06673661 -0.10128044 -0.13721026 -0.022980144 0.10859394
0.06552104 -0.11041293 -0.09599564 -0.025582392 -0.039357454 -0.005894624 0.112600155 -0.17829062
-0.04603957 0.06524273 0.110066794 -0.10133226 -0.12734121 0.122773774 -0.047319006 0.06276878
-0.088823624 0.023222834 0.10826014 0.022437464 0.087746814 0.019353194 -0.18614729 -0.10256228
0.06472695 0.04756262 0.07039538 0.04436941 -0.05638812 0.016538166 -0.10078507 0.12250578
-0.21874881 0.14004217 0.07040018 0.18340495 0.11104472 -0.2502411 -0.1503926 -0.065203525
0.07399228 0.0034393638 0.114365466 0.08061463 0.043247696 -0.031166485 -0.010214874 -0.112653926
0.035437014 -0.011527052 -0.22302376 -0.09289407 0.032099605 -0.10185405 -0.11925425 -0.061768275
0.12446164 0.018903581 -0.101622224 -0.003972796 -0.14082663 -0.10988407 -0.12862425 -0.0039966074
0.016273651 -0.14965662 -0.033290986 -0.04905488 -0.10061062 -0.026031742 0.079630345 -0.15133166
0.15677132 0.02494533 0.021280594 -0.117484525 -0.041486613 0.020201499 0.13684662 0.051945202
-0.10745655 -0.04115585 0.044589497 0.011498261 -0.03200464 -0.017895952 -0.001642618 -0.01980821
0.110710464 0.058157384 0.05110735 -0.108883984 -0.02710299 0.08131739 0.08121792 0.042300075
0.2165763 -0.016061947 -0.07664459 0.0031751385 0.0509419 0.12296204 0.071250655 -0.09460937
-0.12056682 -0.084737055 0.061247654 -0.11005907 0.21298207 0.05670873 0.23974456 -0.070428565
-0.03265448 -0.017499322 0.012918589 0.009762738 -0.14460509 0.08447105 0.22318272 0.03964566
0.04813517 -0.12700799 0.048554435 0.13651267 0.14794628 -0.10684897 0.23427185 0.010285535
-0.13908567 0.21083188 -0.15650699 -0.1002374 -0.008401692 0.12881166 -0.105056785 0.2153784
-0.14672421 0.014904957 0.03362982 -0.06388212 -0.119257025 -0.07573894 -0.082073934 -0.069937885
0.09689611 -0.07744205 -0.042955533 -0.13698733 0.016255701 -0.042808384 0.22384799 -0.08902732
-0.14468147 -0.14048281 0.015694343 0.17354847 0.08516036 0.12206712 -0.010337195 -0.14724208
00000000: 8d2b dfbd 3801 cebd d9cc 573d db51 14bc
00000010: 40fd 9f3c a622 7cbd 425b c43c 55dc 823d
00000020: 2d9a e23a 827d a33d 0acf 06bd ac5f bbbd
00000030: 52c1 14be 93fa d8bd 6be6 0ebe ce00 8dbd
00000040: 5f18 f1bd e6fd da3d 68e0 4dbe 0560 233d
00000050: 7a2d ac3d f852 36be d097 753c 9741 d03d
00000060: 7de8 d8bd a3dc bb3d 9262 19bd 34ad 88bd
00000070: 1f6c cfbd d980 0cbe db40 bcbc 8066 de3d
00000080: e52f 863d 2d20 e2bd 5d99 c4bd 2a92 d1bc
00000090: 4835 21bd b127 c1bb e99a e63d d191 36be
000000a0: fd93 3cbd fb9d 853d b36a e13d 4a87 cfbd
000000b0: bc65 02be d170 fb3d 93d1 41bd eb8c 803d
000000c0: 29e9 b5bd d03d be3c 7eb7 dd3d c6ce b73c
000000d0: 9ab4 b33d 978a 9e3c 659d 3ebe 2c0c d2bd
000000e0: 908f 843d 06d1 423d 742b 903d b3bc 353d
000000f0: 3bf7 66bd 0c7b 873c 6768 cebd 4fe4 fa3d
00000100: b0ff 5fbe 3767 0f3e f82d 903d 82ce 3b3e
00000110: 6a6b e33d 9a1f 80be 8500 1abe 6d89 85bd
00000120: 4489 973d f366 613b 7138 ea3d 4819 a53d
00000130: 7f24 313d db50 ffbc 495c 27bc 1ab7 e6bd
00000140: 6726 113d f6db 3cbc 5760 64be 3f3f bebd
00000150: e07a 033d db98 d0bd 923b f4bd bb00 7dbd
00000160: bfe5 fe3d afdb 9a3c 501f d0bd 3a2e 82bb
00000170: db34 10be e60a e1bd 13b6 03be f9f5 82bb
00000180: 5250 853c 963f 19be 215c 08bd c5ed 48bd
00000190: f10c cebd 8540 d5bc 3c15 a33d b0f6 1abe
000001a0: a988 203e 265a cc3c a454 ae3c ba9b f0bd
000001b0: deed 29bd 9d7d a53c 8521 0c3e 7ec4 543d
000001c0: 2e12 dcbd 0993 28bd 7aa3 363d 3463 3c3c
000001d0: 4c17 03bd 889a 92bc 1d4d d7ba d444 a2bc
000001e0: 2bbc e23d 7036 6e3d f155 513d 91fe debd
000001f0: 1707 debc bb89 a63d 9555 a63d d842 2d3d
00000200: 2dc6 5d3e 5894 83bc d7f7 9cbd fc15 503b
00000210: 74a8 503d 86d3 fb3d ddeb 913d 8fc2 c1bd
00000220: bdeb f6bd 9f8a adbd d2de 7a3d a666 e1bd
00000230: f917 5a3e 6a47 683d 997f 753e da3c 90bd
00000240: b4c0 05bd bd5a 8fbc 7da8 533c e4f3 1f3c
00000250: 5b13 14be 28ff ac3d 038a 643e 7d63 223d
00000260: 6229 453d 620e 02be 04e1 463d fac9 0b3e
00000270: 3b7f 173e a2d3 dabd f6e4 6f3e a984 283c
00000280: 796c 0ebe 50e4 573e 5e43 20be 4449 cdbd
00000290: 40a7 09bc 34e7 033e 0328 d7bd 288c 5c3e
000002a0: df3e 16be ec33 743c 6cbf 093d a1d4 82bd
000002b0: 073d f4bd 041d 9bbd 6116 a8bd 983b 8fbd
000002c0: 7871 c63d f099 9ebd 24f2 2fbd 6846 0cbe
000002d0: ad2a 853c d857 2fbd 6838 653e f553 b6bd
000002e0: 6127 14be bada 0fbe 6c91 803c b1b6 313e
000002f0: 8e68 ae3d 54fe f93d 575d 29bc a1c6 16be

actor_V.1.bias f4 [3]
0.008501662 0.08415815 0.14648502
00000000: 8e4a 0b3c 1c5b ac3d 2b00 163e

expert_K.weight f4 [1, 8]
0.41533977 -0.4826067 -0.9938726 0.40909836 -0.32662022 1.3106868 0.44248772 0.6764985
00000000: 6aa7 d43e 3a18 f7be 6f6e 7ebf 5775 d13e
00000010: c43a a7be 96c4 a73f c08d e23e 012f 2d3f
