gym-multigrid-master/folder_test/actor_1_episode_30000.pth (torch, 101383 bytes, 11 tensors)

fc1.weight f4 [64, 294]
0	0x3b663fed	0.0035133318
1	0x3d174d8f	0.0369392
2	0xbce82af2	-0.02834079
3	0xbd16cd3a	-0.036816813
4	0x3c981da5	0.018568823
5	0x3cd7cdb4	0.026343204
6	0x3c7a7a76	0.015287986
7	0xbd39bc4d	-0.045345593
8	0xbcf68881	-0.030094387
9	0x3b4af620	0.0030969456
10	0x3d4bc022	0.04974378
11	0x3ca08e50	0.01959911
12	0xbd238502	-0.039921768
13	0x3cdc9c0b	0.026929876
14	0xbd136b77	-0.03599116
15	0xbd3c26d0	-0.045935452
16	0x3d6f5459	0.05843005
17	0xbd3b1f85	-0.045684356
18	0xbd313991	-0.04326779
19	0x3d7f2df7	0.062299695
20	0xbcf33fd5	-0.029693523
21	0xbcb27046	-0.021782052
22	0x3d0bd16b	0.034135263
23	0x3d6aa196	0.057283007
24	0x3d7b5a7a	0.061365582
25	0x3d321735	0.043479163
26	0xbd687f34	-0.056761935
27	0xbd59b05d	-0.05314671
28	0x3d332e34	0.043745235
29	0x3c860fb4	0.01636491
30	0x3aaf9247	0.0013395034
31	0xbd100ccf	-0.035168465
32	0xbcb8d6c6	-0.02256335
33	0x3d069cea	0.03286449
34	0x3cfae8bf	0.03062856
35	0xbc154ab8	-0.009112053
36	0xbc180599	-0.009278678
37	0xbb75772f	-0.0037455072
38	0x3d625154	0.05525334
39	0xbca81eb4	-0.020522453
40	0x3d3e3c10	0.046444
41	0xbd6d6af1	-0.057963315
42	0xbc6a89d2	-0.0143150855
43	0x3cfeb583	0.03109241
44	0x3d2c6026	0.04208388
45	0xbd4a50ad	-0.049393345
46	0x3cec082d	0.028812492
47	0xbbc584a8	-0.0060277767
48	0xbc72987a	-0.014806861
49	0x3d84a940	0.064775944
50	0x3d4b919a	0.049699403
51	0x3d494444	0.04913737
52	0xbc254dc3	-0.010089341
53	0xbb85afb0	-0.0040797815
54	0x3b2ac72b	0.0026058655
55	0xbca8af58	-0.020591423
56	0x3c853558	0.016260788
57	0x3ce754a0	0.028238595
58	0x3d38cede	0.04511916
59	0x3cd22504	0.025652416
60	0xbc572af3	-0.0131327985
61	0x3d8614f5	0.06546966
62	0xbccbff72	-0.02490208
63	0xbbbd3b18	-0.005774867
64	0xbbf2a78b	-0.0074052266
65	0xbc812572	-0.015764926
66	0x3d7df502	0.062001236
67	0xbb8449e8	-0.0040371306
68	0xbd215cde	-0.039395206
69	0x3d64b6d0	0.055838406
70	0x3d071249	0.032976422
71	0x3c98d144	0.018654473
72	0xbc5c21d4	-0.0134358
73	0x3cf70743	0.03015483
74	0x3c98d178	0.01865457
75	0x3d5aa04a	0.05337552
76	0xbca3c1fa	-0.019989956
77	0x3d48c686	0.04901745
78	0x3c6d54e4	0.0144855715
79	0x3d82ab3f	0.06380319
80	0xbd65b457	-0.05608019
81	0x3c449148	0.011997528
82	0x3d69b0ae	0.05705326
83	0xbc5a1e04	-0.01331282
84	0xbc0d03e2	-0.008606883
85	0xbcf9964e	-0.030467179
86	0xbd2d304e	-0.042282395
87	0x3aa6e140	0.0012731925
88	0x3ccc0313	0.02490381
89	0x3d5e26e4	0.054236308
90	0xbd4b5dfd	-0.04965018
91	0xbd08e6f9	-0.033423398
92	0xbd5e1e2a	-0.054227985
93	0xbd15ff6d	-0.036620546
94	0x3c81ae16	0.015830081
95	0xbc9eea22	-0.019398753
96	0x3d472885	0.048622627
97	0x3c02b254	0.007977087
98	0x3d020208	0.03174022
99	0x3b9c2d30	0.004766129
100	0x3cc7491e	0.024326857
101	0x3cad22e8	0.021134809
102	0xbd2a2668	-0.041540533
103	0xbd248215	-0.04016312
104	0x3d31ba7e	0.043390743
105	0xbd2ca7db	-0.042152267
106	0xbd3101fc	-0.043214783
107	0xbc831cac	-0.016004883
108	0xbccc29b1	-0.024922224
109	0x3c5652b1	0.013081239
110	0xbc7543b0	-0.014969751
111	0xbca40720	-0.020022929
112	0xbd019a72	-0.03164143
113	0x3d092150	0.033479035
114	0x3d79eb5d	0.061015476
115	0x3b4ad5fd	0.00309503
116	0x3d37af12	0.044844694
117	0xbc47b160	-0.012188286
118	0xbbc77a9b	-0.0060876138
119	0xbb977e20	-0.0046231896
120	0xbd1111b8	-0.03541729
121	0x3bb7485f	0.005593344
122	0xbb7d29c0	-0.0038629621
123	0x3d348a7c	0.04407738
124	0xbd238021	-0.039917115
125	0xbc703e1c	-0.0146632455
126	0x3d4c9f38	0.04995653
127	0xbd3a3e85	-0.04546978
128	0x3c1c6f68	0.009548046
129	0xbd11c4e6	-0.035588168
130	0xbca524ac	-0.020159088
131	0xbcc5ecbe	-0.024160739
132	0x3d1804c3	0.037113916
133	0xbc9805b9	-0.018557416
134	0x3b741be0	0.003724806
135	0x3c5e4a18	0.01356747
136	0xbd16e630	-0.036840618
137	0xbbe5f360	-0.007017538
138	0x3d365bd4	0.044521168
139	0x3c6ffa32	0.014647054
140	0xbbc27a68	-0.005935002
141	0xbd2a8333	-0.041629028
142	0x3b149e31	0.0022677297
143	0x3cafc99c	0.02145844
144	0xbd09c6a4	-0.033636704
145	0x3ba45757	0.0050152945
146	0xbce9e977	-0.028553708
147	0x3d5626f6	0.05228325
148	0xbd47e05c	-0.04879795
149	0xbd2220a4	-0.03958191
150	0xbcaa9a52	-0.020825539
151	0x3d6637b8	0.05620548
152	0xbcf5820f	-0.029969243
153	0xbc0b3394	-0.008496184
154	0xbcb01864	-0.021496005
155	0xbceea54f	-0.02913156
156	0x3d4dc325	0.050234932
157	0x3cfd226d	0.030900205
158	0x3d315afc	0.04329966
159	0x3d3a5d12	0.045498915
160	0xbceb4b29	-0.028722363
161	0xbc00aff4	-0.0078544505
162	0x3cc954f4	0.024576642
163	0x3c9069be	0.017628547
164	0x3d0d0126	0.034424923
165	0x3bd28880	0.0064249635
166	0x3c95b623	0.018275326
167	0x3b290864	0.0025792355
168	0x3d874ccc	0.06606445
169	0x3d004213	0.031313013
170	0xbc8a7a28	-0.016903952
171	0x3d2a2c28	0.041546017
172	0x3c61e209	0.013786801
173	0xbd6a04b4	-0.05713339
174	0x3d2a6b0a	0.041605987
175	0xbd394661	-0.045233134
176	0x3bb60960	0.005555317
177	0x3ca0becc	0.019622229
178	0x3d4c3550	0.04985553
179	0x3d4567a6	0.04819455
180	0x3d6ee010	0.05831915
181	0x3d535a56	0.051599823
182	0x3d3cb622	0.046072133
183	0xbcb8d692	-0.022563253
184	0xbc25c728	-0.010118283
185	0xbd11c834	-0.03559132
186	0x3d251e37	0.04031202
187	0x3a5d42f3	0.0008440457
188	0xbc26c91c	-0.010179784
189	0x3ac05d80	0.0014676303
190	0xba6fa188	-0.00091411965
191	0x3cdda58c	0.027056478
192	0xbce253f0	-0.027627915
193	0x3d6047a7	0.054755833
194	0x3d57b35e	0.052661292
195	0xbd0afc8c	-0.033932254
196	0xbd355e20	-0.044279218
197	0xbae623e0	-0.0017558299
198	0x3cac1de8	0.021010354
199	0x3cea6e7d	0.028617138
200	0x3d617caa	0.05505053
201	0x3d1df90c	0.038567588
202	0x3c9f5efc	0.019454472
203	0xbd1899fc	-0.037256226
204	0x3c74dd9d	0.014945415
205	0x3d3de565	0.046361346
206	0xbc57bed4	-0.013168056
207	0xbd15b6a0	-0.036551118
208	0x3b66c2ef	0.0035211404
209	0xbd53bdb1	-0.051694576
210	0x3d5e3c59	0.05425677
211	0x3d4af5eb	0.049550932
212	0x3d6a457c	0.05719517
213	0x3cd4f774	0.025996901
214	0x3c86d18e	0.016457345
215	0xbc9e7258	-0.019341633
216	0x3c3bcfba	0.0114631
217	0x3ce25210	0.027627021
218	0x3ca98220	0.020691931
219	0x3b2dcf20	0.0026521161
220	0x3d608a74	0.05481954
221	0xbc0f634c	-0.008751702
222	0x3c860dcd	0.016364003
223	0xbce13a0d	-0.027493501
224	0xb9df1b80	-0.00042554364
225	0xbd5c7dbb	-0.053830843
226	0x3ce6e23e	0.028184053
227	0xbd0e9b3e	-0.03481602
228	0xbcc176dc	-0.023616247
229	0x3c7f7508	0.015591867
230	0xbc640564	-0.013917301
231	0xbd54ca00	-0.051950455
232	0xbc4e83f4	-0.012604702
233	0xbd1bf614	-0.038076475
234	0xbd39e27d	-0.04538201
235	0x3d6fc967	0.05854168
236	0x3d02b436	0.031910144
237	0x3bfd9e10	0.00773979
238	0xbce73711	-0.0282245
239	0x3c3161e8	0.010826565
240	0x3cd53a5f	0.02602881
241	0x3d1c43bf	0.038150545
242	0xbd2d1d1a	-0.04226408
243	0xbd1f2ffa	-0.038864113
244	0xbc79e63c	-0.015252646
245	0x3ca30870	0.019901484
246	0xbd1693e5	-0.036762137
247	0x3d01cc7f	0.031689163
248	0xbd17ad6c	-0.037030622
249	0x3c881338	0.016610727
250	0xbceef0fd	-0.029167647
251	0xbd5883d4	-0.052860096
252	0xbd0b63cc	-0.03403072
253	0x3bc1ac9b	0.0059104688
254	0x3c60b468	0.013714887
255	0x3c4d9520	0.012547761

fc1.bias f4 [64]
0	0x3d4c695b	0.049905162
1	0xbd0ef298	-0.034899324
2	0xbcd3bf97	-0.025848193
3	0xbd0dbce2	-0.03460396
4	0x39afbf74	0.00033521245
5	0xbb2c9ee2	-0.0026339819
6	0xbbccd722	-0.006251232
7	0x3de27334	0.110571295
8	0x3d15e436	0.036594592
9	0xbd7abab3	-0.061213206
10	0x3d5268a7	0.051369336
11	0x3daa7fdd	0.08325169
12	0xbbe3a527	-0.006947178
13	0x3d1c6a49	0.0381873
14	0xbd155643	-0.03645922
15	0x3d1bea96	0.038065515
16	0xbb36471c	-0.002781338
17	0xbc8178dd	-0.015804702
18	0xbc8fe0aa	-0.017563183
19	0xbcd482c7	-0.025941266
20	0xbcb02957	-0.021504087
21	0xbc06b9cb	-0.008223007
22	0xbd30dfe1	-0.043182258
23	0x3cf1f20c	0.029534362
24	0x3d586121	0.052827004
25	0xbd40cd44	-0.047070757
26	0x3d6f75a9	0.05846182
27	0x3c48add2	0.012248473
28	0x3d21e624	0.03952612
29	0x3cff1501	0.031137945
30	0x3bdae00e	0.0066795414
31	0x3cb0fcd0	0.021604925
32	0xbc929a8b	-0.017895957
33	0xbc8ba90e	-0.017048385
34	0x3c9fc004	0.01950074
35	0x3db4be9e	0.0882542
36	0x3d597fb8	0.053100318
37	0xbcced552	-0.025248203
38	0xbc3229db	-0.010874237
39	0x3da24efe	0.07925223
40	0xbd8401b3	-0.064456366
41	0xbd765c02	-0.06014634
42	0xbd84ecd5	-0.064904846
43	0x3d3c5863	0.04598273
44	0x3d5b1cd6	0.053494297
45	0xbb770c5b	-0.0037696573
46	0xbd05a5aa	-0.032628693
47	0xbd0c20bc	-0.034210905
48	0xbcb2467a	-0.021762121
49	0xbd492ae0	-0.049113154
50	0xbd86cdf9	-0.06582255
51	0xbd024d75	-0.03181215
52	0xbb4be07a	-0.003110914
53	0x3cc11523	0.02356965
54	0xbd23a007	-0.039947536
55	0x3ccc3cdb	0.024931362
56	0x3af7e902	0.0018914046
57	0x3c42abdf	0.011881798
58	0x3e3e662e	0.18593666
59	0x3d2d3b65	0.04229297
60	0x3d5b1cfa	0.05349443
61	0x3d95cae9	0.07314093
62	0xbd671bb0	-0.05642289
63	0x3d57f667	0.052725222

fc2.weight f4 [64, 64]
0	0xbcd7a8cb	-0.026325604
1	0xbcb925d8	-0.022601053
2	0xbd8ef22b	-0.069797836
3	0xbc0302ee	-0.007996304
4	0x3d32eebc	0.043684706
5	0x3bb73ace	0.005591727
6	0xba881b65	-0.0010384141
7	0x3d86167a	0.06547256
8	0xbd2d2a7a	-0.042276837
9	0x3d412f85	0.04716446
10	0xbccc9da2	-0.024977509
11	0xbd906c6c	-0.0705193
12	0xbc0e8dc5	-0.008700793
13	0xbda1a15f	-0.07892107
14	0xbde96556	-0.113962814
15	0x3deb5ed6	0.11492698
16	0x3dee082e	0.11622654
17	0xbd98df4c	-0.074644655
18	0xbdb97ba1	-0.090567835
19	0x3d378a07	0.044809368
20	0x3defb334	0.11704102
21	0x3d5feadf	0.05466735
22	0xbbbb1853	-0.005709687
23	0x3cc06046	0.023483407
24	0x3dea5b9f	0.114432566
25	0x3d9bfb49	0.07616288
26	0xbd043b03	-0.03228284
27	0xbce06fea	-0.027397115
28	0x3e0e35dd	0.13887735
29	0xbd45de06	-0.04830744
30	0x3dd82509	0.10553939
31	0xbd16af02	-0.036787994
32	0xbde71f0c	-0.112852186
33	0xbde0b109	-0.10971267
34	0xbde546ea	-0.111951664
35	0x3e1bd8ab	0.15219371
36	0x3d57ff75	0.052733857
37	0x3daf48f9	0.0855884
38	0x3d979eee	0.0740336
39	0x3d2557e5	0.040367026
40	0xbd694498	-0.05695018
41	0x3d9b6367	0.07587319
42	0x3e09013b	0.13379376
43	0xbdca6a20	-0.09883523
44	0xbc926cab	-0.017874083
45	0x3d8ccf5a	0.06875487
46	0xbda72400	-0.08161163
47	0x3bccb13d	0.0062467144
48	0xbd3188cc	-0.04334335
49	0xbd94e96a	-0.07271083
50	0xbd1ddce9	-0.038540754
51	0x3da07bd4	0.07836118
52	0xbcf46291	-0.029832156
53	0xbd156fc1	-0.03648353
54	0x3b2c14e4	0.002625757
55	0x3bfb73aa	0.0076737003
56	0x3df01e38	0.11724514
57	0x3e0d6996	0.13809809
58	0x3dc127cc	0.09431419
59	0x3db6547d	0.089028336
60	0x3db4b522	0.08823611
61	0xbde5c231	-0.1121868
62	0x3d21894f	0.03943759
63	0x3dc2a0ec	0.0950335
64	0xbd02a082	-0.031891353
65	0x3daa20bd	0.083070256
66	0xbc4f976b	-0.012670378
67	0x3c78bbf3	0.015181529
68	0xbc9c6006	-0.019088756
69	0x3d885b37	0.06658023
70	0x3dd62bf9	0.10457606
71	0xbc55c315	-0.013046999
72	0xbd8c031a	-0.06836529
73	0xbdb81dae	-0.08990036
74	0xbd7615ad	-0.060079265
75	0x3d27dab9	0.040980075
76	0x3ddeb128	0.108736336
77	0xbb6648df	-0.003513865
78	0xbd152e54	-0.036421135
79	0xbe0333d5	-0.12812741
80	0x3d483210	0.04887587
81	0xbdc585d1	-0.09644664
82	0x3dcd1a4a	0.1001478
83	0x3d8125d9	0.06306047
84	0xbdca2ae5	-0.09871463
85	0x3cde892d	0.02716502
86	0x3db9c536	0.09070818
87	0x3e0c0bba	0.13676348
88	0x3c67f4ab	0.0141574545
89	0x3e07f395	0.13276513
90	0xbd8e1c0d	-0.06938944
91	0xbd88bc90	-0.066765904
92	0xbd948715	-0.07252327
93	0x3da4ee51	0.08053268
94	0x3cc0919a	0.023506928
95	0xbd0e84ab	-0.03479449
96	0x3c2b25a4	0.010445986
97	0x3cf49801	0.029857637
98	0xbd9574c7	-0.07297664
99	0xbc8b5130	-0.017006487
100	0x3d8bee4e	0.068325624
101	0xbdd02797	-0.10163801
102	0xbd2eb79a	-0.042655565
103	0xbd992fcc	-0.0747982
104	0xbc400992	-0.011721032
105	0x3df43fff	0.11926269
106	0xbce8b6ce	-0.02840748
107	0xbda90bc0	-0.08254194
108	0xbdaa36bd	-0.08311222
109	0x3cfc523c	0.030800931
110	0x3df91894	0.12162891
111	0x3dfa27fc	0.12214658
112	0xbd9b1711	-0.07572759
113	0x3d64ffeb	0.055908125
114	0x3cf8e9d3	0.030384934
115	0x3d3b4876	0.0457234
116	0xbcd2460a	-0.025668163
117	0x3c65b737	0.014020733
118	0xbd8c4442	-0.06848957
119	0x3ca32db1	0.019919248
120	0x3d2181c7	0.039430406
121	0x3d74f6c2	0.05980564
122	0x3d2ae49a	0.041721918
123	0xbc79f024	-0.015255008
124	0x3d27ecd2	0.040997334
125	0xbda71c71	-0.08159722
126	0x3d62484d	0.055244733
127	0x3dd418d0	0.10356295
128	0xbb4711f2	-0.0030375686
129	0x3d87da9f	0.066334955
130	0x3da5023b	0.08057066
131	0x3da0c9a1	0.07850958
132	0x3cf0bc6b	0.02938672
133	0x3cbe8d32	0.023260687
134	0x3d46e8b2	0.04856176
135	0xbd6e7b28	-0.05822292
136	0xbddad597	-0.1068527
137	0xbd33ad6b	-0.043866556
138	0xbc7cbd01	-0.015425921
139	0x3dd30d3e	0.1030526
140	0xbd0903f6	-0.033451043
141	0x3d8871d7	0.06662338
142	0xbd6658ef	-0.056237157
143	0xbc92fa69	-0.01794167
144	0x3b53a01a	0.0032291473
145	0x3dc08c59	0.09401769
146	0xbcbaa294	-0.022782601
147	0xbdeb43f6	-0.11487572
148	0xbcc0d090	-0.02353695
149	0xbe2389b8	-0.15970504
150	0xbd35409d	-0.044251073
151	0x3d30d340	0.043170214
152	0xbcb6828c	-0.022279046
153	0xbc8d2ca5	-0.017233202
154	0x3cb7d9f2	0.022442792
155	0xbdf3b2a3	-0.118993066
156	0xbd9a479b	-0.07533189
157	0x3d5ad21a	0.053423025
158	0xbd135fac	-0.03597991
159	0xbc235be7	-0.009970642
160	0x3d5cc460	0.053898215
161	0x3d45d6ea	0.04830066
162	0xbdc4da6b	-0.096119724
163	0xbd3f67bf	-0.0467298
164	0x3db71d60	0.0894115
165	0x3d9fd4b5	0.078042425
166	0x3dc2834c	0.09497699
167	0x3d8fa86f	0.07014548
168	0xbc291745	-0.010320489
169	0x3cef1ad1	0.029187592
170	0x3cd92ada	0.026509691
171	0x3d08d56a	0.033406653
172	0xbc05cc28	-0.00816635
173	0x3d59cb72	0.053172536
174	0xbd047eaa	-0.03234736
175	0x3dd8dea1	0.10589338
176	0x3d82f90a	0.06395157
177	0x3d6153d6	0.055011593
178	0x3de44a8f	0.111470334
179	0xbdbb66ad	-0.09150443
180	0xbd2b60a2	-0.041840203
181	0xbe0de87d	-0.13858218
182	0xbd36ec9b	-0.04465924
183	0xbd5cabb0	-0.05387467
184	0x3c88775b	0.016658476
185	0x3cf8e425	0.030382225
186	0x3d614dc9	0.055005822
187	0x3d677f23	0.05651773
188	0x3cecb1ad	0.028893316
189	0xbd99b098	-0.07504386
190	0xbd183404	-0.03715898
191	0xbdbee682	-0.093213096
192	0x3d49e3f5	0.049289662
193	0x3e28bb71	0.16477753
194	0x382ac98a	4.0718856e-05
195	0x3d2ba370	0.041903913
196	0x3c2f306a	0.010692695
197	0xbe0dece3	-0.13859896
198	0x3d543ed9	0.05181775
199	0x3dc5eb28	0.09663993
200	0xbd7992c3	-0.06093098
201	0xbd148e6e	-0.036268644
202	0x3b15524e	0.0022784653
203	0x3c2ad735	0.010427286
204	0xbdab3111	-0.08358968
205	0xbb6c30b9	-0.0036039783
206	0x3d8f9218	0.07010287
207	0xbd8f147f	-0.06986331
208	0xbbbe4a7c	-0.005807219
209	0x3e0afaeb	0.1357228
210	0x3c775d51	0.015097932
211	0x3d23edc5	0.040021677
212	0xbba6c512	-0.0050894106
213	0xbcc17ecf	-0.023620037
214	0xbdafe2cf	-0.08588182
215	0xbdf3198a	-0.118701056
216	0x3bcf2eed	0.0063227327
217	0x3d833d73	0.06408205
218	0xbc91bd26	-0.017790388
219	0xbd840a9c	-0.06447336
220	0x3cbb0dc9	0.022833722
221	0xbc75c593	-0.015000719
222	0x3e090b34	0.1338318
223	0x3dda0df1	0.1064719
224	0x3d252709	0.04032043
225	0x3d350b9c	0.044200525
226	0xbcd5da3a	-0.026105035
227	0xbda899d4	-0.082324654
228	0x3c0846bc	0.008317646
229	0xbd8167ff	-0.06318664
230	0xbd8be9c3	-0.06831696
231	0xbcfa5bff	-0.030561445
232	0x3da9c608	0.082897246
233	0xbd375c72	-0.044765897
234	0xbda2258f	-0.0791732
235	0xbd6fbb37	-0.05852815
236	0x3d693c85	0.05694248
237	0xbd920ed4	-0.071317345
238	0xbdaf4cd7	-0.08559578
239	0xbd06cb0c	-0.032908484
240	0x3cfe9fa9	0.031081991
241	0xbbf07b9e	-0.007338955
242	0x3c9bf0f6	0.019035798
243	0x3d96fcb7	0.0737242
244	0x3d235c70	0.039883077
245	0x3d8c0d23	0.06838443
246	0x3cf2188f	0.029552726
247	0xbdb45b0a	-0.08806427
248	0x3be7c996	0.0070735915
249	0x3e0ab7eb	0.13546722
250	0xbe185b98	-0.1487869
251	0x3dae0abc	0.08498141
252	0xbd05b6a9	-0.0326449
253	0xbc5ebc4a	-0.013594696
254	0x3dfc3fff	0.12316894
255	0x3e11d62d	0.14241858

fc2.bias f4 [64]
0	0x3d19fd1d	0.037594903
1	0x3d5521fd	0.052034367
2	0xbd7ed53e	-0.062215082
3	0x3da8f0e3	0.082490705
4	0xbdc45c18	-0.09587878
5	0x3d0becbb	0.03416131
6	0x3d87c728	0.06629783
7	0x3d79bf33	0.060973357
8	0x3d0183ba	0.031619765
9	0x3cf3b5ca	0.02974977
10	0x3d60b592	0.05486066
11	0xbc4ac3f2	-0.012375819
12	0xbd985502	-0.07438089
13	0xbcfa90cc	-0.030586623
14	0xbdc32568	-0.09528619
15	0x3def3d1e	0.11681579
16	0xbd88fa98	-0.06688422
17	0x3c966529	0.018358784
18	0x3db154a7	0.08658724
19	0xbdf73164	-0.120699674
20	0xbd8e4d7f	-0.06948375
21	0xbc1240df	-0.008926599
22	0xbd0304ed	-0.03198712
23	0x3d5a3a48	0.053278238
24	0xbd0ade24	-0.033903256
25	0x3d775d61	0.060391787
26	0x3ddfd3d3	0.10929074
27	0x3c5fbcf5	0.013655891
28	0x3d89628d	0.0670825
29	0x3dfc5591	0.12321008
30	0xbdd5ea58	-0.10445088
31	0x3de81eb1	0.11333979
32	0x3d818a1d	0.06325171
33	0x3d09c28b	0.033632796
34	0xbbcd5d37	-0.0062672156
35	0xbc1398c0	-0.009008586
36	0xbdb75789	-0.08952243
37	0xbde31a97	-0.11089056
38	0xbdfa7184	-0.12228683
39	0xbd24c4d7	-0.040226784
40	0xbd203300	-0.039111137
41	0xbd3f83de	-0.046756618
42	0x3c8c6fc0	0.01714313
43	0x3cb40af2	0.021977875
44	0x3d404428	0.04694
45	0x3d978745	0.073988475
46	0x3c9b3729	0.0189472
47	0x3c67f10f	0.014156594
48	0xbd8fe879	-0.070267625
49	0x3d9b8eb0	0.07595575
50	0x3dd9c51d	0.106332995
51	0x3d01efdf	0.0317229
52	0x3db71754	0.08939996
53	0xbd865397	-0.06558912
54	0xbde1f721	-0.11033464
55	0x3db5ca64	0.088764936
56	0x3e01ac32	0.12663344
57	0x3d3be1df	0.045869704
58	0xbd130cbb	-0.035900813
59	0x3d6ff4cf	0.058583077
60	0xbd03eb0a	-0.032206573
61	0x3c138a6f	0.009005173
62	0x3d78423b	0.060610037
63	0x3dca4cf3	0.09877958

actor_Q.1.weight f4 [8, 64]
0	0x3d5ff01a	0.054672338
1	0xbdc53c99	-0.09630699
2	0x3d973dbb	0.07384821
3	0x3ce46c96	0.027883809
4	0x3dc7bba4	0.097525865
5	0xbd6fc9f9	-0.058542226
6	0x3d8d20db	0.06891032
7	0xbd6d25f7	-0.057897534
8	0x3b41d136	0.0029574162
9	0x3d4a4dfc	0.049390778
10	0xbd15c3b0	-0.036563575
11	0x3d8cf77a	0.0688314
12	0xbd283228	-0.041063458
13	0x3d2b6ff7	0.041854825
14	0xbd4b801c	-0.04968272
15	0x3dcd7e91	0.10033906
16	0xbc09d591	-0.008412735
17	0xbd6873ab	-0.056750935
18	0xbc7f9076	-0.015598407
19	0x3c9bd57c	0.019022696
20	0xbdc31d5b	-0.095270835
21	0xbd76784e	-0.060173325
22	0xbe018dc7	-0.1265174
23	0x3dca0cca	0.098657206
24	0xbdb647da	-0.08900423
25	0x3c34aa9c	0.011027005
26	0x3d9559af	0.072924964
27	0xbbc935b2	-0.006140434
28	0x3c847385	0.016168365
29	0x3d45f2ef	0.048327383
30	0xbba49022	-0.005022065
31	0xbca67375	-0.020318726
32	0xbd80f77d	-0.06297205
33	0x3d3aafd6	0.045577846
34	0x3d8f9686	0.07011132
35	0x3dcc7702	0.099836364
36	0xbe03731d	-0.12836881
37	0x3de5a14b	0.11212405
38	0x3d7d3408	0.0618172
39	0x3d1a3fff	0.037658688
40	0xbd7a88ba	-0.06116555
41	0xbc371f24	-0.011176858
42	0x3a8babbb	0.0010656038
43	0xbd96029d	-0.07324717
44	0x3e120b69	0.14262165
45	0x3c940e65	0.01807327
46	0xbd2e5347	-0.04255989
47	0x3a8a9180	0.0010571927
48	0x3d6a97c5	0.057273645
49	0x3d15df0f	0.03658968
50	0x3ce4489a	0.02786665
51	0xbbfaaaae	-0.007649741
52	0xbdeccf7d	-0.11563013
53	0xbd1fe986	-0.039041065
54	0x3d143268	0.036180884
55	0xbdc8bc0c	-0.09801492
56	0xbdc112f2	-0.09427442
57	0xbdb662bc	-0.08905551
58	0xbdd605f3	-0.104503535
59	0xbd04d920	-0.03243363
60	0xbd1a29d6	-0.037637554
61	0xbe07150b	-0.13191621
62	0xbd1cd029	-0.038284454
63	0xbe099d76	-0.13438973
64	0xbd8a2ce0	-0.067468405
65	0x3c54f2bf	0.012997328
66	0xbdf37277	-0.11887067
67	0x3c3b4d43	0.011431995
68	0xbc8b5c47	-0.017011775
69	0xbd27ccd8	-0.04096684
70	0x3c72e7ef	0.014825805
71	0xbd6619c4	-0.056176916
72	0xbd6c7f7c	-0.057738766
73	0x3d0f741e	0.035022847
74	0xbdb2864b	-0.087170206
75	0xbdbe3bed	-0.09288774
76	0xbd18d1ca	-0.037309445
77	0xbd7a85c9	-0.061162744
78	0x3cee1a45	0.02906526
79	0xbd1a7804	-0.037712112
80	0xbddaee33	-0.10689964
81	0xbd781d75	-0.060574967
82	0x3cf03ea1	0.029326739
83	0xbd890fee	-0.066924915
84	0xbdcc1274	-0.09964457
85	0x3d3cec74	0.046123937
86	0x3d8577a7	0.065169625
87	0xbca2f6ae	-0.019893017
88	0x3cc4b6bd	0.024012918
89	0xbcacf3ab	-0.021112284
90	0xbde57b2b	-0.11205133
91	0x3d59edb5	0.05320521
92	0x3d7deb3f	0.061991926
93	0xbcec09b2	-0.028813217
94	0xbc6f640c	-0.014611255
95	0x3d810329	0.06299431
96	0x3df085c7	0.11744266
97	0x3cfac39a	0.030610848
98	0xbdce7c4a	-0.100823
99	0xbdaf958e	-0.08573447
100	0x3e00b585	0.12569244
101	0xbdf17bca	-0.11791189
102	0xbb9bb861	-0.0047522043
103	0x3dfc90a6	0.12332277
104	0xbd96aed7	-0.07357567
105	0xbdb68be5	-0.089134015
106	0x3d8649f0	0.06557071
107	0x3cedcf1e	0.029029425
108	0x3e18329a	0.14863053
109	0xbd360668	-0.044439703
110	0x3d0c2d61	0.034222964
111	0x3da6d975	0.081469454
112	0x3d91b371	0.07114304
113	0xbd10b4af	-0.035328563
114	0x3dca3652	0.09873642
115	0x3d99a2d8	0.07501763
116	0xbdbef0e5	-0.09323291
117	0xbacf9fac	-0.0015840433
118	0xbd07ba68	-0.033136755
119	0xbd5ebd56	-0.054379784
120	0x3cfbed34	0.030752756
121	0x3cf1e41f	0.029527722
122	0x3d99539f	0.074866526
123	0xbdb54985	-0.08851913
124	0x3d40d6c2	0.04707981
125	0xbd362eb5	-0.044478137
126	0x3dc1aa88	0.094563544
127	0x3db3ad91	0.087733395
128	0xbd7fbb8d	-0.06243472
129	0x3c16bf90	0.0092009455
130	0x3db37cab	0.08764013
131	0xbe10fd17	-0.14159046
132	0xbd87e23f	-0.0663495
133	0xbbc9867e	-0.006150066
134	0x3d6bce85	0.05757
135	0xbbf4d344	-0.007471474
136	0x3d8240ae	0.06359993
137	0xbc32de73	-0.010917294
138	0x3dc36f86	0.09542756
139	0x3d77fe4c	0.06054525
140	0x3da5f626	0.0810359
141	0xbc2f92a6	-0.010716116
142	0xbdf19e10	-0.11797726
143	0xbd6fadfb	-0.05851553
144	0x3db88d6d	0.0901135
145	0x3d0dc2a2	0.034609444
146	0x3ddb273c	0.10700843
147	0xbc333cc9	-0.010939785
148	0xbcc46591	-0.023974212
149	0x3d4f6d43	0.05064131
150	0xbdd7e08a	-0.10540874
151	0x3d23bfde	0.0399779
152	0x3d0fd085	0.03511097
153	0xbdcf5e98	-0.10125464
154	0x3da69ac8	0.08134991
155	0x3df8bf97	0.12145918
156	0xbdd0b193	-0.101901196
157	0xbddb23cd	-0.10700188
158	0x3ddc2351	0.107489236
159	0x3b1ea70f	0.0024208461
160	0xbdb7b300	-0.089696884
161	0x3d8c581e	0.068527445
162	0xbdc2437d	-0.094855286
163	0xbd930bf8	-0.07180017
164	0xbd6a168b	-0.057150405
165	0xbd908c1c	-0.07057974
166	0x3d0aca2a	0.033884205
167	0x3d8db34e	0.06918965
168	0x3c851411	0.01624492
169	0xbd3481b9	-0.044069026
170	0x3c2085c2	0.009797515
171	0xbc0f9ad7	-0.008764944
172	0x3b6052a6	0.003422895
173	0x3ce683ff	0.028139113
174	0xbd73551a	-0.05940733
175	0x3d829640	0.06376314
176	0xbdbdb92f	-0.092638366
177	0xbda8e6f0	-0.08247173
178	0x3e27e8a8	0.16397345
179	0xbd7a579a	-0.0611187
180	0x3d530daa	0.051526703
181	0xbd2eb00d	-0.042648364
182	0x3d926000	0.07147217
183	0xbd182989	-0.037148986
184	0xbce6670a	-0.028125305
185	0x3defef43	0.117155574
186	0x3e01acae	0.12663528
187	0x3dd09a08	0.10185629
188	0x3e06483e	0.13113496
189	0xbde1f01c	-0.11032125
190	0x3c6f6b5a	0.014612997
191	0x3dd314bf	0.103066914
192	0xbe0b6d3f	-0.13615893
193	0x3cb6f8f6	0.02233551
194	0x38737bf9	5.8051173e-05
195	0x3d81e5c7	0.06342655
196	0x3cf04590	0.029330045
197	0xbc7652dd	-0.015034405
198	0xbcebf0a0	-0.028801262
199	0x3c671019	0.014102959
200	0xbde74750	-0.11292899
201	0x3c3ffb0f	0.011717572
202	0xbdc75c8d	-0.097344495
203	0xbdcbcc65	-0.099510945
204	0xbd8dd6e9	-0.069257565
205	0x3d9098bb	0.07060381
206	0xbe2b3211	-0.16718318
207	0xbd0a75cb	-0.033803742
208	0x3d4b09b0	0.049569786
209	0x3d8780b0	0.06616342
210	0xba5479fc	-0.00081053353
211	0xbc188d7b	-0.009311075
212	0x3d9aabe0	0.07552314
213	0xbde28a2e	-0.11061512
214	0x3d92847a	0.07154174
215	0x3d850662	0.06495358
216	0x3e48ba0a	0.19602218
217	0xbdd9588b	-0.10612591
218	0x3ded9f1a	0.11602612
219	0x3dc289c3	0.09498932
220	0x3d9137fb	0.070907556
221	0xbdddc601	-0.10828782
222	0x3df5d44c	0.12003383
223	0x3c82df79	0.0159757
224	0xbc4ddb90	-0.012564555
225	0xbcf2d969	-0.029644685
226	0x3c76412c	0.015030187
227	0x3d60aa9d	0.05485021
228	0x3e0073b0	0.12544131
229	0xbe07dd0b	-0.13267915
230	0x3cba0405	0.022706995
231	0xbe03f915	-0.12887986
232	0xbd895c92	-0.067071095
233	0x3d42b9ae	0.04754036
234	0x3da69edd	0.081357695
235	0x3d8cf3d6	0.068824455
236	0x3e4b2a99	0.19840468
237	0x3da5a7af	0.08088624
238	0xbd70af24	-0.058760777
239	0xbd44187a	-0.047874905
240	0xbca95a2b	-0.020672878
241	0xbd2ab0fb	-0.041672688
242	0x3b293a89	0.0025822243
243	0xbdbdd435	-0.09268991
244	0xbbb20d89	-0.0054337424
245	0xbdd6d568	-0.10489923
246	0x3e184031	0.14868237
247	0xbdaff5a2	-0.085917726
248	0xbdc2f52d	-0.0951942
249	0xbbc8d58b	-0.006128972
250	0x3a381151	0.00070216233
251	0x3d365db4	0.044522956
252	0x3dbdfb99	0.09276504
253	0x3d8834d4	0.06650701
254	0xbdbce1e5	-0.092227735
255	0x3bd36de2	0.006452308

actor_Q.1.bias f4 [8]
0	0xbda4ebc8	-0.08052784
1	0x3d4504dc	0.048100337
2	0x3d0fffdd	0.03515612
3	0xbdddb3f4	-0.10825339
4	0xbddd5374	-0.10806933
5	0xbcaaa25f	-0.020829378
6	0x3d066053	0.032806706
7	0xbda6de69	-0.0814789

actor_K.1.weight f4 [8, 64]
0	0x3b3d584d	0.0028891743
1	0x3d9b995a	0.07597609
2	0x3deb5a2b	0.114918076
3	0xbd8fd7fa	-0.07023616
4	0xbd0b15fc	-0.033956513
5	0x3caf90ef	0.021431414
6	0x3d36cbeb	0.044628065
7	0xbda6c7b1	-0.08143557
8	0xbe109249	-0.14118303
9	0x3ccb958e	0.024851587
10	0xbdf5e479	-0.12006468
11	0xbdd2dc45	-0.10295919
12	0xbddf939e	-0.109168276
13	0xbd27009b	-0.04077206
14	0x3d1fa370	0.038974226
15	0x3d1fb260	0.03898847
16	0xbdcc83d9	-0.099860854
17	0xbd5265f9	-0.05136678
18	0x3e00cccb	0.12578122
19	0xbd9566f3	-0.07295027
20	0xbdd0f085	-0.102021255
21	0xbdde7115	-0.108614124
22	0x3ce149ac	0.02750095
23	0xbda7e2d6	-0.081975624
24	0xbda2ef0d	-0.079557516
25	0x3d1927ab	0.037391346
26	0xba9b19bd	-0.0011833232
27	0x3c8a1cfe	0.016859528
28	0x3ca73b2d	0.02041396
29	0xbe0184c0	-0.12648296
30	0x3e0ae1bf	0.13562678
31	0xbd83c5e8	-0.06434232
32	0x3cbb8283	0.022889381
33	0x3dcb5f6e	0.09930311
34	0xbddb652e	-0.10712658
35	0xbcad59b6	-0.021160942
36	0xbd1ef437	-0.03880712
37	0x3d9bb9b3	0.07603779
38	0xbc890b01	-0.01672888
39	0x3df2123e	0.11819886
40	0x3d8d59bc	0.06901881
41	0x3d235984	0.03988029
42	0x3da5d444	0.08097127
43	0x3d89cc16	0.067283794
44	0x3d46517c	0.048417553
45	0xbc64824a	-0.013947079
46	0xbdba8346	-0.0910707
47	0x3c5634f1	0.013074146
48	0xbd383f8f	-0.04498249
49	0xbd289976	-0.041161977
50	0xbd4e3c06	-0.05035021
51	0xbd89a3c4	-0.06720689
52	0x3d8c3cb1	0.068475135
53	0xbdda8c93	-0.10671344
54	0x3c322b71	0.010874615
55	0x3d31a4c0	0.04337001
56	0xbd2b09cd	-0.041757394
57	0x3d3dfd5b	0.046384197
58	0xbabb3bf8	-0.001428484
59	0xbdf3682c	-0.118851036
60	0x3d729861	0.05922735
61	0x3db1bafb	0.08678242
62	0x3dc91197	0.09817808
63	0xbc2d3452	-0.010571556
64	0xbdcbf038	-0.099579275
65	0xbde9f483	-0.1142359
66	0x3d9ba786	0.07600312
67	0xbd935bf2	-0.071952716
68	0x3d8fc7ab	0.070205055
69	0x3c823fb5	0.015899519
70	0x3cdb8ec5	0.026801476
71	0xbc19bd95	-0.009383579
72	0xbd88403d	-0.066528775
73	0xbc1f147a	-0.009709472
74	0xb97d878d	-0.00024178457
75	0x3d50efdf	0.05101001
76	0xbbb761ef	-0.0055963914
77	0x3c9a5495	0.01883916
78	0x3d8707a8	0.06593257
79	0xbdcb38cc	-0.099229425
80	0x3cb58ebb	0.022162786
81	0x3de89e37	0.11358302
82	0xbcf4462f	-0.029818622
83	0xbd9879cd	-0.07445107
84	0xbd9858d7	-0.0743882
85	0xbc683619	-0.014173054
86	0x3cf9573d	0.030437106
87	0xbc1a7417	-0.009427092
88	0xbcd42ba4	-0.025899716
89	0xbd026676	-0.031835996
90	0x3d8d0eed	0.068876125
91	0x3df8545d	0.12125466
92	0xbd8d33be	-0.06894635
93	0xbd116aa7	-0.035502102
94	0xbd10029e	-0.035158746
95	0xbd0aa817	-0.03385171
96	0x3d9c1e34	0.07622948
97	0x3db5dd15	0.08880059
98	0x3d887e5b	0.066647254
99	0xbbe52edb	-0.006994111
100	0x3cd7aaa8	0.026326492
101	0x3d898b7a	0.06716056
102	0x3d3e72bd	0.04649614
103	0x3d77e52e	0.060521297
104	0x3dbd5ed8	0.09246606
105	0x3cacc05e	0.021087822
106	0x3e11a854	0.14224368
107	0x3c81864f	0.015811114
108	0x3ca94423	0.020662373
109	0xbd75a3f9	-0.05997083
110	0xbdcd9d92	-0.1003982
111	0x3dc1764d	0.09446392
112	0x3df7e340	0.121038914
113	0x3d12d5c8	0.03584841
114	0x3d9b25e1	0.07575584
115	0xbc2b5769	-0.010457852
116	0x3db88637	0.090099744
117	0x3df26cb5	0.118371405
118	0xbcd1f9f9	-0.025631892
119	0x3dc3aeaa	0.09554799
120	0x3d94248b	0.072335325
121	0x37ac086c	2.050792e-05
122	0xbda321a8	-0.07965404
123	0xbd9bb81f	-0.07603478
124	0x3e033409	0.12812819
125	0x3d62fe3c	0.055418238
126	0x3d6abfbf	0.05731177
127	0x3de87a61	0.11351467
128	0xbc9222f4	-0.017838933
129	0xbd842a7a	-0.06453414
130	0xbc8fa759	-0.017535852
131	0x3d9eaa26	0.07747297
132	0x3ddf58ec	0.109056324
133	0x3de5cfaa	0.112212494
134	0xbd3ce399	-0.04611549
135	0x3d22f2b8	0.039782256
136	0xbd8da448	-0.069161
137	0x3d478e97	0.04871997
138	0xbd98db91	-0.07463754
139	0xbd59889e	-0.053108804
140	0xbb97eb9a	-0.00463624
141	0x3d060591	0.032720152
142	0x3db7b52e	0.08970104
143	0x3dec86c4	0.11549142
144	0x3d7a2430	0.061069667
145	0xbcf8667f	-0.030322311
146	0xbe00714e	-0.12543222
147	0xbcfcec02	-0.030874256
148	0xbde832c8	-0.11337811
149	0xba83cbab	-0.0010055205
150	0x3d218271	0.03943104
151	0x3e037c52	0.12840393
152	0x3dfe1522	0.124063745
153	0xbd80c5db	-0.06287738
154	0x3de133ec	0.109962314
155	0xbcc38fe7	-0.023872329
156	0xbc7d6dc8	-0.015468068
157	0x3d9159c3	0.07097199
158	0xbd1e776b	-0.038688105
159	0xbdf4e41a	-0.119575694
160	0xbcf0f01f	-0.029411374
161	0xbda8322a	-0.08212693
162	0xbdbefe9b	-0.09325906
163	0xbd1032c9	-0.035204682
164	0x3d83bfe8	0.064330876
165	0x3dcc3684	0.099713355
166	0x3dc354f7	0.0953769
167	0xbd49bd16	-0.049252592
168	0x3e008fab	0.12554805
169	0x3d9107f5	0.07081596
170	0xbdea6ea1	-0.11446882
171	0xbc251998	-0.010076903
172	0x3cf0e44a	0.029405732
173	0x3d3e00e6	0.046387576
174	0xbd4214f3	-0.04738326
175	0xbde9c910	-0.11415303
176	0xbd111935	-0.03542443
177	0xbda4318d	-0.080172636
178	0x3d6ee4bb	0.058323603
179	0xbde8e025	-0.11370877
180	0xbdf302c3	-0.11865761
181	0x3d6b1731	0.057395164
182	0x3d0b09f8	0.033945054
183	0x3dc2d5bd	0.095134236
184	0xba928471	-0.0011178387
185	0xbd9d555c	-0.07682297
186	0x3d82ea26	0.063923165
187	0xbd925fc5	-0.07147173
188	0x3d8a2cff	0.067468636
189	0xbca6c7c5	-0.02035893
190	0x3e5ba16c	0.21448296
191	0x3cce0b5e	0.025151905
192	0x3ddbcef1	0.1073283
193	0xbdffae0e	-0.1248437
194	0x3dfe1166	0.12405662
195	0x3df59695	0.11991612
196	0xbc7070e7	-0.0146753555
197	0x3da68fae	0.081328735
198	0x3d8a6fdd	0.067596175
199	0x3d8b0af8	0.067892015
200	0xbdbb0aa5	-0.0913289
201	0xbd938dcb	-0.07204779
202	0x3b73fc35	0.0037229185
203	0xbd7b2f9b	-0.061324697
204	0x3e248466	0.16066131
205	0x3d0634a2	0.03276504
206	0x3deb8299	0.11499519
207	0xbca3027b	-0.019898644
208	0xbc2cfe98	-0.010558747
209	0xbd05942b	-0.032612007
210	0xbdc68ead	-0.09695182
211	0xbd019c68	-0.0316433
212	0x3e1884c9	0.14894404
213	0xbd0eb515	-0.034840662
214	0x3e0d6790	0.13809037
215	0xbcc8f8d4	-0.024532713
216	0xbd7fc0b2	-0.062439628
217	0xbd822551	-0.06354774
218	0x3d2e2f42	0.042525537
219	0xbd5af2c6	-0.053454183
220	0xbd291b5b	-0.041285854
221	0x3d6ae17d	0.05734395
222	0xbc85aab1	-0.016316744
223	0xbd9bca76	-0.07606976
224	0x3d415033	0.047195625
225	0xbde4e24d	-0.11175976
226	0xbdb6b0ac	-0.08920416
227	0x3cdd4ac0	0.027013183
228	0xbd676df2	-0.056501336
229	0xbd73d30a	-0.059527434
230	0xbc032e9f	-0.008006721
231	0x3dc9510a	0.0982991
232	0x3ddf6faa	0.1090997
233	0xbd949983	-0.072558425
234	0x3d4de874	0.050270513
235	0x3d9ea656	0.0774657
236	0x3d87653c	0.06611106
237	0x3e19d437	0.1502236
238	0x3aea5b08	0.0017879913
239	0xbcf316cd	-0.029673958
240	0x3d01b185	0.031663436
241	0xbd255957	-0.040368404
242	0x3d8e9d27	0.06963568
243	0x3a633534	0.00086672907
244	0xbd80cf0b	-0.0628949
245	0xbd57030a	-0.052493133
246	0xbd8276d1	-0.06370319
247	0xbd3e35dc	-0.046438083
248	0xbcf0c0f3	-0.02938888
249	0x3d3cdf2c	0.04611127
250	0x3d10917b	0.03529499
251	0x3c5fbdf3	0.013656127
252	0x3d919762	0.07108952
253	0x3e0d9f4f	0.13830303
254	0xbd799dc4	-0.060941473
255	0x3e019840	0.12655735

actor_K.1.bias f4 [8]
0	0x3d1665d5	0.03671821
1	0x3dca1840	0.098679066
2	0xbd7ecff0	-0.062210023
3	0xbda6cef0	-0.08144939
4	0xbe1262ff	-0.14295577
5	0x3d839ee1	0.06426788
6	0xbe1421f2	-0.14466074
7	0x3dc630ec	0.096773

actor_V.1.weight f4 [3, 64]
0	0xbdf802e6	-0.12109928
1	0xbcbbe0d1	-0.02293435
2	0x3cd9bc3b	0.026579013
3	0x3de196e6	0.1101511
4	0x3d9819f3	0.074268244
5	0xbd96e1e5	-0.07367305
6	0x3dc2a37d	0.09503839
7	0xbe2e0d43	-0.16997246
8	0x3d9e4324	0.0772765
9	0xbbd0bd29	-0.006370206
10	0x3da5e43e	0.08100174
11	0xbe044daf	-0.12920259
12	0xbde51c47	-0.11187034
13	0x3dc2ef2c	0.09518275
14	0xbdb3d23d	-0.08780334
15	0xbd3c764f	-0.046011265
16	0xbe0efbf3	-0.13963298
17	0xbc9194a7	-0.017771078
18	0xbd58f757	-0.052970257
19	0x3c7cf3bc	0.01543897
20	0xbd7466cf	-0.05966836
21	0x3dab4117	0.08362024
22	0xbe102715	-0.14077409
23	0x3d8e0152	0.069338456
24	0xbc767aff	-0.015043973
25	0xbc67c488	-0.014145978
26	0xbcd86a77	-0.026417954
27	0xbe214d28	-0.15752089
28	0xbe3d8835	-0.1850899
29	0xbddfd168	-0.10928613
30	0xbdebb372	-0.11508836
31	0xbe1ebc60	-0.15501547
32	0x3ddd0827	0.107925706
33	0xbdf4f9df	-0.11961722
34	0xbdeb2039	-0.11480755
35	0x3db40b69	0.08791239
36	0xbd4be2f2	-0.04977698
37	0x3db769f2	0.08955754
38	0x3e0e0f61	0.13873054
39	0x3c5549b3	0.01301806
40	0x3d2086b5	0.039190967
41	0x3dfc7c04	0.123283416
42	0x3d79caa6	0.060984276
43	0xbdeddcfd	-0.11614416
44	0xbe2dae17	-0.16960941
45	0xbc3bf8fa	-0.011472935
46	0xbdd944e5	-0.10608844
47	0xbddcbbaa	-0.107779816
48	0xbdae9fb9	-0.085265584
49	0xbc976128	-0.018478945
50	0xbd8a72fc	-0.06760213
51	0xbda79b56	-0.08183925
52	0xbe198361	-0.14991523
53	0xbdb49efa	-0.08819385
54	0xba8f3e57	-0.0010928613
55	0xbd200b31	-0.039073173
56	0x3d993a4a	0.07481821
57	0xbe0b2823	-0.1358953
58	0x3d9c5d95	0.07635037
59	0x3d83582a	0.064133
60	0xbe1050bf	-0.14093302
61	0x3d8e1b39	0.06938786
62	0xbd92782d	-0.07151828
63	0xbddd1ea9	-0.107968636
64	0xbd57b230	-0.052660167
65	0x3cd54606	0.026034366
66	0x3d39ecc7	0.045391824
67	0x3cc37a2e	0.02386197
68	0x3d51d9ca	0.05123309
69	0xbddcde9a	-0.107846454
70	0xbdd5b701	-0.10435296
71	0xbdf84cc3	-0.12124016
72	0xbd70bd07	-0.05877402
73	0x3d58bffd	0.05291747
74	0xbd950991	-0.07277215
75	0xbdb83c80	-0.089959145
76	0x3c49eb96	0.0123242345
77	0xbb228490	-0.0024798252
78	0x3dc0a90a	0.09407242
79	0xbd3dffcb	-0.04638652
80	0x3e07fab8	0.13279235
81	0x3d2ddd6b	0.04244749
82	0x3c8fd657	0.01755826
83	0x3dcc1ca0	0.09966397
84	0x3db3dc2a	0.08782227
85	0xbd45fda7	-0.048337605
86	0x3de771c7	0.11300998
87	0xbd311b75	-0.043239076
88	0xbe3792c3	-0.17927079
89	0xbe062aae	-0.13102219
90	0x3dd76c53	0.10518708
91	0xbdd669e5	-0.104694165
92	0x3e2e738b	0.17036264
93	0xbd3ac181	-0.045594696
94	0x3d59f9c9	0.05321673
95	0xbd38bc9e	-0.045101754
96	0x3d66c5e9	0.056341086
97	0x3babeec0	0.005246967
98	0x3dceca9c	0.100972384
99	0xbdcc18c1	-0.09965659
100	0xbe2812c9	-0.16413416
101	0x3dd4d2a0	0.10391736
102	0x3d1cf679	0.038320992
103	0xbd88d70f	-0.06681644
104	0x3dd8e8e3	0.105912946
105	0x3d8394f9	0.06424899
106	0x3d67871a	0.056525327
107	0x3dd05855	0.10173098
108	0xbe13951b	-0.14412348
109	0x3da39da9	0.07989056
110	0xbe3b1270	-0.18268752
111	0x3d840051	0.06445373
112	0x3d4164ce	0.047215275
113	0xbd517a52	-0.051142044
114	0xbe48ab32	-0.19596556
115	0xbde7de09	-0.11321647
116	0x3dad1a14	0.0845224
117	0xbd795726	-0.060874127
118	0x3d4ea041	0.0504458
119	0xbe612ebc	-0.21990484
120	0x3bd6b1ff	0.0065519805
121	0x3c1f0129	0.009704866
122	0xbd2af784	-0.041739956
123	0xbe0f2bb7	-0.1398152
124	0x3df00f51	0.117216714
125	0x3dcfc4b8	0.10144943
126	0xbd5cd4f6	-0.053914033
127	0xbd9e58da	-0.07731791
128	0x3cd2471d	0.025668675
129	0x3cf76ccd	0.030203247
130	0xbd73597d	-0.059411515
131	0xbd843a50	-0.06456435
132	0xbcfad7d0	-0.030620486
133	0xbdd48cc0	-0.103784084
134	0x3d2abf90	0.041686594
135	0x3ce9cc65	0.028539846
136	0xbda0d898	-0.07853812
137	0xbd0919dc	-0.033471927
138	0x3dcef2d9	0.10104913
139	0x3ccc1124	0.024910517
140	0x3d7721da	0.060335018
141	0xbc8f574c	-0.017497681
142	0xbdb3d395	-0.087805904
143	0x3c60fefb	0.013732667
144	0x3db55ca4	0.088555604
145	0xbb474651	-0.0030406902
146	0xbd65a6c6	-0.05606725
147	0x3dbf01e4	0.093265325
148	0xbe23b50e	-0.15987036
149	0x3dcbbf47	0.09948593
150	0x3e108ec4	0.14116961
151	0x3dca301f	0.098724596
152	0x3e6dc895	0.23221047
153	0x3e5c1fe0	0.21496534
154	0xbddc32d1	-0.1075188
155	0x3d28cd1d	0.041211236
156	0xbda82b9d	-0.082114436
157	0x3d01f2d7	0.03172573
158	0x3e169a9c	0.14707416
159	0x3e4ed1ef	0.20197271
160	0xbbff4439	-0.007790115
161	0xbc8f6fae	-0.017509308
162	0xbcbf393b	-0.02334272
163	0xbe2c2912	-0.16812542
164	0x3d866e6e	0.065640315
165	0xbdd7c0ba	-0.105348065
166	0xbdd476b3	-0.103742026
167	0xbccb0b8d	-0.024785781
168	0x3d86e0f1	0.06585873
169	0xbdb239b5	-0.08702413
170	0x3c6b8fff	0.014377593
171	0x3d4ce8b0	0.050026596
172	0x3e03e41f	0.1287999
173	0xbd95e9b3	-0.07319965
174	0x3da9391f	0.08262848
175	0x3ca9d58e	0.020731714
176	0xbdb1b1f5	-0.08676521
177	0xbe0d46b6	-0.13796505
178	0x3d5f652b	0.05453984
179	0xbd820f6a	-0.06350596
180	0x3d8716fd	0.065961815
181	0xbd6b5061	-0.057449702
182	0x3e020fc1	0.12701322
183	0x3e8be6d5	0.27324548
184	0xbe201e5d	-0.15636583
185	0x3e126fa8	0.14300406
186	0x3ddf8cff	0.10915565
187	0xbda96cc5	-0.08272699
188	0xbcfc7bec	-0.03082081
189	0xbdbc3fdc	-0.09191868
190	0xbdbb3d9f	-0.09142613
191	0xbdf21d49	-0.11821992

actor_V.1.bias f4 [3]
0	0x3dab5097	0.08364981
1	0xbdf7bd3e	-0.12096642
2	0x3e151dc2	0.14562133

expert_K.weight f4 [1, 8]
0	0xbf16c9b9	-0.58901554
1	0xbf1ea73d	-0.61973935
2	0xbf2edaff	-0.6830291
3	0xbfa595a4	-1.2936292
4	0x3fce495f	1.6116141
5	0xbeb2099f	-0.34772965
6	0x3f46e346	0.7769054
7	0x3f4a5c0e	0.79046714
