gym-multigrid-master/folder_test/actor_0_episode_30000.pth (torch, 101383 bytes, 11 tensors)

fc1.weight f4 [64, 294]
000000 8b 3f 21 3d ee 47 02 3d 95 25 64 bd 38 c2 ef 3c
       0.03936724 0.03180688 -0.055699904 0.029267415
000010 b0 aa 92 bb 88 8c 47 3c 78 2e 75 3c a0 82 38 bd
       -0.004475914 0.012179501 0.014964692 -0.04504645
000020 f4 9d ee 3c b1 b8 51 bd 1f fc 21 bd 1a 88 27 3d
       0.029128052 -0.051201526 -0.039547082 0.04090128
000030 f5 41 d5 3b ff 4f 66 bd 62 da 07 3d 9c 84 67 bc
       0.006508107 -0.056228634 0.03316725 -0.014130738
000040 ff 15 eb 3a da 78 31 3d 13 3c 2c 3c 9b d2 88 bd
       0.0017935632 0.043328144 0.01051237 -0.06680795
000050 00 2c d2 3b 70 83 70 bb 69 c6 44 3d 6c dd 38 3d
       0.0064139366 -0.0036699437 0.04804078 0.04513304
000060 3e d9 db 3c 06 57 df bb 12 3b 83 bc ea bf 3f bd
       0.026836988 -0.006815794 -0.016019378 -0.046813883
000070 05 7f ff 3c 64 e4 f7 3c 53 10 e2 bc f5 ff 27 3d
       0.031188497 0.030260272 -0.027595675 0.041015584
000080 e0 b0 1b bd b8 fc 13 bd db 4c d4 bb 7c e5 4d 3d
       -0.038010478 -0.036129683 -0.0064788884 0.05026768
000090 c8 58 fb 3c 39 05 88 bd 04 33 ee 3c c0 13 47 3c
       0.030681983 -0.06641621 0.02907706 0.012150705
0000a0 1c 37 87 bd 60 15 fe bb 2a b3 49 bd ea 1c 53 bd
       -0.06602308 -0.007754013 -0.04924313 -0.051541246
0000b0 f7 1e 3a bd 22 15 1b bd 9c d3 33 bd 54 e0 25 bd
       -0.045439687 -0.03786195 -0.04390298 -0.04049714
0000c0 b5 3f 1f 3c 54 ad 10 bd 98 c9 cb 3c 7d e0 43 bd
       0.009719779 -0.03532155 0.0248764 -0.04782151
0000d0 81 d7 b4 3c 60 24 0b bb 58 1a 3a bd 8c f1 e1 bc
       0.022075417 -0.0021231398 -0.04543528 -0.027580999
0000e0 6c e4 86 3c 20 3b 51 3b 42 c9 02 3c 74 85 db 3c
       0.016466342 0.003192611 0.007982554 0.026797034
0000f0 f3 98 d0 bb 67 17 15 3d 24 f3 2d bc 42 5f 5c bd
       -0.006365889 0.03639927 -0.010617051 -0.053801782
000100 d8 7b 67 bd b0 de 8b bc ee e3 f5 3c 9b 44 ed bc
       -0.05651459 -0.01707396 0.030015912 -0.028963378
000110 08 62 a4 3c cb 0a 43 bd 55 99 59 3d d0 f8 f5 bb
       0.020066276 -0.047617715 0.053124744 -0.0075064674
000120 2c 11 d1 3c 1d 2a 1d bc e8 6f 5f 3d 14 dc 2c 3d
       0.025520884 -0.00959256 0.05455008 0.04220207
000130 1d 9b 25 3d 28 75 2f 3c 80 7e 9e 3c e1 68 74 bd
       0.04043113 0.010709085 0.01934743 -0.059670333
000140 14 e1 f4 bc 4c 49 3f bd 5c ff 2d bc e2 bd e3 bc
       -0.029892482 -0.04670076 -0.010619964 -0.027800504
000150 68 b9 0b 3d ba 7f 32 bd b4 06 88 bc e8 f9 b6 3c
       0.034112364 -0.04357884 -0.016604759 0.022335961
000160 a4 fc 03 3d f2 0f 14 bd cd 9d f7 3b f2 dd 49 3d
       0.03222336 -0.03614802 0.007556653 0.04928393
000170 00 52 e9 ba 1d 73 62 bd 60 dc 76 3c f0 fc ba 3b
       -0.0017800927 -0.05528556 0.01506719 0.005706422
000180 fe 00 2c 3c 8e 4c 4d bd a7 73 47 bd 2b 71 0e bd
       0.010498283 -0.050121836 -0.04869428 -0.034775894
000190 6d 83 da bc f0 74 d5 3c c2 86 a0 bb fc d7 46 bc
       -0.026673997 0.026056737 -0.004898877 -0.012136456
0001a0 60 08 66 3c 00 a7 e4 39 57 a4 45 3d 62 43 e9 bc
       0.014040083 0.00043611974 0.04825243 -0.028474513
0001b0 fa 27 3a bd c9 84 42 bd 50 bb fa 3c 68 7a a2 3c
       -0.04544828 -0.047489915 0.030606896 0.019833758
0001c0 7e 0c 61 3c 00 ce 74 ba 58 6b 13 bd 6a bd 4e bd
       0.0137358885 -0.0009338558 -0.035991043 -0.050473608
0001d0 a0 71 b1 bb 80 8a 80 3a 97 87 d0 bc 98 82 5d 3c
       -0.0054151565 0.0009806901 -0.02545528 0.0135199055
0001e0 2d 07 27 3b ce 1f a2 3b 60 b0 c6 3b 1a 2f 10 bd
       0.0025486455 0.004947639 0.006063506 -0.03520117
0001f0 53 b6 20 3d 9e a7 b0 bc e0 25 d6 3c a2 97 1c 3d
       0.039236378 -0.021564301 0.026141107 0.038230546
000200 60 99 44 bd 60 2c 09 bc e6 1f d5 3b 0a ba da bc
       -0.047997832 -0.008372396 0.0065040467 -0.026700038
000210 96 28 01 bd d8 f4 0a bd e6 ce 3d bd b0 a8 d9 bb
       -0.031532846 -0.033924907 -0.04633989 -0.0066424236
000220 c4 40 19 3d 76 40 c0 bc 03 43 6a bc 18 b7 24 bd
       0.03741528 -0.023468237 -0.014298203 -0.040213674
000230 e4 43 22 3d e4 4f 97 3c 75 cf 6f bd c7 19 60 bd
       0.039615527 0.018470712 -0.058547456 -0.054712083
000240 55 90 25 3d 65 72 0f 3d a7 24 e0 bc 2a 79 1b 3d
       0.04042085 0.035021205 -0.027361227 0.037957348
000250 e8 01 5e bd 10 b8 ae 3b d9 9a 4f bd ea d2 13 3c
       -0.054201037 0.0053320006 -0.050684784 0.009022454
000260 80 97 24 3c 90 e1 68 bd 10 7e 34 3c 84 af 2d 3d
       0.010045886 -0.05685574 0.011016384 0.042403713
000270 3d 30 ac 3c bf 96 26 bd a0 73 e6 bc fd f7 fa bc
       0.021019096 -0.040671106 -0.028131306 -0.030635828
000280 21 46 13 3d 2e cd b2 bc 88 49 9c 3b 2c 75 05 3d
       0.035955552 -0.021826353 0.004769508 0.032582447
000290 54 96 a2 bc aa fd 99 bc 30 e5 55 bd 5c 37 0d 3c
       -0.019847073 -0.018797714 -0.052220523 0.008619156
0002a0 a6 af 63 bc 6a 4b 0f 3d 63 6f 6a bd 07 f6 69 bd
       -0.013896858 0.03498403 -0.057235133 -0.057119396
0002b0 a5 f1 5e bd a0 98 15 3b 6e 93 d3 bc 0a 84 ac bc
       -0.05442967 0.0022826567 -0.025827136 -0.021059055
0002c0 18 57 1f 3c 6d bb 0e bd 6e 53 cb bc 3d 44 30 bd
       0.009725355 -0.034846712 -0.024820056 -0.043033827
0002d0 93 71 41 bd b3 72 c6 bc 1a 65 02 bd 5c f8 52 3d
       -0.047227453 -0.024224615 -0.0318347 0.051506385
0002e0 37 76 3f bd 2c 92 0f bd 60 d6 17 3d a5 16 b8 bb
       -0.046743598 -0.03505151 0.03706968 -0.005617934
0002f0 ec 98 39 bd 40 53 70 bb a5 55 43 bd 88 90 5c 3d
       -0.045311853 -0.0036670715 -0.0476891 0.053848773
000300 d0 c5 e6 bc 54 cb b7 bb 70 8f 83 bb 60 aa 68 bc
       -0.028170496 -0.0056089554 -0.004014902 -0.014200777
000310 12 5b cf bc 18 1a f5 3c d7 43 56 3c 3b 11 c9 bc
       -0.02531198 0.029919669 0.013077698 -0.024544349
000320 f8 51 15 3c 2f 43 65 bd d7 48 28 3d 60 d7 1e bd
       0.009113781 -0.055972274 0.04108509 -0.038779616
000330 4d 9c 29 bd 4a 27 00 bd cc b2 9d 3c 00 98 32 ba
       -0.041408826 -0.03128747 0.019250296 -0.0006812811
000340 9b ea d4 3c 88 1a 86 3b 1e 7d 47 bd 6a 95 03 3d
       0.025990775 0.0040925182 -0.048703305 0.032124914
000350 78 d9 a4 3c 0a 9e 9d bc 94 3e 88 3c 7a 2f 8b bc
       0.020123228 -0.019240398 0.016631402 -0.016990412
000360 b3 dc 3e bd 41 5c 95 3c 04 f6 ad 3c 58 dd 3c bd
       -0.046597194 0.018232467 0.021235473 -0.046109527
000370 05 3d 01 3d 5a 65 c4 bc e2 8d 87 bd c7 b2 21 bd
       0.031552333 -0.02397411 -0.06618859 -0.039477136
000380 98 e3 16 3d 9a 47 49 3d 3b 11 98 3b ce 6a f7 bc
       0.036838144 0.04914055 0.004640726 -0.030202296
000390 64 a8 98 3c c0 13 86 bd fe 1c 62 bd c8 22 df 3c
       0.018634982 -0.06546736 -0.05520343 0.027238265
0003a0 66 0c cd 3b 70 fc e5 3b 6d c7 bd 3c a7 43 0b 3d
       0.0062575815 0.0070186183 0.023166383 0.034000065
0003b0 f0 33 14 bc 5a cf 44 3d be 2d 46 3c 78 2f 62 3c
       -0.009045586 0.04804931 0.012095867 0.013805263
0003c0 20 60 0c bc cd 5a 0d 3c a4 f6 3e 3d 3e 99 d7 bc
       -0.00856784 0.008627606 0.046621934 -0.026318189
0003d0 c7 3f 2a bd f0 d7 43 3c 08 fb 9c bd 7a a2 a8 3c
       -0.04156473 0.011953339 -0.07665068 0.020585287
0003e0 90 74 d7 3b 78 a8 0e bd 8c 40 39 bd 3c ab 98 3c
       0.0065751746 -0.034828633 -0.045227572 0.018636338
0003f0 0b db 8a bd 93 88 04 3d 28 6c 63 3c d4 52 40 3d
       -0.067800604 0.03235681 0.013880767 0.04695399

fc1.bias f4 [64]
000000 73 a1 75 3c 72 f1 6c 3d 17 2c bd 3b e3 83 26 bd
       0.014992106 0.057847448 0.005773078 -0.04065312
000010 63 99 27 3d 07 34 45 bd 83 9b 02 3d 51 8a 4d 3c
       0.040917765 -0.04814532 0.03188659 0.012545184
000020 29 0b 0b bd e6 dd 0e 3c 92 83 10 bc e3 f9 01 ba
       -0.03394619 0.008719897 -0.008820431 -0.00049581955
000030 b9 20 ca 3a 41 41 47 bd 52 cd 37 bd 38 de 63 3d
       0.0015421129 -0.048646215 -0.044873543 0.055631846
000040 dc 72 80 bb 32 d7 d1 3d 2c d5 60 3d d7 1d 06 3e
       -0.0039199423 0.102461234 0.054890797 0.1309732
000050 ef 2d 10 bc 15 bc 7e bd ef d8 08 3d a2 d3 4d 3d
       -0.008800014 -0.062191088 0.03341001 0.050250657
000060 48 fa a2 3c 40 80 03 3d a9 bc 3a bd 38 47 c1 3c
       0.019894734 0.03210473 -0.045590077 0.02359353
000070 56 8b 57 3c 1e 6a c5 bc 59 47 48 bb 5e 9c 9b 3d
       0.013155779 -0.024098452 -0.0030560105 0.07598184
000080 44 46 04 3e cc 46 46 3d da 51 fd 3c bd 26 10 bd
       0.12917429 0.04840736 0.030922819 -0.035193194
000090 93 3f 74 ba 96 f2 bd 3c 07 3e e6 bc a5 b5 2b 3d
       -0.00093173346 0.023186963 -0.028105749 0.041921277
0000a0 e0 1c e9 3c 86 c5 7f 3c 3b 29 73 bd 10 13 57 3d
       0.028456151 0.015611058 -0.059365492 0.052508414
0000b0 2f 78 04 3b 08 4c 9e 3b 1e 42 c5 3c d8 26 07 3d
       0.0020213237 0.004830841 0.024079379 0.03299603
0000c0 47 2d 07 bd f0 22 c9 3d 38 05 fc bb 9d 60 20 3d
       -0.033002164 0.09821117 -0.007691052 0.039154638
0000d0 6f 36 e0 3c 53 3c e3 bc 05 6d 85 bc 37 eb 88 bc
       0.027369706 -0.027738726 -0.016287336 -0.016713722
0000e0 d8 a1 86 3d 7c ea cd bc b9 18 1f bd 25 e0 21 bd
       0.06573838 -0.025136225 -0.038841937 -0.0395204
0000f0 d8 63 04 3d 4b 56 5f 3d 8f 08 a3 3d 48 77 03 bd
       0.03232178 0.054525655 0.07960617 -0.032096177

fc2.weight f4 [64, 64]
000000 bd c0 42 bd 08 79 29 bd 6f f3 a4 bd 9b 99 ed bc
       -0.04754709 -0.04137519 -0.08054244 -0.029003909
000010 1f 5a b3 bc bd e2 8f 3b 4c 30 eb 3b 2b 38 2c 3e
       -0.021893559 0.004391043 0.0071773883 0.16818301
000020 b4 0a 15 3d 91 f6 e6 3d 41 e1 e4 3d f1 9d a0 bd
       0.03638716 0.112774976 0.11175776 -0.07842625
000030 cb c2 07 bd 38 75 4c 3d 29 f7 ee bd e9 e9 0f 3e
       -0.033144753 0.049916476 -0.11668236 0.14054073
000040 42 78 1a 3c 1f 46 9c 3d 00 1f 8b 3d a9 85 8d 3d
       0.009428086 0.07630562 0.06793022 0.06910259
000050 b2 43 69 bd ef aa e9 3d f3 39 b5 bc fe 00 d8 3c
       -0.056949325 0.11409556 -0.022122359 0.02636766
000060 57 52 bb 3b c8 f5 4d bd 3d 99 6e bd 78 d7 b8 bc
       0.005716603 -0.050283223 -0.05825161 -0.022563681
000070 fb b1 c8 3d 80 c8 4c 3d d7 58 86 3d 02 7d 6b 3c
       0.09799572 0.0499959 0.065599136 0.014373066
000080 38 f4 f2 3c 83 04 e6 bc 85 95 8b bd 5f 6d c6 bd
       0.029657468 -0.028078323 -0.06815628 -0.0968883
000090 9e ff 01 3c 92 dc b3 3d fc 7e a7 bd 4c d2 29 bd
       0.007934479 0.08782305 -0.08178517 -0.04146032
0000a0 b8 62 e1 bc ce 62 5f 3d 67 c5 f1 3c b2 2e 64 3d
       -0.027512893 0.054537587 0.029513074 0.055708595
0000b0 3e eb 09 3e 2b e0 17 bd e3 6e 82 bd 44 85 91 3d
       0.13468644 -0.037079018 -0.06368806 0.071054965
0000c0 46 af 95 bd c1 36 46 3e b6 4c 59 3d 9d 24 0f 3e
       -0.073088214 0.19356824 0.053051673 0.1397881
0000d0 3b 3c b0 bc db 7c ba 3d f5 ef 6b bd b6 95 51 3d
       -0.021513095 0.091058455 -0.057601888 0.051168166
0000e0 ca 41 a7 bd 32 7e 09 bc 7b 3d a2 bd 96 4d 96 bd
       -0.08166845 -0.008391904 -0.07921883 -0.07339017
0000f0 4c 1f 26 bd ce 72 7e b9 ab e4 38 3d 57 cf d7 3c
       -0.04055719 -0.00024266096 0.04513995 0.026343985
000100 6a bf ab bd 47 53 9a 3d 9d 33 c6 bd fd ae 23 3d
       -0.08386119 0.07535415 -0.09677813 0.039961804
000110 17 12 4b 3d fe 73 66 3c e6 e6 c2 bd 20 81 15 3c
       0.0495778 0.014065741 -0.09516697 0.009125024
000120 57 16 6d bd ec 69 0c 3e 61 3e 86 bc cf 97 5f bd
       -0.057882633 0.13712281 -0.016387166 -0.054588135
000130 2b ab 9a 3c 32 2e ac bd 4c bf a1 bd 7d 40 9c bd
       0.018880447 -0.084072486 -0.07897815 -0.07629488
000140 5c d4 68 bd 39 a4 22 3e 56 ba ff 3d 96 a6 9f 3d
       -0.056843147 0.15882958 0.12486713 0.077954456
000150 68 3d 83 3d 53 a7 1f 3b e7 cd 1f 3d b3 9d b3 bd
       0.06408197 0.0024361208 0.039014723 -0.08770313
000160 47 c3 e1 3c 25 74 08 bd 28 48 10 3d ba c8 22 3c
       0.027558936 -0.03331389 0.035225064 0.009935552
000170 d2 f9 01 3e fb 41 19 3e d3 1d c9 bc 05 c0 2c 3d
       0.12692955 0.14966576 -0.024550354 0.04217531
000180 f7 4f cc bb ab db 48 bd 25 47 17 3d 24 be 5a bd
       -0.0062351185 -0.049037617 0.036933083 -0.05340399
000190 07 af 5a 3b 16 8a 91 3c c8 32 a3 3d 6e a5 d4 bd
       0.0033368485 0.01776604 0.0796867 -0.10383116
0001a0 b2 ef af bc 2b 2c 8f bd 62 8e cd bd 75 f1 36 3b
       -0.0214766 -0.06990846 -0.10036923 0.0027914916
0001b0 97 eb c4 3d 83 1a ab bc bc 0d f7 bd 93 31 0e 3e
       0.09615248 -0.020886665 -0.120631665 0.13886099
0001c0 89 f0 9b 3d 0a 60 49 3a fa 17 e9 3d 0c 28 80 3c
       0.07614238 0.00076818524 0.11381526 0.015644096
0001d0 74 51 64 3c d2 f0 5e bd 86 91 03 3d 30 09 ab bd
       0.013935436 -0.054428883 0.032121204 -0.08351362
0001e0 82 ec dc 3d f6 f8 7d bd b6 92 8d bc 0b 51 96 bd
       0.10787298 -0.062005006 -0.017281871 -0.073396765
0001f0 5d 20 11 bd 87 f9 8e bd 94 0c 2a 3e c3 0c e8 bd
       -0.035431255 -0.06981187 0.1660636 -0.11330559
000200 52 fc 88 bc fc b6 51 bd 0b 78 af 3c 07 99 ec bd
       -0.016721878 -0.051199898 0.021419546 -0.11552625
000210 80 62 db 3d 00 34 62 bc 7c 22 4c bd ad 62 f7 3a
       0.10712147 -0.013806343 -0.049837574 0.0018874012
000220 d9 66 a5 3d 8e e8 c9 bd 8a b1 98 3d 26 05 9c bc
       0.08076257 -0.098588094 0.07455738 -0.019045424
000230 9f 2a 80 bc e5 66 a4 3d b4 5f 20 3d 1d 11 73 bd
       -0.015645323 0.08027438 0.03915377 -0.059342492
000240 20 0b c4 bd b4 87 ef bd 60 86 02 bd 40 ea 3b 3d
       -0.095724344 -0.11695805 -0.03186643 0.045877695
000250 66 db 0c 3d 5d 89 8b 3d a6 8c 7a bd 69 90 50 bd
       0.034388922 0.06813309 -0.06116929 -0.05091897
000260 8d 4f f1 3d 78 28 e1 3d 89 a8 da 3d f4 26 6b bc
       0.11782751 0.10994047 0.10676677 -0.014352549
000270 de cd f9 bd 64 b7 c9 bc e9 6d f6 3d de dd 68 bd
       -0.12197469 -0.02462358 0.120326824 -0.056852214
000280 a9 a2 9a bd f4 ed f9 3d 66 7a 6e bb 51 29 e4 3d
       -0.07550556 0.12203589 -0.0036388873 0.11140693
000290 63 04 8e bc ef fa 0b bd 86 18 a1 bd 30 bc 9c bd
       -0.017336076 -0.034174856 -0.078660056 -0.076530814
0002a0 81 f9 05 3d a4 07 f3 3d 66 cb a6 bd 40 40 d0 3d
       0.03270865 0.11866692 -0.08144264 0.10168505
0002b0 c0 b2 9e bd 5e 2e 03 3e 5d cd bb 3c 57 54 e8 3d
       -0.077489376 0.12810656 0.022925073 0.113442115
0002c0 04 d1 f6 bc 6a 62 3f bd 06 02 bc bd 60 31 57 3d
       -0.030128963 -0.046724714 -0.091800734 0.052537322
0002d0 ff 4c 1d bb e1 a1 19 3d d3 73 12 bd 57 48 40 bd
       -0.0024002192 0.037507895 -0.03575499 -0.04694399
0002e0 52 7a 62 bd 42 6d 91 bd 57 79 c6 3d 4e ca 8d bd
       -0.055292435 -0.071009174 0.096911125 -0.06923352
0002f0 10 90 f4 3c 15 f7 0b 3e 64 f2 39 bd 05 05 d6 bd
       0.02985385 0.13668473 -0.045397177 -0.10450176
000300 23 d7 3b 3d 2e d4 2d 3d 80 8f 88 3c 51 d6 da 3d
       0.045859467 0.04243868 0.016669989 0.10685409
000310 63 2b 8d 3d 2a c5 96 3d 08 70 96 bd 09 57 19 3d
       0.06893041 0.07361825 -0.07345587 0.03743652
000320 17 8d 13 be 62 f7 cc bd 66 4a 94 3d 9c ef 70 bd
       -0.1440929 -0.10008122 0.07240753 -0.05882226
000330 c9 10 15 3d ed 3d c5 3d bf 03 b2 3d b0 da de 3d
       0.03639296 0.09630952 0.08692121 0.10881555
000340 35 29 ae bd 6b 04 b5 3d fb 2b 4b 3d 0e ae 30 3d
       -0.08503953 0.08838733 0.04960249 0.04313474
000350 46 35 2c bd 8e 14 f1 bd 06 a3 9d 3d 17 64 51 bd
       -0.042042993 -0.117714986 0.0769711 -0.051120844
000360 33 bb 51 bd 08 8f 04 3b 2e d2 bb bd 93 3d 3a bd
       -0.051203918 0.0020226855 -0.09170948 -0.045468878
000370 e4 b1 11 3d 7d 66 8d 3d 1d 2f 74 3d d8 36 29 3d
       0.03557004 0.06904314 0.059615243 0.04131207
000380 10 f5 4b bc d0 eb 20 3d 52 53 08 be 56 ba d7 3c
       -0.012448564 0.03928739 -0.13313034 0.02633397
000390 43 a9 39 3c 56 97 8b 3d dd 8e 8a 3d 9d f5 9e 3d
       0.011331859 0.068159744 0.0676553 0.07761691
0003a0 46 73 ac 3d b2 50 d8 bd ea c2 ff 3d a6 c9 f0 ba
       0.08420424 -0.105622664 0.12488349 -0.0018370643
0003b0 6e 75 26 3d b1 be 72 3d df a2 1e bd 37 69 af bd
       0.040639333 0.05926389 -0.038729545 -0.0856499
0003c0 e1 86 90 bd bb e0 5a be ae 4f 9f 3d 16 e4 d2 bc
       -0.07056976 -0.2137479 0.077788696 -0.025743525
0003d0 ab e6 a4 3d 4d 11 7f bc 53 65 92 3c 22 f4 8a bd
       0.08051809 -0.01556809 0.01787058 -0.06784846
0003e0 30 c4 64 bd 78 58 d9 bd 02 20 1d bd b6 8c 9e 3d
       -0.05585116 -0.10612577 -0.038360603 0.07741682
0003f0 1c bf bb bd 21 54 bd bd d7 a5 2c be 5d fc b3 3d
       -0.091673106 -0.09244562 -0.16860138 0.08788369

fc2.bias f4 [64]
000000 90 ee 0e 3e c4 b6 61 3b 72 e9 61 3c fc f1 d4 bd
       0.13958192 0.0034441212 0.013788568 -0.10397717
000010 54 7f a1 3d 94 b0 57 bd 7c 88 8c bd cc 28 65 3c
       0.07885614 -0.052658632 -0.0686197 0.0139867775
000020 05 74 a9 bd 57 7f dc bd 04 9d e3 bc d4 96 71 bd
       -0.08274082 -0.10766476 -0.027784832 -0.05898173
000030 13 63 75 bd 1f 25 91 3d 0c 26 24 3c 53 ae 90 3d
       -0.059908938 0.070871584 0.010018837 0.070645
000040 db 73 ba bd 66 5a 62 bc 4c c3 3d bd 03 d4 86 ba
       -0.09104129 -0.013815498 -0.046328828 -0.0010286573
000050 8f 5d bd bd b1 1f e1 bd cd b0 37 bd d1 e0 05 3b
       -0.092463605 -0.10992373 -0.044846345 0.002042819
000060 ee 87 b9 3d 96 26 e1 bd 9f 07 a8 bd 14 6a bc bc
       0.0905913 -0.10993688 -0.082045786 -0.0229998
000070 8b 66 17 bd bd a3 ab bd 67 4a c3 bc 73 c0 f9 bc
       -0.036963027 -0.0838084 -0.023839189 -0.030487275
000080 06 6c 33 3d e2 01 fe bb fd 30 72 bc 70 a4 08 be
       0.04380419 -0.0077516893 -0.0147821875 -0.13343978
000090 3d 4c 0e 3d 2d 4e db 3a 87 d6 a8 3d f4 06 fb 3d
       0.034740675 0.0016731672 0.08244043 0.122571856
0000a0 d2 29 84 bd e6 5a 3c 3d ec 74 d1 bd 10 8d 05 3e
       -0.06453289 0.045985125 -0.10227379 0.13042092
0000b0 8d a7 4a 3d 7d bf cc 3c 85 65 e5 3c 5c cd bd bd
       0.049476195 0.024993652 0.02800251 -0.09267685
0000c0 56 2c 22 3e 1b 90 9b bd 79 c0 96 bd 3a 8a e2 3d
       0.15837225 -0.07595845 -0.0736093 0.11061521
0000d0 92 17 ba 3d 4a 3b 08 bd 6b 18 dd 3d 12 eb 22 bb
       0.09086527 -0.033259667 0.10795673 -0.002485935
0000e0 3e 4b 5b bd 6c 1a 01 3e 43 4e c0 bd 30 d4 df 3d
       -0.053538553 0.12607735 -0.09389927 0.109291434
0000f0 ef 0d 93 3d 46 37 84 bb fd 1e 10 3e 53 5b 26 bc
       0.07180392 -0.0040349094 0.14074321 -0.010153609

actor_Q.1.weight f4 [8, 64]
000000 51 e2 4d bd 14 28 12 bd 98 15 ce 3d 71 b8 65 bd
       -0.05026466 -0.035682753 0.100627124 -0.0560841
000010 4b 48 a5 bd 82 79 91 bd 93 7a 83 bd fc 3c dc ba
       -0.080704294 -0.07103254 -0.064198636 -0.0016802843
000020 68 32 ba bc 0f 54 ac 3c 9c d0 9d bc 8a fb e5 3d
       -0.022729114 0.021036176 -0.019264512 0.11229618
000030 62 47 fa bd 2a db 09 3e 0c 96 86 bd 62 ea de 39
       -0.122206464 0.1346251 -0.06571588 0.00042517768
000040 70 da c3 3d ed dd b9 bd 98 fb 48 3d 60 31 65 3d
       0.09563148 -0.09075532 0.049068063 0.05595529
000050 a2 c2 02 3e 1b 01 1a be ac 1e dd 3d 0f f8 81 bc
       0.12769559 -0.15039484 0.10796866 -0.015865354
000060 bd 98 57 bd 4e 73 2f bd 30 91 f9 3d 45 8a 81 bc
       -0.052635897 -0.042834572 0.121858954 -0.015813002
000070 69 51 aa bc eb 3c 66 3d 3d 9c 5d bb 4f 01 e8 3d
       -0.020790773 0.05621044 -0.003381505 0.113283746
000080 20 35 cb bd 6d 7d c1 bd cd 05 9c bd e1 ee a8 3d
       -0.09922242 -0.09447751 -0.07618294 0.082486875
000090 dd f9 c8 bc a2 0f ac bd 12 ae a0 3c a6 8b ea 3c
       -0.024533207 -0.08401419 0.019614253 0.028631043
0000a0 f2 2d 80 3d 96 d3 44 3d ad 4e 4c 3d 12 76 16 be
       0.062587634 0.048053347 0.04987972 -0.14693478
0000b0 a0 e7 fa 3c 49 6c a5 bd 5f 25 40 bb 14 59 80 bd
       0.030628026 -0.080772944 -0.002931915 -0.0626699
0000c0 64 3b e9 3d 30 b2 00 be ec 54 ee 3d 08 ad 77 bd
       0.11388281 -0.12567973 0.11637291 -0.06046775
0000d0 f6 da 37 3d 83 b0 a6 3d 53 f9 11 3d c2 dd 65 bd
       0.04488655 0.08139136 0.035638165 -0.056119688
0000e0 44 5f 82 3d 13 8b 3e 3a 03 d1 86 bd a4 97 93 3c
       0.06365827 0.00072686485 -0.065828346 0.018016644
0000f0 0a 6b e5 3d 53 77 20 bc 7a d9 58 3e 30 6e f4 bc
       0.11202057 -0.009794074 0.2117671 -0.029837698
000100 c8 70 68 bd 26 90 13 be 6a 5c 35 3d 97 c9 e4 3c
       -0.05674818 -0.14410457 0.044277586 0.027928157
000110 ec 91 ff bb 53 3b 02 bc 5a 41 aa bd ca eb 2b 3d
       -0.0077993777 -0.007948714 -0.08313246 0.041972913
000120 10 02 02 3e 4c 2e 1a 39 09 84 b9 3d 04 df 16 be
       0.126961 0.00014703831 0.09058387 -0.14733511
000130 43 2e cb 3d e7 3a d7 3d bf 8f 10 bd 9f 07 17 3b
       0.09920933 0.105092816 -0.035293337 0.0023045314
000140 0c 17 8e bd a5 84 3e 3d 14 31 32 bd 93 03 4e 3d
       -0.069379896 0.04651322 -0.043503836 0.050296377
000150 a8 e4 11 bd c7 d0 c5 3c f0 78 af 3c 87 3d 45 3d
       -0.035618454 0.024147404 0.021419972 0.04815438
000160 c8 6a 80 3d 61 59 ec bd a4 80 8d bd 1c be 22 bd
       0.06270367 -0.11540485 -0.06909302 -0.039732084
000170 9d b7 be 3d 55 83 28 bd c1 07 ec 3d 6d 7b b4 3d
       0.09312365 -0.041140873 0.115249164 0.08812604
000180 c2 c0 91 3c 7d 7f f5 3b 3d e3 f3 3c ba 20 b6 3d
       0.01779211 0.0074920044 0.029771442 0.08892961
000190 db 25 cf 3d f9 5d aa bc e3 e1 32 3d 2e 64 00 be
       0.10114642 -0.020796763 0.043672454 -0.12538216
0001a0 11 a0 d6 bd 0b b8 8a bd e8 cb aa bd 1a 54 e2 bc
       -0.10479749 -0.06773385 -0.08339673 -0.027627993
0001b0 16 ba 31 3e f2 58 70 bd 84 c0 4f 3d 54 3d 09 bd
       0.17356142 -0.058678575 0.050720707 -0.033505753
0001c0 1d ca a9 3d a3 3c 05 3d d3 90 c6 bd d9 34 da 3c
       0.08290503 0.03252853 -0.09695592 0.026636528
0001d0 14 0e 1d bd 3e dc 98 bc 6d 8c cb 3d 4d 5a f8 3d
       -0.038343504 -0.018659707 0.099388935 0.121265985
0001e0 aa eb b1 bd 27 21 be 3c 4b 00 8e 3d 14 88 9f bd
       -0.086875275 0.023209168 0.0693365 -0.07789627
0001f0 bb 3e 27 bd 91 9a a3 3c fd ba c2 3d b2 b1 07 3e
       -0.04083131 0.019971164 0.095083214 0.13251379
000200 12 a6 19 be 37 53 16 3e 4e 9b f1 3d e1 06 fa bd
       -0.15004757 0.14680181 0.117972 -0.12208343
000210 36 7f 2a 3d e4 cc 0f be e6 7f f9 bc 50 eb a2 3d
       0.041625224 -0.14043003 -0.030456495 0.079550385
000220 48 77 23 bc a0 49 c3 bc 0a 99 ab bc 4e d1 19 3e
       -0.009977169 -0.023838818 -0.020946998 0.1502125
000230 f0 dd 94 bc 87 19 79 3d 78 6b 97 bc 12 e3 ba 3d
       -0.018172234 0.06081536 -0.018483862 0.091253415
000240 e9 0e 9f 3d 20 6b 01 be 14 63 97 3d 3c 57 c8 3d
       0.07766516 -0.12638521 0.073919445 0.09782264
000250 f2 0d 1e 3d f2 93 c7 3d e7 a4 b2 bd 22 5c ce bd
       0.038587518 0.09745015 -0.08722859 -0.10076167
000260 a1 9a 12 3c 81 c2 8f 3d b1 25 94 3d 89 59 49 bc
       0.008947999 0.070195206 0.072337516 -0.012289413
000270 da e9 0e 3d f5 7c e7 3d e0 b7 3f bd eb 12 30 3e
       0.034890987 0.113031305 -0.046806216 0.17194717
000280 45 8e ed bd 88 16 bd 3d f6 a6 cf 3d 1b 1b 03 3e
       -0.115994014 0.09232813 0.10139267 0.12803309
000290 34 15 60 bc 5a 9f b7 3d c2 d7 b3 bd 7a 20 4e bd
       -0.01367693 0.08965941 -0.08781387 -0.05032394
0002a0 f5 5e 47 3a 39 df c0 3d e5 29 a3 bc 80 74 42 bc
       0.0007605397 0.09417576 -0.019917438 -0.011868596
0002b0 c1 3c 64 bc ff d2 bd bd 1f 9d d7 3d 3f 55 a3 3d
       -0.0139305005 -0.0926876 0.10528015 0.07975244
0002c0 85 dd 40 3e 11 d0 af 3d 50 8b b1 bd b0 02 ee 3d
       0.18834503 0.085846074 -0.0866915 0.11621606
0002d0 d9 35 3d bd 62 69 b9 bd 44 c9 8b bd 70 21 80 bb
       -0.04619393 -0.09053303 -0.06825498 -0.003910236
0002e0 26 48 c5 3d a2 22 36 3e 28 01 fa bd 72 b2 e8 bd
       0.09632902 0.17786649 -0.12207252 -0.11362161
0002f0 bc 6b 5e bc ae 31 84 bd 39 70 e9 3d 08 b0 72 3d
       -0.013575491 -0.06454788 0.11398358 0.059249908
000300 b7 a9 f8 bc ef b9 bb 3d 1f 3c 68 bd 07 a5 74 bd
       -0.030354364 0.091663234 -0.05669796 -0.059727695
000310 66 95 a4 bc 0b 98 e8 bc 02 9c 9f bd 88 7c 80 bc
       -0.02009077 -0.028392812 -0.07793428 -0.015684381
000320 31 1b 0b be 4e c1 cf bd 48 7d 5a 3c 48 49 2e 3e
       -0.13584591 -0.10144292 0.013335533 0.17020142
000330 8f 69 79 bd 42 e1 df bc 4b 63 f8 bd ea 9c eb 3d
       -0.060891684 -0.027329091 -0.12128314 0.11504538
000340 63 bf 1d 3c 13 56 73 bc 4f 48 45 bd 88 a9 cc 3c
       0.00962815 -0.014852065 -0.048164662 0.024983183
000350 37 bb 14 3c 54 8c cb bd 3f ac 25 3d 46 c7 0c 3d
       0.009077839 -0.09938875 0.04044747 0.03436973
000360 0a 66 b1 3d f8 a8 88 bd 62 95 a9 3c c5 8f b4 bd
       0.086620405 -0.06672853 0.020701114 -0.08816484
000370 2a f5 04 3c 63 fa 56 bd 5f 57 0a 3e d3 c4 eb 3c
       0.008115092 -0.05248488 0.13509892 0.028780377
000380 d0 ef de 3c f8 57 cd 3d 57 ce 8e bd 59 54 1c 3d
       0.02721396 0.10026544 -0.0697295 0.038166378
000390 69 f9 4b 3d 3f ba 3c bc 9a 14 70 3d 7f 01 a3 bd
       0.049798403 -0.011519014 0.058613397 -0.0795927
0003a0 83 85 44 bb c1 50 42 3d da f3 c5 3c 9e 72 a9 bd
       -0.0029986806 0.047440294 0.024164129 -0.082738146
0003b0 b5 81 11 bc 12 c8 9f 3d 3e b4 82 3d 1a 4d cd bd
       -0.008881022 0.07801832 0.06382035 -0.100244716
0003c0 d7 b0 df 3d 0b e3 48 3c 32 e5 52 bd 78 68 c8 3d
       0.109224014 0.0122611625 -0.05148811 0.09785551
0003d0 b0 64 28 3d 6e 91 c8 3d d6 e9 1e 3d ea 84 b4 bd
       0.041111648 0.097933635 0.038797222 -0.08814414
0003e0 09 ef c0 3d 8e 76 70 3d ad 9a e3 3c e1 dc b2 3d
       0.09420592 0.058706813 0.027783716 0.087335356
0003f0 1d 74 81 3c 9d 94 ed 3d 22 6b fa 3d d8 0b 21 be
       0.015802437 0.11600611 0.12227465 -0.15727174

actor_Q.1.bias f4 [8]
000000 c9 30 0d 3e 68 f2 87 3b eb dc 4e 3d ca 21 fe 3d
       0.13788141 0.00414877 0.050503653 0.124087885
000010 f9 1a d1 bc 21 18 24 bd 24 e4 60 3d 48 85 da bd
       -0.025525557 -0.040062074 0.05490507 -0.10669953

actor_K.1.weight f4 [8, 64]
000000 81 33 dc 3c 58 93 af 3d 45 c0 04 3c a6 5e 69 b9
       0.026880028 0.085730255 0.008102481 -0.00022255871
000010 5e c7 9d 3d 4c 99 07 3d 59 a5 9c bd 58 b2 a8 bd
       0.07704042 0.03310518 -0.07648725 -0.08237141
000020 1b 84 cd bc 91 95 82 3d e8 62 14 3e 01 22 64 bc
       -0.025087407 0.06376184 0.14490855 -0.013924123
000030 ba a7 d3 3b 70 c8 63 3a f5 88 8f bd 3f ce ad 3d
       0.0064592035 0.00086892303 -0.07008544 0.08486604
000040 2c 79 4d 3c 02 93 88 bd e2 1e 5d 3d bf 43 3b bc
       0.012541097 -0.066686645 0.05398453 -0.011429726
000050 78 93 ae 3b f9 5e 05 be db 2b d2 3d e8 f6 ce bd
       0.0053276382 -0.1302451 0.10262271 -0.101056874
000060 b7 ed 0d bd 84 13 d9 3b 23 1a df bd 09 58 f2 bd
       -0.03465053 0.006624641 -0.10893657 -0.118331976
000070 fe 9c e5 bb 3c 9d 00 3e 48 9a e6 bd d4 98 e5 bd
       -0.0070072403 0.1255998 -0.112598956 -0.1121079
000080 7b cd d6 bd bc ec 3e bd ad c1 61 3c 70 65 36 bd
       -0.10488411 -0.046612486 0.013779086 -0.044530332
000090 5a c6 91 bd eb 4b 29 bd d3 2a f6 3c 44 52 15 3e
       -0.07117911 -0.041332167 0.030049717 0.14582163
0000a0 23 00 d3 3d 57 0b 16 3e ab dc 87 3c 36 67 64 3d
       0.103027605 0.14652763 0.016584715 0.055762492
0000b0 6d 09 a9 3b 13 98 63 3d 7b 6e a9 bd ce ea 17 3d
       0.0051585943 0.05556495 -0.082730256 0.03708916
0000c0 68 e1 33 3c 23 5a c6 bc 01 98 b2 bd de 2d d9 3d
       0.010979034 -0.024212902 -0.08720399 0.106044516
0000d0 16 15 f8 3d 41 92 1f bb 10 32 15 bd 2e f1 93 3d
       0.12113397 -0.0024348649 -0.036424696 0.07223736
0000e0 66 3a c4 3d 41 b2 13 be e7 81 78 3d 7e 1d d9 bc
       0.09581451 -0.14423467 0.06067076 -0.02650332
0000f0 54 b3 97 3c 09 03 2d bd 84 71 da bd 83 b7 a9 3d
       0.018518128 -0.042239223 -0.10666183 0.08286955
000100 f6 95 84 3d 41 98 a9 3d 20 98 94 3d 09 08 46 3b
       0.06473915 0.08280993 0.07255578 0.0030217192
000110 19 92 7a 3d 2d 12 e7 3c fb 18 fe bc 1a ff 9d bd
       0.061174486 0.02820691 -0.031017771 -0.077146724
000120 f5 9a 56 bb a6 27 96 bd ca ec ae bd 58 58 be 3c
       -0.003274617 -0.07331781 -0.08541258 0.023235485
000130 24 96 9c 3d 90 70 df 3d 81 86 f6 bd 63 db 94 bd
       0.076458246 0.109101415 -0.12037373 -0.07268407
000140 fd ec cd bd 38 61 f9 bd b9 5d 86 bd dd 84 94 bd
       -0.100549676 -0.12176746 -0.06560845 -0.07251904
000150 5c 04 14 3d 10 cd a1 bd c4 02 42 3c c4 89 c2 3c
       0.03613697 -0.07900441 0.01184148 0.023747332
000160 2d f4 74 3d 0c b0 db 3d 6a 18 10 bd a1 f7 0a bd
       0.059803177 0.10726938 -0.035179533 -0.033927564
000170 f1 eb 8e bd b3 54 97 3d b8 b5 a2 3c 95 3f b2 3d
       -0.06978596 0.07389202 0.01986204 0.087035336
000180 45 ad 53 bd 6e 71 bd 3d 5f 15 6b bc 26 ba 28 3d
       -0.051678915 0.092501506 -0.014348357 0.04119315
000190 a5 87 ce 3b 4c 0d 3a bd 33 71 0f be c1 3e 99 3d
       0.006302791 -0.045422837 -0.14008026 0.074826725
0001a0 b0 61 23 3d 22 0e d4 3d a8 4c d5 3d 8d 2e 5d bd
       0.039888084 0.10354258 0.10415012 -0.053999472
0001b0 3e fc 6e bb c7 2d a1 bd 75 b5 1f bd f1 14 28 3e
       -0.0036466266 -0.078700595 -0.03899141 0.16414239
0001c0 c1 a8 88 3d 0a 5f 76 bd ac b9 23 be e3 0b 3a bd
       0.06672812 -0.06014923 -0.15988797 -0.045421492
0001d0 8c e5 91 3d 11 14 a3 bd 9e b5 86 bd 69 be 63 3d
       0.07123861 -0.07962812 -0.065776095 0.05560151
0001e0 4c 4d 98 3d 1a 4c 06 3e ea 64 fc bd c6 61 97 bd
       0.07436618 0.13114968 -0.12323935 -0.07391696
0001f0 ff 33 65 3c 5d 07 b4 bc 71 4b 8b bd 0c cb a7 3c
       0.013989448 -0.021976167 -0.06801499 0.020482562
000200 9b 3e 58 3e 4f 60 9a 3c 49 20 c1 3d b1 69 cf bd
       0.21117632 0.018844752 0.09429986 -0.10127581
000210 07 b0 cd 3b 1e cf f6 3d 26 b4 d6 3d 4a 1e 27 3d
       0.0062770876 0.12051223 0.10483579 0.04080037
000220 bd d2 e2 3d b0 82 b9 3d 51 c0 03 3e 5b 45 c7 3c
       0.110753514 0.0905813 0.12866332 0.024325063
000230 41 bc 4f 3d 6b 8a ae 3d 70 9f 90 3d 2c 56 4a 3d
       0.050716642 0.08522495 0.0706166 0.049398586
000240 a0 4c c3 bd b2 99 03 3e bd 80 0c bd ae 97 cd bd
       -0.095360994 0.12851599 -0.034302462 -0.10038696
000250 4f 3e 30 bd 54 a1 41 3c 02 2f 3f 3d 78 94 da bc
       -0.043028172 0.011818249 0.04667569 -0.026682124
000260 ad 6c c6 3c 46 85 1b 39 4c d9 b9 3d 37 6c be 3d
       0.024221743 0.000148316 0.09074649 0.09297984
000270 3c aa b8 bd 1f 6d 09 bd 34 58 af 3c e0 af 3c bd
       -0.09016845 -0.03355133 0.021404363 -0.046066165
000280 a7 82 b4 bd 16 26 13 3c b3 14 a1 bd eb 59 fc bc
       -0.088139825 0.008981248 -0.07865276 -0.030804595
000290 21 93 1c 3e 12 91 a5 bc d8 b5 ea 3d e9 2d 88 bd
       0.152905 -0.020210776 0.11460465 -0.06649382
0002a0 86 bd 98 3d 83 ce 8d bd 67 ab df bd ef 75 fe bc
       0.07458024 -0.069241546 -0.10921364 -0.031062094
0002b0 7d 23 e7 bd bb 28 7c bd 2e c9 52 3d ae d5 7c 3c
       -0.11286066 -0.06156228 0.05146139 0.015431805
0002c0 50 4a 01 3e c8 64 49 3d e6 e3 c5 3d 1b 35 8b bc
       0.12626004 0.049168378 0.09662609 -0.016993096
0002d0 1e 6e d7 3d 1d db 8b bc d4 81 eb bd b8 77 9d bc
       0.1051905 -0.017072255 -0.11499372 -0.019222125
0002e0 0c 60 9d bc 92 69 0d 3d ce 3b dc 3c 7a e7 be bd
       -0.019210838 0.034524508 0.026883986 -0.093214944
0002f0 42 fd 1f 3d 9e 17 eb 3d 71 7c 5b 3d d0 69 01 bc
       0.039059885 0.11479114 0.053585473 -0.007898763
000300 14 03 ff 3c 4d 72 09 bc 7c 66 7f bb a9 3f 50 3d
       0.031129397 -0.008389068 -0.0038970998 0.05084196
000310 e8 bd ad 3d 9b 8d dd 3d 24 be 8a bd bc b6 ae bd
       0.08483487 0.10818025 -0.06774548 -0.085309476
000320 b2 e9 9d bd 95 21 7d 3d 3f 23 34 bd 5e 91 1c 3e
       -0.077105895 0.061799604 -0.043978926 0.15289828
000330 f5 a3 93 3d 11 d8 db 3c 77 09 a6 bd 9c 7e 27 bd
       0.07209007 0.026836427 -0.08107274 -0.04089223
000340 c8 9d b3 bd 57 3a 90 3d 45 3c 39 3d 28 97 0d 3d
       -0.08770329 0.070423774 0.045223493 0.034567982
000350 71 5a 80 3d 4b cf 68 3d 97 71 a5 3d 48 44 b5 3d
       0.0626725 0.056838315 0.08078306 0.08850914
000360 d3 78 b2 bb 13 73 88 3d 4d c8 0e 3d 3f 33 d0 3d
       -0.0054465323 0.06662574 0.03485899 0.101660244
000370 8f 63 2b b8 bb 0b 89 3d 57 48 e5 bc 83 4b a5 3d
       -4.08623e-05 0.066916905 -0.027988596 0.08071043
000380 17 75 a1 3d 0f d4 b0 bd 9e 5c 20 3d 94 96 e2 3d
       0.07883661 -0.08634197 0.039150827 0.11063877
000390 46 3b 78 bd 95 86 b0 3d c0 40 85 3d ca fb 92 3d
       -0.060603403 0.086194195 0.06506491 0.07176931
0003a0 75 4f 11 3e ad 1e 1e 3c 3d 7f d7 3d 12 88 cd 3c
       0.14190467 0.009650868 0.10522316 0.025089297
0003b0 33 32 85 3c 14 ed 6e bc 8a da a6 3d 41 d4 05 be
       0.016259288 -0.014582891 0.08147152 -0.1306925
0003c0 48 17 73 bd de df 37 bd d7 49 7a 3d 88 cf 41 3d
       -0.059348375 -0.04489123 0.061105575 0.047317058
0003d0 5b 84 ca bd 7c ea 2d 3d 9b fe 77 bc 99 e7 96 bc
       -0.09888526 0.04245995 -0.015136386 -0.018420981
0003e0 cf e6 01 bd 49 7a 05 3e ce 5b d5 3d c8 3e be 3d
       -0.031714257 0.1303493 0.10417901 0.09289318
0003f0 e6 ab 3b bd f9 d5 bb 3d b6 05 86 bd 97 8c f2 3c
       -0.045818232 0.091716714 -0.06544058 0.029608054

actor_K.1.bias f4 [8]
000000 f6 a8 2c 3d 2f b9 e1 bd 2e 93 e9 3c 3e 37 e0 3d
       0.04215332 -0.11021649 0.028512564 0.109480366
000010 21 73 0c be e9 fc 0c be b2 db e4 3d 3b bd 90 3d
       -0.13715793 -0.13768353 0.11174716 0.07067343

actor_V.1.weight f4 [3, 64]
000000 e2 21 a0 3c eb 92 36 be 9c 4b 2e 3d c2 42 e3 3d
       0.019547407 -0.17829482 0.042552575 0.110967174
000010 c2 33 8a 3c 20 61 90 3d 0f 28 cd bd fc e6 7b bd
       0.016870383 0.07049775 -0.10017406 -0.06149958
000020 72 55 2c be e6 3e f1 bc dc da 2b be a6 de 33 be
       -0.1682947 -0.029448938 -0.16782707 -0.17565402
000030 e9 6d b7 3d 26 3e 7e 3c 39 66 92 3d 9f 54 37 3d
       0.089565106 0.015517747 0.07148404 0.044758435
000040 7e 7a 35 3d db 4c 83 3d 9b 47 3b be 11 33 a0 3d
       0.04430627 0.064111434 -0.18289034 0.0782224
000050 9d 4c 8f bd f8 4d 95 bd bf 58 2b 3d ca 19 92 bd
       -0.06997035 -0.07290262 0.04183268 -0.07133825
000060 76 7c c2 bd 4b ac c0 bc e0 93 a0 bd 9d cd 9f bd
       -0.09496395 -0.023519656 -0.07840705 -0.078028895
000070 1e 16 fe bd fc 1f dd 3d 08 9c 3f 3d c2 95 a4 3d
       -0.12406562 0.10797116 0.046779662 0.080363765
000080 2e e2 04 3e 70 78 ce 3d 53 d8 ba 3d db 09 96 3d
       0.12976906 0.100815654 0.09123292 0.073260985
000090 c4 87 33 3c 29 78 9c bd fa d1 b9 bd cd 3e ae bc
       0.010957662 -0.07640106 -0.09073253 -0.02127018
0000a0 89 e4 7d 3b 17 03 96 bd 40 77 b2 bd 2b 49 cf bd
       0.0038740954 -0.07324808 -0.087141514 -0.101213776
0000b0 9f a3 54 3d 3f bf f3 3d 6c 99 31 bd 4a 50 23 be
       0.051913854 0.11901712 -0.043359205 -0.15948597
0000c0 1d 9a b8 bd b9 be 01 3e a6 92 b5 3d d1 4f 97 bd
       -0.0901377 0.12670411 0.088658616 -0.07388271
0000d0 0c b9 62 3d 0a c6 0c 3e a6 a7 ba 3d a2 23 f4 3c
       0.055352256 0.13747421 0.09114008 0.029802147
0000e0 7d 75 1b bd dd 46 8b bd 9d b2 8b bd 95 f8 fb 3b
       -0.037953842 -0.068006255 -0.06821177 0.0076895454
0000f0 65 5f 4c bd c5 be 85 bd 7d 4f 1e be b2 57 88 bb
       -0.049895663 -0.06530527 -0.1546001 -0.0041608447
000100 aa 7e 83 be ed 62 12 be bc 2d b8 bd e7 bd bd 3d
       -0.25682575 -0.1429555 -0.08993098 0.092647366
000110 fb 02 bc 3b f7 8f d9 3d d1 a7 87 3d ec e6 3b bd
       0.00573766 0.10623162 0.06623805 -0.04587452
000120 0c 54 dc 3d 4b 2b 50 bd 2c b0 1f be 53 af 31 be
       0.10758218 -0.050822537 -0.15594548 -0.17352037
000130 2a ff f8 bb e0 53 44 bd 3b fc 9e 3d b0 94 40 be
       -0.0075987773 -0.047931552 0.07762953 -0.1880672
000140 47 6d 4e bd 46 b6 6e bc 45 13 36 3d de 81 64 bd
       -0.050397184 -0.014569825 0.04445197 -0.055787914
000150 34 20 03 3e 62 0b b1 3d 23 10 a9 3d b1 aa 5a 3d
       0.12805253 0.08644749 0.08255031 0.05338544
000160 f7 89 6c 3d 79 a9 e3 3d bc 44 be 3d 0f a1 c7 bd
       0.05774876 0.11116309 0.09290454 -0.09747516
000170 3f 6a e9 3d 95 3f db bd 15 2f b2 bd 3e 9d 2b be
       0.11397218 -0.10705487 -0.087003864 -0.16759202
000180 4b 1a cc 3c 35 8a 00 3e c9 d6 d2 3c 10 e7 00 3d
       0.024914881 0.12552722 0.025737183 0.03147036
000190 8f a4 ca 3d b8 1a 94 3c 0a 7a 55 bc a0 42 36 be
       0.09894668 0.018079147 -0.013029585 -0.17798853
0001a0 cf 27 47 be 89 fc 4f 3d 6a 54 95 3d af 1d d5 3d
       -0.1944878 0.050777946 0.07291491 0.10406052
0001b0 95 f3 70 be 70 c8 74 bd eb 1c ee 3d f2 1f 57 bd
       -0.23530419 -0.059761465 0.116266094 -0.0525207
0001c0 43 9b 50 be 5a 9a 61 bd 11 ac 7c bd ea 46 36 be
       -0.20371728 -0.05507884 -0.061687533 -0.17800489
0001d0 5a f2 f9 bb 6f 73 a5 3d 3f 61 02 be 1f e9 c3 3d
       -0.0076277675 0.08078658 -0.12732409 0.09565949
0001e0 d3 b9 a3 bd 7f db e2 bd 1b df c7 bc 1c 04 df bc
       -0.079944275 -0.11077022 -0.024398377 -0.02722364
0001f0 d3 75 07 3c 3c 96 bc 3d f2 ce 41 be 92 b2 09 3b
       0.008267838 0.092083424 -0.189266 0.0021010977
000200 48 06 66 3e b4 2d dc 3d 0b 3a 2b 3d db ff 41 3d
       0.22463334 0.10750905 0.0418034 0.047363143
000210 39 5e 34 bd 6c 18 cd bd 58 c5 80 3b f9 02 91 bd
       -0.04403517 -0.10014424 0.003929775 -0.07080645
000220 2f b0 33 3e 39 50 a4 bd 70 1f 41 3d f6 d7 42 3e
       0.17547677 -0.08023114 0.04714912 0.19027695
000230 b7 63 1c 3d 63 3b 16 be fa 93 f2 bd d0 e4 43 3e
       0.038181033 -0.14671092 -0.118446305 0.19130254
000240 f2 f2 1d be 50 50 48 3d 16 4c 30 3e d9 08 e7 3c
       -0.15424708 0.048904717 0.17216524 0.028202461
000250 1d 17 c2 bd cb 4b 1d be 19 89 d6 3d b6 23 47 3e
       -0.09477065 -0.15360944 0.10475368 0.19447216
000260 3f 45 e1 bd ae 6f dd bd c2 17 8b bd e1 2d 9d 3d
       -0.10999536 -0.10812317 -0.06791641 0.07674766
000270 c8 ef 21 3c dd 72 ef bd 9f 64 d0 bd 2a e4 96 bc
       0.009883828 -0.1169183 -0.10175442 -0.018419344
000280 aa 3b 27 be 66 66 27 3c 3d 12 13 be 6b 63 b5 bb
       -0.16331354 0.010217285 -0.14362426 -0.005535533
000290 17 90 a5 bc 60 06 a1 3d 16 eb b8 bd 4f 02 e9 ba
       -0.020210309 0.07862544 -0.09029214 -0.0017777177
0002a0 8a de 06 3c fd 2b 8b bd 52 8b 60 3c 3d 3d 11 3c
       0.008231768 -0.067954995 0.013705092 0.008864698
0002b0 fe 98 2b 3e 44 d4 2c 3d c2 1e f3 bd b3 67 53 3c
       0.1675758 0.04219462 -0.11871101 0.012903142
0002c0 ed e0 60 3e af f0 d6 bd 0f 17 68 3c 34 d3 3c 3e
       0.21960802 -0.104951255 0.014165654 0.18439943
0002d0 ef a5 ba 3d b1 8d 2a be d3 fe df bd 71 67 84 3d
       0.091136806 -0.16655613 -0.10937276 0.064650424
0002e0 1c 05 24 3d c3 0d 16 3e 10 22 0c be 6a ec 30 bd
       0.040043935 0.14653687 -0.13684869 -0.043194212
0002f0 42 4b 02 3e 96 2b 39 3d d8 78 04 3d ac d0 fa bd
       0.12724021 0.045207582 0.032341808 -0.12246832

actor_V.1.bias f4 [3]
000000 e5 59 3c 3c 7a 6f ab bd 16 5f 9c 3c
       0.011496042 -0.08370872 0.01908831

expert_K.weight f4 [1, 8]
000000 64 4f 4d bf e0 e7 bd 3e 8d ef 8a bf 22 79 58 bf
       -0.80199265 0.3709097 -1.0854355 -0.84559834
000010 95 2e 0a 3f 9a 16 e1 3e 72 a0 b8 3e 48 37 13 bf
       0.5397733 0.43962556 0.3605991 -0.5750623
