gym-multigrid-master/folder_test/actor_2_episode_30000.pth (torch, 101383 bytes, 11 tensors)

fc1.weight f4 [64, 294]
0	0x3d0040e1	0.031311873
1	0xbd328b27	-0.043589737
2	0xbcef2d32	-0.029196355
3	0xbd16dc88	-0.03683141
4	0x3c3cccb5	0.011523415
5	0x3d60bfc8	0.054870397
6	0x3bc75fcf	0.0060844193
7	0x3ccec60a	0.025240917
8	0xbc610dd0	-0.013736203
9	0xbcc80a42	-0.024418954
10	0xbcfaa09f	-0.030594168
11	0x3c8e1938	0.01734601
12	0xbd32d627	-0.043661263
13	0xb9fe9e99	-0.0004856482
14	0xbd605652	-0.05476982
15	0x3d406d72	0.046979375
16	0xbb94de5e	-0.00454311
17	0xbc9110d2	-0.017708216
18	0xbd58eaac	-0.052958176
19	0xbc25d66e	-0.010121925
20	0xbd04cf98	-0.03242454
21	0xbd50949e	-0.050922982
22	0xbbb8c5c9	-0.005638812
23	0x3cf61cac	0.030042969
24	0x3cc5a78b	0.024127742
25	0xbd2fa5b8	-0.04288265
26	0xbd392688	-0.045202762
27	0x3996c380	0.00028755888
28	0xbd4ce8a8	-0.050026566
29	0xbd10d234	-0.035356715
30	0xbbdd62d2	-0.006756165
31	0xbd1949c6	-0.03742387
32	0xbd14bbae	-0.036311798
33	0x3cf620f4	0.03004501
34	0x3d2d4a67	0.042307284
35	0xbd37f777	-0.044913735
36	0x3be87206	0.007093671
37	0x3d5c05b1	0.053716365
38	0xbd6b5e02	-0.0574627
39	0x3affcfe0	0.0019516908
40	0xbc638059	-0.013885581
41	0xbb69fea0	-0.0035704747
42	0x3bf83582	0.007574738
43	0xbcd50b75	-0.02600644
44	0x3d06b050	0.03288299
45	0xbceb970f	-0.028758554
46	0x3d2589da	0.04041467
47	0x3ca15730	0.019694895
48	0xbd07c45a	-0.03314624
49	0x3d7a2e77	0.06107947
50	0xbce8965c	-0.02839201
51	0xbb837228	-0.004011411
52	0x3b5fdabb	0.0034157473
53	0x3d135556	0.035970055
54	0xbc839cf2	-0.016066048
55	0xbd2905e8	-0.0412654
56	0x3c8729cc	0.016499422
57	0x3c99b094	0.018760957
58	0x3d032ad5	0.03202327
59	0x3bee8f30	0.007280253
60	0x3cb6a1d8	0.02229397
61	0x3c0074e3	0.007840368
62	0x3d3f6182	0.04672385
63	0x3c8219a0	0.01588136
64	0x3d38cccc	0.045117185
65	0xbcc122e8	-0.023576215
66	0x3c5ba8e2	0.013406964
67	0xbc11c638	-0.008897357
68	0xbd4dfd7c	-0.05029057
69	0xbd37d2ac	-0.044878647
70	0x3d5d3076	0.054001294
71	0x3d67d17a	0.056596257
72	0x3c8f863f	0.017520068
73	0xbc90673e	-0.017627355
74	0x3d4459bc	0.04793714
75	0x3d248de4	0.04017438
76	0xbced5fa4	-0.028976269
77	0x3a5d43c0	0.00084405765
78	0xbd20393a	-0.039117076
79	0xbd4cc2f1	-0.049990598
80	0x3d613498	0.054981798
81	0x3cb4eea8	0.022086456
82	0x3c4a0ee6	0.012332654
83	0x3c899198	0.016793057
84	0xbbeb8799	-0.0071877954
85	0x3bba5c35	0.0056872615
86	0xbd195aea	-0.037440218
87	0x3d1489c2	0.03626419
88	0x3ca57a02	0.02019978
89	0x3c29ddc0	0.010367811
90	0xbca0badd	-0.019620353
91	0xbd2254a1	-0.03963149
92	0xbd123d94	-0.035703257
93	0xbd3caaf0	-0.046061456
94	0x3bcc3300	0.0062316656
95	0x3c3cb608	0.011518009
96	0x3d16876b	0.03675024
97	0xbc6caad3	-0.014445025
98	0xbbffff48	-0.0078124143
99	0xbcdf91a0	-0.02729112
100	0x3c3141a8	0.010818876
101	0x3c492af8	0.012278311
102	0x3c382d2c	0.011241239
103	0x3b8e503c	0.004343061
104	0xbc756988	-0.014978774
105	0xbcd86cfe	-0.026419159
106	0xbcf42c88	-0.02980639
107	0xbc82877a	-0.01593374
108	0xbd067c36	-0.0328333
109	0x3c5cfb13	0.013487595
110	0xbd3f45f7	-0.046697583
111	0x3cdae228	0.026719168
112	0xbcf01442	-0.029306535
113	0xbcdd5866	-0.02701969
114	0xbd05dbcb	-0.032680314
115	0xbd092266	-0.03348007
116	0x3d3393fe	0.04384231
117	0xbd3806a1	-0.044928197
118	0x3d283474	0.04106565
119	0x3a25d080	0.00063253194
120	0x3bddc30d	0.0067676366
121	0x3d6b0597	0.057378378
122	0x3cf65124	0.030067988
123	0xbcfd629a	-0.030930806
124	0x3b486acd	0.0030581236
125	0xbd2363a8	-0.03988996
126	0xbcabae30	-0.020957083
127	0x3c8eddce	0.01743975
128	0xbd16ef0a	-0.03684906
129	0xbc28bd7c	-0.010299083
130	0x3ccaf8a9	0.024776774
131	0x3cf52eac	0.029929481
132	0x3d0855fd	0.03328513
133	0x3d18ba86	0.037287258
134	0xbaf63860	-0.0018785112
135	0xbc80efb0	-0.015739292
136	0xbd21b685	-0.039480705
137	0x3cbb9ae8	0.022901013
138	0xbc7c4cec	-0.015399199
139	0xbb2db1f1	-0.0026503766
140	0x3d2c52e0	0.042071223
141	0xbcace87c	-0.021106951
142	0x3c9e4db5	0.019324163
143	0x3cc3b05c	0.023887806
144	0xb95725e1	-0.00020518109
145	0xbbe1a039	-0.006885555
146	0x3a404640	0.0007334687
147	0xbac0f5c0	-0.0014721677
148	0xbceee89c	-0.029163651
149	0xbb2e3700	-0.0026583076
150	0xbb4cede7	-0.003126973
151	0x3a2b7320	0.0006540287
152	0x3cdd5354	0.027017273
153	0xbcfe5840	-0.03104794
154	0xbd106994	-0.035256937
155	0x3caffc78	0.021482691
156	0x3d4228d7	0.04740223
157	0xbb897b2d	-0.004195592
158	0x3d3c6dc0	0.046003103
159	0x3d162f0a	0.036665954
160	0xbcef84d0	-0.029238135
161	0x3d135688	0.035971195
162	0xbd1b5b0d	-0.03792863
163	0xbd00cb23	-0.031443726
164	0x3d6496b4	0.055807784
165	0x3c82cb18	0.015965983
166	0xbcf36818	-0.029712722
167	0xbb434685	-0.0029796672
168	0x3d687b7e	0.056758396
169	0x39d89eff	0.00041317192
170	0xbd4aa920	-0.049477696
171	0xb9b1cf80	-0.0003391467
172	0xbb1aa42b	-0.0023596387
173	0xbd6511e7	-0.055925276
174	0x3d23bb89	0.03997377
175	0xbc4baf98	-0.0124320015
176	0x3c1b92e0	0.009495467
177	0xbd63af3e	-0.055587046
178	0x3cf13c3c	0.029447667
179	0xbd01be4a	-0.031675614
180	0x3ccd6672	0.025073264
181	0x3c0e4872	0.0086842645
182	0x3c92c224	0.01791484
183	0xbc805ade	-0.015668329
184	0x3d6f2efe	0.058394425
185	0x3c7d77e8	0.015470482
186	0xbd4e9309	-0.050433192
187	0xbc391611	-0.011296765
188	0xbc1db9cc	-0.009626817
189	0x3ceff8ec	0.0292935
190	0x3a86ca1f	0.0010283625
191	0xbcc32542	-0.023821477
192	0xbc83fe16	-0.016112369
193	0x3d406861	0.046974543
194	0xbd5e5550	-0.05428058
195	0x3ca75114	0.020424403
196	0xbc29f878	-0.010374181
197	0xbd6a037a	-0.05713222
198	0x3cc6a73f	0.024249671
199	0x3bfec282	0.007774652
200	0xbce71141	-0.02820647
201	0x3cd888cc	0.026432417
202	0x3ca77c35	0.020444969
203	0xbcb20578	-0.021731123
204	0xbcda9e3e	-0.026686784
205	0x3c8ccf18	0.017188594
206	0x3cd2d358	0.025735542
207	0xbd0319da	-0.032007076
208	0xbcdf722f	-0.027276127
209	0x3c888f90	0.016670018
210	0xbbf0c71d	-0.007347955
211	0xbd1a9f6a	-0.037749685
212	0x3d355376	0.044269048
213	0xbd248f14	-0.040175512
214	0x3d062d7a	0.032758214
215	0x3c76f8e0	0.015073985
216	0x3d395dc4	0.045255437
217	0xbbd9894a	-0.0066386806
218	0xbc186be8	-0.009303071
219	0xbd43029f	-0.04760992
220	0xbb791fdf	-0.0038013381
221	0xba3cf380	-0.0007207915
222	0x3c58c4db	0.013230528
223	0x3c47f059	0.012203299
224	0x3cfd6ac0	0.030934691
225	0x3a251b80	0.00062983483
226	0x3bf5a816	0.007496844
227	0xbd47a9f1	-0.048746053
228	0xbcd95de7	-0.026534034
229	0xbc294d0a	-0.010333309
230	0xbcae81c4	-0.021302111
231	0x3cda4320	0.026643336
232	0xbd2962c1	-0.041353945
233	0xbaac0700	-0.0013124645
234	0xbd467fc6	-0.048461698
235	0x3c9c1560	0.019053161
236	0xbcadeb72	-0.021230433
237	0xbd1cb224	-0.038255826
238	0x3d90cab2	0.07069911
239	0xbd33963a	-0.04384444
240	0x3d3062f5	0.043063123
241	0x3cd1b84d	0.025600577
242	0x3d2ef9e2	0.042718776
243	0x3b737560	0.0037148818
244	0xbb7afcc4	-0.0038297633
245	0xbbdeba98	-0.006797146
246	0x3d2b0190	0.041749537
247	0x3cfe1308	0.031014934
248	0x3d64bac6	0.055842184
249	0x3add04e0	0.0016862415
250	0xbd0144d5	-0.031559784
251	0x3d17327a	0.036913373
252	0x3d72801e	0.059204213
253	0x3c648d72	0.013949739
254	0x3d3d2b72	0.04618401
255	0x3d0b3298	0.033983797

fc1.bias f4 [64]
0	0xbd062a71	-0.03275532
1	0x3d98aaf9	0.074544854
2	0xbb73af34	-0.0037183287
3	0x3d51b5c0	0.05119872
4	0xbbb013e7	-0.0053734663
5	0xbd7e9f13	-0.062163424
6	0xbc9fd8e4	-0.019512601
7	0x3d003245	0.03129794
8	0xbcaf0c6b	-0.021368226
9	0x3c1611c9	0.009159514
10	0xbc9df40e	-0.019281413
11	0xbd616f4f	-0.055037793
12	0x3cb7e12e	0.022446241
13	0xbc3f36ac	-0.01167075
14	0xbd473fbd	-0.04864477
15	0xbc19f160	-0.009395927
16	0x3d174194	0.036927775
17	0x3d31f904	0.04345037
18	0xbcf163f0	-0.0294666
19	0xbd80e58d	-0.06293783
20	0xbd1fdae9	-0.03902713
21	0x3bc15916	0.0059005124
22	0xbd4f55ed	-0.050619055
23	0xbd7cc50b	-0.061711352
24	0x3d5083b3	0.05090685
25	0x3d0bbbf2	0.034114785
26	0x3e0d500a	0.13800064
27	0x3c86d120	0.01645714
28	0x3d2565dc	0.040380344
29	0x3be5b57a	0.007010159
30	0x3cac3a97	0.021024032
31	0x3d2053fd	0.039142597
32	0x3de39d1d	0.11113951
33	0x3cb03ac5	0.021512398
34	0xbcb3fd1d	-0.02197128
35	0x3d4f14ad	0.050556827
36	0x3d0097aa	0.031394638
37	0x3d6e16dc	0.05812727
38	0x3d5aed48	0.053448945
39	0x3d03e752	0.032203026
40	0x3e191d31	0.14952542
41	0xbd2c2ab3	-0.04203291
42	0xbd5e88d4	-0.05432971
43	0x3cf82490	0.030290872
44	0xbcccda7c	-0.025006525
45	0x3d0aa534	0.033848956
46	0xb9d20f88	-0.00040065893
47	0xbb391f80	-0.0028247535
48	0xbd423617	-0.047414865
49	0x3d63b078	0.055588216
50	0xbc6d437a	-0.01448142
51	0xbc234a9a	-0.009966517
52	0x3c981f54	0.018569626
53	0x3d123161	0.035691623
54	0x3d00aa0e	0.031412177
55	0x3c0b9c77	0.008521191
56	0x3ce000a1	0.02734405
57	0xbd33199f	-0.043725606
58	0xbd2a7aff	-0.041621204
59	0x3d6e3778	0.058158368
60	0xbcf4e9fa	-0.029896725
61	0x3c946c05	0.018117914
62	0xbc932691	-0.017962726
63	0x3caf3a35	0.02139006

fc2.weight f4 [64, 64]
0	0xbdb033b3	-0.08603611
1	0xbda9b233	-0.08285942
2	0xbdc2d1b5	-0.09512655
3	0xbd2f56db	-0.04280744
4	0x3dc7a887	0.09748941
5	0xbd9b6430	-0.075874686
6	0x3e0b1059	0.13580455
7	0x3ceb4b47	0.028722418
8	0xbd6d3fef	-0.0579223
9	0x3e05110c	0.12994784
10	0x3c8f9789	0.017528312
11	0x3d02b5b0	0.031911552
12	0xbd7c543d	-0.061603773
13	0x3d6eadd7	0.058271255
14	0xbd970bcc	-0.07375297
15	0x3d83d5f9	0.064372964
16	0xbdbfccf2	-0.09365262
17	0x3ccced4b	0.025015494
18	0x3df27983	0.11839583
19	0x3c8a3b95	0.016874114
20	0xbda857e8	-0.08219892
21	0xbbefbdb5	-0.007316316
22	0xbd95d407	-0.07315832
23	0x3d5c7d17	0.053830232
24	0xbd2a4739	-0.04157183
25	0x3e067815	0.13131745
26	0x3e068de2	0.13140061
27	0xbdac737e	-0.08420466
28	0x3cfefbbd	0.031125898
29	0xbd063a13	-0.032770228
30	0x3b4ecf43	0.0031556643
31	0x3e04f966	0.12985763
32	0x3d84f697	0.06492346
33	0x3e24c9db	0.16092627
34	0xbd1957e6	-0.037437342
35	0x3d2db619	0.04240999
36	0xbdb160e5	-0.08661059
37	0xbd7d7f22	-0.06188882
38	0x3df67603	0.12034228
39	0x3dbbd554	0.091715485
40	0xbc75d30f	-0.015003934
41	0x3d82186a	0.06352313
42	0x3d8a2850	0.0674597
43	0xbc260f37	-0.010135463
44	0x3ce28d58	0.027655289
45	0x3df9ae15	0.12191407
46	0x3dd24226	0.10266523
47	0xbd114165	-0.035462756
48	0xbd861e32	-0.06548728
49	0x3db2b92f	0.08726727
50	0xbd5a6149	-0.053315435
51	0xbcdc04aa	-0.026857693
52	0xbd743848	-0.059623986
53	0xbdb52373	-0.08844652
54	0xbd197e4e	-0.03747397
55	0xbbc3cdf9	-0.0059754816
56	0xbbf2d57e	-0.007410704
57	0x3de2fc22	0.11083247
58	0xbc06cad6	-0.008227071
59	0xbdc435e6	-0.09580593
60	0x3c9a35ad	0.018824423
61	0x3d1877d4	0.037223652
62	0x3e1a8fbe	0.15093896
63	0xbd1466b1	-0.036230747
64	0xbdc0c3d5	-0.09412352
65	0x3df21ef1	0.11822308
66	0x3dfd7b14	0.12376991
67	0xbd8ad01a	-0.067779735
68	0x3dbb9594	0.09159389
69	0xbd74b380	-0.059741497
70	0xbde44926	-0.111467645
71	0xbd3f8674	-0.046759084
72	0x3bff391c	0.0077887904
73	0xbd06ceaf	-0.032911953
74	0xbda88289	-0.082280226
75	0x3dd748ff	0.1051197
76	0x3d762d40	0.060101748
77	0xbd80c183	-0.062869094
78	0xbcb6dcb0	-0.022322029
79	0x3b197dd9	0.0023420958
80	0x3d4cf141	0.050034765
81	0x3caa1212	0.02076057
82	0x3d3eaaa4	0.046549454
83	0x3d30be9f	0.04315054
84	0x3d983c1e	0.074333414
85	0x3d250500	0.04028797
86	0x3cd184e3	0.02557606
87	0xbdbefb09	-0.09325225
88	0xbd85f88b	-0.065415464
89	0xbc936bd5	-0.017995754
90	0xbdfcd784	-0.12345794
91	0xbd52e77e	-0.0514903
92	0x3dbadd40	0.09124231
93	0xbd20a84a	-0.039222993
94	0x3d0937e3	0.033500563
95	0x3d9aa4c9	0.075509615
96	0x3d59ca55	0.053171474
97	0x3d46b5af	0.04851311
98	0x3cbcf40a	0.023065586
99	0x3da3e5b5	0.080027975
100	0x3e03df2e	0.12878105
101	0xbd6400d4	-0.055664852
102	0x3d1dc8f4	0.038521722
103	0xbd0e7d36	-0.03478738
104	0xbd7a0500	-0.061039925
105	0x3ca14f5a	0.019691158
106	0xbc901874	-0.017589785
107	0x3ddf9319	0.109167285
108	0x3ddfd43d	0.10929153
109	0xbccf6852	-0.025318298
110	0x3a3344e3	0.0006838573
111	0xbda0466b	-0.07825931
112	0x3cd9e0cc	0.02659645
113	0xbde1166d	-0.109906055
114	0x3c97e049	0.018539565
115	0xbddf2e74	-0.10897532
116	0x3c61ac5f	0.013774007
117	0xbdf36143	-0.118837856
118	0xbd4119b3	-0.04714365
119	0x3deb0709	0.11475951
120	0xbdec90a0	-0.115510225
121	0xbd8b7b65	-0.06810645
122	0x3dc67dcb	0.09691962
123	0xbb8aaf5a	-0.0042323293
124	0xbcc5e85b	-0.024158647
125	0xbd611f28	-0.054961354
126	0x3de99d21	0.11406923
127	0x3d2eaad3	0.04264338
128	0x3af22e2e	0.0018476897
129	0x3dc0d05e	0.09414743
130	0xbd0ec7f7	-0.03485867
131	0xbceb0516	-0.028688949
132	0x3cb8470a	0.022494812
133	0x3ccb1f97	0.024795337
134	0x3d2a8dd0	0.04163915
135	0x3dcfa31c	0.101385325
136	0x3ca1492e	0.019688215
137	0xbc9f7534	-0.019465066
138	0xbcdd58cd	-0.027019883
139	0x3d1a423c	0.037660822
140	0xbdc1ba38	-0.094593465
141	0x3a318069	0.0006771149
142	0xbd42d339	-0.04756472
143	0x3da9bef3	0.08288374
144	0xbd952b83	-0.0728369
145	0xbc290955	-0.010317166
146	0x3dbd313f	0.092379086
147	0x3bb56519	0.0055357334
148	0xbdef22b9	-0.11676545
149	0xbde0ff89	-0.109862395
150	0x3d262d1d	0.040570367
151	0x3dcdaefc	0.10043141
152	0xbd8fd150	-0.07022345
153	0xbdcf0638	-0.10108608
154	0xbd298933	-0.04139061
155	0xbc04db36	-0.008108905
156	0x3d872d02	0.066003814
157	0x3db5d373	0.08878221
158	0x3d3de25d	0.046358455
159	0x3cd9ae2c	0.02657231
160	0x3ce984d2	0.028505716
161	0xbdd0e273	-0.10199442
162	0x3d9b6d13	0.07589164
163	0x3dee4675	0.11634532
164	0xbd84f7b6	-0.064925596
165	0xbd5c3e9a	-0.05377064
166	0xbca6b487	-0.020349754
167	0x3d3e4b7f	0.046458717
168	0xbd86d06a	-0.065827206
169	0xbd47b1c6	-0.048753522
170	0xbdccf959	-0.10008497
171	0xbd9099e2	-0.07060601
172	0x3d9e8ae6	0.077413365
173	0xbc345e4e	-0.011008812
174	0x3daa8cd8	0.08327645
175	0xbde3b225	-0.11117963
176	0x3daa3430	0.08310735
177	0x3d7ac159	0.061219547
178	0x3d869e06	0.06573109
179	0xbdd065eb	-0.10175689
180	0x3c7a10b1	0.015262769
181	0x3d8bff95	0.06835858
182	0x3d4d2347	0.05008247
183	0xbcafbb16	-0.021451514
184	0xbddc39f1	-0.10753239
185	0x3d1d2161	0.03836191
186	0xbdf13435	-0.11777536
187	0x3ddac7c6	0.10682635
188	0x3daa0d1c	0.08303282
189	0xbd410667	-0.047125246
190	0xbd645f92	-0.055755205
191	0x3cd5bfae	0.026092377
192	0xbd21b9c0	-0.039483786
193	0xbdee240a	-0.11627968
194	0x3d37db95	0.044887144
195	0xbd30c54f	-0.04315692
196	0x3db2ade6	0.08724575
197	0xbc7dfbe1	-0.015501947
198	0xbd7da482	-0.061924465
199	0xbc83c99b	-0.016087344
200	0xbdea1a82	-0.11430837
201	0x390548bb	0.00012710963
202	0x3b939da6	0.004504877
203	0xbdb036c8	-0.08604199
204	0x3de6ca20	0.11269021
205	0xbdbe098f	-0.09279167
206	0x3b55a904	0.0032601962
207	0xbd8daf71	-0.069182284
208	0xbda6d38e	-0.081458196
209	0xbb7a2014	-0.0038166093
210	0x3dc00ff5	0.093780436
211	0x3d00db6e	0.031459264
212	0xbdf7fd56	-0.12108867
213	0xbd93038f	-0.07178413
214	0x3d06bd7e	0.032895558
215	0xbd6d1c91	-0.05788857
216	0xbe0c18df	-0.13681363
217	0x3d213f47	0.039366987
218	0xbded40e4	-0.115846425
219	0xbdcea9f6	-0.10091011
220	0x3df23c4f	0.11827909
221	0x3d9cfe26	0.076656625
222	0xbd73f132	-0.059556194
223	0xbde0e1db	-0.109805785
224	0x3ddf5647	0.10905128
225	0xbca0cc69	-0.01962872
226	0xbd8c51e3	-0.06851556
227	0x3db8752d	0.090067245
228	0x3d2235eb	0.0396022
229	0xbd8aa559	-0.06769819
230	0x3d51f9c2	0.05126358
231	0xbd13b977	-0.036065545
232	0xbd821402	-0.063514724
233	0xbd047eb3	-0.032347392
234	0x3db1ef6b	0.086882435
235	0x3dec15f4	0.11527625
236	0xbd99a53d	-0.0750222
237	0xbddc695e	-0.10762285
238	0x3d52e73a	0.051490046
239	0x3dc7eab5	0.09761564
240	0xbdea54cd	-0.11441956
241	0x3c0a38ac	0.008436363
242	0x3d90697e	0.07051371
243	0x3a2106bf	0.0006142668
244	0xbddd5c9c	-0.108086795
245	0x3a87abeb	0.0010350918
246	0x3db33ac8	0.08751446
247	0xbdb2dca5	-0.08733491
248	0x3d6f71c8	0.05845812
249	0x3dd9d0fd	0.106355645
250	0xbd193b05	-0.0374098
251	0x3d03500a	0.032058753
252	0xbcd351c0	-0.025795817
253	0xbd024fda	-0.031814434
254	0x3d3e952b	0.046528976
255	0x3dc1aff8	0.094573915

fc2.bias f4 [64]
0	0xbdb76606	-0.08955006
1	0x3b8aef8a	0.004239981
2	0xbcf18d35	-0.029486278
3	0x3dd442b5	0.10364286
4	0x3c038cb2	0.00802915
5	0xbcd02954	-0.025410332
6	0xbd1a697e	-0.03769826
7	0x3d055336	0.03255006
8	0x3d0837dd	0.0332564
9	0x3d88c3ce	0.06677972
10	0x3da25e9d	0.07928202
11	0x3d988e40	0.07449007
12	0xbdbc7ba7	-0.09203272
13	0x3df27853	0.11839356
14	0x3e00f371	0.12592866
15	0x3e0f684d	0.14004631
16	0x3d0e94b6	0.03480979
17	0x3d81c2b3	0.06335964
18	0xbd8ebbd1	-0.06969417
19	0xbd622520	-0.055211186
20	0x3d4f6215	0.050630648
21	0x3d9256d2	0.07145466
22	0x3e0eefb7	0.13958631
23	0xbc986b93	-0.018605983
24	0xbdca93e0	-0.09891486
25	0xbdd2c61b	-0.10291692
26	0x3c850ed9	0.016242431
27	0xbdab8249	-0.08374459
28	0x3cbcc323	0.023042267
29	0x3d47b6e7	0.048758414
30	0xbd6b13bc	-0.057391867
31	0xbda57d34	-0.08080521
32	0x3cc05561	0.023478212
33	0xbdcfccff	-0.10146522
34	0x3cd4d8c6	0.025982272
35	0x3d82b192	0.06381525
36	0x3d91f3a3	0.07126548
37	0xbda33993	-0.07969966
38	0xbcacf457	-0.021112604
39	0x3ddb43c4	0.10706285
40	0x3c2cfcfa	0.010558361
41	0xbcbf1a48	-0.023327962
42	0x3d109762	0.03530062
43	0x3db03a11	0.08604825
44	0x3cc05177	0.023476345
45	0x3d047444	0.032337442
46	0xbdd9e8e2	-0.10640122
47	0xbd5c795d	-0.05382668
48	0xbd409185	-0.04701378
49	0xbd47bb0c	-0.048762366
50	0xbdc1301e	-0.09433006
51	0xbdd84724	-0.10560444
52	0xbdda01f1	-0.106449015
53	0xbdf04889	-0.11732585
54	0xbd37e53b	-0.044896346
55	0xbd28b414	-0.04118736
56	0xbdb9452c	-0.090463966
57	0x3c2f16b3	0.010686564
58	0x3d60be92	0.054869242
59	0xbd78edad	-0.06077354
60	0x3d9213fa	0.071327165
61	0x3d3bd4b6	0.045857154
62	0x3d84de6c	0.06487736
63	0xbc826452	-0.015916977

actor_Q.1.weight f4 [8, 64]
0	0xbc75f9cf	-0.015013172
1	0xbdffe6cb	-0.12495192
2	0xbd0239a9	-0.03179327
3	0x3cce8c75	0.02521346
4	0xbdda60a9	-0.10662968
5	0xbdaab563	-0.08335378
6	0x3dc58411	0.0964433
7	0xbe35e0c0	-0.17761517
8	0xbd9045b5	-0.070445456
9	0x3d604a5f	0.054758426
10	0x3d4f380a	0.050590552
11	0x3c57b60e	0.013165964
12	0x3d51163c	0.051046595
13	0x3b3ef372	0.0029136804
14	0x3caf3b7e	0.021390673
15	0xbe1acefb	-0.1511802
16	0x3d936e16	0.071987316
17	0x3df023c5	0.117255725
18	0xbd1b3bcf	-0.037898835
19	0x3d4c1bea	0.04983131
20	0xb9ef938f	-0.00045695572
21	0xbdf003b6	-0.11719458
22	0xbb818486	-0.0039525656
23	0xbd19155a	-0.037373878
24	0xbe199eb3	-0.15001945
25	0x3d07678b	0.03305773
26	0x3c44d6c3	0.012014094
27	0xbe18da4f	-0.14927028
28	0xbde76d43	-0.11300137
29	0x3d3ea5e3	0.04654492
30	0x3d99fe78	0.07519239
31	0xbd0fb7a4	-0.035087243
32	0xbd46072f	-0.048346695
33	0xbdfb8c2d	-0.12282596
34	0xbd766bc2	-0.06016136
35	0xbd57624f	-0.05258399
36	0x3d924ce4	0.07143572
37	0xbcc72a8f	-0.024312286
38	0x3d6af30b	0.05736069
39	0xbcde75a5	-0.027155707
40	0xbd6d9629	-0.058004532
41	0x3d523c2a	0.05132691
42	0xbb178af0	-0.0023123585
43	0x3d4e4a57	0.050363865
44	0x3d8fce57	0.07021778
45	0xbd92bd9e	-0.07165073
46	0xbdc37da0	-0.095454454
47	0x3dcc4c57	0.09975498
48	0xbd43449c	-0.047672853
49	0x3d699385	0.05702545
50	0xbe1ffd08	-0.15623868
51	0x3cfdea30	0.030995458
52	0xbd9ed51d	-0.07755492
53	0x3dd0fbfe	0.10204314
54	0xbde69338	-0.112585485
55	0x3dc9751f	0.09836792
56	0xbd2321b2	-0.039827056
57	0x3d9113f5	0.070838846
58	0x3dac9f9b	0.0842888
59	0x3cc6cc26	0.024267267
60	0x3ce10e53	0.02747265
61	0xbdd43bac	-0.10362944
62	0xbd94e95f	-0.072710745
63	0x3d66ad1e	0.05631744
64	0x3e026f47	0.12737761
65	0xbd578468	-0.052616507
66	0xbd595876	-0.05306288
67	0xbdc9ba4f	-0.09849989
68	0x3d923c25	0.07140378
69	0x3d842705	0.06452755
70	0xbd284766	-0.041083716
71	0x3e0e21f1	0.13880135
72	0xbdaec8b1	-0.085343726
73	0x3d53fe37	0.05175611
74	0xbc0c165c	-0.008550253
75	0xbe1583da	-0.14601079
76	0x3d96cf12	0.07363714
77	0xbc3f025f	-0.01165828
78	0x3ce96a9c	0.028493218
79	0x3dfd978b	0.1238242
80	0xbde08da8	-0.10964519
81	0xbb243df1	-0.0025061334
82	0xbdbea8be	-0.09309529
83	0x3daf64f5	0.08564178
84	0xbc51ae5e	-0.01279792
85	0xbd31d8ae	-0.043419532
86	0x3c7e7564	0.015530918
87	0xbd94491c	-0.07240507
88	0xbd80b535	-0.062845625
89	0x3d814f21	0.06313921
90	0xbb807339	-0.0039199856
91	0xbdc426c5	-0.09577707
92	0xb98ad93c	-0.00026483263
93	0x3dcd5191	0.10025323
94	0xbd2e83f6	-0.042606317
95	0x3d32e51d	0.04367553
96	0x3e4c0495	0.19923623
97	0xbe07a3c8	-0.13246071
98	0x3d0f6eb7	0.035017695
99	0xbdc605e4	-0.09669092
100	0xbd64c3ed	-0.055850912
101	0xbbb4b37e	-0.005514561
102	0x3db26085	0.08709816
103	0xbd10397e	-0.03521108
104	0x3d8147c0	0.06312513
105	0x3dcc8b35	0.09987489
106	0x3db787ad	0.08961425
107	0x3db58e4b	0.08865031
108	0xbd84a527	-0.06476813
109	0x3da561b6	0.080752775
110	0x3e2a500b	0.16632096
111	0xbd971d40	-0.07378626
112	0x3da31a18	0.07963961
113	0xbb4999f9	-0.003076194
114	0x3c06eccf	0.0082351705
115	0xbdf7463d	-0.12073944
116	0xbe1992a4	-0.14997345
117	0xbd5f6d4c	-0.054547593
118	0xbcec783e	-0.02886593
119	0xbdeff9cb	-0.11717566
120	0xbcd505d8	-0.026003763
121	0x3cd15515	0.025553266
122	0x3d09a07e	0.033600323
123	0xbc44bc71	-0.012007819
124	0x3da49f13	0.080381535
125	0xbd918a1c	-0.071064204
126	0x3ce5a46a	0.0280325
127	0xbc077e95	-0.008269926
128	0xbd9f4d0b	-0.07778367
129	0xbcaecd18	-0.02133803
130	0x3c937904	0.01800204
131	0x3dd3bf21	0.10339189
132	0x3d06b548	0.032887727
133	0xbd69a682	-0.05704356
134	0x3d1a8997	0.037728872
135	0xbda979f5	-0.082752146
136	0xbc94d043	-0.018165713
137	0x3b75027f	0.003738552
138	0xbe019bc6	-0.12657079
139	0x3de00864	0.109391004
140	0x3cc03d12	0.02346662
141	0xbdbc46f0	-0.09193218
142	0xbccac411	-0.024751695
143	0xbdda2a79	-0.10652632
144	0x3db702ab	0.08936056
145	0xbde60ac2	-0.11232521
146	0xbd8833de	-0.06650518
147	0xbd9adcc5	-0.0756164
148	0xbc6e98e3	-0.014562818
149	0xbcf4fbf4	-0.029905297
150	0x3d6aa2c9	0.05728415
151	0xbbee86c2	-0.007279248
152	0x3d628601	0.055303577
153	0xbd366f9e	-0.04454004
154	0x3d0fc377	0.03509852
155	0x3db6a3d0	0.089179635
156	0x3bfa1727	0.0076321545
157	0xbd1e9a2f	-0.03872126
158	0xbce58568	-0.028017715
159	0xbb0adc10	-0.0021188296
160	0xbe3ae281	-0.18250467
161	0x3dfd3933	0.123644255
162	0xbe018ea3	-0.12652068
163	0xbc4aed07	-0.012385613
164	0xbdeec916	-0.11659448
165	0xbcd438ba	-0.025905956
166	0x3bc0b082	0.0058804164
167	0xbe1010b9	-0.14068879
168	0xbdaa73f2	-0.08322896
169	0x3db12df8	0.08651346
170	0x3df11e27	0.11773329
171	0xbcf14cbd	-0.029455537
172	0x3dc282ba	0.0949759
173	0x3c942260	0.018082798
174	0xbd85bf8e	-0.06530677
175	0xbcad2038	-0.021133527
176	0x3db1a878	0.08674711
177	0xbda125da	-0.07868548
178	0xbcdf89ad	-0.027287329
179	0x3c890874	0.016727664
180	0xbcaa8c6a	-0.020818908
181	0xbc43c3a4	-0.0119485
182	0xbc8e8551	-0.017397555
183	0x3d50a33b	0.05093692
184	0x3ddb7378	0.10715383
185	0xbdcc89c5	-0.09987215
186	0x3d2a48f7	0.04157349
187	0xbdc13e62	-0.09435727
188	0xbdb21cd5	-0.086969055
189	0x3e039a36	0.12851796
190	0xbcfd0d78	-0.030890211
191	0xbcafe2d2	-0.021470461
192	0x3d34d626	0.04414954
193	0x3c8b422c	0.016999327
194	0x3d2b4cbd	0.04182123
195	0x3c28b44d	0.010296893
196	0xbd870d80	-0.06594372
197	0x3dc61b21	0.09673143
198	0xbe14b0f7	-0.14520632
199	0x3d0590c7	0.032608774
200	0x3de37426	0.11106138
201	0xbde937c6	-0.11387591
202	0x3aa9586e	0.0012920031
203	0xbc12a58c	-0.008950602
204	0xbc00b1e7	-0.007854915
205	0xbd7fbd81	-0.062436584
206	0x3d64a32d	0.05581968
207	0x3e15efce	0.1464226
208	0x3d814523	0.06312015
209	0xbd0ba8fe	-0.03409671
210	0x3de726d6	0.11286704
211	0xbd8e7c09	-0.069572516
212	0xbc076be1	-0.008265466
213	0xbd3daf7f	-0.046309944
214	0xbdbe9012	-0.09304823
215	0x3cb425fd	0.02199077
216	0xbd51564a	-0.051107682
217	0x3d7909d5	0.060800392
218	0xbd41b6c1	-0.04729343
219	0xbe0f96c4	-0.14022356
220	0xbdfbea92	-0.123006
221	0x3da082d2	0.07837452
222	0xbd2dd29e	-0.04243719
223	0x3db61106	0.08889966
224	0x3d1b83bf	0.03796744
225	0x3c9fab65	0.019490907
226	0x3e243e49	0.16039385
227	0xbc44b210	-0.012005344
228	0x3d70a935	0.05875512
229	0x3daa6661	0.083203085
230	0x3cf21a28	0.029553488
231	0xbde2b050	-0.11068785
232	0x3dd64e75	0.10464183
233	0xbd8e8a53	-0.06959977
234	0xbdd51e91	-0.10406221
235	0x3d4bd18c	0.049760386
236	0xbdceb16c	-0.10092434
237	0xbdd26c4e	-0.10274564
238	0xbcc3a9a2	-0.023884598
239	0x3c8fdb91	0.017560752
240	0xbd3160b8	-0.04330513
241	0xbbf06ab3	-0.0073369383
242	0x3d50afa0	0.05094874
243	0x3d02f04b	0.031967442
244	0xbc6049e6	-0.013689494
245	0x3c65da00	0.014029026
246	0x3db794ac	0.08963904
247	0xbd52586f	-0.051353868
248	0xbdd706b8	-0.104993284
249	0x3db0a618	0.0862543
250	0x3d482be3	0.04886998
251	0xbc3772df	-0.011196821
252	0xbd3139f8	-0.043268174
253	0x3d49bde9	0.049253378
254	0xbd5f23c4	-0.054477468
255	0x3e14b901	0.14523698

actor_Q.1.bias f4 [8]
0	0x3c9e1c47	0.019300593
1	0x3df4cdf0	0.11953342
2	0xbc3d76c0	-0.011563957
3	0x3d976855	0.07392947
4	0x3d6c5b38	0.05770418
5	0xbd34792a	-0.044060864
6	0x3c50afa7	0.012737191
7	0xbc832147	-0.016007079

actor_K.1.weight f4 [8, 64]
0	0xbdb8366a	-0.08994754
1	0x3c91d6c3	0.017802602
2	0x3c00b48d	0.007855547
3	0x3c809387	0.015695347
4	0x3bd64e34	0.0065400843
5	0xbdd0761f	-0.1017878
6	0xbd366389	-0.044528518
7	0x3ccc06ad	0.024905527
8	0x3ba2cf58	0.004968565
9	0xbd30501b	-0.043045145
10	0xbd6f28c8	-0.0583885
11	0x3d1bbf04	0.038023964
12	0x3d800176	0.06250279
13	0xbbb09508	-0.0053888597
14	0xbd3bf4b9	-0.045887683
15	0xbe02c9aa	-0.12772241
16	0xbd3eac30	-0.04655093
17	0xbd701b07	-0.058619525
18	0x3dc317ef	0.09526049
19	0xbe17950c	-0.1480295
20	0xbd72d868	-0.059288412
21	0x3d693429	0.05693451
22	0x3ca98145	0.020691523
23	0x3d97ea97	0.07417791
24	0x3e2f72db	0.17133658
25	0x3d31f450	0.043445885
26	0x3d927b6e	0.071524486
27	0xbd83ffe6	-0.06445293
28	0x3d99d93b	0.075121365
29	0xbd0ea2c6	-0.0348232
30	0xbac78df7	-0.0015224804
31	0xbdaf4be9	-0.085594006
32	0xbe0283a7	-0.12745534
33	0x3cce9903	0.025219446
34	0xbd9356a9	-0.071942635
35	0xbc98a529	-0.018633442
36	0x3d8a7a66	0.06761627
37	0xbcffda13	-0.031231916
38	0x3bc47771	0.005995684
39	0x3e01b251	0.12665679
40	0xbcecb390	-0.028894216
41	0xbd624da5	-0.05524983
42	0x3dc9cd55	0.09853617
43	0x3b3b2015	0.0028553058
44	0xbd297bc5	-0.0413778
45	0x3d64d142	0.055863626
46	0x3d50bbe2	0.05096043
47	0x3cbb4c12	0.022863422
48	0x3da171f9	0.07883067
49	0xbca64818	-0.020298049
50	0x3c78a040	0.015174925
51	0x3d371358	0.044696182
52	0xbd47f8ba	-0.04882119
53	0x3dcd9d79	0.10039801
54	0xbde4c65c	-0.111706465
55	0xbd7a06c6	-0.061041616
56	0x3dc89890	0.09794724
57	0xbdb52274	-0.08844462
58	0xba6ddf3e	-0.0009074098
59	0xbd18fc7f	-0.037350174
60	0xbbc1e080	-0.005916655
61	0xbce73735	-0.028224567
62	0xbc676498	-0.0141231045
63	0xbdc6add1	-0.097011216
64	0x3db478a6	0.08812074
65	0xbd9e15e1	-0.07719017
66	0x3ccdee93	0.025138175
67	0x3d8dd662	0.06925656
68	0xbd29a024	-0.041412488
69	0xbd361f6c	-0.04446356
70	0x3e237972	0.15964296
71	0x3cff0397	0.031129641
72	0xbd0fbb07	-0.035090473
73	0xbc66ecd9	-0.014094555
74	0xbd2fd27a	-0.042925335
75	0xbd162708	-0.036658317
76	0x3e0eede7	0.1395794
77	0xbcf5b15b	-0.029991796
78	0x3dd21d7c	0.1025953
79	0x3c5d4c23	0.013506922
80	0xbc9e3f47	-0.019317282
81	0xbd80f1f7	-0.06296151
82	0x3d2136e6	0.039358996
83	0x3e3820d2	0.1798127
84	0xbd49b5e1	-0.04924572
85	0x3d1789e2	0.03699673
86	0xbdc60f43	-0.0967088
87	0x3db1bd0b	0.08678635
88	0xbdb77f92	-0.08959879
89	0x3e2973df	0.16548108
90	0x3e2f3eca	0.17113796
91	0x3d6564be	0.05600428
92	0xbd4c1323	-0.049822938
93	0xbd982573	-0.07429018
94	0xbdaec3ec	-0.08533463
95	0x3d305866	0.043053053
96	0x3d882f5a	0.066496566
97	0x3d55584b	0.052086156
98	0x3cbe1aa7	0.023206068
99	0xbd910e26	-0.07082777
100	0x3d81946c	0.06327137
101	0xbc189ded	-0.009314996
102	0x3d8c4fdd	0.0685117
103	0xbd35aa86	-0.044352077
104	0xbd4d0919	-0.050057504
105	0x3d8e8ca6	0.0696042
106	0x3dd102fd	0.10205648
107	0xbd6e3cda	-0.0581635
108	0x3c880d0b	0.016607782
109	0x3d474e88	0.048658878
110	0xbd1e9795	-0.03871878
111	0xbbb4406b	-0.0055008433
112	0xbd9f4c92	-0.077782765
113	0xbd558877	-0.052132096
114	0x3ce18c1c	0.02753263
115	0xbd8d6d8e	-0.069056615
116	0x3d32ab1b	0.04362021
117	0xbcd9a6d4	-0.026568808
118	0xbcca6e30	-0.024710745
119	0xbd9c921f	-0.07645058
120	0x3daeeb8d	0.085410215
121	0xbd6e3ff6	-0.058166467
122	0x3da7baee	0.08189951
123	0xbcef2c34	-0.029195882
124	0xbdf20ce5	-0.11818866
125	0xbc9ba59c	-0.018999867
126	0x3cfe34e6	0.031031083
127	0x3bb7a3c8	0.005604241
128	0x3cc35059	0.023842024
129	0x3d9d6f9c	0.076873034
130	0xbd411805	-0.047142047
131	0x3d716286	0.05893185
132	0x3dae7682	0.08518697
133	0x3dc64c26	0.09682493
134	0xbc8d3497	-0.01723699
135	0xbda5f5f4	-0.081035525
136	0xbd996ee1	-0.074918516
137	0xbdfaad82	-0.12240125
138	0xbba0c8a3	-0.0049067303
139	0x3d85b0f1	0.065278895
140	0xbe2b3953	-0.16721086
141	0x3c22edec	0.00994442
142	0xbd9ea25d	-0.07745812
143	0x3db2bf2d	0.0872787
144	0xbc189ddd	-0.009314981
145	0xbd50c17f	-0.050965782
146	0xbd86a5b1	-0.06574572
147	0xbe1a9228	-0.15094817
148	0xbe0bc3fc	-0.13648981
149	0xbd95454d	-0.07288609
150	0xbd85d27b	-0.065342866
151	0x3ca4b85e	0.020107444
152	0x3da429b9	0.080157705
153	0xbe1188a3	-0.14212279
154	0xbccb3a48	-0.024808064
155	0x3da95fdb	0.08270236
156	0x3d9d3591	0.076762326
157	0xbd2f1dcf	-0.042753037
158	0xbdd2fdd1	-0.10302318
159	0xbd5e66a9	-0.054297123
160	0xbd35be1e	-0.044370763
161	0x3dba5f7f	0.09100246
162	0x3dca7ff9	0.0988769
163	0x3d0bfc1f	0.03417599
164	0xbd593a41	-0.05303407
165	0xbcdc24b2	-0.026872966
166	0xbe0a7592	-0.13521412
167	0x3db85992	0.09001459
168	0xbe06a654	-0.13149387
169	0x3d8815f0	0.06644809
170	0xbd0a8387	-0.03381684
171	0x3de5423f	0.11194276
172	0x3df0fc39	0.11766858
173	0x3dd43a95	0.10362736
174	0x3d0f82e0	0.03503692
175	0x3dec3b6c	0.11534771
176	0xbb4d4d3e	-0.0031326558
177	0xbda663d5	-0.0812451
178	0x3d929092	0.07156481
179	0xbda69d31	-0.08135451
180	0x3d854ebb	0.06509157
181	0xbd7d9eec	-0.061919138
182	0x3d7136d4	0.05889018
183	0x3c96ffc3	0.018432504
184	0xbdd2cb36	-0.10292666
185	0xbde4824d	-0.111576654
186	0xbc8686dd	-0.01642173
187	0xbd6ba4c7	-0.05753019
188	0x3e098ea6	0.13433322
189	0x3d63335c	0.055468902
190	0xbb971bd4	-0.0046114717
191	0xbd492aef	-0.04911321
192	0x3bd37f99	0.00645442
193	0xbd2f6dba	-0.042829253
194	0x3da1722d	0.078831054
195	0xbdc0fc02	-0.09423067
196	0xbd506738	-0.050879687
197	0x3dcb43a0	0.09925008
198	0xbd423d65	-0.04742183
199	0xbd618ca7	-0.055065777
200	0x3dd95460	0.106117964
201	0x3e07e69e	0.13271567
202	0x3dd927ca	0.10603292
203	0x3e278ec2	0.16363052
204	0xbcea6017	-0.028610272
205	0x3ca78f4a	0.020454068
206	0x3e027343	0.12739281
207	0x3e0c167f	0.13680457
208	0xbd7f32a4	-0.062304154
209	0x3cebad32	0.02876911
210	0xbde073a4	-0.10959557
211	0x3e23ec8c	0.16008204
212	0x3ca37b91	0.019956382
213	0xbd5c0563	-0.053716075
214	0xbdeff19e	-0.11716007
215	0x3de168d1	0.1100632
216	0xbded4762	-0.11585881
217	0xbd034ee4	-0.032057658
218	0xbd9a4872	-0.07533349
219	0x3d6cdf6d	0.057830263
220	0xbd9efc1f	-0.07762932
221	0x3da32f29	0.079679795
222	0xbd0918e0	-0.03347099
223	0x3d1ca2a4	0.038241044
224	0xbd0968d1	-0.033547226
225	0xbd06f7ca	-0.032951154
226	0xbb6a5e38	-0.0035761725
227	0x3c595934	0.013265897
228	0x3c753903	0.014967206
229	0xbca2a453	-0.019853747
230	0xbd4b2a44	-0.049600855
231	0xbd83ba06	-0.064319655
232	0xbd9190eb	-0.07107719
233	0xbd947405	-0.072486915
234	0x3df98dd7	0.12185257
235	0xbd221a69	-0.039575968
236	0x3c90481a	0.017612506
237	0x3db1c384	0.0867987
238	0x3dd96241	0.106144436
239	0xbd425856	-0.047447525
240	0x3e0e78c7	0.1391326
241	0x3df05bda	0.11736269
242	0x3df3bf92	0.119017735
243	0x3cabcae4	0.02097077
244	0x3da77f08	0.08178526
245	0x3d41e978	0.047341794
246	0xbda220a4	-0.07916382
247	0x3d18ea31	0.037332717
248	0xbde926dc	-0.11384365
249	0xbb3eb045	-0.0029096764
250	0x3dad3a1f	0.08458351
251	0x3d162aff	0.036662098
252	0x3d47f4aa	0.048817314
253	0x3d12cbcb	0.035838883
254	0xbde2b2cd	-0.1106926
255	0x3dc40d85	0.09572891

actor_K.1.bias f4 [8]
0	0x3dc674fb	0.09690281
1	0x3da0a8f9	0.07844729
2	0xbe022aae	-0.12711594
3	0xbd950dd9	-0.07278032
4	0xbd97e7dd	-0.07417271
5	0x3c0438e3	0.0080702035
6	0x3d16f672	0.036856122
7	0xbcd2aa82	-0.02571607

actor_V.1.weight f4 [3, 64]
0	0xbddd7047	-0.10812431
1	0x3c60115f	0.013676017
2	0xbdc2c4ef	-0.09510218
3	0x3bc19f11	0.005908855
4	0x3e068c9c	0.13139576
5	0xbe0a5879	-0.13510312
6	0x3cc9dd0a	0.024641532
7	0xbe3ba279	-0.18323697
8	0xbd24ffdb	-0.040283065
9	0x3d857cf3	0.06517973
10	0xbde94dfa	-0.11391826
11	0x3df24049	0.11828668
12	0x3c843719	0.016139554
13	0x3d2c3c1a	0.042049505
14	0xbe1fd70c	-0.15609378
15	0xbe443003	-0.1915894
16	0x3bfe44b2	0.007759654
17	0xbdce750d	-0.100809194
18	0x3de9322c	0.11386523
19	0x3d06830c	0.03283982
20	0xbd1cc1cd	-0.03827076
21	0x3e11a2e2	0.14222291
22	0xbdea20fa	-0.11432071
23	0xbd3ef1cf	-0.046617325
24	0xbdb3509d	-0.0875561
25	0xbd6e4737	-0.058173385
26	0xbd9edf18	-0.077573955
27	0x3dc463dc	0.09589359
28	0x3deac048	0.11462456
29	0x3d10aaed	0.035319258
30	0xbd81244d	-0.06305752
31	0x3de871be	0.113498196
32	0xbe2e945d	-0.17048784
33	0xbd956cb2	-0.072961226
34	0xbd3df132	-0.0463726
35	0xbda3ee02	-0.08004381
36	0x3bfa0759	0.0076302704
37	0x3db00079	0.0859384
38	0xbd46270e	-0.04837709
39	0xbd131ca5	-0.03591599
40	0xbd70b6e6	-0.058768176
41	0x3d20dafc	0.03927134
42	0x3da6b4e6	0.081399724
43	0xbd636cd0	-0.055523694
44	0x3df5d7c3	0.12004044
45	0xbddfdade	-0.109304175
46	0xbe08d7f1	-0.13363625
47	0x3de545ab	0.11194929
48	0x3e09b06a	0.13446203
49	0x3d850697	0.064953975
50	0x3d097d7c	0.033566937
51	0x3d1a9d88	0.03774789
52	0x3d4d37e0	0.050102115
53	0x3d7fc993	0.062448096
54	0x3b826ae2	0.0039800266
55	0xbcf8733b	-0.030328384
56	0xbd8c743a	-0.06858106
57	0xbb89cca6	-0.004205304
58	0x3d5c908b	0.053848784
59	0x3c66d09f	0.014087825
60	0x3ccd6bc9	0.02507581
61	0x3d757d91	0.059934203
62	0xbd93422e	-0.07190357
63	0xbe44c619	-0.19216193
64	0xbe36654b	-0.17812078
65	0xbde36c96	-0.111046955
66	0xbd2b14c6	-0.041767858
67	0x3dd83420	0.10556817
68	0x3cb4ed57	0.022085829
69	0xbd627226	-0.05528464
70	0xbd9ae162	-0.075625196
71	0xbe24917e	-0.16071126
72	0x3d2facb0	0.042889297
73	0x3d853b4c	0.065054506
74	0x3df3464e	0.11878644
75	0xbdbaa358	-0.091131866
76	0xbe1866a1	-0.148829
77	0x3df1e353	0.11810937
78	0xbda185b5	-0.07886831
79	0xbe00e72c	-0.12588185
80	0x3d84466b	0.06458744
81	0xbd6ab20f	-0.057298716
82	0x3d80388b	0.06260785
83	0xbab56ccb	-0.0013841627
84	0x3cebbae3	0.028775638
85	0xbe0a5a8e	-0.13511106
86	0xbc0a22aa	-0.008431116
87	0x3db304d8	0.08741158
88	0x3df310bf	0.118684284
89	0xbc734aae	-0.014849348
90	0x3ce16e93	0.027518546
91	0x3ca3d090	0.019996911
92	0xbd876fc9	-0.06613118
93	0xbb0bae37	-0.0021313557
94	0x3d230ccc	0.039807126
95	0xbe924bca	-0.28573447
96	0xbe17e6cb	-0.14834134
97	0x3de604c8	0.11231381
98	0xbe4ad804	-0.19808966
99	0xbdc56f4c	-0.09640369
100	0xbdd9f184	-0.106417686
101	0x3dd7a3e3	0.10529306
102	0x3b27d1c8	0.0025607217
103	0xbd1838f5	-0.037163693
104	0x3da8d2fe	0.082433686
105	0xbd17e0cb	-0.037079614
106	0xba85ecf8	-0.0010217717
107	0xbd16a8a6	-0.03678193
108	0xbd01f74a	-0.031729974
109	0x3c2e49c1	0.0106377015
110	0xbcfb40de	-0.03067058
111	0x3cb966eb	0.022632083
112	0xbb5870c4	-0.0033026198
113	0x3c997246	0.018731248
114	0x3c99f841	0.018795134
115	0x3d60292e	0.054726772
116	0x3e10a80b	0.14126603
117	0x3d2c598d	0.04207759
118	0xb8b5c396	-8.667183e-05
119	0x3d7bcd74	0.061475232
120	0x3d5bcda6	0.05366292
121	0xbdcc0a99	-0.09962959
122	0xbbec099b	-0.0072032935
123	0xbdc7f647	-0.097637706
124	0x3dd75b23	0.1051543
125	0xbe285d60	-0.1644187
126	0x3e05a36a	0.13050619
127	0xbda102ac	-0.07861838
128	0x3e6d9c12	0.23204067
129	0xbdd82af7	-0.1055507
130	0x3d858dba	0.06521173
131	0xbd6f89cc	-0.058481023
132	0xbdc2192a	-0.09477456
133	0x3e3b8079	0.18310727
134	0x3e2ff83c	0.17184538
135	0x3e526374	0.20545751
136	0x3deb8fb0	0.115020156
137	0xbe2b11a7	-0.16705953
138	0x3d4762b5	0.04867812
139	0x3d32eda6	0.04368367
140	0x3dad91e1	0.0847509
141	0x3e2ca73e	0.16860673
142	0x3e3bf2e7	0.18354379
143	0x3e677985	0.2260495
144	0x3db9d461	0.09073711
145	0x3dbab82c	0.09117159
146	0xbdb1cf02	-0.08682062
147	0x3d42af89	0.047530685
148	0x3e33efff	0.1757202
149	0xbd5ed47d	-0.054401863
150	0x3e34d019	0.17657508
151	0x3c2f2b5d	0.010691491
152	0xbdeb6e3d	-0.11495636
153	0xbe07108d	-0.13189907
154	0x3e4a38c3	0.19748215
155	0xbd3be432	-0.04587192
156	0xbd7b44a5	-0.06134476
157	0xbd537266	-0.05162277
158	0xbdb8f3c6	-0.09030871
159	0x3e49262f	0.19643472
160	0x3e56cc08	0.20976269
161	0x3d11e2d3	0.035616707
162	0x3e46e768	0.19424212
163	0xbd036200	-0.032075882
164	0x3d134c38	0.03596136
165	0xbceaabae	-0.028646316
166	0xbdbd72a7	-0.09250384
167	0x3db130f0	0.08651912
168	0xbc8f5e02	-0.017500881
169	0xbde06298	-0.10956305
170	0x3d5d08c6	0.053963445
171	0x3d757616	0.05992707
172	0xbd0aaea6	-0.033857964
173	0x3cbfb3e3	0.023401206
174	0x3da3cfd1	0.07998622
175	0x3c4cad4c	0.012492489
176	0xbe08816e	-0.13330624
177	0x3c4e41d1	0.012588934
178	0x3e633d67	0.22191392
179	0xbe08952a	-0.13338152
180	0xbcf01a55	-0.029309431
181	0xbdef5c4f	-0.11687528
182	0xbbe1425d	-0.006874366
183	0xbd323c5c	-0.043514594
184	0x3da1adee	0.078945026
185	0x3d5fb5cf	0.054616746
186	0xbdab9f62	-0.08380009
187	0xbe16b4db	-0.14717428
188	0x3d4b65dd	0.04965769
189	0x3e136da6	0.14397296
190	0x3e156b26	0.14591655
191	0x3df11845	0.11772207

actor_V.1.bias f4 [3]
0	0xba8c3d90	-0.0010699499
1	0xbd5bb57e	-0.05363988
2	0x3c4aa537	0.012368492

expert_K.weight f4 [1, 8]
0	0x3e9c1aae	0.30489105
1	0xbf39820f	-0.7246408
2	0x3f140daa	0.5783335
3	0xbe9712ff	-0.2950668
4	0xbec01565	-0.37516323
5	0xbe5deac3	-0.21671586
6	0x3d5d2949	0.05399445
7	0x3f59fecb	0.8515441
