gym-multigrid-master/results/mappo/simple_env/no_clip_epoch_800K_noKG/mappo_agent_model.pth (torch, 523034 bytes, 22 tensors)

actor.0.weight f4 [64, 294]
000000 43 f7 bb bd 73 67 38 bb 40 4b ad 3c 24 aa 10 3d
       -0.09178021 -0.0028137832 0.021154046 0.03531851
000010 3f fe 07 bd 78 e2 77 bd 88 3e 08 3e b1 0f 85 3e
       -0.033201452 -0.06051871 0.13305104 0.25988534
000020 67 1e 05 3d 48 7d 68 bd 96 10 49 3d a1 5f 8e 3d
       0.032499697 -0.056760103 0.049088083 0.069518335
000030 87 9b ad 3d fe a5 9f bd 16 b9 9d 3c 15 48 ae bd
       0.0847693 -0.07795332 0.019253295 -0.08509842
000040 63 cc a8 bd dd d6 11 bd 75 09 29 3c b6 0b 25 be
       -0.08242109 -0.0356053 0.010317196 -0.16117749
000050 e9 90 6c bc 92 b1 45 be bf 2c ea bc bc 97 90 bd
       -0.014438846 -0.19306019 -0.02858579 -0.07060191
000060 3c 3a ce 3c 98 c8 b0 bd c0 0c f2 3d 7b 64 85 3d
       0.025174253 -0.0863201 0.11818838 0.06513306
000070 c0 6e 18 3c ae aa 99 bc ea 13 03 bd 6c 1a b0 bd
       0.009303749 -0.018758144 -0.032001413 -0.085987896
000080 d5 1a 4f 3c ac 9f 71 bd df 10 9c 3b 56 46 b0 bb
       0.012640675 -0.058990166 0.0047627534 -0.0053794784
000090 63 f4 3f 3e 67 6d ad bd ca f2 14 3c 99 2e 52 bd
       0.1874557 -0.084681325 0.009091089 -0.05131397
0000a0 a0 98 31 3e 9e 43 04 bd 46 d6 0a 3c 8d f0 cd 3d
       0.17343378 -0.032291047 0.008473938 0.10055647
0000b0 38 a6 7e bd 03 1b fe 3d a8 64 3d bd 85 75 74 bd
       -0.062170237 0.12407496 -0.04623857 -0.059682388
0000c0 9f 50 b0 3c a3 3d 05 bd ad 6a d5 3d f5 f4 3a 3e
       0.021522818 -0.032529484 0.104207374 0.18257506
0000d0 89 8b 34 bd 41 ea 5b bd c1 1e 0c 3d f4 51 c0 bc
       -0.044078384 -0.0536902 0.034209017 -0.023476578
0000e0 af 24 a6 3a ab 0d 04 3e 22 88 02 bc c9 3b 97 3d
       0.0012675727 0.12895839 -0.007967027 0.0738445
0000f0 e8 a3 22 3e af 16 76 3e 36 a0 76 3c bb c3 bc 3c
       0.15882838 0.2403209 0.015052846 0.02304255
000100 46 0d ff 3d 5d 13 d3 3d b1 78 f2 3c ca 0f 93 bc
       0.124537036 0.10306428 0.029598566 -0.017951865
000110 44 7a c0 bd f0 2d c5 3d d7 b4 91 3d eb bc 73 3d
       -0.0939832 0.096279025 0.071145706 0.059506338
000120 77 09 89 3d 4d f5 40 bd 78 78 e1 3c c4 e1 07 3e
       0.066912584 -0.047108937 0.027523264 0.13269717
000130 d6 fa 0f be 11 0e b7 3c 70 8a 58 3d 0f 67 12 3e
       -0.1406053 0.022345575 0.0528664 0.14297126
000140 10 e4 58 bd 8f 06 2c be 9a d3 8e be 3d 24 02 be
       -0.052951872 -0.16799377 -0.27895814 -0.12709136
000150 cd f3 4c 3e 06 c5 ee 3d 85 ac ce bd 5f 40 ee bc
       0.20014878 0.11658673 -0.10091499 -0.029083429
000160 6d 11 ff bb 39 6a 3b 3e 64 54 47 3c 07 32 6b bc
       -0.0077840597 0.1830224 0.012166116 -0.014355189
000170 20 8b 7c bd 9d 25 5b bb d3 36 31 3e dd b4 c3 3a
       -0.061656117 -0.0033439167 0.1730607 0.0014931221
000180 b2 ff 12 3c ce af 49 3d a1 8a c3 3d be ef 29 bd
       0.008972095 0.049239926 0.09547926 -0.0414884
000190 fc e0 78 bd 52 c6 c8 bd 22 9b 2b 3e 18 50 2e ba
       -0.060761437 -0.098034516 0.16758397 -0.0006649508
0001a0 d0 fd 9f 3d 63 bc 9f 3c 94 eb 07 bd e5 c1 4a 3d
       0.07812083 0.01949901 -0.03318365 0.04950132
0001b0 ce e5 4e be a1 94 0f be de 78 44 3a fd 4b e0 bb
       -0.20204851 -0.14021541 0.0007494817 -0.006844996
0001c0 9c 94 1b bc 12 5e 15 3d 7e b2 35 be 8c 2d 80 bd
       -0.00949588 0.036466666 -0.1774387 -0.062586874
0001d0 0f 93 4f bd 43 f1 2b 3d 44 d2 d3 3c 08 10 00 3d
       -0.050677355 0.041978132 0.025857098 0.03126529
0001e0 6e aa dd bd c2 c0 87 bd 6c 37 0a 3e 1f 88 8d 3d
       -0.108235225 -0.066285625 0.13497704 0.06910729
0001f0 76 5b f4 3d e9 de 3c 3d e1 41 47 ba f7 69 44 3d
       0.11931507 0.04611102 -0.0007601064 0.04795262
000200 77 8d d8 3c 40 5c 4d 3d 18 5f 4d 3c 46 fc c3 bc
       0.026434643 0.050136805 0.012534879 -0.023924004
000210 b1 86 f7 bd fe 4f a6 3d a6 ad 2b bd 99 c1 1e bc
       -0.12086237 0.08120726 -0.04191365 -0.009689712
000220 00 0c 1a bd 4c 42 30 3d 59 0c 9d bd b4 7f 28 3d
       -0.0376091 0.043031976 -0.07668371 0.041137412
000230 9e 41 e1 3d a8 db a0 bd 8c 23 8c bd eb 30 bf 3d
       0.109988436 -0.07854396 -0.068427175 0.09335502
000240 88 e3 07 3d 38 d9 83 3c ba 6e 8c 3d 08 80 f7 bd
       0.033175975 0.016094789 0.06857057 -0.12084967
000250 52 d7 45 3d 67 2d f1 bd 4d a6 b9 3d bf bf 3c bd
       0.04830105 -0.11776238 0.090649225 -0.0460813
000260 51 96 c0 bb 93 a0 0d bc 02 0a 81 3c 3f 30 33 3d
       -0.005877294 -0.008644241 0.015751842 0.043747183
000270 ed 9a 88 bd f2 3a 9d bc d1 fc 80 bb e6 49 90 3d
       -0.06670175 -0.019193146 -0.003936388 0.07045345
000280 17 13 c0 bd 1d af 82 3e 6e 40 34 3d 6d 16 01 3e
       -0.09378641 0.25524226 0.044006757 0.12606211
000290 b7 5d 17 3d 38 3a a4 3d 54 f4 da 3c 41 77 53 3d
       0.036954608 0.08018917 0.026727833 0.0516274
0002a0 94 10 a8 bc 1f a4 12 bd 93 4c a0 3d 08 75 ec bd
       -0.020515718 -0.03580105 0.078271054 -0.115457594
0002b0 8d 83 39 3d 99 fb 9f bc a8 55 05 3d 3d 27 d5 ba
       0.045291472 -0.01952915 0.03255239 -0.0016262304
0002c0 6e 0f 20 3b 80 e8 a1 3c 2e 75 12 3d 04 f2 8e 3d
       0.002442326 0.019764185 0.035756283 0.069797546
0002d0 9b 38 97 3c 25 2d 1e 3e 7c d4 0f bd 9c ec 88 3d
       0.018459609 0.15446909 -0.03511475 0.06685755
0002e0 cc 89 2e 3e 0d 27 90 3d 53 db 2c bd 82 b1 c2 3c
       0.17044753 0.07038698 -0.04220135 0.023766283
0002f0 f1 00 2e bd 3c 51 21 bb a4 95 60 3d 97 1f 0f 3d
       -0.042481367 -0.002461507 0.05483021 0.034942236
000300 e9 a3 4e 3e 62 9a 1e 3d a2 1f 93 3c 93 ba 45 bc
       0.20179714 0.03872145 0.01795942 -0.012068409
000310 53 43 73 3c 94 ad 28 3e 24 88 c6 3d c6 a7 f4 3d
       0.014847594 0.16472465 0.096939355 0.11946063
000320 a8 03 4c 3c 0e c5 16 3e 91 2f 02 bd 73 e2 33 3e
       0.012452044 0.14723608 -0.031783644 0.17566852
000330 14 51 27 be 00 7b 28 be 50 d1 42 bd 81 bc f6 bc
       -0.16339523 -0.16453171 -0.047562897 -0.030119183
000340 1b af ba bd 37 f5 5e be 64 c3 47 3e d8 45 45 3c
       -0.0911543 -0.2177323 0.1950813 0.012040578
000350 db 12 a4 3c 49 e6 53 3c 13 b2 09 3e aa 38 67 bd
       0.020028522 0.012933322 0.13446836 -0.056450523
000360 67 ca c9 3c 47 89 85 3d 4d 0c fb 3d 8e b8 f1 3d
       0.024632646 0.06520324 0.122582056 0.11802779
000370 c2 18 30 be 7b 04 bf bc cc 95 c7 3c d9 b0 3c 3d
       -0.17196944 -0.023317566 0.02436342 0.046067093
000380 66 02 0d 3e 2d f5 d1 3d 20 3c 10 3e 41 d5 b3 bd
       0.13770446 0.10251842 0.14085436 -0.08780909
000390 dd 7c 76 3d cd 49 64 3d b5 a1 df bd f1 b7 59 3d
       0.060177673 0.055734444 -0.10919515 0.053153936
0003a0 5e c0 2d bd a7 2f 98 3d 8f 6a 16 3d 7d 2c a6 3d
       -0.042419784 0.07430964 0.036722716 0.08113954
0003b0 1d 37 d4 bd 68 5d 2a be 3b f0 f4 3d dc 87 13 3e
       -0.103620745 -0.16637194 0.11959883 0.14407295
0003c0 83 23 2d 3d 1f d5 99 3d 9d 94 1b be 8c 24 ad 3d
       0.042270195 0.07511353 -0.1519341 0.084542364
0003d0 e3 41 82 bd 07 fc 95 bd c4 a1 8f 3d 49 c9 ea 3d
       -0.06360223 -0.07323461 0.07013276 0.11464173
0003e0 d9 66 3b 3d ad 46 bf 3b a4 39 a8 bd 3d 83 b5 bc
       0.04575238 0.0058372826 -0.08214119 -0.022157306
0003f0 1b d4 82 3d 53 a6 7f 3d 0a 43 16 3d 53 9b 35 bd
       0.06388112 0.06241448 0.036685027 -0.04433758

actor.0.bias f4 [64]
000000 22 71 77 bb 30 1b 3d 3d 45 77 b0 3c f4 30 31 bd
       -0.0037756641 0.046168506 0.021541247 -0.043259576
000010 64 8a 60 3d 68 ae d1 3c e6 4c e9 3c 93 4c da 3c
       0.05481948 0.025595859 0.02847905 0.026647842
000020 d3 d0 a4 bb 52 e8 24 bd 0d f9 1a bd 5e 1d 75 3c
       -0.0050297766 -0.04026062 -0.03783517 0.014960615
000030 4f 5a c6 3c db 71 f9 bd b2 18 ed 3c bb 3c f7 3c
       0.024212984 -0.12179919 0.02894244 0.030180326
000040 84 f1 c0 bd 0a a8 a4 3c bf d8 a7 ba 81 46 e9 bd
       -0.094210654 0.020099659 -0.0012805684 -0.11390401
000050 d1 2c 3b bd ac ad d6 bb c7 76 0e bd a1 07 59 3c
       -0.045697037 -0.006551465 -0.034781244 0.013246448
000060 ba d1 ef bc 3f 55 30 bb be e0 e6 3c 2d 67 87 3d
       -0.02927481 -0.002690628 0.028183337 0.06611476
000070 7f ff ce bb 7a 32 14 3d 96 3a b1 3c ca e4 79 bd
       -0.0063170786 0.03618095 0.021634381 -0.061009206
000080 ad 09 4b 3d 60 b0 01 3c f7 f8 9c bd 84 13 31 bc
       0.049569774 0.007915586 -0.07664674 -0.010807876
000090 3a c5 86 b8 1d c1 cd 3c 9b 51 40 3d f6 cd c9 bd
       -6.426354e-05 0.025116498 0.046952825 -0.09853737
0000a0 8f ed 0b bc 9d f8 8c bc 74 0f ee 3d e6 21 9c 3c
       -0.008540525 -0.017208392 0.11624041 0.019059133
0000b0 b2 a2 df 3c fb e0 bb 3c 1e 9a 6f bc fd 04 2e 3d
       0.027299259 0.022934427 -0.014624147 0.042485226
0000c0 52 0a 5f bd f9 a2 b2 3d b6 aa 43 3d 3d a5 a9 bc
       -0.0544532 0.08722491 0.047770225 -0.020708675
0000d0 6d 76 20 3d 34 fa 04 3c 92 15 b0 ba 3a fa fe bc
       0.03917544 0.008116294 -0.0013434163 -0.031125177
0000e0 4f e5 4e bd b3 08 55 3d 79 44 a5 bc 01 c9 8c bb
       -0.050511654 0.05201025 -0.020174252 -0.0042964225
0000f0 31 12 8a 3c 37 67 17 3c 4a c8 41 bc 35 37 6d 3d
       0.016854377 0.009240917 -0.011827538 0.057913978

actor.2.weight f4 [128, 64]
000000 06 15 05 3e d1 ad 65 3d da df 16 3d d9 98 07 3d
       0.12996301 0.056073967 0.036834575 0.03310475
000010 97 a5 64 3c 9c f5 6f 3e ae 4d d6 3d 14 06 d4 be
       0.013955495 0.23433536 0.10464035 -0.41410887
000020 90 94 bb 3d ab 23 84 3e 5b 1d b2 3e 92 ff b4 bd
       0.091591954 0.25808463 0.3478802 -0.08837809
000030 9f 7b a8 bd 61 e9 00 be 2f 04 b3 bd 5a 60 3a bd
       -0.08226704 -0.12589027 -0.08741032 -0.045502044
000040 cb 0c bd bc 6e c8 34 be 3f 96 8d 3d 2a b7 1e 3b
       -0.02307739 -0.17654583 0.06913423 0.002421806
000050 79 c6 83 3d 8b 36 8e be 5f 2d 65 3d b2 b3 e6 3d
       0.0643434 -0.27775988 0.055951472 0.11264743
000060 e6 31 89 be ee 5d 41 3e d9 d2 7e 3e 4f a7 37 3d
       -0.26795882 0.18883488 0.2488512 0.044837292
000070 71 dc 1e be aa 89 1c 3c f1 be d6 3d 3e 37 91 bd
       -0.15513779 0.009554306 0.10485638 -0.07090615
000080 c8 9d 4a 3e ff 01 03 be dc c8 69 be 1c 1c ba 3d
       0.19786751 -0.1279373 -0.22830528 0.09087393
000090 77 48 17 3e 06 1b 17 be 9a 5b 1d 3e 4e 4e 4b bd
       0.14773737 -0.14756402 0.15366974 -0.049635224
0000a0 5c 60 15 bd 50 ca 11 3c b3 ca e1 bd a5 75 6a 3e
       -0.03646885 0.008898333 -0.1102499 0.2289644
0000b0 06 3b bf 3d f7 42 24 3e 6d 56 ed 3d fb 79 0f bd
       0.0933743 0.1604117 0.1158875 -0.03502844
0000c0 9c da de 3d 2f b8 a4 3d 72 ee c5 3d a4 df 79 3c
       0.1088154 0.08042943 0.096646205 0.015251074
0000d0 88 b4 ea 3d 80 06 8c be 52 b3 e9 be ca ce 99 3c
       0.11460215 -0.2734871 -0.45644623 0.018775363
0000e0 c1 75 84 3d da 0d 4e 3e 4c 08 8e bd fe 48 e2 3d
       0.06467772 0.20122471 -0.06935176 0.110490784
0000f0 74 b1 ba bd 4a 1a 87 3d 60 03 86 bc f8 f0 93 bd
       -0.09115878 0.06596811 -0.016359031 -0.072236955
000100 e3 63 79 3e ec 28 43 3e 9c f9 95 3e d3 d0 a4 bd
       0.2435451 0.19058579 0.29292 -0.080476426
000110 6b bf af 3c b3 20 ba 3d 58 ce 2e 3e 1b 37 80 be
       0.02145358 0.09088268 0.17070901 -0.25042042
000120 b9 78 c6 bc c6 fc 80 bd aa 0c 73 be bb 06 bf 3c
       -0.024227487 -0.06298213 -0.237353 0.023318639
000130 f1 dc 63 bc 6d 6c e6 3d 00 1e b4 bc 8d 27 50 3e
       -0.013907657 0.11251149 -0.021986961 0.20327587
000140 5c ba c4 bd 60 bb 12 3e fc 3f 9a 3e 16 4b b7 bd
       -0.09605858 0.1432929 0.3012694 -0.089498684
000150 24 35 53 3d c6 c8 5d 3d c1 42 81 3c 68 ed 0c 3e
       0.05156435 0.05414655 0.015778901 0.13762438
000160 9c 6c ac 3d ae 19 ae bb 81 fb 83 3e fa 89 26 be
       0.08419153 -0.00531312 0.2577782 -0.16263571
000170 8d ae c1 be f3 3d 72 3e 1b 37 81 3e 9e e1 90 3c
       -0.37828484 0.23656444 0.25237355 0.017685708
000180 13 ae d8 bd e6 37 b1 3e aa ed 7a 3e 7c e7 62 bd
       -0.10580077 0.3461296 0.24504724 -0.055396542
000190 74 d2 1e 3d e8 81 40 be f2 30 5a 3e 66 de 0f 3e
       0.038774922 -0.18799555 0.21307734 0.14049682
0001a0 3f 9b dd 3d f1 e2 4c 3e 5d 67 cd bd 09 e9 10 bd
       0.108206265 0.20008446 -0.100294806 -0.03537849
0001b0 28 ff 08 be 28 b3 af bd d3 1c 97 3d b7 91 8d 3e
       -0.13378584 -0.08579093 0.07378545 0.27650234
0001c0 7f fe 03 3e 3e 71 0f 3e c8 b7 b9 3d 61 b2 b8 bd
       0.12890051 0.14008042 0.090682566 -0.09018398
0001d0 d3 da 5d 3c f7 17 d5 bc 4b c3 fd bd a9 a3 8b bd
       0.013540941 -0.026012404 -0.12390765 -0.06818325
0001e0 fa 88 0c 3e e8 f3 95 3c f2 72 b5 bd 89 18 ab 3d
       0.13724127 0.01830478 -0.08859815 0.08354289
0001f0 03 69 4d 3e 8d 8c 9d bd 9d 7c 4a bd 1e e6 25 3e
       0.2005959 -0.076928236 -0.049435247 0.16201064
000200 e1 47 97 bd 67 c2 ce 3d ad 84 96 be 3e 25 e6 bd
       -0.07386757 0.10095673 -0.293981 -0.11237572
000210 88 7d f3 bd 24 3c 71 3e 28 d9 88 3e 90 9d 43 bd
       -0.118891776 0.23558098 0.26728177 -0.047757685
000220 4a ac 4a bc ce 39 4a bc 0f f6 62 3d 62 33 52 3e
       -0.0123701785 -0.012342883 0.05541044 0.20527413
000230 84 d8 fc 3a dd ae 2d be bf 60 54 be 59 ea 00 be
       0.0019290601 -0.16961236 -0.2074003 -0.12589397
000240 8a 0b 77 bd 2c 5a 80 3e 54 0a 65 3c 1c 53 30 3e
       -0.06031374 0.25068796 0.013979513 0.17219204
000250 12 76 0e 3d 3b 78 49 bd 69 c6 9b 3e 69 c4 32 3d
       0.03478057 -0.049186926 0.30424812 0.043644343
000260 97 4f 16 be 65 42 b4 bd 82 10 49 be db 9e 0b 3e
       -0.14678799 -0.08801726 -0.19635203 0.13634817
000270 ac 00 6b 3d 8f 92 9f 3e 49 71 2b 3e b3 ff 0a be
       0.057373688 0.31166503 0.16742434 -0.13574104
000280 30 25 e8 bd f6 c7 07 3e 24 78 1c be 7a aa b3 be
       -0.11335218 0.13259873 -0.15280205 -0.35091
000290 3d 47 54 3c f0 ea 29 3d b5 33 1c 3d 5a 07 86 bc
       0.012956438 0.04148382 0.03813525 -0.016360927
0002a0 aa d4 25 be ba 0b f7 3d 52 d0 ea 3d f6 9c da bd
       -0.16194406 0.120627835 0.11465515 -0.10674469
0002b0 3a a3 91 3d c2 33 ee 3c cd 4b 37 3e 05 0d bf bd
       0.07111211 0.029077414 0.1790001 -0.09328655
0002c0 f5 76 1e 3e cd 8c 9a 3c fb 13 4b be fd 39 f8 ba
       0.15475066 0.018865967 -0.1983184 -0.001893818
0002d0 15 d1 0e be c5 1a 0e 3e 43 69 2c 3d 3e c2 94 3e
       -0.13946946 0.138774 0.042092573 0.29054445
0002e0 0e e4 12 be 8e 81 c3 bd 7a 63 cb 3d 88 78 e9 3d
       -0.14344808 -0.09546195 0.09931083 0.11399943
0002f0 ca 06 30 3e 01 b1 0b 3e 26 e4 27 be a0 b1 cb 3c
       0.1719009 0.1364174 -0.16395625 0.024864972
000300 bb 52 13 3c b0 5f 80 3d 1b e8 3b 3e af bc 84 be
       0.008991892 0.06268251 0.1835026 -0.25925204
000310 5b b4 99 3d 93 71 66 bc 53 73 d6 bd f0 f8 c7 bd
       0.07505103 -0.014065164 -0.10471215 -0.09764278
000320 3d 8e 92 bd ce 23 6c bc 55 d4 01 bd 8d 7c bb bd
       -0.07156036 -0.014412833 -0.031696636 -0.091546156
000330 20 83 38 3a 51 89 ca 3d 82 78 d9 3d c1 a6 88 3c
       0.0007038582 0.09889472 0.10618688 0.016681077
000340 a8 da b6 be e1 17 a9 bc e3 7d af 3e 45 e3 92 bd
       -0.35713696 -0.02064127 0.3427573 -0.071722545
000350 4a 10 2a 3e a1 fc 15 3e 7b 5a d8 3d a8 c7 c8 bd
       0.16607776 0.14647152 0.10564133 -0.098037064
000360 e6 56 16 bd e4 44 3c be 5e 78 58 3d 03 c0 eb bd
       -0.036703967 -0.18385655 0.052849166 -0.11511233
000370 c1 10 e4 bd 44 94 8a 3e c3 28 fd 3d 2e 0f f3 bc
       -0.11136008 0.27066243 0.1236129 -0.029670324
000380 7d 38 4c bd ca 3c b5 bc f6 98 3b 3d 55 0f d9 3d
       -0.04985856 -0.022123713 0.04580017 0.105986275
000390 fb af 92 3e 9c e3 c6 bd 7d e0 28 3e 7f 75 42 be
       0.28649887 -0.09711382 0.16491885 -0.18990134
0003a0 05 25 4e 3e 41 c7 20 3e 62 e3 1b 3d 9d df 33 3c
       0.2013131 0.1570101 0.038058646 0.0109786065
0003b0 fd 5d 82 be 4e ee 83 3e 32 a3 29 3c 17 29 17 be
       -0.25462332 0.2576775 0.01035385 -0.14761768
0003c0 c2 54 c0 3d 77 fa f3 3d 05 6f 33 be 30 7c 39 be
       0.09391166 0.11913007 -0.1752282 -0.1811378
0003d0 64 16 eb bd 36 8b 7d 3e 29 57 25 be 87 b4 e0 3d
       -0.1147888 0.24760136 -0.1614653 0.10971933
0003e0 c2 01 23 bd 85 14 9f 3d d1 05 84 be 23 b6 a2 3e
       -0.0397966 0.07767586 -0.25785688 0.31779584
0003f0 3b bb 67 bd 4c 34 e1 3c 95 89 ee bd 56 e3 c3 bd
       -0.05657504 0.027490757 -0.116473354 -0.09564845

actor.2.bias f4 [128]
000000 05 fa 8c 3c 96 9f 47 3d d6 8f f9 3c 50 61 63 3d
       0.017209062 0.048736177 0.030464094 0.055512726
000010 99 25 19 3c 9c 6b d9 bc f8 1c 48 bd 5d 4c 4e 3d
       0.009347343 -0.02654057 -0.04885575 0.050365794
000020 8a 9b a4 3a 02 0a 28 3d e3 5c 2d 3d b4 c8 2f bd
       0.0012558561 0.04102517 0.04232491 -0.042916015
000030 83 24 02 3d ae 99 1e bc 97 17 69 bc 34 52 1c bc
       0.0317731 -0.009680195 -0.014226816 -0.009541083
000040 a9 88 3f 3d 0b 21 a2 bc 2e 99 68 3c 43 4d 4f 3d
       0.04676119 -0.019791147 0.014196677 0.050610792
000050 21 c1 e0 bc 62 20 85 bd c0 2e 85 bc 2b a5 11 bd
       -0.027435841 -0.06500317 -0.016257644 -0.035557907
000060 2b 13 dd 3c b6 22 19 3d c5 38 a8 3b 5b 57 85 bd
       0.026986679 0.03738662 0.0051337206 -0.06510802
000070 31 86 8d bc c9 34 a3 39 74 e4 b8 bd 7a 94 fe 3c
       -0.017275902 0.0003112911 -0.09027949 0.031076659
000080 78 43 3d bd 89 54 9d 3c 8d bc 0c bd c4 98 95 bd
       -0.04620692 0.019205349 -0.034359504 -0.07304528
000090 71 ba b1 bc 45 43 37 3d 09 60 eb 3c 5c ca a3 bb
       -0.021695348 0.044741888 0.028732317 -0.0049984884
0000a0 8b 3c bb bd 17 84 d6 bc 9b 1a 6d bc 86 d2 2f bd
       -0.09142407 -0.026186032 -0.014471675 -0.04292538
0000b0 12 c9 9f bd d7 01 0f 3d f1 06 47 3d e3 5d 37 bd
       -0.07802023 0.034913864 0.048590604 -0.04476727
0000c0 71 6d 7e bd 76 b7 07 bd 77 3a 57 bc db d1 11 3d
       -0.06211609 -0.033133946 -0.013136498 0.035600524
0000d0 a1 94 74 3d c4 ea d3 bd ed ed 1a 3c 49 cc 1e bd
       0.059712056 -0.10347512 0.00945614 -0.03876904
0000e0 0e 3d e3 3c 49 a5 1a 3d a7 ea 57 3d 51 af 42 3d
       0.027739074 0.037755284 0.052714016 0.047530476
0000f0 97 61 4b bc 30 01 b3 bc fe 50 94 3c 91 3e 63 bd
       -0.012413404 -0.021851152 0.018105026 -0.05547959
000100 33 e3 76 3d 16 23 51 bd 22 70 6e 3d 2a 8e b6 3c
       0.060275268 -0.05105885 0.058212407 0.022284586
000110 df 84 34 b9 ee d6 5e 3d 7b 8e 88 3a a1 a0 2d bd
       -0.00017215636 0.05440419 0.0010418439 -0.042389516
000120 87 e8 0f 3c e5 a9 70 3c 03 ca 18 bd 85 3c d7 bb
       0.008783466 0.0146889435 -0.03730203 -0.006568494
000130 47 28 8a bb 16 9a e3 bb e6 31 8d 3d e6 2b 1d 3d
       -0.004216227 -0.0069458587 0.06894283 0.038371943
000140 79 54 88 3b 16 e3 a3 bc db 0b 18 bc 0a 9d 91 39
       0.0041604606 -0.020005744 -0.00928017 0.00027773558
000150 fb 38 25 3d 6f 37 12 bd 07 4d e6 3c 0f fd 71 bc
       0.040337544 -0.035697397 0.028112901 -0.0147698065
000160 75 a0 17 bd 7e ce ba 3c 23 da 09 3b 95 b1 b2 bc
       -0.037018258 0.022803541 0.002103456 -0.021813193
000170 c8 bf 42 3d 30 4e 6a 3b 93 eb 74 bd 02 65 2e bd
       0.047546178 0.003575217 -0.059794974 -0.042576797
000180 2c b3 84 3c 17 7e b5 3d 37 ad 93 bd 49 b8 bc 3b
       0.016198717 0.0886194 -0.072107725 0.005759273
000190 ef d7 1a 3d 59 4e 44 3d e8 5d 01 3d cc 79 e8 bd
       0.037803587 0.04792628 0.031583697 -0.11351356
0001a0 10 7b 44 bd 19 6b d9 bc f1 c3 6d bc dc 62 99 ba
       -0.047968924 -0.026540326 -0.014512048 -0.0011702436
0001b0 b1 1f 7e 3d e5 7d 65 3d b5 91 bc bb da 59 be bc
       0.062041942 0.056028266 -0.0057546743 -0.023236204
0001c0 56 ea 81 bd ba d8 0d 3c 78 c1 a9 bc 0d c0 ed bc
       -0.06343524 0.008657629 -0.020722136 -0.029022241
0001d0 65 89 c3 3d 6a 9c 09 bd 42 e2 bb 3d a6 0a 13 bc
       0.0954769 -0.033596434 0.09174015 -0.008974707
0001e0 15 45 85 3d 58 31 2e 3c 0d 41 77 3b 49 54 86 bc
       0.06507317 0.010631882 0.0037727982 -0.016397612
0001f0 ae cd 3b 3d 80 fa 6a bd 49 d0 f6 39 90 6a 30 bd
       0.04585045 -0.0573678 0.0004707596 -0.043070376

actor.4.weight f4 [64, 128]
000000 35 aa 87 3b 0a 60 3e be 25 16 12 3c d0 74 23 be
       0.0041401633 -0.18591323 0.0089164125 -0.15962529
000010 f9 ab 7b bd 9f bc 43 bc 97 05 f1 3d 5d 3e 8f 3d
       -0.061443303 -0.011946826 0.11768644 0.06994317
000020 ff 35 f8 3d d8 ae 58 be 97 fc 7d be 8b a0 85 be
       0.12119674 -0.21160448 -0.24803387 -0.26099047
000030 53 d2 6f be 04 d0 a8 3c 65 e9 8d bd c4 90 59 be
       -0.23420076 0.020607002 -0.06929282 -0.2124663
000040 7e a2 7e be 39 71 32 3e 13 ea e1 3d a5 6a 85 bd
       -0.24866673 0.17426004 0.11030974 -0.065144815
000050 61 96 7a bd 7e 77 51 3e 53 15 6c 3d c7 6c a1 3d
       -0.06117857 0.20455739 0.057637524 0.07882076
000060 3e 93 70 3e f1 15 35 be 0c 39 ba bd 7f 61 e4 3d
       0.23493668 -0.17684151 -0.09092912 0.111514084
000070 ca bc 4b bd f6 91 a9 3d 33 ba 1b 3e 20 63 c2 be
       -0.04974059 0.08279793 0.15207748 -0.3796625
000080 9c d2 69 be 2f 8e 5b be 3a f0 ca bd 44 95 87 bb
       -0.22834247 -0.21440957 -0.09909101 -0.004137667
000090 58 38 84 bd 98 42 41 be ae 40 95 bc 04 4d f1 bc
       -0.06456059 -0.1887306 -0.018219318 -0.02945567
0000a0 ea df d2 3e c6 90 1b 3e 92 99 d0 bd 94 83 62 3e
       0.41186458 0.15191945 -0.10185541 0.22120506
0000b0 6a 5f 3c be 82 19 7d 3e cc 6b 08 be 35 eb 0a 3d
       -0.18395773 0.24716762 -0.13322371 0.033915717
0000c0 be b1 f8 3d e9 35 a8 3d bf 7c fc 3d ff 88 16 bc
       0.12143277 0.082134075 0.12328481 -0.009187936
0000d0 63 fb 4e 3e 95 30 b8 3d 6d 42 a3 be 59 8c d0 bd
       0.20213084 0.08993641 -0.31886616 -0.10183019
0000e0 72 84 47 3d aa 19 19 3d 05 35 5d be 23 c5 76 bd
       0.048710294 0.03737799 -0.21602257 -0.060246598
0000f0 c4 0c 8d be cb 12 4e 3d 5a 28 51 be 5f 49 22 be
       -0.27548802 0.05031089 -0.20425549 -0.15848301
000100 1e 04 d1 3d 55 7b 04 3e e8 89 8e be 22 55 aa bd
       0.102058634 0.12937672 -0.2783959 -0.08317019
000110 71 78 66 3e 60 6c 22 3d 8f e7 5f be c2 dd ba 3e
       0.22506882 0.039654136 -0.21865676 0.36497313
000120 31 a1 b2 bc 70 47 3d bd 0e 8f 18 be da 3c 96 3e
       -0.021805378 -0.046210706 -0.14898321 0.293433
000130 4b 0f 05 bd 79 f2 7f 3c 96 f4 c7 bc 43 fd d4 3d
       -0.032485288 0.015621775 -0.02440862 0.10399868
000140 ed e5 82 bd f6 33 8c 3d 4a d2 a2 be f3 d7 62 bd
       -0.06391511 0.06845848 -0.31801063 -0.055381726
000150 8d ed 81 be b6 a8 dc 3d 5e ef dd bd 80 ee b9 3d
       -0.2537655 0.107743666 -0.10836671 0.090786934
000160 63 45 c9 3c 14 11 29 3e 21 f4 af bd cb 4d cc 3c
       0.024569219 0.16510421 -0.08591486 0.024939438
000170 80 3f 74 be 55 6e 54 be f6 19 75 3d 6f 25 19 bd
       -0.23852348 -0.20745213 0.05983921 -0.037389215
000180 73 31 29 be e1 ef a7 3d c0 27 6d 3e 7e 10 c8 3d
       -0.1652277 0.0820005 0.23159695 0.09768771
000190 3c c5 07 3e eb b8 93 be be ee ac 3d ea 5c ff 39
       0.13258833 -0.2885202 0.08443974 0.00048706617
0001a0 9c 2b 18 3e df d4 59 be ea f6 ad bd a3 2a 7b 3e
       0.14860386 -0.2127261 -0.08494361 0.24527983
0001b0 ca fc 6a 3e 30 16 02 be 97 8a 1d be a2 ef 7f bd
       0.22947994 -0.12703776 -0.15384899 -0.06248439
0001c0 85 f0 6f 3e 1c 4b aa be c8 ee 06 be f3 f6 15 bf
       0.23431595 -0.3326043 -0.13177025 -0.5857994
0001d0 93 76 62 be 35 ac 01 3d 42 a1 99 bd 95 f3 b6 be
       -0.22115545 0.03165837 -0.075014606 -0.35732713
0001e0 a7 ae da bd 9b 9b 0b be 81 a2 05 3d de 7b 4f bd
       -0.106778435 -0.13633578 0.03262568 -0.05065524
0001f0 aa 75 8f 3d 2e 07 4c 3d 45 6f c3 be 14 c1 4d 3d
       0.070048645 0.049811535 -0.3817083 0.05023296
000200 22 73 b2 bc f0 0c 75 3d 5e af 30 3a 9f a1 66 bd
       -0.021783415 0.05982679 0.0006739999 -0.056306478
000210 02 85 10 be 88 9d 68 3d 49 00 f6 3b 0a 62 14 3e
       -0.14113238 0.05679086 0.007507358 0.14490524
000220 2e 0a af 3d 6e 29 c6 3c b5 96 9d bd 63 d8 e8 3b
       0.085468635 0.024189677 -0.07694761 0.0071058734
000230 8a 4f b5 bc c9 09 b6 3c bd 29 4c 3e 66 e6 b0 3b
       -0.022132654 0.022221463 0.19937797 0.0053985594
000240 b3 7f 9b bd ad a4 cc 3d 28 7a c3 3e 0e d8 12 3d
       -0.07592716 0.09992347 0.38179135 0.035850577
000250 aa ed 08 be 2e 8a 53 3e 73 61 3b 3e 9d d4 de bd
       -0.13371912 0.2065818 0.18298893 -0.108803965
000260 06 ec 9b 3d ea 14 c6 3d 2f 86 89 be 51 14 5a 3e
       0.07613377 0.09671958 -0.26860186 0.21296813
000270 81 ee 17 3e c1 53 6c bd 61 5f 32 be 61 79 1d be
       0.14837076 -0.05769706 -0.17419197 -0.15378334
000280 c1 cc 15 bd f5 02 76 3e 0c 75 36 3e 41 9c 76 3e
       -0.03657222 0.24024566 0.17818087 0.24083044
000290 75 f5 8c be 67 5b c6 be 0c b4 6f be 26 7b 78 3e
       -0.2753102 -0.3874161 -0.23408526 0.24265727
0002a0 f9 1a 88 bd ca 7a 99 3d 02 b5 08 3e 8f 8c 12 3e
       -0.066457696 0.07494123 0.13350299 0.14311431
0002b0 a8 91 46 3c b6 60 cd bd 39 f3 a8 3b b3 f4 c0 3d
       0.012119688 -0.10028212 0.0051559475 0.09421673
0002c0 9a c1 bf bb 6f aa 72 bc 05 90 09 3e a8 cd 8b be
       -0.0058519365 -0.014811142 0.13433845 -0.2730534
0002d0 a7 4b 0b 3e 21 ca 09 3d 6b 6c 8e be eb a8 16 3e
       0.13603078 0.03364003 -0.2781709 0.14712875
0002e0 0f cd 64 3e d7 58 73 bc 95 b4 56 3d e9 3c b1 3d
       0.22343849 -0.014852724 0.05241831 0.08654196
0002f0 9f 2a 33 be f7 e1 24 bd 89 8c 26 3e c9 99 65 3e
       -0.17496727 -0.04025456 0.16264547 0.22421946
000300 96 e7 06 3d 87 41 70 be 95 38 e4 bb ef 9e 36 be
       0.0329357 -0.23462497 -0.006964753 -0.17834066
000310 00 c9 de 3d 56 71 6a 3e 3c d1 c5 3c b5 74 ae 3d
       0.108781815 0.22894797 0.024147622 0.08518354
000320 0f a8 0a bd 7e c8 2f bd e2 e6 a1 bc 6c 16 ad 3c
       -0.03385168 -0.042915814 -0.019763414 0.021128856
000330 50 be c0 bd 9d 19 8d 3d 34 4b 38 be c8 70 37 bd
       -0.09411299 0.06889651 -0.17997438 -0.04478529
000340 72 60 d3 3e 41 b9 0c be c7 33 e0 bd b8 6c 31 bd
       0.4128452 -0.13742544 -0.10947376 -0.043316573
000350 dc 13 4c be 35 8f 51 be eb 64 be bc fc d1 5d 3e
       -0.19929451 -0.20464785 -0.02324148 0.21662134
000360 62 d5 e8 3e a1 ff 96 3c d0 b7 83 3d 2f 23 1a 3e
       0.45475298 0.01843244 0.06431544 0.15052484
000370 bb 2f 09 be cd e5 9a be a8 3c 15 3e 9d 26 c1 3e
       -0.13397114 -0.3025345 0.1457392 0.37724772
000380 f0 a6 12 3e 90 c5 ad bc 62 6e 32 3e 87 cf 63 3e
       0.14321494 -0.02121237 0.1742492 0.22247134
000390 6e aa 89 3e 90 10 e0 bd 65 07 01 be e4 f1 f7 3d
       0.2688784 -0.10940659 -0.12600477 0.12106684
0003a0 20 b2 d8 bd 18 e0 b4 bd e9 cf a2 3e cf 4b 65 bb
       -0.1058085 -0.08831805 0.31799248 -0.0034987812
0003b0 02 0a 29 be cb 3c fc be 19 1e 25 be 45 ba eb 3d
       -0.16507724 -0.4926513 -0.16124763 0.115101375
0003c0 98 ab d1 3e ea d5 ae 3d d8 82 8a 3d 4c 91 86 be
       0.40951228 0.085368946 0.06763238 -0.26282728
0003d0 36 62 89 be f1 50 59 be a2 47 29 be 10 8c 07 be
       -0.26832741 -0.21222283 -0.16531232 -0.13237023
0003e0 ab 26 6a be a0 7b 0f 3e 60 6c 36 bd 64 8d 5c 3e
       -0.22866313 0.14012003 -0.04453695 0.21538311
0003f0 1c 35 97 be a9 ac 03 3e 0d c8 a8 be 37 5c 74 3e
       -0.29532707 0.12858833 -0.32965127 0.23863302

actor.4.bias f4 [64]
000000 e0 0c f0 bc 8d 68 5c bc cd 7d 78 bc d5 00 71 3d
       -0.029303014 -0.013452661 -0.015166712 0.058838684
000010 ad 5c 04 bc 49 2f 04 bb 31 3d 2e 3d 54 4f ad bd
       -0.008078736 -0.0020169786 0.042538825 -0.08462396
000020 38 94 ae 3c 0a 97 c6 3c 57 a1 f1 bc 5e 29 a2 3d
       0.02131091 0.024241943 -0.029495878 0.079180464
000030 fe ac d8 bc 34 c8 46 3c 84 c8 42 3c 17 c6 10 3d
       -0.026449677 0.012132693 0.011888627 0.035345163
000040 58 d7 f6 bc 56 eb 97 3d 63 68 0e bd 15 3f b5 bc
       -0.03013198 0.07417934 -0.03476752 -0.022124806
000050 0f 3a 22 3d c7 32 64 3d 2d f4 09 3d a5 7a 6e 3d
       0.03960615 0.055712488 0.03368013 0.05822243
000060 b6 be 9b 3b 38 e8 70 bd 41 fd 25 bc ad 40 10 bd
       0.004752959 -0.05881521 -0.010131181 -0.03521793
000070 51 97 48 3c 21 8c 2c 3d 6d 3f d8 bc 2b c6 95 3d
       0.012243108 0.042125825 -0.026397431 0.07313188
000080 55 b0 82 bd e8 4f 3f bd 57 79 4f bc ef d0 52 bd
       -0.06381289 -0.046707064 -0.012663207 -0.051468786
000090 c4 53 2f bd 86 b0 b2 3d 62 63 df bc 58 ae 72 3d
       -0.042804495 0.087250754 -0.02726907 0.0592483
0000a0 3e 3b e5 3c fc 1a 1b 3d 03 5a 65 3d 89 9f 4b 3c
       0.02798235 0.03786753 0.055994045 0.012428173
0000b0 b9 36 f6 bb 8a 6b 8c 3d b3 73 ae bc 75 32 8b bb
       -0.0075138477 0.06856449 -0.021295404 -0.0042479583
0000c0 14 8c 96 bd 0d 9e 8a bb 8f 02 8e bc 9b 6f 0a 3d
       -0.073509365 -0.004230267 -0.017335204 0.03379784
0000d0 5e fb 8d 3d e1 3e e5 3c 98 e2 c8 bc d8 1f 46 bb
       0.0693271 0.027984085 -0.02452211 -0.0030231383
0000e0 e8 ea 56 3d 7c cb f1 3c 78 a0 0b bd 15 81 96 bd
       0.052470118 0.029515974 -0.03408858 -0.07348839
0000f0 87 c5 44 3b 60 ef a4 3c 1b bc c5 bd 7a 08 99 bd
       0.0030024962 0.020133674 -0.09655019 -0.0747232

actor.6.weight f4 [3, 64]
000000 02 0e b7 3d f9 98 49 bd db 69 cd 3d 36 9e a0 3d
       0.08938219 -0.04921815 0.10029956 0.07842676
000010 41 bf b4 bd 38 89 81 bd 45 6f 14 bd 3f 2e 04 3e
       -0.08825541 -0.063250005 -0.036238927 0.12908266
000020 df 17 f4 3c 52 43 1b bd 84 60 62 3b df 26 ce bd
       0.029796539 -0.037906 0.003454239 -0.10066008
000030 24 77 95 3d 72 2d 3e bd 9b bd f1 3c b5 c2 e5 bc
       0.07298115 -0.04643006 0.029509356 -0.028046945
000040 25 f6 1b bd 92 c0 87 3d 43 71 8d 3b 28 16 28 bd
       -0.03807654 0.06628527 0.0043164804 -0.041036755
000050 0e f2 49 bd a3 d8 fa bc b1 e8 7d 3d 19 95 a4 bd
       -0.049303107 -0.030620879 0.06198949 -0.080362506
000060 98 93 d7 bc 27 6d d0 3d b3 8c 0e 3d 8b 2f a5 3d
       -0.026315495 0.10177069 0.03480215 0.08065709
000070 b5 5b 83 bd 56 41 c9 3d d5 d4 c3 3d b6 31 eb bd
       -0.06413976 0.09826915 0.09562079 -0.11484091
000080 05 fa 0c 3b c1 cd 0b be fa f1 5d bd 49 20 33 bd
       0.0021511328 -0.13652708 -0.054185845 -0.04373196
000090 1f 0f c2 bb f2 19 89 bd 26 4f 85 3d 05 d3 74 bd
       -0.0059222127 -0.06694402 0.06509237 -0.059771556
0000a0 1d d5 8e bd 48 61 c8 bc 91 86 4f bd 69 8b 69 bd
       -0.06974242 -0.02446045 -0.050665442 -0.057017718
0000b0 25 17 03 be 21 33 8c 3d 50 4f 85 3d 04 70 f4 bb
       -0.12801798 0.068456896 0.06509268 -0.0074596424
0000c0 fb 69 c2 3d 3c 96 39 3d 2e 7a 9f 3d a0 49 bc 3a
       0.094928704 0.04530929 0.07786976 0.0014365204
0000d0 01 50 7c bd 15 9e a4 3c 15 ca b2 bc ad 70 da bc
       -0.061599735 0.02009491 -0.021824876 -0.026665056
0000e0 97 91 37 3c 32 9c 47 3d 7d d7 98 3d 7e 90 bf 3d
       0.011204145 0.048732944 0.07462976 0.093537316
0000f0 6b 24 c4 bd a9 17 a3 bd 8c c0 6c bd 14 3b 23 bd
       -0.09577259 -0.07963497 -0.057800815 -0.039851263
000100 8d 7a 73 bd 7d 0f 01 3e a6 f5 d4 bc e2 50 5b 3d
       -0.059443045 0.12603565 -0.02599604 0.053543933
000110 9a 5c 04 bd 50 20 1a bd 6c 6a 4e 3d 78 5c 0b bd
       -0.032314874 -0.03762847 0.05039446 -0.034023732
000120 06 ce cb 3c fe dc b3 3d 58 87 a0 bd ee 42 89 3d
       0.024878513 0.08782385 -0.07838315 0.06702219
000130 24 9c ff 3c e5 42 e0 bb dd d7 98 3d e2 44 a5 3d
       0.031202383 -0.006843912 0.07463048 0.08069779
000140 43 c1 5c bd 03 e6 45 3d 0b 82 36 3d 5f 16 d8 3d
       -0.053895246 0.04831506 0.044557612 0.10551142
000150 fe 34 1a bc 1a 19 d0 3c a3 fd b4 bd e4 04 6b 3d
       -0.009412048 0.025402594 -0.0883744 0.05737771
000160 a2 82 c8 3d fa 3f 87 bc c0 4e ad bd ef b2 7d 3c
       0.09790541 -0.016509999 -0.08462286 0.015484556
000170 81 57 9a ba a3 6a bb bd ef cc 64 bd fd 39 ad 3d
       -0.0011775346 -0.09151199 -0.055859502 0.08458326
000180 56 ea 5c bd 88 74 12 3e a0 70 98 bd 41 c5 68 bd
       -0.053934418 0.14302266 -0.074433565 -0.05682874
000190 07 10 d4 bc 26 76 16 3d ce 33 a0 bd 83 ec ef 3b
       -0.025886549 0.03673377 -0.07822381 0.0073218956
0001a0 09 5a 0b 3c 77 c1 80 bd 77 99 ec bb 75 c3 f2 3c
       0.008505353 -0.062869005 -0.007220443 0.029634217
0001b0 06 91 64 3d 56 ef 16 bd 7f 8e 10 3d a3 16 bd 3d
       0.055802368 -0.036849342 0.035292145 0.09232833
0001c0 a0 52 ac bd ec 6e c8 3d 28 5f 7a bd 96 84 68 3d
       -0.08414197 0.09786782 -0.061125904 0.05676707
0001d0 b5 60 a9 3d 2b 1c 21 3d d0 dc 02 bd 02 6a 9a 3d
       0.082703985 0.039333504 -0.031948864 0.07539751
0001e0 7d 49 4d 3c a1 d9 cd bd f3 b7 eb bc d0 92 a2 bd
       0.012529728 -0.10051275 -0.028774237 -0.079381585
0001f0 15 7e 39 bd f7 40 8c bc c1 48 73 3d 8f b4 1d bd
       -0.045286257 -0.017120821 0.059395555 -0.038502272
000200 67 23 5e 3c 7c 9e 4e bd 39 1c 16 bd 6a 2d ac bd
       0.013558245 -0.05044411 -0.03664801 -0.084070995
000210 a4 ab 9b 3d 96 ee ea 3d 83 5c 7d bd a3 ec 68 bd
       0.07601097 0.11471288 -0.061855804 -0.0568663
000220 34 70 c0 bd ec 62 95 bc d1 aa 7b 3d 0d eb 85 bc
       -0.09396401 -0.018235646 0.0614422 -0.016347433
000230 cd 13 eb bd 7c 40 ab 3d 3d 36 a1 bd 2e 94 83 bd
       -0.11478386 0.08361909 -0.07871673 -0.064247474
000240 a7 0d 17 3d 81 f9 a0 bd 04 3e 02 be 0a 3d 26 bd
       0.036878254 -0.07860089 -0.1271897 -0.040585555
000250 8a 6c db 3c b0 4c 57 bd da 01 15 3c dd 66 df bc
       0.026785154 -0.05256337 0.00909468 -0.027270729
000260 87 1d 4a bd 2a ce 8f bd db 61 b8 3c 13 08 ee bd
       -0.049344566 -0.070217445 0.022507599 -0.11622634
000270 61 4f f0 3d d1 1a 2e bd c4 77 9f 3c 17 bb 89 bc
       0.1173389 -0.042506043 0.019466288 -0.016812844
000280 10 a6 86 3c e4 e8 fc bc 56 45 b4 3d 90 fd f7 3d
       0.016436607 -0.03087277 0.08802287 0.1210891
000290 e6 8b aa 3d 77 06 c2 bc 74 b4 81 3d 06 b8 94 3c
       0.08327465 -0.023684723 0.06333247 0.018154155
0002a0 89 da 9b 3c b0 64 6a 3d 72 1b 0e 3e 53 40 d9 bc
       0.019025104 0.05722493 0.13877657 -0.02651993
0002b0 4f 00 c4 3d 59 bc 8c bd 01 15 0c be 2a c1 19 be
       0.09570371 -0.06871862 -0.13679887 -0.15015092
0002c0 e3 7e c9 3c 93 75 ec bd 32 a1 04 3d 6d 2d e2 bc
       0.024596637 -0.11545863 0.03238029 -0.027609551
0002d0 c0 c2 90 bd 29 d9 da bd a9 71 c2 3d b7 5c 67 bc
       -0.070683956 -0.10685951 0.09494335 -0.014121226
0002e0 fb e4 91 bd 6a e3 df 3c dd 5a a0 bd 40 b5 20 3d
       -0.07123753 0.02733012 -0.07829831 0.039235353
0002f0 63 70 cc 3d 42 92 ff 3d fb fc 3c 3c 7e 49 17 3d
       0.099823736 0.12479068 0.011534925 0.036935322

actor.6.bias f4 [3]
000000 52 79 87 3d 25 13 c5 bd 3a a9 80 3d
       0.06614937 -0.09622792 0.062822774

critic.0.weight f4 [64, 1176]
000000 3b 52 89 3d 5d 50 9c bc 47 45 bf bc 33 89 97 bd
       0.06705137 -0.019081289 -0.023348464 -0.073992155
000010 f7 c5 04 3d 4b 86 0d bd 0f 88 2d bd 05 d2 38 bd
       0.032415356 -0.0345519 -0.042366084 -0.045122165
000020 2b e1 23 bc ae 1d 06 3d 17 b7 c1 bc 27 75 02 bd
       -0.010002415 0.03274315 -0.023646874 -0.031850006
000030 8f 67 ee 3d 87 7b 4b 3d 51 d5 3b 3d 4e 08 51 bb
       0.11640846 0.04967835 0.04585773 -0.003189582
000040 61 a2 79 3d fb 83 b7 bb f0 be d0 bd 29 17 ff bc
       0.060945872 -0.00560045 -0.101926684 -0.031138973
000050 d9 d6 f9 ba 68 7c da 3c 37 75 31 bc 19 54 9d 3b
       -0.0019061222 0.02667065 -0.010831169 0.004801285
000060 6b f8 0b 3e 90 f8 26 bd 67 9f 9f bd af 56 ad bc
       0.13668983 -0.04076439 -0.077940755 -0.021159498
000070 05 ce a3 bc 33 6a ca 3c 22 df a0 bd 10 61 2e be
       -0.019995699 0.024708843 -0.07855059 -0.17029214
000080 24 37 da 3a f4 f1 99 bb 5c 84 5a 3d a8 e3 3f bc
       0.0016648513 -0.0046980325 0.053348884 -0.011711992
000090 68 4c 0e 3c 97 58 4d 3c 52 ff 82 bd 5f 0f 0a bd
       0.008685209 0.0125333285 -0.06396355 -0.033706065
0000a0 19 b4 05 bd 53 13 b1 bc ed 68 65 3c 20 20 81 3d
       -0.032642458 -0.02161566 0.014002067 0.063049555
0000b0 a2 6e 59 3d 8c 88 1d bd 97 62 ae 3c 3c a1 50 bc
       0.053084023 -0.0384603 0.021287246 -0.012733754
0000c0 59 50 5f 3d 6f 7b f7 bd 38 56 f6 3d 22 58 bf 3b
       0.054519985 -0.1208409 0.12028164 0.0058393637
0000d0 50 6e e6 3c 86 03 24 bd 75 13 37 3a 46 ee 52 3c
       0.028128773 -0.040042423 0.00069837953 0.012874192
0000e0 be d2 fa bc fa 52 7f bc 19 ce 89 3d b6 1b 4a 3d
       -0.030618068 -0.015583748 0.06728763 0.049342833
0000f0 67 99 86 bd 1e e7 a8 bd ee 3b b2 bc 35 88 d2 3c
       -0.06572228 -0.08247207 -0.021757092 0.025699714
000100 7b d3 02 bd 0c 26 ab 3d 21 16 ef 3b a2 4e 00 be
       -0.031939965 0.08356866 0.007296339 -0.12529996
000110 4e 16 59 3d 7f 42 2b bd 0b 67 ef bc 2a 6b c5 bc
       0.052999787 -0.041811462 -0.02922394 -0.024098951
000120 0b e8 88 bd 78 23 b1 bd fa e6 75 bc bf 7b 33 3d
       -0.06684884 -0.08649343 -0.015008682 0.043819185
000130 88 c9 f8 bc 36 22 35 bd 2e 9d 7d bb 67 40 92 bd
       -0.030369535 -0.04422208 -0.0038698423 -0.0714119
000140 e1 73 78 bd b9 bf 0c bb 47 9b 22 be f0 2f c7 3c
       -0.060657386 -0.002147658 -0.15879546 0.02431485
000150 66 f1 87 bc 4a 6c bc bc 93 83 0c bd a9 1f 5c bb
       -0.0165946 -0.023000855 -0.034305166 -0.0033588207
000160 a2 6b 66 3d 6a a6 6a bc 0d 57 20 bb f8 1e 28 bd
       0.05625499 -0.014321903 -0.0024465949 -0.04104516
000170 7c 7a 94 3c ec ba fd bc cc d3 6e bd 73 eb ef bc
       0.018124811 -0.03097292 -0.058307454 -0.029287076
000180 0d db da 3b 67 09 d5 3d 7b 62 d7 bc a3 3f c3 3c
       0.006678945 0.10402184 -0.026292076 0.023834055
000190 ba 50 7b 3b 93 94 b5 bd d0 1a 81 bd 36 0a 8f 3b
       0.0038347677 -0.08866229 -0.06303942 0.004365231
0001a0 0c 22 5e 3d 5c 29 06 bd 00 a2 30 bd 48 9a c3 3d
       0.05423169 -0.032754287 -0.043123245 0.09550911
0001b0 78 1c c3 bc 9a 5c 33 3d f4 26 15 bc 89 9b a7 bc
       -0.023817286 0.043789484 -0.009103525 -0.020459907
0001c0 86 b6 39 bc 95 98 cb 3c af 75 90 3c 7e e4 8b bd
       -0.011335021 0.02485303 0.01763424 -0.06830691
0001d0 27 6a 0b 3d e6 1d 9b 3c 87 6a fb 3d f7 5c 6a bd
       0.03403678 0.018935155 0.12276178 -0.057217564
0001e0 c2 6a ff 3c 60 7d c4 3d cc d5 d5 3c 08 94 1d bd
       0.031178836 0.09594226 0.026102923 -0.03847125
0001f0 5a 6e cf bd 87 7b a0 3d bf f5 cd 3c 75 4c 13 3d
       -0.1012847 0.07836061 0.025141595 0.035961587
000200 06 95 f3 bc 3d 64 60 3d 8f 9b 7c 3c f7 ca 24 bd
       -0.029734146 0.054783095 0.015417947 -0.040232625
000210 be 45 fa bd 89 23 a5 bc d0 9a 85 3d 5f d3 54 bd
       -0.122203335 -0.020158546 0.06523669 -0.05195939
000220 f9 86 67 be 14 f2 2f 3d 9d e2 d8 3d 64 90 7b 3d
       -0.22610082 0.042955473 0.10590098 0.061417
000230 f7 3e cb 3d 04 5b 89 3d 09 2b 26 3d 27 d2 0d 3d
       0.09924119 0.06706813 0.040568385 0.034624245
000240 93 15 7b 3d 17 53 8e 3c 13 16 23 3d 5d 05 9c bc
       0.06129987 0.017373605 0.039815973 -0.019045526
000250 e7 de 1a 3d 87 bb 5e 3d ac 12 b0 bc 38 a4 15 3d
       0.037810232 0.05437806 -0.021493278 0.036533564
000260 05 c7 c5 3c 75 87 39 3c de 34 62 bd 5f 0a 1b bb
       0.024142751 0.011323799 -0.0552262 -0.0023657305
000270 e5 0c 92 3d 97 06 32 bc 66 46 5a bd f4 31 d9 3a
       0.07131366 -0.010865829 -0.053289793 0.0016570673
000280 05 5a 6c 3d eb e9 80 3b df 72 6b bd c6 8d 0b bc
       0.057703037 0.003934135 -0.057482596 -0.008517688
000290 f4 93 6d 3c 46 db 1c 3d fd c8 a3 bc 12 1b 66 bd
       0.014500607 0.038295053 -0.0199933 -0.05617816
0002a0 77 11 e1 3d 94 d8 79 ba 34 d0 35 bd 7d 13 5a 3d
       0.10989659 -0.0009530869 -0.04438801 0.05324124
0002b0 ea 71 86 3d 74 fd 4d bc 4b 2d d2 3c f0 ad 96 bd
       0.06564696 -0.012572635 0.025656363 -0.07357395
0002c0 56 96 0d bd 7b db d3 3c 0b 76 5b bd 57 88 95 bc
       -0.0345672 0.025861492 -0.05357937 -0.018253488
0002d0 eb a4 c6 3d 71 33 f4 3d 2f 8a 6f 3c 3c 04 c1 bd
       0.09699424 0.11923874 0.014620348 -0.09424636
0002e0 e0 31 ae bd 39 00 cd bb 35 8f ae 3c 4a dd 66 3d
       -0.08505607 -0.00625613 0.02130852 0.05636338
0002f0 a5 e0 cb 3c bb 8e 13 bb ca f3 b6 bc 4a bc 1e 3c
       0.024887392 -0.0022515494 -0.022333045 0.009688446
000300 b0 0c 09 3d 19 26 66 3d 70 58 4c bd 7b c3 8f bc
       0.033459365 0.056188677 -0.049889028 -0.017549267
000310 48 fb 2c ba 39 62 3c 3d c9 19 7a bd 51 0b 8a 3d
       -0.0006598723 0.04599211 -0.061059747 0.0674044
000320 34 cd 83 bd 1d 35 50 3c 9f e3 30 3c d8 47 d0 3c
       -0.06435624 0.012707976 0.010796457 0.025424883
000330 35 0e 82 3d a3 ad ee 3d f0 df 13 bc 35 81 49 bd
       0.06350366 0.11654212 -0.009025559 -0.049195487
000340 f9 89 1f 3d 85 b7 0b 3d d6 65 dc bd ba 86 ac bc
       0.03894994 0.034110565 -0.10761611 -0.021060336
000350 73 ef c6 3d b5 8a 6e 3a a0 5f f5 bb ca ce 0f 3c
       0.0971364 0.00090996485 -0.007488206 0.00877733
000360 5f cd dc 3b 53 75 27 bd f8 d6 45 bd b7 43 83 bc
       0.0067383493 -0.040883373 -0.048300713 -0.0160235
000370 6a 51 bb ba a8 c2 66 bd 34 82 42 3d 38 d1 95 3c
       -0.0014291231 -0.056337982 0.047487453 0.01828824
000380 f5 fd 4d 3d 53 d3 2e 3a 11 9e 8e bd a2 82 e4 bc
       0.05029102 0.0006669063 -0.069637425 -0.027894322
000390 0b 2b b7 bc cc 58 5a 3d 4a e3 e0 3c 56 f2 58 3d
       -0.022359392 0.05330734 0.02745213 0.052965485
0003a0 3c 9b cf 3b 03 e1 47 bc 82 6b ad bd fe 88 34 bd
       0.006335644 -0.012199643 -0.08467771 -0.04407596
0003b0 99 2b 8f 3b f1 45 ab 3c 74 17 0a 3d 8b 7b 37 bd
       0.004369211 0.020907374 0.033713773 -0.044795554
0003c0 de 6d 0e be d7 1d 61 bc 7b ea 94 bc d1 68 0c 3c
       -0.13909099 -0.0137400245 -0.018178215 0.008569912
0003d0 76 c9 f1 ba d3 2c 98 3d a9 de de bc aa f1 a4 bd
       -0.0018446881 0.074304245 -0.027205782 -0.08053906
0003e0 ca 24 42 3c c1 98 b0 3c ef df 87 3d 77 32 f7 3c
       0.0118495915 0.021557214 0.06634509 0.03017543
0003f0 8b 9d 97 3d 74 de 3a bd 77 a2 2f 3d a6 2a b4 3b
       0.07403096 -0.045622304 0.042879548 0.005498248

critic.0.bias f4 [64]
000000 5e 59 75 3b c7 b6 8c 3b 67 c7 dd bc 28 7c 19 3c
       0.00374373 0.0042942497 -0.027072622 0.00936798
000010 be 9b ba 3b e9 49 7e bc da 7b 95 bc 5c 23 27 3c
       0.0056948354 -0.015520551 -0.018247534 0.010201301
000020 cb d5 d5 3b 25 57 8c bc 7e ec 97 3b 27 46 02 3c
       0.0065257302 -0.017131398 0.0046363464 0.007951296
000030 bd e6 1b ba af d5 52 bb 0e f6 d9 bc 1b da b5 bb
       -0.00059471634 -0.0032170822 -0.026606586 -0.005549682
000040 a3 d4 10 3c 0e dc 00 3c e2 03 97 3c 6f 9c 00 bd
       0.008839759 0.007864965 0.018434469 -0.031399187
000050 54 6c 69 bc e0 54 8f bc 28 d8 72 3c bb 3a c4 3c
       -0.014247019 -0.017496526 0.0148220435 0.023953786
000060 62 7d d6 bc ac 87 36 3c 0d 34 11 3c 5f 93 93 3c
       -0.026182834 0.011140745 0.0088625075 0.018014608
000070 ab 8f e2 3b 3e f7 e1 bb 27 9c 11 3d 39 0f 24 3d
       0.006914099 -0.0068959286 0.03554931 0.04005358
000080 8b 73 d2 bc 52 7e 96 bc fe d4 13 3c 75 91 71 bc
       -0.02568986 -0.018370781 0.009022949 -0.014744152
000090 02 13 72 bc 57 ba 9a bc 7f d3 44 ba 84 ee a2 bb
       -0.01477504 -0.018887682 -0.0007508322 -0.004972281
0000a0 c9 50 05 bc ab 30 92 bc 00 9d 5f bc 47 0e d9 bc
       -0.008136936 -0.017845472 -0.013648272 -0.026496066
0000b0 d1 88 97 3b 58 7d 9e 3a 7d ae c3 3c 70 78 25 3c
       0.004624464 0.0012091799 0.023886913 0.010099515
0000c0 41 8b 01 bd af d4 95 3b 09 61 6d ba 5e 88 59 3d
       -0.031626943 0.004572473 -0.0009055292 0.053108566
0000d0 fa 2a 17 bb 54 e5 4a 3c a4 69 c4 bc ee 44 0f bc
       -0.0023066388 0.012383778 -0.023976155 -0.008744461
0000e0 81 42 92 bc dd d4 89 3c 00 93 ae bc 14 96 6c bb
       -0.017853977 0.016825134 -0.02131033 -0.0036100196
0000f0 34 c2 15 3c cd 34 b2 bc 00 33 ab 3c 4e 1a f9 bc
       0.00914054 -0.021753693 0.020898342 -0.03040805

critic.2.weight f4 [128, 64]
000000 55 55 97 bc 69 62 ee 3d d8 84 5b 3d 65 e5 9f bd
       -0.018473307 0.11639864 0.053593487 -0.078074254
000010 e4 49 a0 bd ca d8 1d 3e 2d b6 c5 3e 62 3f 44 3d
       -0.078265935 0.1541473 0.38615552 0.04791201
000020 2e df 11 bd 99 a9 3a 3e fc d1 04 3e 26 8c 50 be
       -0.03561323 0.18228759 0.12970728 -0.20365962
000030 64 f8 f8 bc 17 4b 0c be 2e 05 a1 bd f7 44 8c 3d
       -0.03039188 -0.1370052 -0.07862316 0.068490915
000040 d0 f2 c2 3d 1a f6 6c bc 50 a9 da bd 3d d2 bf bd
       0.09518969 -0.014462972 -0.10676825 -0.09366272
000050 23 86 30 3c 25 1b 0b 3d ee 5d 69 be cb 15 04 3e
       0.010774168 0.033961434 -0.22789738 0.12898938
000060 07 f1 d3 3d 52 a4 6a 3b ee 25 f6 3d a5 6a 2c 3d
       0.10348707 0.003580351 0.12018953 0.04209389
000070 e3 7d 50 3d 45 2f f6 bd bd 2b 33 be 44 4c 7d 3e
       0.050901305 -0.12020735 -0.17497154 0.24736124
000080 3c 0c 02 3e 73 4f 91 be f4 33 65 3e 3c 75 59 bb
       0.1269998 -0.28380927 0.223831 -0.003318145
000090 b8 4f 81 3c 09 ce 26 be 7c 26 a4 be ce 5e 81 be
       0.015785083 -0.16289534 -0.3206061 -0.25267643
0000a0 bb 8b bc bc ee 95 f0 3c ab c2 92 bd e9 3f 1c bd
       -0.023015847 0.029368367 -0.07166036 -0.038146887
0000b0 67 ae a0 bd 94 b9 73 3e 0e 12 46 3c d7 1b 09 3e
       -0.078457646 0.23801261 0.0120892655 0.13389526
0000c0 64 37 72 3e 9a 64 a0 bc 4b 91 c9 bb fc 42 b5 3d
       0.23653942 -0.01957922 -0.0061513535 0.08850667
0000d0 6e ce 80 be da b3 98 3c bc ee e8 bd af d8 f8 3d
       -0.25157493 0.018640447 -0.1137366 0.12150704
0000e0 b8 99 f4 3c de a2 ad bc 63 7b 29 3e 3e e0 11 3e
       0.029858455 -0.021195825 0.16550975 0.14245698
0000f0 6a ad c7 3d 74 b0 96 3e a4 69 7c bd de 46 34 be
       0.09749873 0.29431498 -0.061624184 -0.17605159
000100 2d d0 cd 3d d3 9b a9 be e2 3e 38 3e 48 da 36 3d
       0.10049472 -0.33126697 0.17992738 0.044641763
000110 ba 6c 00 3e ac 6a 07 bd 1b ef ec 3d 78 84 14 3e
       0.12541476 -0.033060715 0.11569043 0.14503658
000120 6e ee ec bd e2 7a c8 3c a7 3b 98 bd 26 39 4c be
       -0.11568914 0.024472658 -0.07433253 -0.19943675
000130 33 81 86 bc fd 34 33 3b f3 c3 80 bd c8 4a 5c bd
       -0.016419029 0.0027344816 -0.06287374 -0.053782254
000140 5a e5 23 bd 86 b9 8c 3d 91 e5 32 be b4 8c dc bd
       -0.04001365 0.06871323 -0.17470385 -0.107690245
000150 07 0f 23 3d 55 51 a7 3d 41 49 de bd e2 20 0e 3a
       0.039809253 0.0816981 -0.10853816 0.000542177
000160 33 23 57 bc ed a7 25 bc 1b 04 d2 3c 00 d6 b4 3c
       -0.013130951 -0.010110837 0.025636723 0.0220747
000170 32 53 d0 3b b9 24 88 3e 02 5c 03 3e 39 fc 53 3e
       0.006357574 0.26590517 0.12828067 0.20701684
000180 53 91 8c be c8 65 67 3e 06 9e 88 3e 2c 86 9b 3d
       -0.27454624 0.2259742 0.26683062 0.07593951
000190 05 17 8e be 2d 20 98 3e c4 f2 a2 3d e2 fc c5 3c
       -0.27751938 0.29712048 0.0795646 0.024168435
0001a0 69 32 01 3e 05 14 c6 3d e1 88 ad 3d f5 b8 87 bd
       0.12616886 0.09671787 0.08473373 -0.06627075
0001b0 4f 05 19 3d 5c d0 49 be 89 d8 28 3e 31 44 ec 3d
       0.03735858 -0.19708389 0.16488852 0.11536444
0001c0 79 8a 31 bd f6 c6 2b 3e 2c a6 11 3e 92 b6 d6 ba
       -0.04334495 0.16775116 0.14223546 -0.0016381314
0001d0 de e5 09 be e7 35 e5 3d b0 98 fa 3b e2 78 52 be
       -0.13466594 0.11191922 0.0076475963 -0.20553926
0001e0 41 4f 4e be c9 b9 28 3c ac 95 f4 bc 11 61 04 3d
       -0.2014742 0.010298201 -0.029856525 0.032319132
0001f0 b1 5a 10 be 23 64 f9 bc d9 9a 37 bc 3c 47 42 bd
       -0.14097096 -0.030443257 -0.011206352 -0.047431216
000200 8c 8c a9 3d 81 9d 22 3d d6 2f 06 be 91 6f 95 bd
       0.0827876 0.03970099 -0.13104185 -0.0729667
000210 2c 9c af 3e cc 46 4a bd 9f 04 5b 3d f4 59 e1 3c
       0.34298837 -0.049383923 0.053471204 0.027508713
000220 9f 55 2b be d1 e5 1b 3d 59 d1 3b be 21 3b 2e 3e
       -0.1673188 0.038060967 -0.18341579 0.17014743
000230 e7 67 c3 3e 43 4d a5 bd 64 d6 3a 3d c7 96 de 3d
       0.3816521 -0.08071377 0.045614615 0.10868602
000240 e3 2a a0 bc 97 2b 18 be 2a 73 1a 3e 8d 53 b4 3d
       -0.0195517 -0.14860378 0.15082994 0.088049985
000250 fe 56 6e be 07 cd 82 be 16 24 86 bd 03 b6 a0 3d
       -0.23275372 -0.25547048 -0.065498516 0.07847216
000260 55 a3 94 3b 59 eb 09 3e 22 22 06 be a8 4e 1b 3e
       0.0045360723 0.13468684 -0.13098958 0.15166724
000270 1e 59 64 3e 8e c3 15 be cd c1 a8 bd 9b 27 4d 3e
       0.2229962 -0.1462538 -0.082400896 0.2003464
000280 2e d0 15 3e aa 39 65 bd dc 4a cd 3d 75 4c 6d bb
       0.14630195 -0.055963196 0.10024044 -0.0036208902
000290 a2 2b 7c be d4 e6 e9 3d 1e 96 c5 bd 12 9d 52 be
       -0.2462602 0.1142098 -0.09647773 -0.2056773
0002a0 6d 54 0c 3e 91 11 ef 3e df c1 ca bd 5e 25 08 3e
       0.13704081 0.4669309 -0.09900259 0.13295504
0002b0 d4 55 8c 3d b4 31 a3 3c 0f e4 01 be ad 81 b7 3d
       0.06852308 0.019921161 -0.12684654 0.089602806
0002c0 2c a7 6d bd 89 41 40 3e cb d4 bb 3e e4 fe 28 3a
       -0.058020756 0.18775 0.36685786 0.0006446673
0002d0 ac 25 d7 bd cd c9 0d bb b4 6e e6 3b db ba bf be
       -0.10505232 -0.0021635175 0.00703224 -0.37447247
0002e0 e0 72 0e bd 8b 49 e9 3c c3 ac 69 3c ed ed 9c 3d
       -0.034777522 0.02847745 0.014262381 0.07662568
0002f0 d6 22 26 3e 12 c8 45 3e 23 f0 31 bd 8b b9 33 bd
       0.16224226 0.19314602 -0.043441903 -0.04387812
000300 25 74 c4 be fd 94 29 be e7 40 45 3d 38 3d ab bc
       -0.3836986 -0.16560741 0.0481576 -0.020903215
000310 3b 05 10 bd 24 46 7e 3e a5 90 89 be cc d2 9f bd
       -0.03516124 0.24831444 -0.26868168 -0.07803878
000320 17 57 9f 3e e8 ab 1d bc 42 e2 00 be 34 ce f3 bd
       0.31121132 -0.009623505 -0.1258631 -0.119045645
000330 18 76 6a bd 6b db 81 3d 86 2d 15 3d fe 79 4a be
       -0.05724153 0.06340679 0.036420368 -0.19773099
000340 c8 26 65 3e c8 da f0 bd a9 01 62 3e 60 b0 81 3e
       0.22378075 -0.11760479 0.22070946 0.25329876
000350 b1 c0 2f bd b8 53 77 bd 32 52 2d bd 8f 88 97 bd
       -0.042908374 -0.060382575 -0.042314716 -0.07399093
000360 e2 e7 34 be d1 a9 8e 3e d2 c3 52 3e 2f 60 2c 3d
       -0.17666581 0.27863935 0.20582512 0.042083915
000370 92 d0 72 be 13 ba 26 bc 00 65 2d 3e f9 02 df bd
       -0.23712376 -0.0101761995 0.1693306 -0.10889239
000380 9f 29 85 3d 0d 31 64 3e 4e 42 9b 3d 54 e9 04 3d
       0.06502079 0.22284336 0.07581006 0.03244908
000390 fc dc a2 be cb 62 cd bc e8 a3 0e be 3a d1 ce 3d
       -0.31809223 -0.025071522 -0.13929713 0.100985005
0003a0 6c af b7 bc dc 8f cb 3d ab 11 e9 3d 27 29 42 3d
       -0.022422515 0.099395484 0.11380323 0.047402527
0003b0 70 bc c7 3c 0d 41 8a be 1e a0 41 3e 34 ef a5 3c
       0.024381846 -0.27002755 0.18908736 0.020255663
0003c0 5b e6 2d 3d ef 4a eb bd 66 bb 60 3e 90 c8 0c 3c
       0.042456012 -0.11488902 0.21946487 0.00859274
0003d0 ef 84 39 3e 72 7c 71 3e fd 4e 13 be da 53 3c 3e
       0.18117116 0.23582628 -0.143856 0.18391362
0003e0 d5 a3 98 bd 21 b7 33 3d 20 eb 81 bd f7 03 2a be
       -0.074531235 0.043875817 -0.06343675 -0.16603075
0003f0 af 00 2b be 7c 44 d2 3d fc 84 80 3e 88 e0 83 3d
       -0.1669948 0.102669686 0.2510146 0.0643931
