gym-multigrid-master/results/mappo/simple/steps_10000_ngames_78/mappo_agent_model.pth (torch, 523034 bytes, 22 tensors)

actor.0.weight f4 [64, 294]
00000000: 44f4 87bd 2231 81bc 404b ad3c 24aa 103d
00000010: 68aa b83c 78e2 77bd 2b13 b23d 2322 5b3e
00000020: 671e 053d 487d 68bd a124 9bbc a15f 8e3d
00000030: aef5 843d 28af 34bd 16b9 9d3c 1548 aebd
00000040: 0382 c2bd ddd6 11bd 759c b5bb 5fe3 b4bd
00000050: e990 6cbc 92b1 45be 2f79 543b bc97 90bd
00000060: 0623 dcbc 5676 ee3d c00c f23d 7b64 853d
00000070: a956 80bd aeaa 99bc 33f6 99bd 052a 593d
00000080: d51a 4f3c ac9f 71bd e027 17bd 5646 b0bb
00000090: 55f2 a33d 0602 c93c caf2 143c 992e 52bd
000000a0: dcaa 423d 9e43 04bd dbc1 88bc c3de 9dbc
000000b0: 38a6 7ebd 031b fe3d de4e fc3c 8575 74bd
000000c0: 7e42 9e3c 3898 a0bd ad6a d53d f5f4 3a3e
000000d0: f4b0 3e3d 41ea 5bbd d889 95bc 49d6 eabd
000000e0: af24 a63a ab0d 043e fbe0 bb3c c93b 973d
000000f0: 205e 003d 017a ea3d 36a0 763c bbc3 bc3c
00000100: 2133 ad3c 5d13 d33d b2d3 d0bc 7d60 0ebd
00000110: 447a c0bd f02d c53d e6ac a43c ebbc 733d
00000120: 5ed2 523d 448d d0bd 7878 e13c c4e1 073e
00000130: 438c a6bd 110e b73c 0a09 b63c 6a45 843d
00000140: 10e4 58bd 8f06 2cbe f3e1 3fbe 3d24 02be
00000150: 4782 e53d d065 a13d 85ac cebd 5f40 eebc
00000160: d35a 11bd 396a 3b3e 0c55 82bd adee 01bd
00000170: 208b 7cbd 9d25 5bbb d36a 943d ddb4 c33a
00000180: a1f6 92bc 36eb 093d a18a c33d beef 29bd
00000190: 8763 a7bc 52c6 c8bd 217c 303e c6f2 7c3c
000001a0: d0fd 9f3d 63bc 9f3c cb1d 933d e5c1 4a3d
000001b0: 297f f1bd 9490 bf3b de78 443a fd4b e0bb
000001c0: 2e0a c83d 125e 153d f926 07be 5b47 723d
000001d0: 0f93 4fbd 43f1 2b3d 42b8 ef3d 0810 003d
000001e0: 65ca c5bd 2c73 4f3d 6c37 0a3e 1f88 8d3d
000001f0: 9240 da3d e9de 3c3d 9b45 f0bc deb6 7ebc
00000200: 778d d83c 405c 4d3d afb3 333d 46fc c3bc
00000210: 05df 31be 6946 0e3d a6ad 2bbd 99c1 1ebc
00000220: e997 a6bd 4c42 303d 8450 f5bd 0380 de3b
00000230: 9e41 e13d a8db a0bd 7621 89bd eb30 bf3d
00000240: 71cc 003d c77e 183c ba6e 8c3d 0880 f7bd
00000250: a515 ef3d 672d f1bd 6bb8 6c3d 2195 bcbb
00000260: 5196 c0bb 93a0 0dbc 97b4 21bd 3f30 333d
00000270: a564 b3bb 859e 9b3d d1fc 80bb e649 903d
00000280: d19b 2ebd 1daf 823e 4a56 d83c 20b1 253e
00000290: b75d 173d 383a a43d 7005 6abd 14be 273d
000002a0: 81c6 53bd 9d92 39bd 934c a03d 0875 ecbd
000002b0: 633b ae3d 99fb 9fbc 714f 29bd 9a07 9bbc
000002c0: 6e0f 203b 80e8 a13c 8818 d53c 04f2 8e3d
000002d0: db88 babd a27f db3d 7cd4 0fbd 9cec 883d
000002e0: 7aaf 9e3d 0d27 903d 0840 53bd 2513 ce3d
000002f0: f100 2ebd 3c51 21bb 1a61 6b3d 971f 0f3d
00000300: 3949 003e 1c0b 0a3d a21f 933c 93ba 45bc
00000310: 6921 d5bd 94ad 283e 8712 9b3c 9883 073e
00000320: a803 4c3c 0ec5 163e f235 c8bd 73e2 333e
00000330: 0a77 e8bd 7f87 06be 50d1 42bd 81bc f6bc
00000340: 7875 b1bb 37f5 5ebe 7200 753d f148 bfbd
00000350: db12 a43c 49e6 533c bec8 18bd aa38 67bd
00000360: 5bea 063d 1a79 9ab9 4d0c fb3d 8eb8 f13d
00000370: e79d 92bd 7b04 bfbc 1785 29be 942b 88bd
00000380: 6602 0d3e 2df5 d13d a5b7 0b3d 41d5 b3bd
00000390: 14d1 2c3c 4d8a 1bbb b5a1 dfbd f1b7 593d
000003a0: dbc6 4fbd a72f 983d 740b 05bc b8ba b8bc
000003b0: 1d37 d4bd 685d 2abe 7bc8 043e dc87 133e
000003c0: 1ef5 62bd d453 aebb 9d94 1bbe 8c24 ad3d
000003d0: 2aad e7bd 07fc 95bd 0d52 fa3d b003 4f3d
000003e0: d966 3b3d ad46 bf3b 0d15 bd3d 3d83 b5bc
000003f0: d89e e33d cd5a 863d 0a43 163d 539b 35bd
-0.06638387 -0.015770499 0.021154046 0.03531851 0.022542194 -0.06051871 0.08695062 0.21399741
0.032499697 -0.056760103 -0.018938364 0.069518335 0.06492172 -0.044112355 0.019253295 -0.08509842
-0.09497454 -0.0356053 -0.005542333 -0.0883243 -0.014438846 -0.19306019 0.0032420864 -0.07060191
-0.02687217 0.116436645 0.11818838 0.06513306 -0.06266529 -0.018758144 -0.07517662 0.05301859
0.012640675 -0.058990166 -0.036903262 -0.0053794784 0.080052055 0.024537098 0.009091089 -0.05131397
0.047526225 -0.032291047 -0.016694 -0.01927126 -0.062170237 0.12407496 0.030799326 -0.059682388
0.019318815 -0.078415334 0.104207374 0.18257506 0.046555474 -0.0536902 -0.018254206 -0.11466653
0.0012675727 0.12895839 0.022934427 0.0738445 0.031339765 0.11449052 0.015052846 0.02304255
0.021142544 0.10306428 -0.02549157 -0.034759987 -0.0939832 0.096279025 0.020101976 0.059506338
0.051470153 -0.10183194 0.027523264 0.13269717 -0.081322215 0.022345575 0.022221107 0.06458552
-0.052951872 -0.16799377 -0.18738537 -0.12709136 0.11206489 0.07880747 -0.10091499 -0.029083429
-0.035487007 0.1830224 -0.06363878 -0.03172176 -0.061656117 -0.0033439167 0.072469376 0.0014931221
-0.017939867 0.03367158 0.09547926 -0.0414884 -0.0204332 -0.098034516 0.17234851 0.015438741
0.07812083 0.01949901 0.07183417 0.04950132 -0.11791832 0.0058460925 0.0007494817 -0.006844996
0.097675666 0.036466666 -0.1319846 0.05915008 -0.050677355 0.041978132 0.11705066 0.03126529
-0.09657744 0.050646946 0.13497704 0.06910729 0.10656847 0.04611102 -0.029330065 -0.015546529
0.026434643 0.050136805 0.04387253 -0.023924004 -0.17370231 0.034735117 -0.04191365 -0.009689712
-0.08134443 0.043031976 -0.11978248 0.0067901625 0.109988436 -0.07854396 -0.06695835 0.09335502
0.03144497 0.00930757 0.06857057 -0.12084967 0.1167405 -0.11776238 0.057793062 -0.0057550822
-0.005877294 -0.008644241 -0.039478865 0.043747183 -0.0054746442 0.075985946 -0.003936388 0.07045345
-0.042629067 0.25524226 0.026408333 0.16180849 0.036954608 0.08018917 -0.05713409 0.040952757
-0.05170298 -0.045305837 0.078271054 -0.115457594 0.08507421 -0.01952915 -0.041335527 -0.018924523
0.002442326 0.019764185 0.026012674 0.069797546 -0.09108134 0.107177034 -0.03511475 0.06685755
0.07748313 0.07038698 -0.051574737 0.10062245 -0.042481367 -0.002461507 0.05746565 0.034942236
0.12527932 0.033702 0.01795942 -0.012068409 -0.10406763 0.16472465 0.018929733 0.13233793
0.012452044 0.14723608 -0.09775914 0.17566852 -0.1135083 -0.13137625 -0.047562897 -0.030119183
-0.0054156147 -0.2177323 0.059814878 -0.09340084 0.020028522 0.012933322 -0.037300818 -0.056450523
0.032938343 -0.00029463397 0.122582056 0.11802779 -0.07159024 -0.023317566 -0.16554676 -0.06648937
0.13770446 0.10251842 0.034110684 -0.08780909 0.010547895 -0.0023733557 -0.10919515 0.053153936
-0.050726753 0.07430964 -0.008120406 -0.022549972 -0.103620745 -0.16637194 0.12967102 0.14407295
-0.055409543 -0.0053200517 -0.1519341 0.084542364 -0.11312325 -0.07323461 0.12222681 0.050540626
0.04575238 0.0058372826 0.09232531 -0.022157306 0.111142814 0.065602876 0.036685027 -0.04433758

actor.0.bias f4 [64]
00000000: 530b 9339 4957 7fbc f37b 783c 62bb 093d
00000010: 01c9 b43c 998a 9dbc 5507 783c 58de fbbc
00000020: 3639 ce3c 8d97 6fbc 0b5c f3bc dac5 0cbd
00000030: 98f8 01bc 121b 91bc 0c54 9bbc 6338 0cbd
00000040: 5b10 fb3c 6e6d d33c 38ae 9e3c fdb8 8d3b
00000050: dbb4 0a3c f1d5 403b c20f 1a3b fbd3 39bc
00000060: 89ab ffbc 4546 9bbc 72b0 833c 6b64 d1bc
00000070: d9b1 7bbb 2045 17bc cb81 7a3c 372a febc
00000080: c397 f93b eb45 dc3c 062c fcbc 4128 99b9
00000090: b438 7abc 185a 61bc 74c0 00bd 9298 863c
000000a0: fdbb b73c 937b ca3c 87c3 013d d3d1 65bc
000000b0: 61e8 cc3b 4fdf 0f3d cd14 70bb 509f bb3c
000000c0: 442c f63c 8fcd c03c 210c e8bc 0e45 d13c
000000d0: 43f4 113d e07e dd3c cc74 953c b0db 53bc
000000e0: b583 e1bc b50c e3bc 5277 be3b 76b9 a8bc
000000f0: 0f29 cfbb 3462 8a3c 8911 d33c 893a 9abb
0.00028046462 -0.015584775 0.015166271 0.033625968 0.022068502 -0.019231128 0.015138467 -0.03074567
0.025173765 -0.014623535 -0.029706975 -0.034368373 -0.0079328045 -0.017713103 -0.018960975 -0.034233462
0.030647447 0.025809016 0.019370183 0.004325031 0.008465971 0.0029424394 0.0023507928 -0.011342044
-0.031209724 -0.018954406 0.016075347 -0.025560578 -0.0038405566 -0.009232789 0.015289734 -0.031025989
0.0076169684 0.026888808 -0.03078271 -0.00029212426 -0.015272308 -0.01375439 -0.031433538 0.016430173
0.022428507 0.024717128 0.03168061 -0.014027077 0.0062532877 0.035125073 -0.0036633492 0.022903115
0.030050404 0.023535518 -0.028326096 0.025545623 0.035633337 0.027038038 0.01824417 -0.012930796
-0.027528623 -0.02771602 0.005812564 -0.020596247 -0.0063220332 0.01689253 0.025765197 -0.004706685

actor.2.weight f4 [128, 64]
00000000: b4fe 333d 9cf8 6c3c b60e da3c 6378 893d
00000010: bab1 54bd d9ca 813d b796 df3d c147 7bbe
00000020: 4736 533d a2d7 693e a63a b33e 9115 82bc
00000030: 79da 85bd c140 c8bd 86c7 aabd 0e93 4abd
00000040: 3367 a8bc 92b7 f9bc 9e9d 853d ffc7 cd3d
00000050: db09 5f3e f064 2abe 957f 7d3d 92ae 5c3c
00000060: 2721 d2bd 36f0 473e 46dd e83d 8cf7 b23d
00000070: a8d6 8a3c 3645 e3bd e22d c9ba 2ef6 8d3b
00000080: 33cc 5f3e 63ae 23be 595b 3ebe fa67 6e3d
00000090: 8bef fa3d 9050 93bd 2351 e63d 8a1c 2abc
000000a0: d391 72bd e1af c2bd 9815 88bc 6b6b 6e3d
000000b0: 4e1c 193e fe2a a9bd 6269 c23d 7da3 21be
000000c0: 5b7c 823d 034e 813c 0b8e 6e3d 1d0b 12be
000000d0: 3806 243e 6612 d3bd c334 bbbe 97ee cb3d
000000e0: d42b 9b3d 9950 a33d e2e0 a43d 5cbd ae3d
000000f0: 354e 053c b096 28bd b741 d93d 107e 3c3d
00000100: 6eb6 573e 7180 0d3e b75f d63d 480e 1abc
00000110: bc89 85bd 5dd6 80bd 6c2a 9b3d f449 13be
00000120: 0593 7a3c a6be 28be 1e58 0abe e7da 4c3d
00000130: 17bd 89bd 09ac 1f3e 8f8f 5dbc bba5 243e
00000140: 6b77 74bd 73ea 203e d499 193e a11f d2bc
00000150: a59c a83c 7715 06bc 00a4 00bd 7f95 333e
00000160: cbd5 a03d 81be 1a3e dd6b 563e a576 02be
00000170: ac6e 39be 2dee 053e 1288 1f3e c745 253d
00000180: 6992 05be 6e00 9c3e f5de 593e 80e8 c1bd
00000190: e92d f9bc 8429 93bd 459a 113e 037b c33d
000001a0: 0b06 053e 6423 d63d 1771 83bd c202 7ebd
000001b0: 4ed6 bdbd fb49 64be 1013 4f3e 5f57 f33c
000001c0: 5981 5fbd 5dd0 f73d 23dc 703d e678 41be
000001d0: 8535 2b3d 7a37 dcbd 0344 95bc 1f48 de3c
000001e0: f69f ab3d cd9d 29be 05f9 9e3d 42ec d8bc
000001f0: ed8f 493e 4524 35bb 3463 ec3d 894f 8d3e
00000200: b4dc 2dbe 135b e53d 04db 96be 0c6a 9a3d
00000210: a40d acbd c48c c33d 93d1 063e 65ef 9f3c
00000220: 919b fcbc 409d 11bc 1d94 c83b c693 203e
00000230: 1b7f 78bd 2c55 1ebe a98a 2abe e04a fbbd
00000240: fc47 14ba 2d6e 203e 8e53 83bd b0b2 013e
00000250: 2602 9bbd d75a 123b db5f a23e 8bdc 183d
00000260: c6ec d0bd 3973 3dbe 8118 1bbe e115 c13d
00000270: 469a 9c3d c48a 193e e6f7 643e ff38 efbd
00000280: 9cb9 8bbb ae96 333e 35a3 07be d9b6 9cbe
00000290: 90f5 bb3c df7f f73d 069b dabb 82c1 dcb9
000002a0: ab35 60be d14d a23d 1524 d73d 4913 c9bd
000002b0: e515 dabc aeec 0f3d f03f 673e 615c abbc
000002c0: 62ca 0c3e d564 10bd 7cea 80be a8da 283c
000002d0: 95d6 0dbe 4c00 683e 8403 643d af90 3a3e
000002e0: c916 b2bd 1eb6 f6bd 7348 043e b064 2e3d
000002f0: 3ef9 273e 8e29 463e e866 cdbc edd0 a7bc
00000300: 7416 253d 36e3 783d 602d 283c aea4 5cbe
00000310: b4aa be3c 3b1a a6bd e93e 51be a6a1 a6bd
00000320: 1c0b 4a3c 0fef 8cbd 57e0 143d 2afe aa3a
00000330: 1b6f 44bd bf79 093e 7154 dc3d 7593 58bd
00000340: 37d3 94be 8038 f93c e540 2e3e f96d 98bd
00000350: 293a b23d 4f68 213e 0936 063d ae86 c1bd
00000360: c191 29bd 9ef1 723c f9e5 b73c 7917 423d
00000370: edbf 1e3e f9af 4e3e 5b26 15bd fedb 42bd
00000380: f6ad 85bd 8237 e4bd a744 253d 9411 073e
00000390: 259a 4f3e 812d bf3b 04ea 043e bd58 2bbe
000003a0: 5b71 853e 69ae 763d 1ed5 a43d 581d c63b
000003b0: 508d 37be e7e9 fc3d 1ee4 893d 87d4 8cbe
000003c0: 4dce a6bd ae7d dd3c c81a 0dbe da3b 28be
000003d0: 2c4e c0bd cac7 5a3e d4a2 15be 3008 c63d
000003e0: e9f5 d1bd 466d 71bd dd43 0abe f176 413e
000003f0: e4fc 80bd ae7e 943d 24aa a7bd 4f5a 31bd
0.043944076 0.01446357 0.026618343 0.06712415 -0.051927306 0.06337518 0.109174185 -0.2453909
0.051565435 0.22836164 0.35005683 -0.015879424 -0.06535811 -0.09777976 -0.08338837 -0.04945665
-0.020557022 -0.030483041 0.06524204 0.10047912 0.21781103 -0.16640067 0.06188925 0.013469355
-0.102602296 0.19525227 0.113703296 0.08738622 0.01694806 -0.11097185 -0.0015348757 0.0043323254
0.2185524 -0.15984492 -0.18589534 0.05820463 0.122527204 -0.071931005 0.11245944 -0.010382781
-0.0592211 -0.095062025 -0.01661186 0.05820791 0.14952204 -0.08260153 0.094927564 -0.15785022
0.06371375 0.01578427 0.05824093 -0.14262052 0.16017997 -0.103062436 -0.36563691 0.09957617
0.07576719 0.07974357 0.080507055 0.08532211 0.008136322 -0.04115933 0.10608237 0.04601866
0.21065685 0.13818528 0.10467475 -0.009402819 -0.06520411 -0.062908866 0.07576451 -0.1438368
0.015293841 -0.16478977 -0.13510177 0.05001345 -0.06725519 0.1559297 -0.013522997 0.16078846
-0.0596842 0.15714435 0.15000087 -0.025649847 0.020582506 -0.008183829 -0.031406403 0.17537497
0.07853278 0.15111734 0.20939584 -0.12740572 -0.18108624 0.13079138 0.1557925 0.040349748
-0.13044132 0.30469078 0.21276458 -0.09468174 -0.0304174 -0.07185653 0.14219005 0.09544947
0.12990586 0.10455969 -0.064180546 -0.06201435 -0.09269391 -0.22293846 0.20222116 0.029704748
-0.054566715 0.12100289 0.05880369 -0.18893775 0.041799087 -0.10752769 -0.018220907 0.027134
0.083801195 -0.16564102 0.077623405 -0.026479844 0.1968381 -0.0027640027 0.11542359 0.27599743
-0.16978723 0.11199012 -0.2946397 0.07539758 -0.08401039 0.09548333 0.13165884 0.019523332
-0.030835899 -0.008887589 0.006121172 0.15681371 -0.060668092 -0.15462178 -0.16654457 -0.12270141
-0.00056564785 0.15667029 -0.06412421 0.1266582 -0.07568769 0.0022331977 0.31713757 0.0373197
-0.10201411 -0.18500985 -0.15146066 0.09428001 0.07646613 0.14994341 0.22360191 -0.11680793
-0.0042640697 0.17537948 -0.13245852 -0.30608252 0.022944242 0.12084936 -0.0066713123 -0.00042105844
-0.21895473 0.079249986 0.10504929 -0.098181315 -0.026621768 0.035137825 0.22582984 -0.020918073
0.13749078 -0.03525241 -0.25178897 0.010306038 -0.13851388 0.22656363 0.055667415 0.18219255
-0.08695752 -0.12046455 0.12918262 0.04257649 0.16403672 0.1935179 -0.025073484 -0.020485366
0.040304616 0.06076356 0.0102647245 -0.21547195 0.023274757 -0.08110472 -0.20434155 -0.08136301
0.01233175 -0.06881534 0.03634676 0.0013045717 -0.04795752 0.13425349 0.107582934 -0.052875
-0.29067394 0.03042245 0.17016943 -0.074428506 0.087024994 0.15762447 0.032766376 -0.09449516
-0.041398767 0.014828114 0.022448527 0.047385667 0.15502901 0.20184316 -0.03641353 -0.047573082
-0.06527321 -0.111434 0.040348675 0.131903 0.20273645 0.005834282 0.12979895 -0.1673307
0.26063046 0.060224924 0.080484614 0.0060459785 -0.17925 0.12349301 0.06732963 -0.27505895
-0.081448175 0.027037468 -0.13779747 -0.16429082 -0.0938991 0.21365276 -0.14612895 0.096695304
-0.10251982 -0.058942102 -0.1350245 0.18893029 -0.06298235 0.07250725 -0.081867486 -0.043299016

actor.2.bias f4 [128]
00000000: 609c 3dbc 6cf3 f5bb 8de8 c03c 7c19 99bc
00000010: 2931 e83c d05d bfbb e8b3 44bc 66be 893c
00000020: 866d 2dbc 4e65 1539 849d 203c 5f30 b4bb
00000030: 96cd c0bc 0d88 41bb c984 983b ef18 2bbc
00000040: 66ff 323b b466 983c 9b11 4f3c 9c96 0f3c
00000050: 65c7 d3bc 0717 01bd 0064 193c 1de4 88bc
00000060: ea62 743c be7f 82bb 7933 8cbb 6a71 21bc
00000070: 62f4 243b 69ec b6bc 6b14 51bc 0752 bbbc
00000080: b335 75bc d46c 38bc 90f1 383c 572e 49bc
00000090: 4942 513c 0472 b53c b598 d8bb d575 373c
000000a0: ab94 223c 69f1 2abb 8253 033c c1a8 093c
000000b0: e51b 68bc 230e bf3c a7b4 763a e75f 4fbc
000000c0: 6922 043b 46b2 9b3a b633 053c ed2f 0f3c
000000d0: cfa9 5b3c 62b0 853b 9f96 4cbc 0626 293b
000000e0: 54c5 6cbc d718 843c b3b2 80bc a716 023d
000000f0: b134 5c3c 02d1 d9bc b76f f63b 68ed 6ebb
00000100: f236 27bc c697 083c 6b8b 4f3c d416 c33c
00000110: 57d3 19bc b6e1 babb b9b4 86bc afff 213c
00000120: 9385 413b d998 37bc 222d 813c c213 adbb
00000130: 4aa5 053c 7d33 3cbb 678e f73b e040 08bc
00000140: 6625 0f3c c7e2 17bb 138c 8c3b 0a26 c0bc
00000150: f9db 333c 14cb c7ba 0ad9 5e3a 15c6 a43c
00000160: 3a2a 8f3c 936c 593c 2a0c c2bb 7b1d a13b
00000170: 779c 943c c830 813b 437e 2e3b a492 96bc
00000180: 2b78 0abc b247 1abc f940 1ebb 7902 4d3c
00000190: c841 85bc 15a0 a43c 3f7f ba3c 28e4 87bc
000001a0: 1d76 5cbc eb4d 843b 8704 74bc 87cf 72bc
000001b0: 0a45 7cbc e97c 713c 865e a2bc 5e13 92bc
000001c0: 77eb 5fbc 4e51 033c bb57 2bbc a5e6 09bb
000001d0: be5d 803c 8441 f53a e5a1 e6bb c26e a5bc
000001e0: d45b 4ebc 07e0 ecbb b717 06bc adaa 02bc
000001f0: d877 9c3c 609e bcbc d094 d23b 694d 393c
-0.011572927 -0.007505825 0.023548389 -0.01868891 0.028343754 -0.0058400407 -0.012005784 0.016814422
-0.010585194 0.00014247486 0.00980318 -0.0054989303 -0.023535531 -0.0029530555 0.004654501 -0.010442956
0.0027312874 0.01860366 0.012638475 0.008763935 -0.025851915 -0.0315161 0.009362221 -0.016710335
0.014916161 -0.003982513 -0.004278597 -0.0098537 0.0025170078 -0.022329526 -0.012761216 -0.022866262
-0.014966416 -0.011256415 0.011288062 -0.012279115 0.012772151 0.022149093 -0.006610001 0.011197527
0.0099231405 -0.0026083833 0.008015515 0.0084020505 -0.014166807 0.02332217 0.00094110746 -0.012657142
0.0020162112 0.0011878691 0.008130005 0.008739454 0.013407185 0.0040798644 -0.012487083 0.0025810017
-0.014451344 0.016125126 -0.01571021 0.031759884 0.013440297 -0.02658892 0.0075206417 -0.0036457423
-0.010205971 0.008336967 0.012667517 0.023814596 -0.009388766 -0.0057031764 -0.016443597 0.00988762
0.002952908 -0.011205875 0.015768591 -0.0052818963 0.008157084 -0.0028717213 0.0075548175 -0.008316249
0.008736944 -0.0023175941 0.004289159 -0.023455638 0.010977739 -0.0015243017 0.0008500969 0.020113984
0.01747619 0.013270515 -0.00592186 0.0049168444 0.018141015 0.0039425828 0.002662555 -0.01838047
-0.008451502 -0.009416508 -0.0024147613 0.012512797 -0.016266719 0.020095864 0.022765754 -0.016588286
-0.013455895 0.004037609 -0.0148936575 -0.014819986 -0.01539732 0.014739254 -0.019820463 -0.0178315
-0.013666979 0.00801499 -0.010457928 -0.0021042016 0.0156697 0.0018711542 -0.0070383423 -0.020194415
-0.012595136 -0.0072288546 -0.008184365 -0.007975263 0.019100115 -0.023024738 0.0064264312 0.01130996

actor.4.weight f4 [64, 128]
00000000: d038 8739 a118 fc3c aea1 6c3c de07 cb3d
00000010: 60c8 453c 35cd 933c 7dc3 de3d fad0 cf3d
00000020: 3f0f 9a3d 7ba1 553d f5e3 1abe ad81 d8bd
00000030: 2d50 9dbd bf55 a73d 2423 cabd 0262 3cbe
00000040: c7f8 0abe a411 143e 3f1f d93d 0808 7a3e
00000050: 4130 5d3c 4208 c83d 0ce9 053d 5207 ad3d
00000060: 7fc8 4d3e 4d84 49be 2408 5cbe d675 d53d
00000070: 572a 97bd 40c9 a5bd 10a2 e33d 391c 5fbe
00000080: 583c 43be b316 72be f1ca d0bd 972d 2d3c
00000090: 9977 febd 0c93 7bbd 6b0a 5f3e ff04 27be
000000a0: 9d45 833e 9ab0 0d3e 523d 92bd f0b1 473c
000000b0: ee71 e2bd bcf2 5c3e 7099 1fbe df9d 7e3d
000000c0: 6404 033e 8b67 9e3d 28f8 f53c a8e1 613c
000000d0: 19fc 643e 720e 153d 7f41 1dbd 6912 fcbd
000000e0: 15d4 933d be55 b4bd ac36 fabd 23af 84bd
000000f0: 234c 6dbe 2ac4 ccbd c68a 24be e6f1 1bbe
00000100: 9aa5 d93d 5cb2 a6bc 78b6 15be 7892 23bd
00000110: 7f38 d03d 0cdc c23d 4af1 18be c0cb 373e
00000120: 6209 80bd 010c ccbd c073 d3bd f7cd 87bb
00000130: 9480 853d df9b a53d 4f8c 4ebd 66ba 0a3e
00000140: 04f5 fdbd 154e 603d 77bb 4dbe efad d63d
00000150: 7daa f33d 9c9c 353e 3838 debd bf88 ac3b
00000160: 4d4e 843d e4c3 0c3d 5948 253e f3d6 023e
00000170: 6f8d d2bd b788 3dbb 7ca4 f5bd f0ad b0bd
00000180: a578 9dbd 518e d5bd 8a69 a03d c5e0 4dbd
00000190: 87aa 383e 7bb4 fabd b6fc 5d3b 4fba 2bbd
000001a0: c6e7 503e 2e08 c9bd edee c2bc c412 c93d
000001b0: 1a61 d33d 71b9 d03c e0a4 c93d c4e1 a9bd
000001c0: ce7f 2c3d 9174 81be c899 1cbe 0a7e cdbe
000001d0: 8f55 3ebc 02f1 ba3d 1774 2a3e beaa 29be
000001e0: 569a 483d d97a c1bd f235 0c3d 7455 c43d
000001f0: 5b6e 153e 6b85 cabd 97ef 3bbe 5162 5bbd
00000200: bad7 a13d 8f2e b73d d5ae e0bd ea2f 563d
00000210: e6b1 9bbd 3bdb 76bb b781 36bd 09c3 a13d
00000220: aeb2 f93c b454 d43c fdee 673c 070b b03c
00000230: b5da 833c a38a 56bd 99db 133e e66a 083d
00000240: 79a4 1ebd 03b4 3dbd 2a2a 153e 5f55 1d3e
00000250: d46c 0cbc 63cb 6d3c 38b2 f5bd d64d 9a3d
00000260: 094e da3d 36e7 9d3d 8676 adbd f590 2dbd
00000270: dbd5 c93d d979 8dbc 7dcf 54be 87db a3bc
00000280: 2ad1 003e 088a da3d a15b 7c3c 820c 493e
00000290: 5e45 73be a63a 99be 5a3a debd 38e6 e63c
000002a0: 5caa 1fbe 1c7b e03d 2f85 093e 6c00 8d3d
000002b0: ba8b a2bc 934e f7bd c714 053d a036 303d
000002c0: 7797 063e dece 87bd 5906 e73a b23a 3bbe
000002d0: 7b39 3f3e fd79 273d dc17 5dbe 14a1 863d
000002e0: 45c8 583e 92a7 253e 532b 833d 433d 1ebc
000002f0: 53ec ce3c 4bfe 14be ee07 7c3d 6e29 143e
00000300: 3609 65bd eb5b 92be 2d4b 493d 12f5 423e
00000310: 9f86 08be 3df2 02bd 8649 a53d e838 4b3d
00000320: 4571 bb3d 6eee b33b 2f35 efbc 513c 17bd
00000330: 5dbf 1bbe 1fe0 78bc ab60 d6bd 0693 30bc
00000340: 790e 513e 2826 8fbd 2e43 26be 21bc b93d
00000350: 420b f8bc 11ad 243e f553 fe3d b668 9f3d
00000360: 7eb3 913e b9b3 3ebd e5bd 873e df31 463d
00000370: ab28 d53d 2271 abbd 89ad c03d fd4a 033e
00000380: 603c 133e 6c93 6d3c 1488 cf3d ed64 583e
00000390: b0ad 533e cd0b 00bb 8ed7 49be fb23 79bd
000003a0: 0160 d4bd c2cc 4dbd f02c 803e 3e4d 9a3d
000003b0: 3934 08be 26d0 a2be 371d c7bd a378 903d
000003c0: 7bdb 713e c7b9 ce3d c28c 853c 0acd 19be
000003d0: 3180 21be 0e2d 43bd ce50 4f3d 03d0 68bd
000003e0: cd67 45be 44bc 5f3e 7a16 c13d bf89 913e
000003f0: 28d6 c7bd e98d 32bc 29e6 e6bd ead4 fd3c
0.00025791535 0.030773463 0.014442844 0.0991361 0.012071699 0.018042186 0.1087713 0.10147281
0.07522439 0.052155953 -0.15126021 -0.10571609 -0.07681308 0.08170652 -0.09869984 -0.18396762
-0.13571464 0.14459854 0.10601663 0.24417126 0.013500274 0.097672 0.032692954 0.08448662
0.20096014 -0.19679375 -0.2148748 0.10422866 -0.073811226 -0.08095026 0.11114895 -0.2178811
-0.19065988 -0.23641472 -0.10194958 0.0105699515 -0.12425155 -0.06141953 0.21781318 -0.163105
0.25639048 0.138369 -0.07140602 0.01218842 -0.110568866 0.21576971 -0.15585876 0.062162276
0.12794644 0.07734593 0.030025557 0.013786711 0.22361793 0.03639073 -0.03839254 -0.12308199
0.07218186 -0.088054165 -0.12217459 -0.06478717 -0.23173575 -0.09998353 -0.16068563 -0.15228996
0.10627289 -0.02034872 -0.14620388 -0.039934605 0.10167026 0.09514627 -0.14935794 0.17948818
-0.0625179 -0.09963227 -0.10324812 -0.004144426 0.06518665 0.08086371 -0.050426777 0.13547668
-0.12400249 0.054761965 -0.20091043 0.10482394 0.118977524 0.17735523 -0.108505666 0.005265325
0.06460247 0.034366503 0.1614088 0.12777309 -0.102808826 -0.00289206 -0.119942635 -0.08626926
-0.07689027 -0.10427535 0.0783263 -0.050263185 0.18033801 -0.12241455 0.0033872551 -0.041925725
0.20400915 -0.09816013 -0.02379557 0.098180324 0.10321255 0.02547905 0.098459005 -0.082950145
0.04211407 -0.25284246 -0.15293038 -0.40135223 -0.011617078 0.09128 0.16645847 -0.16569039
0.04897531 -0.094472595 0.034231134 0.095866114 0.14592879 -0.09888729 -0.18353115 -0.05356056
0.07902475 0.08944427 -0.109708466 0.05229179 -0.07602291 -0.0037667293 -0.0445573 0.07898528
0.030480709 0.025919296 0.0141561 0.021489633 0.016095499 -0.052378308 0.14439239 0.03330507
-0.038731072 -0.04631425 0.14566866 0.15364598 -0.0085708685 0.014513823 -0.11996883 0.07534377
0.10659415 0.077101156 -0.08469872 -0.04237457 0.09855243 -0.017270016 -0.20782275 -0.02000214
0.1257979 0.106708586 0.015402705 0.19633678 -0.2375693 -0.29927558 -0.108509734 0.028185949
-0.1559233 0.10960981 0.13429712 0.06884846 -0.019842017 -0.12075534 0.032490518 0.043020844
0.13143717 -0.06631254 0.0017625793 -0.18284109 0.18674271 0.04088782 -0.21591133 0.06573692
0.21170147 0.16177204 0.06404748 -0.009658161 0.025259173 -0.1455013 0.061531 0.14468929
-0.055916987 -0.28585753 0.04914396 0.190388 -0.13332604 -0.031969298 0.08070664 0.049614817
0.09152464 0.0054910695 -0.029200165 -0.036922757 -0.15209718 -0.015190153 -0.10467657 -0.010777241
0.20415677 -0.069896996 -0.16236565 0.09069086 -0.030278806 0.16081645 0.12418357 0.07783644
0.28457254 -0.046558116 0.26512066 0.048387405 0.104081474 -0.08371188 0.09408099 0.12821575
0.143785 0.01450048 0.10133377 0.2113225 0.20671725 -0.0019538284 -0.19711134 -0.06082533
-0.10369874 -0.0502441 0.25034285 0.07534264 -0.13301171 -0.3179943 -0.09722369 0.0705426
0.23618881 0.10094028 0.01630247 -0.15019622 -0.15771557 -0.04765039 0.05061417 -0.056839
-0.19277878 0.21849161 0.09428115 0.28425404 -0.09757644 -0.010898092 -0.11274368 0.030985314

actor.4.bias f4 [64]
00000000: 4a00 90bb 7161 0dbc 1c8a 163c 6d47 963a
00000010: 7d1a 1abb 2880 babc 41eb 89bc 3212 003c
00000020: 8933 ddbb 1e14 2ebc ef14 8eba b3a5 0cbc
00000030: 380d 4b3c 3314 63ba a328 27bc 496a 7b3a
00000040: 1773 56bc 887a 963b ccb1 b0bb 9b83 bd3a
00000050: 9b43 2a3c a8c7 783c 8454 723b 3281 403c
00000060: b525 e03a 24f5 58bb 3f18 773c a631 adbb
00000070: eddd acbc 94f9 3a3c 252c b83a 97dc f83b
00000080: 08c7 ce3b a729 b43c 60b7 fc3b 29a0 a3bc
00000090: b0fd 8d3b ef18 25bc fa00 323c e572 9d3c
000000a0: 623c 6cbc 8d4b a8bb d4b7 133c c5e7 08bc
000000b0: 30a3 953c b7e4 8d3c ca62 953c c6df d6bb
000000c0: d763 b2bb 0b2e a1bc 0536 3aba acf1 40bb
000000d0: d280 9c39 e92a 72bb c4e6 713c 581d 1f3c
000000e0: ec93 b73b 0c15 353c 3c15 3cbb 472c 4b3c
000000f0: 3ef2 b2bc df80 12bb 410e 75bc 6993 6d3c
-0.0043945657 -0.008629189 0.009188201 0.0011465378 -0.0023514323 -0.022766188 -0.01683581 0.007816838
-0.0067505282 -0.0106249135 -0.0010839979 -0.008584428 0.012393288 -0.0008662373 -0.01020256 0.0009590728
-0.013088963 0.0045922436 -0.005392289 0.0014458777 0.010392095 0.0151843205 0.0036976645 0.011749553
0.0017101081 -0.00331051 0.015081464 -0.0052854596 -0.021101916 0.011412043 0.0014051242 0.0075946557
0.0063103475 0.021992518 0.0077122897 -0.019973831 0.0043332204 -0.010076745 0.010864491 0.019219825
-0.014418693 -0.0051359595 0.009015996 -0.008356039 0.01826629 0.017320974 0.018235583 -0.0065574376
-0.0054440307 -0.019675275 -0.00071033865 -0.0029440923 0.00029850617 -0.0036951846 0.0147644915 0.009711586
0.0056023505 0.011052381 -0.002869918 0.012400693 -0.021844026 -0.0022354645 -0.014957012 0.014500477

actor.6.weight f4 [3, 64]
00000000: 36d4 b83b f8a9 58bb c907 283c 5fa0 123c
00000010: 7794 07bc 30cd 96bc ddc0 8dbc caf1 453c
00000020: bec9 e8ba 77f9 30bc 267a de3b b774 fabb
00000030: fdc1 d43b 149b 903b e46b e6bb 9ff8 78bb
00000040: c39f 0bbc e637 df3a f227 35bc 5c86 353c
00000050: 15bc 9e3b e854 6b3b 4443 223c d55a e43b
00000060: d767 fa3b 46b5 35bc 10a4 123c 44fc 13bc
00000070: 403a 4fbb c732 a43b 051a 93bb 7c5e d23b
00000080: 7086 9d3b 907a 833c cc8f 003c 5271 56bc
00000090: 65df 2a3c 0ae7 ebbb f617 ca3a 1d65 3e3c
000000a0: a784 86bc f641 de3b b8f4 3e3c 7fc9 acbb
000000b0: 5bba d13b 3bd3 333c 7d31 763c 753f 4a3b
000000c0: 00bc 81bb 2a8b d7bb 0536 073b 1acd bebb
000000d0: 531a abbb 35ec 963b 5f69 303c 574e f13b
000000e0: 8308 03bc 85db 5f3c 072d 23bb 0c91 a03c
000000f0: d00c 4dbc 943e ce3a ce36 3cbc 316f 4d3c
00000100: 4372 293c e3a2 233c 9404 2e3a 2c3e d03a
00000110: 93bc 38bc 7e6c cc3b b60a d13a 0011 5bbb
00000120: 293e 1eba 1b6f 28bb d5f9 4e3c 0831 01bb
00000130: 3311 5239 ff81 223b d68d 91bb e577 8abb
00000140: 85d1 033c 4de7 65bc 2eee 16bc 8c14 bb3b
00000150: b885 8bbc 4a1d 0fbc 76b7 133c 68fc 8dbb
00000160: e4d4 043c 4539 2ebc bfe0 16bc 8dfe acbb
00000170: 4240 b43b 70f8 ad3a 92b2 ebbb 37ed 8b3b
00000180: 2bbe 84bc 14bc d8ba a6a2 923b 0300 453b
00000190: 66af 233b 5db2 88b9 372a e639 404c 5639
000001a0: c117 d83b d417 3c3c dbf9 6439 9f62 8f3b
000001b0: f3e0 3fbc f880 623a 2119 cfbb 6d03 863c
000001c0: 413c bc3a 3983 cc3b 1362 783b 6f2f ffbb
000001d0: 2653 aabb c94f 403c 7fae 18bb f9d9 24bc
000001e0: bb09 f8bb c78f 31bb d12f 5a3b 41fd 4abb
000001f0: f9ae c43b 0b51 a53b be83 983c 644e 863b
00000200: c139 89bc 5dbe d3bb 48fc 1dbc 47fb f8bb
00000210: 5d93 a53c f527 7d3c 9164 363c 9e7c 06bc
00000220: 746d 933a 666b 3b3c 1f7b 8ebc 3f83 d13b
00000230: c514 0bbb a466 33bc b09c 313c 060b 313c
00000240: 8f7a bbbb b5bd 433c 324d 983c 0512 62bc
00000250: 3b94 833c 7a56 733b 9fa3 9cbc 53b6 b6ba
00000260: b4f2 89bc 8994 8e3c 0049 373a 180d 623c
00000270: 15e1 65ba b145 17bb dc75 123c c461 29bc
00000280: 5004 853c e529 69bc 2bed 41bc b5c8 de3b
00000290: 0a15 6cbc 007c 2c3c 54a4 47bb 0564 39bc
000002a0: 8211 ca3b a7f4 94bc 9c6e 4bbc c50a b23a
000002b0: 7942 a03b df49 75bc 63e6 96bb 14cc 84bc
000002c0: 6652 8a3b 49bb bcba 3af3 03bb e2d8 fb3b
000002d0: d5f8 293c da67 7dbc 0807 1fbc f414 303b
000002e0: 2891 503c 28dc 27bc a7f1 85bb 85ea 7dbc
000002f0: ae0a 8e3b def0 b2bb 1316 acbb c8da 76bc
0.005640532 -0.0033060294 0.010255762 0.008949368 -0.008275143 -0.018408388 -0.017303878 0.012081573
-0.0017760319 -0.010801665 0.0067894636 -0.007643308 0.006492852 0.004413018 -0.0070319045 -0.0037989987
-0.008521977 0.0017030209 -0.011056887 0.011079397 0.0048441985 0.0035908762 0.009903733 0.006968836
0.007641773 -0.011090582 0.008950248 -0.009032313 -0.0031620413 0.005010936 -0.0044891858 0.006419955
0.004807286 0.016049653 0.007846784 -0.013088541 0.010429238 -0.007199173 0.0015418518 0.011620787
-0.016420675 0.0067827655 0.011655025 -0.0052730436 0.006400389 0.010975654 0.015026447 0.0030860577
-0.003959179 -0.006577869 0.0020631563 -0.00582279 -0.005221644 0.004605795 0.01076731 0.007364075
-0.007997635 0.013663177 -0.0024898665 0.019600414 -0.012515262 0.0015735202 -0.011487676 0.012538717
0.0103421835 0.009987566 0.00066382554 0.0015887669 -0.011275428 0.006238519 0.0015948627 -0.003342688
-0.0006036484 -0.002570099 0.012632807 -0.0019713063 0.00020033568 0.0024796722 -0.004441957 -0.0042257183
0.008045559 -0.014032197 -0.00921206 0.0057092365 -0.017031536 -0.00873501 0.009015908 -0.0043330677
0.008107398 -0.010633771 -0.009208857 -0.0052793683 0.005500824 0.0013272893 -0.007192918 0.0042702216
-0.01620396 -0.0016535544 0.0044749556 0.0030059821 0.0024976372 -0.00026072832 0.0004390047 0.00020437036
0.0065946286 0.01148029 0.00021836853 0.00437577 -0.011711347 0.00086404337 -0.0063201343 0.016359055
0.0014361219 0.006241229 0.0037900254 -0.007787637 -0.0051979003 0.011737772 -0.0023297367 -0.010061734
-0.0075695193 -0.0027093755 0.003329266 -0.0030973705 0.0060023037 0.0050450615 0.018617507 0.0040987004
-0.016751172 -0.006461902 -0.009642668 -0.007598314 0.02021187 0.015451421 0.011132375 -0.008208422
0.001124783 0.01143918 -0.017392693 0.0063938196 -0.0021222096 -0.010949764 0.01084058 0.010805851
-0.005721397 0.011947085 0.018591497 -0.0137982415 0.016061893 0.0037130401 -0.01912099 -0.0013939835
-0.016839363 0.017404811 0.0006991774 0.013797067 -0.00087691966 -0.002308231 0.008939233 -0.010338251
0.016237408 -0.01423118 -0.01183633 0.0067988285 -0.014409313 0.010527611 -0.0030462937 -0.01131535
0.006166638 -0.018183066 -0.012416508 0.0013583532 0.0048907367 -0.0149712255 -0.004605101 -0.016210593
0.0042212484 -0.0014399077 -0.0020133988 0.0076857666 0.010374268 -0.015466655 -0.009706266 0.0026867958
0.01272992 -0.01024536 -0.004087645 -0.015497808 0.004334769 -0.0054608425 -0.005251655 -0.01506681

actor.6.bias f4 [3]
00000000: 68f6 cc3b efe6 34bc f4f4 593b
0.00625496 -0.011041387 0.0033257576

critic.0.weight f4 [64, 1176]
00000000: 4686 d33c c7ee 84bd 4745 bfbc 3389 97bd
00000010: 4069 653d 4b86 0dbd 1a4a 52bd 3565 d33c
00000020: 2be1 23bc ae1d 063d 882d 4bbd 2775 02bd
00000030: 719d 2e3c fa23 f6bc 51d5 3b3d 4e08 51bb
00000040: 16a1 853d fb83 b7bb 1ae8 b4bd d434 babb
00000050: d9d6 f9ba 687c da3c e523 61bc 1954 9d3b
00000060: efd5 d63d 2815 1dbd 679f 9fbd af56 adbc
00000070: 11cd 6bbd 336a ca3c 2ea3 b7bc 2b90 a8bd
00000080: 2437 da3a f4f1 99bb 7528 243d a8e3 3fbc
00000090: b84b f23c 833c 403a 52ff 82bd 5f0f 0abd
000000a0: 9db4 17bd 5313 b1bc af87 103d 3681 8a3d
000000b0: a26e 593d 8c88 1dbd 33d5 403d 3ca1 50bc
000000c0: 96fe 843d 634d 54bc 3856 f63d 2258 bf3b
000000d0: bdea 9a3c 8603 24bd a7db bfbc bcfa 323c
000000e0: bed2 fabc fa52 7fbc 1e8f a2bc b61b 4a3d
000000f0: a01c 64bb cf90 013d ee3b b2bc 3588 d23c
00000100: 3994 7b3c 0c26 ab3d 4bd7 543d 1acb bcbc
00000110: 4e16 593d 7f42 2bbd d0b0 04bd 2a6b c5bc
00000120: 5146 343d a134 df3c fae6 75bc bf7b 333d
00000130: 7c21 973c 3622 35bd e862 733d 2f2e d2bc
00000140: e173 78bd b9bf 0cbb 5d9f a5bd f02f c73c
00000150: ea0b 45bd 7f97 12bd 9383 0cbd a91f 5cbb
00000160: f0cd c03c 6aa6 6abc 9fa7 a6bc 6624 bdbc
00000170: 7c7a 943c ecba fdbc d155 adbc 73eb efbc
00000180: de62 afbc 2879 063d 7b62 d7bc a33f c33c
00000190: 6e8b 253c 9394 b5bd 7527 31bc dea4 2d3d
000001a0: 0c22 5e3d 5c29 06bd 3653 08bd 489a c33d
000001b0: b1dd 0f3b 6e0a 593d f426 15bc 899b a7bc
000001c0: af93 863c 9598 cb3c 274f 26bd be1d 95bd
000001d0: 276a 0b3d e61d 9b3c 4025 913d f75c 6abd
000001e0: 60e5 443d eaf5 503d ccd5 d53c 0894 1dbd
000001f0: 9436 aebd 877b a03d 1f9f 0fbd fdc8 6d3c
00000200: 0695 f3bc 3d64 603d 4928 153c f7ca 24bd
00000210: c48a 7cbc 68be 5e3d d09a 853d 5fd3 54bd
00000220: 69cb eabd 14f2 2f3d f5f7 813d 1c63 d4bc
00000230: f73e cb3d 045b 893d 89b3 e03a 27d2 0d3d
00000240: d690 453d 35d8 2e3d 1316 233d 5d05 9cbc
00000250: b956 7d3b 87bb 5e3d cf36 63bd 20a5 de3c
00000260: 05c7 c53c 7587 393c edf3 77bc 5f0a 1bbb
00000270: 5a6a 8b3d 47b1 d33c 6646 5abd f431 d93a
00000280: 7168 243d ebe9 803b 02f4 41bd 22a6 c639
00000290: f493 6d3c 46db 1c3d 956f 27bd 59aa 41bd
000002a0: f8c5 603d 0412 40bc 34d0 35bd 7d13 5a3d
000002b0: 84bb 473b 74fd 4dbc 14f2 433d 5707 87bd
000002c0: 5696 0dbd 7bdb d33c 0e1b c4bc 5788 95bc
000002d0: b8d0 fd3c 5e44 ac3c 2f8a 6f3c 3c04 c1bd
000002e0: eeaa babc 3900 cdbb 2249 ff3c 4606 003d
000002f0: a5e0 cb3c bb8e 13bb 08a1 32bc 4abc 1e3c
00000300: 4324 36bb 28a7 173c 7058 4cbd 7bc3 8fbc
00000310: 1e30 63bc 3962 3c3d 1393 3ebd ade0 7b3d
00000320: 34cd 83bd 1d35 503c 0074 503b d847 d03c
00000330: 5ef1 c13d 1896 4b3d f0df 13bc 3581 49bd
00000340: 954a 893d 85b7 0b3d d93b 93bd c752 fb3c
00000350: 73ef c63d b58a 6e3a 7719 c93c cace 0f3c
00000360: eb2a 8cbb cc30 57bc f8d6 45bd b743 83bc
00000370: fe9f 2f3b a8c2 66bd b734 a73d ad18 39bb
00000380: f5fd 4d3d 53d3 2e3a bfff c0bc a282 e4bc
00000390: a35f 88bc dc10 a73d 4ae3 e03c 56f2 583d
000003a0: b47c d9bc 03e1 47bc d689 07bd e5a0 11bd
000003b0: 992b 8f3b f145 ab3c e295 823d 8b7b 37bd
000003c0: 4223 92bd b87b 5f3d 7bea 94bc d168 0c3c
000003d0: e712 8d3d d32c 983d 5d72 b83c 537e 7d3c
000003e0: ca24 423c c198 b03c 4a68 c03d 7732 f73c
000003f0: 3f98 6c3d 4c3d 2ebb 77a2 2f3d a62a b43b
0.025820863 -0.06490856 -0.023348464 -0.073992155 0.056008577 -0.0345519 -0.0513402 0.025805095
-0.010002415 0.03274315 -0.04960397 -0.031850006 0.010657654 -0.030046452 0.04585773 -0.003189582
0.06524865 -0.00560045 -0.08833332 -0.005682567 -0.0019061222 0.02667065 -0.013741468 0.004801285
0.10490023 -0.038350254 -0.077940755 -0.021159498 -0.057568613 0.024708843 -0.022416677 -0.08230623
0.0016648513 -0.0046980325 0.040077645 -0.011711992 0.029577121 0.00073332357 -0.06396355 -0.033706065
-0.03703748 -0.02161566 0.035285648 0.06762926 0.053084023 -0.0384603 0.047078323 -0.012733754
0.06493871 -0.012957904 0.12028164 0.0058393637 0.01891076 -0.040042423 -0.023420168 0.010924038
-0.030618068 -0.015583748 -0.019843634 0.049342833 -0.00348071 0.03163224 -0.021757092 0.025699714
0.015355163 0.08356866 0.051963132 -0.023046065 0.052999787 -0.041811462 -0.032395184 -0.024098951
0.04401237 0.027246775 -0.015008682 0.043819185 0.018448584 -0.04422208 0.059420496 -0.025656788
-0.060657386 -0.002147658 -0.08087037 0.02431485 -0.048107065 -0.03578901 -0.034305166 -0.0033588207
0.023535699 -0.014321903 -0.0203436 -0.023088645 0.018124811 -0.03097292 -0.021159085 -0.029287076
-0.021409448 0.032830387 -0.026292076 0.023834055 0.010104043 -0.08866229 -0.01081263 0.042393558
0.05423169 -0.032754287 -0.03328248 0.09550911 0.0021952207 0.052988462 -0.009103525 -0.020459907
0.016427843 0.02485303 -0.04060283 -0.072810635 0.03403678 0.018935155 0.07087183 -0.057217564
0.04807031 0.051015772 0.026102923 -0.03847125 -0.08506504 0.07836061 -0.03506386 0.014513251
-0.029734146 0.054783095 0.009103843 -0.040232625 -0.015413944 0.054380804 0.06523669 -0.05195939
-0.11464579 0.042955473 0.06346122 -0.025926165 0.09924119 0.06706813 0.0017143349 0.034624245
0.04823383 0.04268666 0.039815973 -0.019045526 0.0038656427 0.05437806 -0.05547219 0.027178347
0.024142751 0.011323799 -0.01513384 -0.0023657305 0.06807394 0.025841368 -0.053289793 0.0016570673
0.040138666 0.003934135 -0.047351845 0.00037889282 0.014500607 0.038295053 -0.040877897 -0.047281597
0.054876298 -0.011723045 -0.04438801 0.05324124 0.0030476758 -0.012572635 0.047838286 -0.06593197
-0.0345672 0.025861492 -0.023938682 -0.018253488 0.030983314 0.021028694 0.014620348 -0.09424636
-0.022786584 -0.00625613 0.031162802 0.031255983 0.024887392 -0.0022515494 -0.010902651 0.009688446
-0.002779261 0.009256162 -0.049889028 -0.017549267 -0.0138664525 0.04599211 -0.04652698 0.061493564
-0.06435624 0.012707976 0.0031807423 0.025424883 0.09469865 0.049703687 -0.009025559 -0.049195487
0.067036785 0.034110565 -0.071891494 0.03067912 0.0971364 0.00090996485 0.024548275 0.00877733
-0.004277577 -0.013134193 -0.048300713 -0.0160235 0.0026798244 -0.056337982 0.081643514 -0.0028243468
0.05029102 0.0006669063 -0.02355945 -0.027894322 -0.016647166 0.081575125 0.02745213 0.052965485
-0.02654872 -0.012199643 -0.033090435 -0.03555383 0.004369211 0.020907374 0.06376244 -0.044795554
-0.07135631 0.054561347 -0.018178215 0.008569912 0.06888371 0.074304245 0.02251547 0.015472013
0.0118495915 0.021557214 0.093948916 0.03017543 0.05776238 -0.0026586829 0.042879548 0.005498248

critic.0.bias f4 [64]
00000000: 3f2d 3d39 a3ed 5839 145e ae39 3e8f a23a
00000010: 9971 82ba 2d66 c5b9 2761 ed3a 039f 1db5
00000020: d541 903c 4baf 84ba 856e 2939 9d15 aeba
00000030: c847 123a 1af2 86bc 73d1 7d3a 44ff b3ba
00000040: 8f66 953a 68dc 433c e487 003b 440d 51ba
00000050: 2a19 62b9 6eee bb3a 75fa 973a 9ff4 26b8
00000060: 34b0 3eba c8ea b839 bb16 b4b9 eb98 293b
00000070: d1fb 7bb9 31ab 5e39 07c9 8a3c 9935 943a
00000080: 9677 3c39 4098 4c38 2acb 753a e298 693a
00000090: da17 d4b9 3c31 53ba 5ad1 053b ecfa c139
000000a0: f6d9 2dba 73bb ba39 bd3d a439 a7ff 9b39
000000b0: 5f69 2439 2899 e73a ff31 37bb 2efe 06ba
000000c0: b408 ef39 9d5c a73a d920 afba 3f9a 04ba
000000d0: 4b2a e039 2dab 38ba e514 43ba 5f8a 463b
000000e0: c4ca 413c 53b4 e9b9 f8d9 633a 7771 d8b8
000000f0: 1c06 0bba 66d3 b9ba 5c76 1dbb 34fe 8bb7
0.000180413 0.00020687892 0.0003325796 0.0012402309 -0.0009952068 -0.00037650895 0.0018110619 -5.871845e-07
0.017609516 -0.0010123042 0.00016158268 -0.0013281588 0.0005580154 -0.016472865 0.00096823944 -0.0013732691
0.0011398363 0.011954404 0.0019612247 -0.0007974694 -0.00021562414 0.0014338025 0.0011595028 -3.9805305e-05
-0.0007274181 0.0003527014 -0.0003434921 0.00258785 -0.00024031034 0.00021235344 0.01694156 0.0011307477
0.00017973626 4.8779184e-05 0.0009376282 0.0008911026 -0.00040453562 -0.0008056348 0.0020418973 0.0003699878
-0.0006631905 0.00035616345 0.00031326516 0.0002975438 0.00015679513 0.0017669545 -0.0027953384 -0.000514957
0.00045592117 0.001276869 -0.001336123 -0.0005058385 0.0004275612 -0.000704455 -0.0007441773 0.0030294878
0.011828128 -0.00044575575 0.00086918427 -0.00010320817 -0.00053033396 -0.0014177382 -0.0024026847 -1.6688464e-05

critic.2.weight f4 [128, 64]
00000000: ab87 cdbd e941 453d 858a b73d 30d1 85bd
00000010: 0aea 92bc 5206 273e 27a7 8e3e 1263 adbd
00000020: 05be f4bd 9ff8 f43c 930b b83d e4ae 36be
00000030: f7b7 3d3d 11c8 1cbe 0d76 a8bc 5366 c33c
00000040: 5ce0 363e 3481 40bd 5d19 e8bd ec11 ecbd
00000050: 60fb 3e3d d720 073e a726 72be 614a 14bc
00000060: 95a1 123c c0d7 86bd e543 2f3d 039e 0c3d
00000070: 86df e2bc 1927 55be 6615 e1bd 05d3 7f3e
00000080: 2431 363e d592 28be 57a9 363e f3d5 c23c
00000090: 2f6d b7bc da59 88be b5ae fbbd 2c5a 45be
000000a0: 0497 273d f301 85bd 6d1c a8bd 726a 9dbd
000000b0: aa55 9abd 270a 643e 9e15 37bc 9993 e23d
000000c0: 1bee 8b3c e3f0 aabd bb62 acbd 74a9 1fbc
000000d0: d3b8 ffbd 92fa bc3c 967e 34be c583 673e
000000e0: a55b 21bc 33a6 193a f8f9 b33d 0539 ab3d
000000f0: 976a 87bd 3497 a13d cca9 b6bd 8529 e0bd
00000100: 98ac 203d 50c8 00be 3213 3f3e 2815 2f3e
00000110: 913f 173e 9931 15bd 8fcd 69ba bff2 17bb
00000120: 0c9b 9ebd c130 29bd e3c6 98bd 373a 1d3d
00000130: 413d 14be 5d94 8cbc 774e 213d 6f8d b2bd
00000140: 446b 96bc 67fb 403e b73c 23be b2db 06be
00000150: bb08 3cbd 2934 9dbd 1255 b6bd 156d ab3d
00000160: 6c65 a0bd 87d5 35bd 0d6b fc3d a760 223d
00000170: be0e 433d c3e0 9d3d be7d 983d eac8 eabd
00000180: 8d5e 52be 6656 09bc 07c4 4f3e 9f73 b33c
00000190: b959 31be 6c06 b33d ded3 383e 2df8 77bd
000001a0: 5b96 12bd 53a5 bb3d 9f53 14bd 9f9e 5ebc
000001b0: db1a 5b3e b4c4 3bbd 9e45 063e a513 293d
000001c0: 069e 3f3d 9b7e 123e 6422 413e fd20 b03d
000001d0: fad3 4cbe dd95 083e c5c0 1ebd bb9f c1bd
000001e0: 7a1f 29bd 65fa 4c3d fc07 67be 17b5 93bd
000001f0: 8dd2 febd 895a afbd 5a6f 14bd f737 afbd
00000200: d13e 23bb 6249 893d 3181 01be 1947 59be
00000210: 1a8b 7a3e c7eb 143d b0ed d5bd 205e 14bd
00000220: 8e48 f3bd d372 d6bd f05a 15be 21d9 dc3d
00000230: ddf3 873e 8c3e 28be 9aa8 4e3d 5d95 d33d
00000240: 1b29 3cbd fa15 9dbd d4a6 b73d 5b2d bd3d
00000250: 80a0 40be a1a3 0fbe 257a 00be aa03 2c3d
00000260: 687a 303b 3440 f03d 654d 1bbd b8f3 ba3d
00000270: 12dc 723e 3578 69be d411 dbbc 08df 97ba
00000280: 8a24 363e 7d87 f2bd d0f4 723d 0add a3bd
00000290: 10d5 82be c00c dc3d 23be 0dbd d73d f1bd
000002a0: 04b1 2d3e f22a e33e 3310 86bd 6b99 113e
000002b0: 0257 d73d e669 f5bb 20b1 b0bd 4556 953c
000002c0: 77e3 0b3d 4fc1 2a3d 3eba c03e 660f 19bd
000002d0: 1f71 14be b3fe 1b3c 65b4 aa3d b8f3 81be
000002e0: 2e25 4ebd 6a71 613d 3d34 c83a ca97 263d
000002f0: 3e4e 3a3e 58b0 403e 046f d5bd dadc 273c
00000300: 7619 2dbe 2753 913b b86d 113d 1354 853d
00000310: 0a4d b3bd f218 ad3b f01a 64bd 9f82 3b3d
00000320: 4c32 6e3e 7fcf 273d 72a4 a83c 523d e5bc
00000330: 1ba0 b23c 010a 313e d8d3 84bc bfa6 3dbe
00000340: c580 8b3e cfc7 903d 37db a63e 391b cc3d
00000350: 3124 12be b22a 8bbb e9c0 793d 0e56 873c
00000360: 6b5c 1bbe 91b2 853e e1ce 543e fa85 153e
00000370: d55e fabd 44ad 5cbd b4d7 c4bc bd7b 723c
00000380: 5cbd 203e 66ae f33d 9ae7 003e 89ff 8b3d
00000390: d7de 67be 3dfd 08be 7de2 10be c27b d73c
000003a0: 671d 47be 2330 9f3d d5dc 823d a2fe 2d3d
000003b0: f0fe 843b 589e 37be 468b 3f3e c641 8ebc
000003c0: 0ded 053d 087c 8dba 2e45 353e 5879 053d
000003d0: d60c 2a3e 7cdc 053e 8e4f 05be 8cf7 ed3d
000003e0: e901 2dbb e342 653d ab5b ec3c 8a50 3ebe
000003f0: 868f 78be 9739 c13d b444 1f3e bdd5 d03d
-0.10035642 0.04815856 0.089619674 -0.0653404 -0.017933864 0.16311005 0.27861902 -0.08466162
-0.11950306 0.029903708 0.089865826 -0.17840153 0.04631802 -0.15310694 -0.020564103 0.023852503
0.17859024 -0.046998218 -0.11332963 -0.11526856 0.04662645 0.13196121 -0.23647557 -0.009050936
0.008949657 -0.0658412 0.04278936 0.03433038 -0.027694475 -0.20815696 -0.109904096 0.24982841
0.17792183 -0.16462262 0.17838036 0.02378366 -0.02239093 -0.2663105 -0.12289182 -0.19272679
0.040915504 -0.064945124 -0.08208547 -0.076863185 -0.075358704 0.22269498 -0.0111745875 0.11063308
0.017081311 -0.08346727 -0.08417269 -0.009744991 -0.12486424 0.0230687 -0.17626414 0.2260886
-0.00984851 0.00058612524 0.08787912 0.08360485 -0.06612127 0.07890168 -0.08919105 -0.10945419
0.0392271 -0.12576413 0.18659666 0.17097914 0.14770342 -0.036424253 -0.0008918875 -0.002318546
-0.077444166 -0.04130626 -0.0745981 0.038385596 -0.14476492 -0.017160589 0.03938147 -0.087183826
-0.018361695 0.18845902 -0.1594113 -0.13169745 -0.045906764 -0.076759644 -0.089029446 0.08370415
-0.07831845 -0.04439309 0.12325106 0.039642956 0.04762148 0.077088855 0.074458584 -0.114641026
-0.20543881 -0.008382415 0.20289622 0.021905718 -0.17319383 0.08741459 0.18049571 -0.060539413
-0.03578792 0.091623925 -0.03621256 -0.013587623 0.21396963 -0.045841888 0.13112494 0.0412785
0.046781562 0.14306109 0.18860775 0.08600042 -0.20002738 0.13338418 -0.038758058 -0.09454294
-0.041289784 0.050043482 -0.2256164 -0.072122745 -0.12442503 -0.0856219 -0.036239006 -0.08555596
-0.0024909268 0.0670345 -0.12646939 -0.21218528 0.24467126 0.036357667 -0.10445726 -0.036222577
-0.11879073 -0.1047112 -0.14585471 0.107836016 0.2655324 -0.1643011 0.05045376 0.10331223
-0.04593764 -0.07670207 0.08967367 0.092371665 -0.18811226 -0.14027263 -0.12546594 0.04199568
0.0026928429 0.11730996 -0.037915606 0.09128517 0.23716763 -0.22799762 -0.0267419 -0.0011586854
0.17787376 -0.118422486 0.059315503 -0.08001144 -0.2555318 0.10744619 -0.034605157 -0.11779373
0.16962057 0.44368702 -0.065460585 0.1421868 0.10514642 -0.0074894307 -0.08627534 0.018229613
0.034152474 0.04168826 0.37642092 -0.0373682 -0.14496277 0.009521174 0.08335189 -0.25381255
-0.050328426 0.0550398 0.0015274357 0.0406721 0.1819391 0.1881727 -0.10421565 0.010245526
-0.16904244 0.0044349614 0.035505027 0.065101765 -0.087549284 0.0052825147 -0.055689752 0.045778867
0.23261374 0.040969368 0.020586226 -0.027983341 0.02180486 0.17288972 -0.016214296 -0.1852064
0.2724668 0.070693605 0.32589123 0.0996613 -0.14271618 -0.004247033 0.06097499 0.016520526
-0.15171973 0.26112798 0.20782043 0.14601889 -0.12225119 -0.053876176 -0.024028637 0.014800009
0.15697235 0.11898498 0.12588349 0.06835849 -0.226436 -0.13377853 -0.14148898 0.02630413
-0.1944481 0.07772853 0.063897766 0.042479165 0.004058711 -0.17931497 0.18705472 -0.017365348
0.032696772 -0.001079441 0.17702171 0.032586426 0.16606459 0.1307239 -0.13018629 0.116194814
-0.0026398844 0.05597199 0.028852304 -0.1858541 -0.242735 0.094348125 0.15553552 0.10197017

critic.2.bias f4 [128]
00000000: 5e34 cd3b 6313 4ebb 5678 85bb 4322 6c3b
00000010: cfcc 303b 096c 29bb c15a 5a3b 8ceb 153b
00000020: 0dd5 a13b 0aa0 793b b3cb 323b f930 343b
00000030: 0032 963b 5ea4 e33a 691d 78bc c11e 0abb
00000040: c285 92bb affe 9a3b 92c1 c33b e9cb 9abb
00000050: 7fac 873b 9a8e 113c 5fb5 67bb 6a67 69bc
00000060: f08d 94bb 0220 9b3b 2bd5 6f3b 307a 843b
00000070: e3e4 a0bb 1194 6e3c 1ca2 f8bb 963b a7bb
00000080: 843d 5dbb 6034 41bb a806 d9ba e1ed 79bc
00000090: d599 61bb 786e 0cbc 70f8 6b3b 18cf 5fbc
000000a0: b8ec 373c 635c 153b 5ee6 35bb cbd6 443b
000000b0: 98c7 01bb 457e 76bb b3ac a4bb 2a84 7c3c
000000c0: ed6c 42bb 83bb 873b 2495 2f3c 70a2 87bb
000000d0: 349e 37bb 42a7 8f3b 6453 963b 443e 1cbc
000000e0: ea5b d7ba 71b9 a23b 4a56 923a 33d2 953b
000000f0: 68e2 603c e7b1 3ebb fdc6 4dbb f163 97bb
00000100: 9775 033a 0207 2dbb 0b77 4c3c bbf1 cfba
00000110: a3f9 72bb 6715 33bb 3967 70bb 286e 80bb
00000120: 17d9 8d3b 5561 803b 224b 81bb a5af 833c
00000130: 8e34 70bb 2afa 77bc d6a8 3d3c df1f 66bb
00000140: 0501 a33a 5c77 23bc c355 8f3b aa2f 3cba
00000150: 2bf7 b6bb 7648 493b 6981 8c3b 1e21 3e3b
00000160: 4109 59bb bd83 723b 32b1 45bb 64f3 48bb
00000170: 8413 6c3c 392c 8dbb baa3 6e3b 4dc0 9d3b
00000180: 3cf7 2ebc a153 94bb 1930 033c a124 82bb
00000190: ea0a a03b 789f 9ebb b233 12bc 77f7 86bb
000001a0: eee1 04bc a792 2bbb 2736 6ebb c1d1 abbb
000001b0: cc44 0ebb 2ff7 7dbb 2bb5 9a3b cffb 913a
000001c0: 8f9d 70bc 43f8 ae3b e79a 98bb 9ff7 38bb
000001d0: 41c3 533b 9808 943b 00f2 a7bb 2463 163b
000001e0: 33bb 913b ef41 863b 7e10 43bb c227 5e3c
000001f0: c617 993b aef7 53bb ac36 783b b423 4abb
0.006262346 -0.003144466 -0.004073183 0.0036031164 0.0026977544 -0.0025851747 0.0033318254 0.0022875993
0.0049387277 0.0038089775 0.0027282059 0.002749501 0.004583597 0.0017367711 -0.015143731 -0.002107546
-0.0044715116 0.0047300677 0.005974003 -0.004724015 0.004140436 0.0088840965 -0.0035355908 -0.014245847
-0.004533522 0.0047340402 0.0036595564 0.004042886 -0.004910098 0.014561669 -0.0075876843 -0.0051035387
-0.003375859 -0.002948068 -0.001655777 -0.015254469 -0.0034423966 -0.00857126 0.0036006235 -0.013660215
0.011225872 0.0022790662 -0.0027755718 0.0030035253 -0.0019802805 -0.0037611884 -0.00502547 0.01541237
-0.0029666976 0.004142226 0.01071671 -0.004139237 -0.002801788 0.0043839524 0.0045875777 -0.00953633
-0.0016430591 0.004965954 0.0011164632 0.004572177 0.013725854 -0.0029097737 -0.0031399124 -0.0046200682
0.00050147757 -0.0026401882 0.012479554 -0.0015864888 -0.0037075065 -0.002732599 -0.003668262 -0.0039193816
0.0043288576 0.003917853 -0.003945724 0.016074965 -0.0036652419 -0.015135327 0.011575898 -0.0035114211
0.0012436217 -0.009977188 0.0043742373 -0.00071787334 -0.005583664 0.0030713356 0.004287888 0.0029011439
-0.0033117088 0.0037004792 -0.003016543 -0.003066265 0.01440895 -0.0043082503 0.0036413507 0.004814184
-0.010679062 -0.004526571 0.008007073 -0.0039716517 0.0048841136 -0.0048407875 -0.008923458 -0.0041188556
-0.008110506 -0.002617994 -0.0036348195 -0.0052435105 -0.0021708487 -0.003875207 0.004721304 0.0011137667
-0.014686002 0.0053396537 -0.0046571377 -0.0028223766 0.0032312425 0.004517626 -0.005125284 0.0022947276
0.0044473647 0.0040972154 -0.0029764469 0.013559284 0.0046720235 -0.0032343674 0.0037874384 -0.0030844035
