gym-multigrid-master/results/mappo/simple/clip_epoch_5M_KG_searchstrat_rollout_128/mappo_agent_model.pth (torch, 523162 bytes, 22 tensors)

actor.0.weight f4 [64, 294]
0.14296344 -0.13423263 0.021154046 0.03531851 0.2596929 -0.06051871 0.1245603 0.27855012
0.032499697 -0.056760103 0.05350829 0.069518335 0.078144975 0.04568804 0.019253295 -0.08509842
-0.13892424 -0.0356053 0.057815738 -0.046110135 -0.014438846 -0.19306019 0.03015805 -0.07060191
0.28672025 0.19218954 0.11818838 0.06513306 0.43479952 -0.018758144 0.093934536 0.040288307
0.012640675 -0.058990166 -0.25486472 -0.0053794784 0.1348344 -0.20645595 0.009091089 -0.05131397
0.15756561 -0.032291047 -0.34394354 -0.1601097 -0.062170237 0.12407496 -0.20648655 -0.059682388
0.051822048 -0.009790924 0.104207374 0.18257506 0.18644507 -0.0536902 0.2756881 0.01521101
0.0012675727 0.12895839 0.18754181 0.0738445 0.13562496 0.17753296 0.015052846 0.02304255
0.049934223 0.10306428 0.14099929 0.10950318 -0.0939832 0.096279025 0.22367892 0.059506338
0.26167986 -0.019775176 0.027523264 0.13269717 0.08680282 0.022345575 0.039125912 0.16079299
-0.052951872 -0.16799377 -0.2680723 -0.12709136 0.097523816 -0.05135458 -0.10091499 -0.029083429
0.18217361 0.1830224 -0.2320051 -0.123936765 -0.061656117 -0.0033439167 2.0210631e-05 0.0014931221
-0.04460508 -0.10440981 0.09547926 -0.0414884 0.100011244 -0.098034516 0.19799542 -0.14447665
0.07812083 0.01949901 0.13730386 0.04950132 -0.21590729 -0.19134286 0.0007494817 -0.006844996
-0.08252922 0.036466666 0.017002653 -0.12645392 -0.050677355 0.041978132 0.10703486 0.03126529
-0.03861686 -0.25415546 0.13497704 0.06910729 0.1890322 0.04611102 -0.3804551 -0.23166826
0.026434643 0.050136805 -0.47230726 -0.023924004 -0.01841775 0.012791498 -0.04191365 -0.009689712
-0.10057193 0.043031976 -0.20628555 -0.04620676 0.109988436 -0.07854396 -0.24650994 0.09335502
0.09640133 0.18583895 0.06857057 -0.12084967 0.19888225 -0.11776238 0.15068682 0.2224056
-0.005877294 -0.008644241 -0.11482478 0.043747183 0.17672376 0.044248607 -0.003936388 0.07045345
-0.052815896 0.25524226 0.14268093 0.26299325 0.036954608 0.08018917 0.08581659 0.16991156
-0.14989683 -0.12543924 0.078271054 -0.115457594 0.12380952 -0.01952915 -0.23405609 -0.16394675
0.002442326 0.019764185 -0.2440315 0.069797546 -0.18081021 -0.049468715 -0.03511475 0.06685755
0.10832207 0.07038698 -0.043177776 0.04820943 -0.042481367 -0.002461507 0.23388343 0.034942236
0.16314988 0.012372601 0.01795942 -0.012068409 0.09496478 0.16472465 -0.037479196 0.05452585
0.012452044 0.14723608 -0.22643588 0.17566852 -0.19815646 -0.0726469 -0.047562897 -0.030119183
-0.20943795 -0.2177323 -0.06342353 -0.088324964 0.020028522 0.012933322 -0.19711225 -0.056450523
0.017922727 0.056412335 0.122582056 0.11802779 -0.25789958 -0.023317566 -0.25982437 0.099805005
0.13770446 0.10251842 -0.07139934 -0.08780909 -0.3981051 0.14527859 -0.10919515 0.053153936
-0.17630462 0.07430964 0.47216457 0.4446276 -0.103620745 -0.16637194 0.3168302 0.14407295
-0.03493737 0.0486308 -0.1519341 0.084542364 -0.0026207299 -0.07323461 0.29225695 0.32821405
0.04575238 0.0058372826 0.36731142 -0.022157306 -0.0007807674 0.0660779 0.036685027 -0.04433758
00000000: 0265 123e 4774 09be 404b ad3c 24aa 103d
00000010: 78f6 843e 78e2 77bd 7819 ff3d 1f9e 8e3e
00000020: 671e 053d 487d 68bd 822b 5b3d a15f 8e3d
00000030: 790a a03d 6223 3b3d 16b9 9d3c 1548 aebd
00000040: 2842 0ebe ddd6 11bd 32d0 6c3d fbdd 3cbd
00000050: e990 6cbc 92b1 45be 040e f73c bc97 90bd
00000060: ffcc 923e 56cd 443e c00c f23d 7b64 853d
00000070: 0b9e de3e aeaa 99bc c060 c03d 5a05 253d
00000080: d51a 4f3c ac9f 71bd a17d 82be 5646 b0bb
00000090: 0712 0a3e 3069 53be caf2 143c 992e 52bd
000000a0: e158 213e 9e43 04bd 5e19 b0be ccf3 23be
000000b0: 38a6 7ebd 031b fe3d 3671 53be 8575 74bd
000000c0: 5b43 543d 1d6a 20bc ad6a d53d f5f4 3a3e
000000d0: 75eb 3e3e 41ea 5bbd fe26 8d3e 9a37 793c
000000e0: af24 a63a ab0d 043e f60a 403e c93b 973d
000000f0: 45e1 0a3e 33cb 353e 36a0 763c bbc3 bc3c
00000100: d487 4c3d 5d13 d33d 1e62 103e 3443 e03d
00000110: 447a c0bd f02d c53d 160c 653e ebbc 733d
00000120: e7fa 853e 8dff a1bc 7878 e13c c4e1 073e
00000130: adc5 b13d 110e b73c 7e42 203d eba6 243e
00000140: 10e4 58bd 8f06 2cbe c640 89be 3d24 02be
00000150: 91ba c73d 2e59 52bd 85ac cebd 5f40 eebc
00000160: b88b 3a3e 396a 3b3e bf92 6dbe 8fd2 fdbd
00000170: 208b 7cbd 9d25 5bbb 008a a937 ddb4 c33a
00000180: d1b3 36bd cfd4 d5bd a18a c33d beef 29bd
00000190: b2d2 cc3d 52c6 c8bd 50bf 4a3e b0f1 13be
000001a0: d0fd 9f3d 63bc 9f3c 6299 0c3e e5c1 4a3d
000001b0: cd16 5dbe 62ef 43be de78 443a fd4b e0bb
000001c0: 1405 a9bd 125e 153d 2649 8b3c 237d 01be
000001d0: 0f93 4fbd 43f1 2b3d 1835 db3d 0810 003d
000001e0: b62c 1ebd aa20 82be 6c37 0a3e 1f88 8d3d
000001f0: a891 413e e9de 3c3d 03cb c2be 723a 6dbe
00000200: 778d d83c 405c 4d3d 42d2 f1be 46fc c3bc
00000210: d2e0 96bc 6e93 513c a6ad 2bbd 99c1 1ebc
00000220: a8f8 cdbd 4c42 303d 853c 53be 4d43 3dbd
00000230: 9e41 e13d a8db a0bd 1a6d 7cbe eb30 bf3d
00000240: 0f6e c53d 914c 3e3e ba6e 8c3d 0880 f7bd
00000250: caa7 4b3e 672d f1bd a54d 1a3e 4bbe 633e
00000260: 5196 c0bb 93a0 0dbc 4129 ebbd 3f30 333d
00000270: 13f7 343e 073e 353d d1fc 80bb e649 903d
00000280: 7b55 58bd 1daf 823e f31a 123e 0da7 863e
00000290: b75d 173d 383a a43d 9cc0 af3d 4cfd 2d3e
000002a0: 8e7e 19be 2573 00be 934c a03d 0875 ecbd
000002b0: d88f fd3d 99fb 9fbc 66ac 6fbe a8e1 27be
000002c0: 6e0f 203b 80e8 a13c 65e3 79be 04f2 8e3d
000002d0: 5026 39be b59f 4abd 7cd4 0fbd 9cec 883d
000002e0: f6d7 dd3d 0d27 903d 2edb 30bd 4077 453d
000002f0: f100 2ebd 3c51 21bb 237f 6f3e 971f 0f3d
00000300: c310 273e 73b6 4a3c a21f 933c 93ba 45bc
00000310: e57c c23d 94ad 283e c983 19bd 7f56 5f3d
00000320: a803 4c3c 0ec5 163e cfde 67be 73e2 333e
00000330: 87e9 4abe e6c7 94bd 50d1 42bd 81bc f6bc
00000340: e776 56be 37f5 5ebe 32e4 81bd b8e3 b4bd
00000350: db12 a43c 49e6 533c cbd7 49be aa38 67bd
00000360: afd2 923c 9f10 673d 4d0c fb3d 8eb8 f13d
00000370: 6a0b 84be 7b04 bfbc b307 85be 9166 cc3d
00000380: 6602 0d3e 2df5 d13d d139 92bd 41d5 b3bd
00000390: 6fd4 cbbe e9c3 143e b5a1 dfbd f1b7 593d
000003a0: 3389 34be a72f 983d 8ebf f13e 3ba6 e33e
000003b0: 1d37 d4bd 685d 2abe 9137 a23e dc87 133e
000003c0: 7d1a 0fbd 1731 473d 9d94 1bbe 8c24 ad3d
000003d0: 8dc0 2bbb 07fc 95bd b4a2 953e ac0b a83e
000003e0: d966 3b3d ad46 bf3b 3e10 bc3e 3d83 b5bc
000003f0: 6aac 4cba da53 873d 0a43 163d 539b 35bd

actor.0.bias f4 [64]
0.24742976 0.047815524 0.40841293 0.124101155 0.11220665 -0.24924287 0.26429284 -0.17911077
0.1080367 -0.0800238 -0.41280568 -0.5885503 0.3583542 -0.25479215 0.16986252 -0.4013556
0.26479542 -0.05057811 0.085189186 -0.08564397 0.10885368 -0.030257517 -0.37126014 0.12209724
-0.61506605 -0.7664136 0.12626897 -0.29222414 0.16646063 0.078581475 0.13116755 -0.54909396
0.11378737 -0.15236612 0.25961083 -0.26746276 -0.35993296 0.3142601 -0.30634698 0.07610213
0.109220274 -0.6595794 0.3243265 0.17832236 0.32977656 0.25441426 0.26201087 0.09483046
0.15987833 0.067892805 -0.16801216 0.41067153 0.09718807 0.17327076 0.15346801 -0.054604184
0.1659208 0.1276277 0.08072999 -0.33641428 0.11830253 -0.18191393 0.3315183 0.029433371
00000000: 3a5e 7d3e 36da 433d 801b d13e bf28 fe3d
00000010: 9acc e53d 8639 7fbe 6451 873e d068 37be
00000020: 5842 dd3d 85e3 a3bd 445b d3be 3cab 16bf
00000030: 347a b73e 1e74 82be 71f0 2d3e 7b7e cdbe
00000040: 4493 873e fe2a 4fbd ab77 ae3d 1b66 afbd
00000050: aeee de3d 9dde f7bc cf15 bebe 1e0e fa3d
00000060: f874 1dbf af33 44bf a74c 013e 679e 95be
00000070: a874 2a3e 53ef a03d c950 063e 6c91 0cbf
00000080: 5a09 e93d dd05 1cbe b6eb 843e e1f0 88be
00000090: 2249 b8be b3e6 a03e 83d9 9cbe 6fdb 9b3d
000000a0: e1ae df3d 32da 28bf 1f0e a63e 239a 363e
000000b0: 79d8 a83e 9642 823e 4a26 863e 7936 c23d
000000c0: 25b7 233e 620b 8b3d 610b 2cbe 8a43 d23e
000000d0: 8a0a c73d e46d 313e b826 1d3e a3a8 5fbd
000000e0: 24e7 293e d6b0 023e c455 a53d 7e3e acbe
000000f0: 9948 f23d a547 3abe c4bc a93e 411e f13c

actor.2.weight f4 [128, 64]
0.19567 -0.0035516324 0.118555784 -0.050160296 0.17702837 -0.19059198 0.19377255 -0.1561643
-0.11249107 0.57614833 0.4253673 0.013692045 0.26828188 -0.39858097 -0.0054139555 -0.014008183
-0.24367788 -0.20041047 0.06591407 -0.05051257 0.31034526 -0.2020736 -0.14362325 0.0035792196
0.11518032 0.28096488 0.20917237 0.16433991 -0.12323007 -0.23751761 -0.2536715 0.020536494
0.21679696 -0.0013049253 -0.36071673 0.20908658 0.2139034 -0.30547842 0.059875477 0.1343
-0.25176755 -0.10607247 -0.05774957 0.12559989 0.0986428 -0.2322006 0.078769974 0.0109264795
0.16327333 -0.19807595 0.31449258 -0.36904737 0.17468755 -0.093052745 -0.67620254 0.1864491
0.082498066 -0.054316036 -0.052522343 0.27065414 0.13527788 -0.1335828 -0.01778939 -0.096455626
-0.008741167 0.07238237 -0.14173469 -0.1552544 0.02206286 -0.0013974971 0.090273894 -0.33216825
0.0734082 0.10952137 -0.25895196 -0.022249997 -0.03509198 0.30655593 -0.32488844 -0.3691511
-0.18952434 0.11203439 0.021450032 -0.12737952 -0.18423548 -0.22113103 0.08873315 0.1309782
0.027665168 0.20111504 0.30437186 -0.25156677 -0.15718152 -0.3585426 -0.2512989 0.14117533
-0.33579 0.4273642 0.26861435 -0.016120952 -0.23477031 -0.24401565 0.054993313 -0.07402535
0.15383947 -0.033998296 -0.06759594 -0.12780102 -0.2529907 -0.34294674 0.4550735 -0.08163335
-0.13833183 -0.14563797 0.1178156 -0.12035781 -0.152552 -0.27806535 -0.29506862 0.10792149
0.33047214 -0.31295168 -0.15296078 -0.04398253 0.44704476 -0.0001588619 0.1791775 0.19840679
-0.044074498 0.08344135 -0.3027222 0.14365284 -0.2693888 0.53952944 0.15654328 0.1852548
0.05751398 -0.11882118 -0.07723017 -0.019894972 -0.26531497 -0.072587095 -0.19403434 -0.4175274
0.1537222 0.17340556 0.009226838 0.14049517 -0.3293916 0.14668676 0.48977455 -0.12530236
-0.1014897 -0.24020556 -0.17557247 0.080122046 0.12003926 0.017893588 0.34147573 -0.35216147
0.068855524 0.08970651 -0.23990256 -0.45019984 -0.10202364 0.20261781 0.20974424 -0.21527208
-0.1784101 0.07127765 0.14918195 -0.28416416 -0.062362738 0.11483927 0.33498818 -0.11463306
0.28404623 -0.1484924 -0.26143825 0.22813173 -0.074822515 0.21746574 0.15664156 0.06800567
-0.20975074 -0.020857176 0.27562037 -0.04804963 0.03410494 0.39802107 0.29830804 0.14091222
-0.009552086 0.2053749 0.20026872 -0.14754033 0.12364089 -0.22054818 -0.2073691 -0.08391448
-0.26776722 -0.15407495 0.018573085 0.10984503 0.00051787467 -0.16142195 -0.060013372 0.33441946
-0.30997065 0.087064534 0.106089786 -0.03670211 0.300197 0.15478861 0.056146145 -0.08401903
0.30414692 -0.14451371 -0.23772578 0.15824038 0.6936343 0.4619838 -0.12056756 0.24375264
-0.1646501 -0.02667377 0.164492 0.34895918 0.17024931 -0.08641147 0.25063065 -0.21330051
0.2863999 0.35177797 -0.0004759994 0.1462283 -0.44437322 0.1745822 -0.19967893 -0.31209788
-0.18594344 0.0954181 -0.09445908 -0.25735 0.0088156285 0.19059207 -0.07916088 0.15561906
-0.31244108 -0.074213505 -0.03728291 0.13842158 -0.101147294 0.16303569 -0.23460111 -0.06968053
00000000: b75d 483e 81c2 68bb 60cd f23d e274 4dbd
00000010: ed46 353e 8b2a 43be 506c 463e 89e9 1fbe
00000020: b861 e6bd 757e 133f bec9 d93e 9954 603c
00000030: 3e5c 893e ce12 ccbe 8d67 b1bb 9482 65bc
00000040: b286 79be 6738 4dbe f5fd 863d 45e6 4ebd
00000050: 93e5 9e3e 62ec 4ebe f911 13be 5791 6a3b
00000060: a9e3 eb3d a1da 8f3e 4831 563e b948 283e
00000070: 0c60 fcbd d137 73be 3be1 81be 263c a83c
00000080: 0600 5e3e 070a abba ddaf b8be cb1a 563e
00000090: 7e09 5b3e ab67 9cbe fd3f 753d f085 093e
000000a0: ade7 80be 863c d9bd d08a 6cbd 429d 003e
000000b0: 3c05 ca3d fec5 6dbe 2752 a13d fa04 333c
000000c0: 2031 273e 6cd4 4abe 2c05 a13e c7f3 bcbe
000000d0: 4be1 323e 7092 bebd 9c1b 2dbf 83ec 3e3e
000000e0: bff4 a83d 7e7a 5ebd ab21 57bd 2e93 8a3e
000000f0: 4986 0a3e eec9 08be 0ebb 91bc 878a c5bd
00000100: 1d37 0fbc 353d 943d e622 11be 02fb 1ebe
00000110: 2cbd b43c 392c b7ba 85e1 b83d f511 aabe
00000120: 0a57 963d bd4c e03d 5a95 84be a045 b6bc
00000130: 9cbc 0fbd e6f4 9c3e c757 a6be 5f01 bdbe
00000140: ab12 42be 4972 e53d fab7 af3c c76f 02be
00000150: 3aa8 3cbe 2c70 62be bab9 b53d 261f 063e
00000160: 10a2 e23c 1af1 4d3e a1d6 9b3e 5ccd 80be
00000170: 31f4 20be e592 b7be 40aa 80be 4490 103e
00000180: abec abbe 7bcf da3e d287 893e 1610 84bc
00000190: a167 70be 3ddf 79be ab40 613d 9a9a 97bd
000001a0: 1888 1d3e cc41 0bbd bd6f 8abd 45de 02be
000001b0: ff87 81be b796 afbe 65ff e83e 632f a7bd
000001c0: dca6 0dbe 1f22 15be 4e49 f13d 287e f6bd
000001d0: 9736 1cbe 955e 8ebe 3c13 97be f105 dd3d
000001e0: a533 a93e 343b a0be c0a1 1cbe 0627 34bd
000001f0: 0de3 e43e 2b94 26b9 4e7a 373e 262b 4b3e
00000200: 7687 34bd 4ce3 aa3d 67fe 9abe bb19 133e
00000210: 54ed 89be 9a1e 0a3f e24c 203e 6fb3 3d3e
00000220: c793 6b3d 8558 f3bd da2a 9ebd c8fa a2bc
00000230: 5dd7 87be 8ba8 94bd f0b0 46be 27c6 d5be
00000240: 5a69 1d3e 3a91 313e 2a2c 173c f7dd 0f3e
00000250: 04a6 a8be 0e35 163e bbc3 fa3e 434f 00be
00000260: d5d9 cfbd 72f8 75be 45c9 33be 0717 a43d
00000270: 25d7 f53d 9395 923c e8d5 ae3e 824e b4be
00000280: 2004 8d3d 0cb8 b73d 04a9 75be 9880 e6be
00000290: c5f1 d0bd 0b7b 4f3e 32c7 563e 4970 5cbe
000002a0: 23b1 36be 04fa 913d 27c3 183e f77d 91be
000002b0: 1270 7fbd da30 eb3d 9283 ab3e bdc4 eabd
000002c0: 826e 913e 640e 18be 3cdb 85be 5d9b 693e
000002d0: 8c3c 99bd 57af 5e3e a566 203e 8f46 8b3d
000002e0: e6c8 56be abdc aabc 1d1e 8d3e b0cf 44bd
000002f0: 9fb1 0b3d 6bc9 cb3e d5bb 983e 4b4b 103e
00000300: 5a80 1cbc cc4d 523e 3e13 4d3e d014 17be
00000310: 6f37 fd3d 62d7 61be 9158 54be 5bdb abbd
00000320: c918 89be d3c5 1dbe 9526 983c 6ef6 e03d
00000330: fbc1 073a cc4b 25be 95d0 75bd 0739 ab3e
00000340: 79b4 9ebe e44e b23d 9a45 d93d f454 16bd
00000350: 6cb3 993e e880 1e3e 80f9 653d 2b12 acbd
00000360: 25b9 9b3e 67fb 13be 636e 73be c409 223e
00000370: 0492 313f 2489 ec3e 20ec f6bd 4b9a 793e
00000380: 099a 28be f382 dabc 9770 283e c7aa b23e
00000390: d655 2e3e 7ff8 b0bd a952 803e 736b 5abe
000003a0: 02a3 923e 3e1c b43e 8f8f f9b9 dfbc 153e
000003b0: e384 e3be adc5 323e a278 4cbe 4bcb 9fbe
000003c0: f567 3ebe 916a c33d c373 c1bd 61c3 83be
000003d0: 6d6f 103c 912a 433e 191f a2bd 9a5a 1f3e
000003e0: 47f8 9fbe 40fd 97bd f7b5 18bd 63be 0d3e
000003f0: 5026 cfbd d4f2 263e 463b 70be aab4 8ebd

actor.2.bias f4 [128]
0.049282733 -0.0602627 -0.018525327 -0.19666283 -0.18127467 0.1557657 0.16260605 0.13288546
0.17007098 0.13118349 0.16293374 -0.020070467 0.059785794 -0.063932456 0.15135887 -0.075961515
-0.019555146 0.38841254 0.093823805 0.33908868 -0.0806585 -0.08108002 -0.22902234 0.005343363
0.03378863 0.09893502 0.10043952 -0.09420153 0.053922888 0.0710478 -0.03565306 -0.14824371
-0.051613327 0.15191935 0.034724496 -0.17855409 0.06893805 0.05018189 -0.012553225 -0.01582458
-0.431362 -0.08231619 -0.056316864 0.09122613 -0.04879111 -0.012278926 0.19152449 -0.07310333
0.1851276 -0.014919296 0.11958897 0.106541604 0.10948894 0.09248271 0.24305879 -0.012963709
-0.101065636 0.20277324 0.19736856 0.23201004 0.025041534 -0.20640406 0.013493534 -0.15038683
-0.09652001 -0.14611553 0.011849668 0.15704235 -0.11923698 -0.13736013 0.26259792 -0.057884667
-0.04181518 0.081202134 -0.02921539 0.16639623 0.052566294 -0.09461839 -0.16667937 0.04730781
-0.06680723 0.23821867 0.16689737 -0.3400716 0.2558567 0.11191158 0.17367454 0.25979447
-0.10843096 -0.056305207 -0.32379046 0.12584066 0.0050454917 -0.00494136 -0.11977119 -0.13827497
-0.28453663 -0.037473243 0.03829757 -0.25918597 -0.23878446 0.2951057 0.2672883 -0.25817096
-0.051296227 0.10306193 -0.50825286 -0.14832805 0.13963918 0.07858864 -0.2486938 -0.18613073
-0.043893263 0.12195367 -0.17802341 -0.14191702 -0.07533416 0.041146997 -0.18629304 -0.13174926
-0.25601363 0.007668862 0.09840727 0.2513486 0.1488641 0.068017885 -0.23018363 0.041068867
00000000: b1dc 493d 05d6 76bd 6dc2 97bc fb61 49be
00000010: 11a0 39be 0b81 1f3e 3382 263e 2013 083e
00000020: 1627 2e3e f754 063e 1ad8 263e d26a a4bc
00000030: f3e1 743d 05ef 82bd d2fd 1a3e b691 9bbd
00000040: 1d32 a0bc 02de c63e b226 c03d 089d ad3e
00000050: 4930 a5bd 480d a6bd d584 6abe 6117 af3b
00000060: f265 0a3d 729e ca3d 3cb3 cd3d bbec c0bd
00000070: 3fde 5c3d 8281 913d f108 12bd 33cd 17be
00000080: 7f68 53bd bf90 1b3e 463b 0e3d e2d6 36be
00000090: 642f 8d3d 878b 4d3d 0bac 4dbc 8da2 81bc
000000a0: 7bdb dcbe 6495 a8bd 83ac 66bd c4d4 ba3d
000000b0: 30d9 47bd 8c2d 49bc ff1e 443e 33b7 95bd
000000c0: 1792 3d3e 1070 74bc 10eb f43d 7c32 da3d
000000d0: bd3b e03d 9367 bd3d 67e4 783e bd65 54bc
000000e0: 80fb cebd caa3 4f3e fc1a 4a3e 0a94 6d3e
000000f0: e723 cd3c 965b 53be fc13 5d3c 01ff 19be
00000100: 48ac c5bd 4f9f 15be 1c25 423c b6cf 203e
00000110: 8532 f4bd 22a8 0cbe 3c73 863e 7918 6dbd
00000120: 6546 2bbd 4e4d a63d 1d55 efbc c663 2a3e
00000130: c14f 573d 49c7 c1bd ffad 2abe d6c5 413d
00000140: 3bd2 88bd 98ef 733e 25e7 2a3e dd1d aebe
00000150: a6ff 823e e631 e53d bdd7 313e c803 853e
00000160: 0d11 debd 4aa0 66bd ddc7 a5be 60dc 003e
00000170: a754 a53b 22eb a1bb 994a f5bd f497 0dbe
00000180: c9ae 91be 8b7d 19bd eadd 1c3d 06b4 84be
00000190: ea83 74be 1818 973e 03da 883e fc2e 84be
000001a0: fe1b 52bd 2212 d33d dc1c 02bf 4fe3 17be
000001b0: 93fd 0e3e 15f3 a03d 96a9 7ebe 0e99 3ebe
000001c0: 6cc9 33bd d9c2 f93d c54b 36be b252 11be
000001d0: cc48 9abd c189 283d 9ac3 3ebe 47e9 06be
000001e0: 3814 83be 144b fb3b c089 c93d c4b0 803e
000001f0: d56f 183e f64c 8b3d 42b5 6bbe d437 283d

actor.4.weight f4 [64, 128]
-0.0520497 -0.09692794 0.043968383 -0.045202956 0.26404345 0.08358586 -0.24595563 0.18465151
0.48868552 0.29335138 -0.43038896 -0.24749674 -0.10189184 0.29734746 -0.14794835 -0.122843936
-0.2383371 0.17156903 -0.21550289 0.31016693 -0.2715943 0.46634454 -0.1742067 0.47184196
0.33271334 -0.27067867 -0.26112473 -0.17168905 -0.30994692 0.16112399 0.21620375 -0.17960928
-0.18299162 -0.3519112 0.06752386 -0.34426144 -0.26881602 0.020014292 0.20472077 -0.3849746
0.34607247 0.057883587 -0.22745296 0.0032096687 0.042191807 0.12865536 -0.4091351 0.18395443
0.33442286 0.28030673 0.22677423 -0.063875616 0.24585354 0.02080421 0.03503703 -0.10410259
-0.0006525532 -0.30144832 -0.16049889 0.12442049 -0.37554318 0.079895124 -0.06282497 -0.51025283
0.22788446 -0.2901269 -0.21107315 0.25644234 0.013929429 0.34440392 0.15389045 0.461002
-0.026103236 -0.36211663 -0.15206565 0.0056943675 0.21238513 0.039561678 -0.0028183765 -0.09745837
-0.43155682 0.46155244 -0.1904526 0.21132208 0.22041531 0.3175445 -0.23731285 -0.016599486
0.1912458 -0.13391404 0.12638356 0.16369759 -0.30555832 0.026542354 -0.06669945 0.05061236
0.012649866 -0.2767753 0.10069893 0.13592955 0.5456844 -0.23396212 0.24042185 -0.27738616
0.20487896 -0.0739817 0.007104865 -0.02980487 0.07003148 -0.016232565 0.067666925 -0.23048103
0.092124246 -0.47854578 -0.12631764 -0.78609306 -0.052610334 0.4881051 0.45385188 0.030660948
0.14128324 -0.07841448 0.23242676 0.04723091 0.19698924 -0.1838596 -0.12248693 -0.22070217
-0.05604588 -0.27863505 -0.31142464 0.075677894 0.009803777 0.083089 -0.040200688 0.20261501
-0.0060086884 0.016856464 -0.34857738 -0.16836946 -0.1069133 0.11445569 0.43418935 0.37711078
-0.11141132 -0.004721647 -0.092144504 0.2471565 -0.044567324 0.20565853 -0.27704304 0.09900043
0.008811076 0.15099435 -0.14387171 0.2380044 0.14444374 0.052787933 0.0013372123 -0.17996438
0.11104086 0.006467895 0.15723523 0.4508205 -0.5031954 -0.3297231 -0.12175749 0.057801396
-0.18022743 -0.011437609 0.07150544 -0.11513349 -0.16632129 -0.38505384 0.11578479 -0.11062241
0.1675196 -0.22973754 0.28715947 -0.25590798 0.25730878 -0.07676563 -0.13196382 0.022498522
0.3007517 0.00957662 0.08027811 -0.032429483 0.10600218 -0.32663503 0.40108186 0.10784333
-0.17917122 -0.2416844 0.12253995 0.41303805 -0.037564103 -0.02461338 0.32605833 -0.04005619
0.46758297 0.04213278 0.1563497 0.08790617 -0.21998218 -0.105471335 -0.08239425 -0.27644834
0.41282618 0.28470734 -0.40045357 0.24356312 -0.06522926 0.5139316 0.45461732 0.020588668
0.21174493 -0.048631504 0.3421355 0.16184406 -0.0630861 -0.21665464 0.050214477 0.29203203
0.32665652 -0.17269447 0.07889111 0.39148232 0.20773464 0.082380965 0.027167827 0.033740684
-0.15107717 0.023635644 0.44073567 0.022598874 -0.089747615 -0.26909167 -0.25870934 -0.13719241
0.32323506 0.10554172 -0.073358834 -0.2815178 -0.036286265 -0.21677007 0.026544865 -0.07289334
-0.1044428 0.14733529 0.14179857 0.12014393 -0.24476312 0.053492613 -0.04082868 0.038849264
00000000: 1132 55bd 2882 c6bd 3118 343d bc26 39bd
00000010: b430 873e 102f ab3d cbdb 7bbe 4915 3d3e
00000020: fd34 fa3e 2732 963e f15b dcbe c96f 7dbe
00000030: abac d0bd ed3d 983e c67f 17be 9a95 fbbd
00000040: a40e 74be cbaf 2f3e caac 5cbe 33ce 9e3e
00000050: 680e 8bbe b6c4 ee3e 3e63 32be 4595 f13e
00000060: 6759 aa3e 6596 8abe 24b2 85be 41cf 2fbe
00000070: 5db1 9ebe b0fd 243e 8464 5d3e 7feb 37be
00000080: 2862 3bbe b42d b4be f349 8a3d 0943 b0be
00000090: 41a2 89be 03f5 a33c 52a2 513e 641b c5be
000000a0: 6930 b13e 5717 6d3d 6ee9 68be 4e59 523b
000000b0: 51d1 2c3d 3bbe 033e 287a d1be 8d5e 3c3e
000000c0: 7939 ab3e 5d84 8f3e 8137 683e 38d1 82bd
000000d0: 08c1 7b3e 976d aa3c fd82 0f3d bd33 d5bd
000000e0: 1b10 2bba 6f57 9abe d259 24be 2bd0 fe3d
000000f0: 3247 c0be 0ea0 a33d 61aa 80bd ee9f 02bf
00000100: 8b5a 693e 838b 94be 8f23 58be 694c 833e
00000110: 4338 643c b655 b03e 7595 1d3e 7408 ec3e
00000120: 74d6 d5bc 5a67 b9be 19b7 1bbe d197 ba3b
00000130: 7d7b 593e 6d0b 223d 83b4 38bb 4198 c7bd
00000140: 04f5 dcbe 9a50 ec3e 0206 43be d164 583e
00000150: 8db4 613e 3195 a23e 2402 73be a5fb 87bc
00000160: f0d5 433e c320 09be b16a 013e 57a0 273e
00000170: 2472 9cbe 5a6f d93c b999 88bd e84e 4f3d
00000180: 6241 4f3c 7eb5 8dbe 3e3b ce3d 1e31 0b3e
00000190: f9b1 0b3f c493 6fbe 2531 763e 8f05 8ebe
000001a0: cacb 513e b883 97bd edcf e83b 5829 f4bc
000001b0: aa6c 8f3d 28fa 84bc f594 8a3d 3803 6cbe
000001c0: a3ab bc3d f403 f5be 6959 01be 653d 49bf
000001d0: ef7d 57bd e9e8 f93e 465f e83e ab2c fb3c
000001e0: 8eac 103e c597 a0bd 4801 6e3e 3375 413d
000001f0: 8cb7 493e b145 3cbe 6dda fabd c0ff 61be
00000200: 5d90 65bd 41a9 8ebe 0d73 9fbe 03fd 9a3d
00000210: 05a0 203c 912a aa3d 7aa9 24bd 4f7a 4f3e
00000220: 88e4 c4bb 9116 8a3c bc78 b2be 0b69 2cbe
00000230: 5cf5 dabd bf67 ea3d 114e de3e aa14 c13e
00000240: 9e2b e4bd 0cb8 9abb 42b6 bcbd 9816 7d3e
00000250: 3a8c 36bd 2698 523e 96d8 8dbe bdc0 ca3d
00000260: 555c 103c 439e 1a3e 1b53 13be 6db7 733e
00000270: 0fe9 133e 2938 583d 6645 af3a 9548 38be
00000280: 6469 e33d a3f0 d33b 4602 213e f2d1 e63e
00000290: 6ad1 00bf 77d1 a8be fe5b f9bd 28c1 6c3d
000002a0: 8a8d 38be cf64 3bbc 7271 923d 1bcb ebbd
000002b0: 2150 2abe c725 c5be 9320 ed3d 018e e2bd
000002c0: 428a 2b3e 5140 6bbe 9106 933e 5f06 83be
000002d0: fabd 833e 4c37 9dbd 8621 07be d24e b83c
000002e0: 20fc 993e 41e7 1c3c da68 a43d c7d4 04bd
000002f0: ac17 d93d b53c a7be 9a5a cd3e f7dc dc3d
00000300: a978 37be 1e7c 77be 3af6 fa3d b979 d33e
00000310: d1dc 19bd 00a2 c9bc 1ef1 a63e f611 24bd
00000320: 0967 ef3e 6c93 2c3d 231a 203e 2608 b43d
00000330: 0243 61be 5b01 d8bd 51be a8bd a38a 8dbe
00000340: f45d d33e 29c5 913e 4008 cdbe 9c68 793e
00000350: eb96 85bd 0591 033f 9ac3 e83e 91a9 a83c
00000360: aad3 583e d431 47bd 622c af3e 73ba 253e
00000370: 4933 81bd b7da 5dbe b2ad 4d3d 3985 953e
00000380: 863f a73e d2d6 30be aa91 a13d 5f70 c83e
00000390: 64b8 543e 5ab7 a83d 108f de3c ac33 0a3d
000003a0: f9b3 1abe 8a9f c13c 1ba8 e13e 4621 b93c
000003b0: 99cd b7bd 62c6 89be 8d75 84be 2b7c 0cbe
000003c0: 117f a53e 4226 d83d 283d 96bd 1a23 90be
000003d0: e8a0 14bd f9f8 5dbe 9e74 d93c 1a49 95bd
000003e0: 1be6 d5bd 10df 163e a533 113e 050e f63d
000003f0: 2fa3 7abe 121b 5b3d f93b 27bd 6820 1f3d

actor.4.bias f4 [64]
-0.0007116699 -0.13663672 -0.14014417 0.2878865 -0.075568005 0.12070382 -0.028602118 0.22374173
0.04946978 -0.1634238 0.26691273 -0.24102312 0.19489868 -0.046025436 -0.3017845 -0.120837346
-0.28962225 0.16576006 0.06533362 0.0062089865 0.20959865 -0.17275962 0.23739927 0.066392705
0.095021725 -0.100137584 -0.21307668 0.08975041 0.030725317 0.5144685 -0.22385123 -0.049181417
-0.15484071 0.2688756 0.46031374 -0.3042956 -0.28004834 -0.0814821 -0.04129004 0.056056544
-0.0685957 0.21792588 0.094000295 -0.31433547 0.26337567 -0.122475445 0.23333949 0.24018063
-0.22523777 0.0878638 0.02955521 0.035820555 -0.4419735 0.12835771 -0.002189374 0.034237187
-0.13505314 0.009222067 0.2988742 0.17716986 0.07880765 0.19134673 -0.32793552 0.098511435
00000000: 5c8f 3aba 7fea 0bbe f481 0fbe dc65 933e
00000010: 66c3 9abd 9033 f73d fd4e eabc 8d1c 653e
00000020: d3a0 4a3d 9258 27be c9a8 883e c4ce 76be
00000030: 8593 473e 2b85 3cbd 7f83 9abe 9279 f7bd
00000040: 5e49 94be 01bd 293e a2cd 853d c174 cb3b
00000050: 07a1 563e e6e7 30be cb18 733e e6f8 873d
00000060: c09a c23d ef14 cdbd c630 5abe 10cf b73d
00000070: a9b3 fb3c 35b4 033f 4239 65be 7472 49bd
00000080: 908e 1ebe 10aa 893e 3eae eb3e a2cc 9bbe
00000090: 7f62 8fbe 16e0 a6bd bf1f 29bd 8c9b 653d
000000a0: e77b 8cbd f627 5f3e 3a83 c03d 94f0 a0be
000000b0: 2dd9 863e 68d4 fabd 8cf0 6e3e e9f1 753e
000000c0: bba4 66be f0f1 b33d c51d f23c 93b8 123d
000000d0: 5a4a e2be 3470 033e 9a7b 0fbb 4b3c 0c3d
000000e0: 5f4b 0abe 2718 173c 0a06 993e 046c 353e
000000f0: e865 a13d 66f0 433e 2ae7 a7be 5dc0 c93d

actor.6.weight f4 [3, 64]
0.08336634 -0.036622692 0.023619674 0.22446889 0.014532066 -0.20787403 0.076138854 0.13033995
0.12807982 0.04809935 -0.004340725 -0.16971694 -0.070386544 0.07954507 -0.076101586 -0.125905
-0.28149673 -0.025998449 -0.1251021 0.02279143 -0.01236865 0.2575787 0.23404689 0.039777033
0.09035497 -0.04799146 0.049331512 0.016719747 -0.010898963 0.20352724 0.049733233 0.12657833
-0.012516264 0.33119792 0.33251277 -0.068339266 0.017539283 -0.2109586 -0.063670635 0.19970949
-0.2238817 0.1050785 0.23569536 -0.42383754 0.16020626 0.09277416 0.120704174 0.1745182
-0.36558634 -0.12588738 -0.0007155207 0.25144368 -0.2119344 0.122290276 0.12935814 0.110141985
-0.37322637 0.04077264 0.09912509 0.22947685 -0.11602657 0.05906545 -0.3645028 0.20770866
0.06663146 0.04305816 0.009904187 -0.14832118 0.12881184 0.011220098 0.02685854 -0.0755248
-0.31089598 -0.1780014 0.15411334 0.15356208 0.013456607 0.064440995 -0.08631283 0.077512205
0.1420822 -0.046169136 0.22280185 0.053604435 -0.0740426 -0.26985323 -0.05640484 -0.10061232
0.1364735 0.018727548 -0.015613616 0.4227009 -0.10700416 -0.00085974496 -0.2604898 -0.06608875
-0.32160026 -0.047093403 -0.1106525 -0.14806367 -0.10920382 -0.077860646 -0.087956905 -0.19018668
-0.009141086 -0.012981965 -0.048177753 0.084552914 -0.01022922 -0.2888843 0.034514368 -0.112230554
0.119893536 0.32611793 -0.2734623 -0.20541301 0.03441065 -0.26075444 -0.2312197 -0.29922894
-0.017909536 0.06742095 0.0015199762 -0.17927524 -0.0869402 0.07966381 0.32341957 -0.19748065
-0.269287 0.0032772806 -0.15223311 0.009070467 -0.037697654 0.35323977 0.033378813 -0.00014009823
0.14844571 0.18358533 -0.11331533 0.017085802 0.2920099 -0.2967669 0.2257961 0.059744168
-0.06923626 0.048796896 0.09216618 0.010467486 0.27145544 -0.03131091 -0.13933532 -0.049137432
-0.029855845 -0.08574418 0.0023174821 -0.3020181 -0.0054468415 -0.034992095 0.052461322 -0.24351227
0.16153225 -0.119218744 -0.075471446 0.049447313 -0.070495784 0.3685517 0.16558297 -0.15187453
0.29210788 -0.07889509 -0.2056017 0.18587555 -0.060493384 -0.011522713 -0.13131025 0.065128036
0.20905258 -0.201811 0.15165704 -0.11397179 -0.03644823 0.20977114 0.005890787 0.12380821
0.25036892 -0.25445527 0.055613115 -0.110245325 0.16262218 -0.0031306362 -0.014414184 0.11520325
00000000: f9bb aa3d ad01 16bd 0c7e c13c 2cdb 653e
00000010: e717 6e3c eedc 54be b0ee 9b3d d677 053e
00000020: 5b27 033e d303 453d a43c 8ebb 47ca 2dbe
00000030: d226 90bd 87e8 a23d 26db 9bbd 3eed 00be
00000040: 5720 90be b3fa d4bc c41a 00be 18b5 ba3c
00000050: e1a5 4abc 5be1 833e fda9 6f3e 3eed 223d
00000060: 070c b93d b192 44bd d70f 4a3d daf7 883c
00000070: 9091 32bc 7269 503e 13b5 4b3d c09d 013e
00000080: 0411 4dbc c692 a93e 1d3f aa3e 75f5 8bbd
00000090: 8bae 8f3c 8805 58be c065 82bd a580 4c3e
000000a0: 3f41 65be 6633 d73d 205a 713e 3c01 d9be
000000b0: 1c0d 243e 6100 be3d c033 f73d e6b4 323e
000000c0: 222e bbbe 9fe8 00be c891 3bba 3abd 803e
000000d0: 5505 59be 5373 fa3d 7676 043e 1f92 e13d
000000e0: 8717 bfbe 3601 273d 1802 cb3d fbfb 6a3e
000000f0: 579f edbd 9dee 713d 1ca0 babe 94b1 543e
00000100: 1376 883d c15d 303d 2c45 223c 82e1 17be
00000110: 40e7 033e 80d4 373c 7106 dc3c bfac 9abd
00000120: c22d 9fbe 0046 36be e3cf 1d3e 613f 1d3e
00000130: 1a79 5c3c a4f9 833d c8c4 b0bd b8be 9e3d
00000140: ff7d 113e d91b 3dbd 2b26 643e 5390 5b3d
00000150: a6a3 97bd 342a 8abe c308 67bd d50d cebd
00000160: b6bf 0b3e 846a 993c 41d0 7fbc 416c d83e
00000170: ff24 dbbd 8260 61ba eb5e 85be 8a59 87bd
00000180: caa8 a4be 03e5 40bd c79d e2bd 019e 17be
00000190: 41a6 dfbd 6775 9fbd c022 b4bd 4cc0 42be
000001a0: 7ec4 15bc 4fb2 54bc 0956 45bd 142a ad3d
000001b0: 7598 27bc a5e8 93be f05e 0d3d 22d9 e5bd
000001c0: be8a f53d eef8 a63e 4003 8cbe ca57 52be
000001d0: 2ff2 0c3d 9b81 85be dbc4 6cbe 8934 99be
000001e0: 05b7 92bc ff13 8a3d f039 c73a ee93 37be
000001f0: b40d b2bd c826 a33d 4097 a53e 5e38 4abe
00000200: fcdf 89be a5c7 563b ffe2 1bbe 4c9c 143c
00000210: db68 1abd d8db b43e 39b8 083d 55e7 12b9
00000220: 2702 183e cbfd 3b3e de11 e8bd 86f7 8b3c
00000230: 5282 953e d5f1 97be 1837 673e 4db6 743d
00000240: becb 8dbd 41df 473d 9fc1 bc3d d27f 2b3c
00000250: 35fc 8a3e de3f 00bd ebad 0ebe 5544 49bd
00000260: 3f94 f4bc a59a afbd e6e0 173b 1ea2 9abe
00000270: 6b7b b2bb df53 0fbd afe1 563d 485b 79be
00000280: b668 253e f528 f4bd c690 9abd 4489 4a3d
00000290: 1860 90bd cfb2 bc3e 958e 293e ff84 1bbe
000002a0: 2a8f 953e c093 a1bd 4189 52be 2956 3e3e
000002b0: e9c7 77bd c3c9 3cbc 3276 06be d961 853d
000002c0: e111 563e 8ba7 4ebe fc4b 1b3e 0b6a e9bd
000002d0: bd4a 15bd 3fce 563e 8107 c13b 298f fd3d
000002e0: 5b30 803e f647 82be 94ca 633d 4dc8 e1bd
000002f0: 6e86 263e 5c2b 4dbb 7829 6cbc aeef eb3d

actor.6.bias f4 [3]
0.28777146 0.04513467 -0.09136919
00000000: c856 933e 22df 383d c51f bbbd

critic.0.weight f4 [64, 1176]
0.031717572 -0.05604731 -0.023348464 -0.073992155 0.055671196 -0.0345519 -0.044353116 0.034264915
-0.010002415 0.03274315 -0.05002283 -0.031850006 0.018856509 -0.018137611 0.04585773 -0.003189582
0.064924955 -0.00560045 -0.07926281 0.0015553979 -0.0019061222 0.02667065 -0.013529068 0.004801285
0.11288835 -0.025722506 -0.077940755 -0.021159498 -0.060232617 0.024708843 -0.007953734 -0.06472949
0.0016648513 -0.0046980325 0.039860312 -0.011711992 0.039826866 0.012183347 -0.06396355 -0.033706065
-0.03681524 -0.02161566 0.04025394 0.07798043 0.053084023 -0.0384603 0.046165474 -0.012733754
0.07084883 -0.010480254 0.12028164 0.0058393637 0.019340886 -0.040042423 -0.01658041 0.021666158
-0.030618068 -0.015583748 -0.019387139 0.049342833 0.001095768 0.033958655 -0.021757092 0.025699714
0.014800071 0.08356866 0.057165477 -0.014202249 0.052999787 -0.041811462 -0.032285415 -0.024098951
0.056985788 0.04297533 -0.015008682 0.043819185 0.020073282 -0.04422208 0.07033696 -0.018869605
-0.060657386 -0.002147658 -0.07838907 0.02431485 -0.043828215 -0.024515966 -0.034305166 -0.0033588207
0.022494052 -0.014321903 -0.012809687 -0.019893391 0.018124811 -0.03097292 -0.02031038 -0.029287076
-0.00930625 0.042159725 -0.026292076 0.023834055 0.0106347725 -0.08866229 -0.0029083814 0.045488697
0.05423169 -0.032754287 -0.030590767 0.09550911 0.008485117 0.06002433 -0.009103525 -0.020459907
0.015003075 0.02485303 -0.02978478 -0.06022913 0.03403678 0.018935155 0.07104893 -0.057217564
0.05797609 0.05455456 0.026102923 -0.03847125 -0.08333776 0.07836061 -0.027247941 0.026537288
-0.029734146 0.054783095 0.009153172 -0.040232625 -0.008666861 0.056597125 0.06523669 -0.05195939
-0.11386376 0.042955473 0.07130966 -0.015103304 0.09924119 0.06706813 0.0026517352 0.034624245
0.053992238 0.04349349 0.039815973 -0.019045526 0.005413226 0.05437806 -0.045759786 0.035064492
0.024142751 0.011323799 -0.014352054 -0.0023657305 0.07928338 0.040007688 -0.053289793 0.0016570673
0.041543473 0.003934135 -0.012005832 0.010128857 0.014500607 0.038295053 -0.03082559 -0.037535224
0.06011826 -0.0012762354 -0.04438801 0.05324124 0.002202846 -0.012572635 0.050863434 -0.06426458
-0.0345672 0.025861492 -0.023510423 -0.018253488 0.03735803 0.030331524 0.014620348 -0.09424636
-0.022505408 -0.00625613 0.03510381 0.031945337 0.024887392 -0.0022515494 -0.010487282 0.009688446
0.006563713 0.016016888 -0.049889028 -0.017549267 -0.011915991 0.04599211 -0.03300867 0.07693837
-0.06435624 0.012707976 0.0047937 0.025424883 0.10378198 0.058784574 -0.009025559 -0.049195487
0.06719751 0.034110565 -0.059208807 0.04603715 0.0971364 0.00090996485 0.027248513 0.00877733
0.00573584 -0.00722403 -0.048300713 -0.0160235 0.006995359 -0.056337982 0.08902684 0.008448342
0.05029102 0.0006669063 -0.023443358 -0.027894322 -0.0084995115 0.083803475 0.02745213 0.052965485
-0.02677055 -0.012199643 -0.027343474 -0.028022822 0.004369211 0.020907374 0.06684533 -0.044795554
-0.05410401 0.066105865 -0.018178215 0.008569912 0.07148693 0.074304245 0.03112692 0.02231002
0.0118495915 0.021557214 0.094665885 0.03017543 0.06517876 0.009515338 0.042879548 0.005498248
00000000: 49ea 013d dd91 65bd 4745 bfbc 3389 97bd
00000010: 7b07 643d 4b86 0dbd 9dab 35bd 5e59 0c3d
00000020: 2be1 23bc ae1d 063d bde4 4cbd 2775 02bd
00000030: f778 9a3c 5495 94bc 51d5 3b3d 4e08 51bb
00000040: 60f7 843d fb83 b7bb 8a54 a2bd 7ede cb3a
00000050: d9d6 f9ba 687c da3c 06a9 5dbc 1954 9d3b
00000060: 0232 e73d 01b8 d2bc 679f 9fbd af56 adbc
00000070: 7ab6 76bd 336a ca3c 6150 02bc e590 84bd
00000080: 2437 da3a f4f1 99bb 9144 233d a8e3 3fbc
00000090: 7f21 233d a99c 473c 52ff 82bd 5f0f 0abd
000000a0: 94cb 16bd 5313 b1bc 51e1 243d 34b4 9f3d
000000b0: a26e 593d 8c88 1dbd 0218 3d3d 3ca1 50bc
000000c0: 3119 913d 5fb5 2bbc 3856 f63d 2258 bf3b
000000d0: c770 9e3c 8603 24bd a4d3 87bc 3a7d b13c
000000e0: bed2 fabc fa52 7fbc c7d1 9ebc b61b 4a3d
000000f0: df9f 8f3a 3b18 0b3d ee3b b2bc 3588 d23c
00000100: ff7b 723c 0c26 ab3d 5926 6a3d 8db0 68bc
00000110: 4e16 593d 7f42 2bbd b63d 04bd 2a6b c5bc
00000120: ee69 693d e606 303d fae6 75bc bf7b 333d
00000130: b970 a43c 3622 35bd d30c 903d 6e94 9abc
00000140: e173 78bd b9bf 0cbb 738a a0bd f02f c73c
00000150: 3785 33bd b5d5 c8bc 9383 0cbd a91f 5cbb
00000160: 7245 b83c 6aa6 6abc b9df 51bc 77f7 a2bc
00000170: 7c7a 943c ecba fdbc f461 a6bc 73eb efbc
00000180: 3e79 18bc adaf 2c3d 7b62 d7bc a33f c33c
00000190: 783d 2e3c 9394 b5bd 8b9a 3ebb 5b52 3a3d
000001a0: 0c22 5e3d 5c29 06bd 7d99 fabc 489a c33d
000001b0: 2905 0b3c 12dc 753d f426 15bc 899b a7bc
000001c0: 75cf 753c 9598 cb3c 36ff f3bc d2b2 76bd
000001d0: 276a 0b3d e61d 9b3c 1a82 913d f75c 6abd
000001e0: 5678 6d3d 9a74 5f3d ccd5 d53c 0894 1dbd
000001f0: fdac aabd 877b a03d 1337 dfbc ba64 d93c
00000200: 0695 f3bc 3d64 603d 30f7 153c f7ca 24bd
00000210: 73ff 0dbc 63d2 673d d09a 853d 5fd3 54bd
00000220: 6731 e9bd 14f2 2f3d cd0a 923d d973 77bc
00000230: f73e cb3d 045b 893d bcc8 2d3b 27d2 0d3d
00000240: f726 5d3d 3b26 323d 1316 233d 5d05 9cbc
00000250: 6e61 b13b 87bb 5e3d 9d6e 3bbd c99f 0f3d
00000260: 05c7 c53c 7587 393c e124 6bbc 5f0a 1bbb
00000270: 535f a23d 1adf 233d 6646 5abd f431 d93a
00000280: 7d29 2a3d ebe9 803b 1cb4 44bc 81f3 253c
00000290: f493 6d3c 46db 1c3d f385 fcbc 89be 19bd
000002a0: 913e 763d 5b47 a7ba 34d0 35bd 7d13 5a3d
000002b0: a05d 103b 74fd 4dbc 2d56 503d 269d 83bd
000002c0: 5696 0dbd 7bdb d33c ee98 c0bc 5788 95bc
000002d0: bc04 193d d179 f83c 2f8a 6f3c 3c04 c1bd
000002e0: 435d b8bc 3900 cdbb 03c9 0f3d 1dd9 023d
000002f0: a5e0 cb3c bb8e 13bb d9d2 2bbc 4abc 1e3c
00000300: 6a14 d73b d935 833c 7058 4cbd 7bc3 8fbc
00000310: 4a3b 43bc 3962 3c3d 1934 07bd dd91 9d3d
00000320: 34cd 83bd 1d35 503c 7814 9d3b d847 d03c
00000330: a68b d43d 18c8 703d f0df 13bc 3581 49bd
00000340: d99e 893d 85b7 0b3d ef84 72bd 7391 3c3d
00000350: 73ef c63d b58a 6e3a 4638 df3c cace 0f3c
00000360: b7f3 bb3b 8eb7 ecbb f8d6 45bd b743 83bc
00000370: 5339 e53b a8c2 66bd b453 b63d ea6a 0a3c
00000380: f5fd 4d3d 53d3 2e3a 490c c0bc a282 e4bc
00000390: 8941 0bbc 28a1 ab3d 4ae3 e03c 56f2 583d
000003a0: ea4d dbbc 03e1 47bc 6cff dfbc 1e90 e5bc
000003b0: 992b 8f3b f145 ab3c 34e6 883d 8b7b 37bd
000003c0: 2b9c 5dbd 8362 873d 7bea 94bc d168 0c3c
000003d0: bd67 923d d32c 983d e2fd fe3c 81c3 b63c
000003e0: ca24 423c c198 b03c 30e0 c13d 7732 f73c
000003f0: 717c 853d 38e6 1b3c 77a2 2f3d a62a b43b

critic.0.bias f4 [64]
-0.0023202582 0.0032116806 -0.0025415928 -0.003784331 0.0025300698 0.002294182 -0.0024958542 -0.0030242836
0.002517383 0.0025033762 -0.0024975305 0.0044532176 -0.0025085362 -0.0025158904 -0.0024261142 -0.002507353
-0.0022975334 0.0025080664 -0.0022839 0.0025111223 0.0024945089 -0.0025418291 -0.0022351756 0.0023676304
0.002475148 -0.0025069246 0.0025665208 -0.0066614016 0.002500333 0.0025237438 0.0025277769 -0.002231207
-0.0025124247 -0.0025030442 -0.0025364943 -0.0024961536 0.002512134 0.002380933 -0.0025025583 -0.0025213552
0.0024987806 0.002502141 -0.0025395702 -0.0024921207 0.0025321033 -0.0025166876 0.002524513 0.0024893417
0.0025044084 -0.0022415393 0.0024997755 0.0040253852 -0.00309354 0.0046248063 0.0025272276 -0.0023255988
0.0025257755 0.002488724 -0.002353836 -0.002256186 0.0048299977 0.0022495652 0.002514938 -0.002516571
00000000: 790f 18bb 0f7b 523b da90 26bb 8a02 78bb
00000010: 87cf 253b fd59 163b 7c91 23bb 0f33 46bb
00000020: aefa 243b af0f 243b 9cad 23bb 4cec 913b
00000030: 4166 24bb a3e1 24bb 71ff 1ebb 6752 24bb
00000040: 3792 16bb 5f5e 243b 7cad 15bb a491 243b
00000050: ea7a 233b d194 26bb 067c 12bb 3f2a 1b3b
00000060: 1836 223b 374b 24bb 1333 283b e347 dabb
00000070: a0dc 233b 6565 253b 0fa9 253b 7139 12bb
00000080: 7ea7 24bb 1d0a 24bb 503b 26bb 8296 23bb
00000090: 9da2 243b 6d09 1c3b f601 24bb 523d 25bb
000000a0: 95c2 233b f6fa 233b eb6e 26bb d952 23bb
000000b0: a5f1 253b 03ef 24bb 4d72 253b 3924 233b
000000c0: 0021 243b cae6 12bb 46d3 233b 61e7 833b
000000d0: fdbc 4abb b08b 973b d89f 253b 1369 18bb
000000e0: 7b87 253b dc19 233b d142 1abb 85dc 13bb
000000f0: f544 9e3b 716d 133b a8d1 243b 0eed 24bb

critic.2.weight f4 [128, 64]
-0.10580827 0.018266011 0.0805959 -0.014010508 -0.009133993 0.17568608 0.25588137 -0.060031567
-0.10875344 0.050483383 0.07443393 -0.25713727 0.012178888 -0.16217738 -0.037702184 0.007848945
0.17344086 -0.031289104 -0.11554824 -0.10083452 0.06601976 0.11322992 -0.24186823 -0.016659373
-0.0009986297 -0.084958605 0.06563379 0.17616493 -0.0097751785 -0.18574813 -0.09677538 0.24714845
0.15954319 -0.18329632 0.168441 0.009070087 -0.0032629638 -0.2521427 -0.13741343 -0.21698351
0.06258988 -0.041614063 -0.10034361 -0.08328595 -0.056697905 0.20404613 0.0012626474 0.1256267
0.036535956 -0.09002628 -0.06868013 -0.06886404 -0.10385845 -0.05304335 -0.15014666 0.20607284
-0.0023675528 0.014239247 0.07084246 0.06449254 -0.15655191 0.09351499 -0.072732076 -0.12800826
0.047541924 -0.09999924 0.19915669 0.12481536 0.13542709 -0.052282143 0.025191005 -0.022731917
-0.08825663 -0.059921037 -0.057481308 0.110552445 -0.097744405 -0.0071238996 0.061488863 -0.06771498
-0.00996368 0.17227407 -0.15273029 -0.15049604 -0.06980465 -0.055481408 -0.07931603 0.08557865
-0.073301814 -0.022709904 0.0974838 -0.09534026 0.027919127 0.052495506 0.06123519 -0.10829868
-0.18266454 0.014115883 0.2149958 0.038769577 -0.19452709 0.0692202 0.19568059 -0.035080705
-0.06015673 0.0661011 -0.016757138 -0.0045477897 0.1919484 -0.02581171 0.11964168 0.02290928
0.024967302 0.1529313 0.17206304 0.13820241 -0.2171063 0.20314877 -0.06610932 -0.073642746
-0.050396837 0.03393691 -0.20285656 -0.050252236 -0.04108715 -0.10281546 -0.052803032 -0.063765414
0.020399097 0.07840393 -0.10968323 -0.24211933 0.22842708 0.014292724 -0.07370031 -0.046192057
-0.1318375 -0.1319493 -0.12434955 0.16369805 0.26595607 -0.15232275 0.07676448 0.12211096
-0.024100466 -0.09689511 0.101866536 0.06966981 -0.21285844 -0.1146027 -0.110214815 0.03431908
-0.003574929 0.14041549 -0.06667675 -0.022951482 0.21375078 -0.25455424 -0.04380185 0.016555034
0.201146 -0.09193477 0.07463633 -0.060945943 -0.2790411 0.08378945 -0.0054806382 -0.087896
0.1414517 0.41384712 -0.040787213 0.15433608 0.077690594 0.017382177 -0.101527244 -0.0053260964
0.008956393 0.0605173 0.35468802 0.001664038 -0.15100756 0.0635735 0.047034446 -0.22609857
-0.06199818 0.033966772 0.02544055 0.0703955 0.24825189 0.15792014 -0.123365976 0.035326157
-0.19456837 0.027587848 0.015338829 0.04165653 -0.06672013 0.028746895 -0.07894283 0.02338773
0.250358 0.060577046 0.0005653665 -0.008137484 -0.0066451933 0.15343808 -0.04348781 -0.20874895
0.24891777 0.08924936 0.30133346 0.12458422 -0.116410784 -0.027790919 0.037297387 0.0419429
-0.12604836 0.23698886 0.23262483 0.12977159 -0.09922776 -0.028135093 0.00081129395 -0.007748542
0.13035016 0.094271004 0.104252644 0.048609093 -0.2021559 -0.10874627 -0.15538776 0.0038286734
-0.16557382 0.10240641 0.04170471 0.02498306 0.026700683 -0.20175962 0.19818509 0.00408819
0.057505958 -0.024037175 0.19398284 0.05457358 0.14174128 0.1519484 -0.1053994 0.08909147
0.016805803 0.07798836 0.001785183 -0.21270317 -0.22262478 0.11915591 0.17588276 0.07531508
00000000: 02b2 d8bd 9aa2 953c 770f a53d 548c 65bc
00000010: bea6 15bc 0de7 333e e202 833e a9e3 75bd
00000020: 20ba debd aac7 4e3d d170 983d 7fa7 83be
00000030: f589 473c d411 26be 9b6d 1abd dd98 003c
00000040: 7b9a 313e 0129 00bd 8ea4 ecbd 5482 cebd
00000050: 5e35 873d 17e5 e73d 4eac 77be 3d79 88bc
00000060: 74e4 82ba c7fe adbd 026b 863d 9464 343e
00000070: 1228 20bc c234 3ebe 2c32 c6bd 7c14 7d3e
00000080: 4a5f 233e 08b2 3bbe cc7b 2c3e b49a 143c
00000090: 73d7 55bb d918 81be 1bb6 0cbe ed30 5ebe
000000a0: 1f2f 803d 8273 2abd f380 cdbd d391 aabd
000000b0: 103c 68bd 78f1 503e 6b7f a53a 49a4 003e
000000c0: baa6 153d b35f b8bd 2ba8 8cbd 9708 8dbd
000000d0: bdb3 d4bd fc43 59bd 0cc0 19be c204 533e
000000e0: f228 1bbb bb4b 693c da15 913d aa14 843d
000000f0: 254f 20be c984 bf3d 8ef4 94bd 9914 03be
00000100: 52bb 423d 67cc ccbd bbef 4b3e 329f ff3d
00000110: 66ad 0a3e cd25 56bd 5e5d ce3c 4938 babc
00000120: e4bf b4bd c36f 75bd 8571 6bbd 5269 e23d
00000130: 382e c8bd 9a6f e9bb bfdb 7b3d 27ae 8abd
00000140: b43e 23bc 9d68 303e 5465 1cbe a21b 1abe
00000150: bef5 8ebd 7940 63bd 7170 a2bd dc43 af3d
00000160: 431f 96bd 1f0a babc 96a5 c73d c141 c3bd
00000170: a7b6 e43c 8705 573d c0d1 7a3d b3cb ddbd
00000180: 6a0c 3bbe 4e46 673c dc27 5c3e d9cc 1e3d
00000190: 1c32 47be 52c3 8d3d 7e60 483e c9b0 0fbd
000001a0: e766 76bd 0360 873d 4446 89bc a005 95bb
000001b0: 1f8e 443e 1473 d3bc b206 f53d 3eac bb3c
000001c0: 3a88 cc3c 069a 1c3e 4b31 303e ef84 0d3e
000001d0: 1d51 5ebe 3b06 503e 5364 87bd 02d2 96bd
000001e0: ea6c 4ebd 6e01 0b3d a1b9 4fbe 4ad5 4dbd
000001f0: 004b 28bd e990 d2bd fe47 58bd 7197 82bd
00000200: 021c a73c 3d92 a03d 9aa1 e0bd 21ee 77be
00000210: cae8 693e 082c 6a3c 30f0 96bd e233 3dbd
00000220: 6900 07be b81d 07be faaa febd 76a0 273e
00000230: 652b 883e 7ffa 1bbe b236 9d3d 5015 fa3d
00000240: 576e c5bc f270 c6bd 679f d03d 0caf 8e3d
00000250: 90f7 59be d2b4 eabd 4eb8 e1bd 2a92 0c3d
00000260: 5b49 6abb 14c9 0f3e d28d 88bd bf04 bcbc
00000270: 7ce1 5a3e ef54 82be 9269 33bd 6c9e 873c
00000280: 38f9 4d3e 4c48 bcbd efda 983d 74a2 79bd
00000290: 7ade 8ebe ce99 ab3d ed96 b3bb d102 b4bd
000002a0: b7d8 103e c5e3 d33e 7e10 27bd 470a 1e3e
000002b0: 3f1c 9f3d 1165 8e3c 84ed cfbd 8986 aebb
000002c0: d6bd 123c fde0 773d ab99 b53e da1b da3a
000002d0: baa1 1abe d332 823d 31a7 403d 6286 67be
000002e0: cef1 7dbd be20 0b3d b368 d03c 842b 903d
000002f0: be35 7e3e d1b5 213e 4da7 fcbd 29b2 103d
00000300: ee3c 47be e9ff e13c b64f 7b3c 0aa0 2a3d
00000310: 90a4 88bd 9c7e eb3c c7ac a1bd a097 bf3c
00000320: ec2e 803e a31f 783d 1b35 143a 1553 05bc
00000330: ecbf d9bb df1e 1d3e 4620 32bd 49c2 55be
00000340: 4de4 7e3e 5ec8 b63d 6148 9a3e 0326 ff3d
00000350: c768 eebd c8a9 e3bc 25c5 183d 51cc 2b3d
00000360: d212 01be 35ad 723e 3435 6e3e d8e2 043e
00000370: ed37 cbbd 917b e6bc 04ad 543a 7be7 fdbb
00000380: 837a 053e 2811 c13d 6982 d53d 541a 473d
00000390: f501 4fbe 5db6 debd f81d 1fbe 7bea 7a3b
000003a0: 2f8c 29be 74ba d13d 8fd2 2a3d 46a9 cc3c
000003b0: 64bb da3c 139a 4ebe 08f1 4a3e 39f6 853b
000003c0: 5e8b 6b3d 9ce9 c4bc 70a3 463e 8c88 5f3d
000003d0: a024 113e 5d98 1b3e a4db d7bd 9775 b63d
000003e0: 53ac 893c 5cb8 9f3d cdfc e93a dcce 59be
000003f0: c0f7 63be 0408 f43d 9c1a 343e cb3e 9a3d

critic.2.bias f4 [128]
-0.0068967366 0.006762088 0.0039842543 0.00077390025 -0.004135942 0.00019542966 -0.006644561 -0.0043296823
-0.0057808687 2.651256e-05 -0.0009424305 -0.00058408227 -0.0063745435 0.0003587252 -0.008565124 0.0031395808
0.006565998 -0.006763581 -0.005420169 0.006520135 -0.0060959565 0.000867533 0.00433914 -0.004896354
0.005740959 -0.0073002754 -0.0045694914 -0.00016312466 0.0033540453 4.06261e-05 -0.0010171938 0.004956294
0.005364954 0.00034821118 3.7018268e-05 0.000139802 0.0019072538 0.0007020713 -0.0057625594 -0.00072378485
7.853879e-06 0.0005756655 0.00037167463 -0.0059646736 0.003262045 0.0021820555 0.006131241 0.0008141813
0.006219091 -0.006088106 0.0019396 0.00632821 0.0055218716 0.0004341973 -0.0065167774 0.0024383287
0.0030483229 -0.0058974735 0.00028836826 -0.000118605916 0.00013496674 0.0059920345 0.004797058 0.00036947228
-0.00037912777 -3.3382923e-05 0.0005252281 -0.0019572326 0.0048393547 -0.00096355873 0.0008535232 0.00739836
0.00029886045 -0.0036457803 0.0066974647 0.0037675668 0.0005738277 -0.0006330235 0.00043650132 -0.0008825749
0.0001861752 -0.0007613513 -0.0051458087 -0.00011743928 0.0051983497 -0.0023772155 -0.005300346 -0.0049376073
-7.093406e-05 -0.0023963898 0.0073512443 0.00069968024 -0.00044922205 0.0054711592 0.0016396069 -0.0069758208
5.455128e-05 0.0041693533 0.00096183736 0.008396431 -0.0032082067 0.00495842 -0.00033826014 7.1580916e-06
-0.00023083008 0.0021684342 0.005333811 0.0048712147 0.00440123 0.00532629 -0.000647763 -0.00047090487
-0.004719777 -0.0017145384 0.0064487364 0.0057117725 0.0007078128 0.0006366177 0.005428294 -0.0001950958
-0.007455426 -0.0042995145 0.00024806106 -0.0011080669 -0.002960262 -0.0011224861 -0.004032977 0.0014143495
00000000: 05fe e1bb 8194 dd3b 598e 823b 91df 4a3a
00000010: cc86 87bb 40ec 4c39 9eba d9bb 02e0 8dbb
00000020: 716d bdbb 4a67 de37 710d 77ba 191d 19ba
00000030: 8ce1 d0bb 4813 bc39 bc54 0cbc 6dc1 4d3b
00000040: 9527 d73b 08a1 ddbb ac9b b1bb dba6 d53b
00000050: 97c0 c7bb 276b 633a 582f 8e3b 9871 a0bb
00000060: a81e bc3b 2637 efbb acbb 95bb 710c 2bb9
00000070: 8bcf 5b3b f165 2a38 5c53 85ba 6868 a23b
00000080: 7fcc af3b 1d90 b639 1044 1b38 d097 1239
00000090: d1fc f93a 350b 383a dad3 bcbb 61bc 3dba
000000a0: 27c4 0337 42e8 163a 53dd c239 4f73 c3bb
000000b0: 09c8 553b d100 0f3b 94e8 c83b c86e 553a
000000c0: 84c9 cb3b bc7e c7bb 2d3a fe3a df5c cf3b
000000d0: d1f0 b43b faa4 e339 b18a d5bb 5ecc 1f3b
000000e0: 5fc6 473b 983f c1bb 2230 9739 11bc f8b8
000000f0: dc85 0d39 d458 c43b a430 9d3b bbb5 c139
00000100: abc5 c6b9 a404 0cb8 76af 093a ea44 00bb
00000110: 7393 9e3b 5597 7cba f9be 5f3a f16d f23b
00000120: 5fb0 9c39 0bee 6ebb 6876 db3b 48e9 763b
00000130: ed6c 163a 7df1 25ba 37da e439 995c 67ba
00000140: 0638 4339 6c95 47ba 2c9e a8bb bc49 f6b8
00000150: eb56 aa3b 0fcb 1bbb 86ae adbb a7cb a1bb
00000160: 6fc2 94b8 c00c 1dbb b5e2 f03b bf6a 373a
00000170: 9085 ebb9 6947 b33b 14e8 d63a 6d95 e4bb
00000180: fecd 6438 129f 883b d023 7c3a 2f91 093c
00000190: c740 52bb 3e7a a23b 8258 b1b9 8a2f f036
000001a0: fa0a 72b9 4a1c 0e3b 40c7 ae3b b69e 9f3b
000001b0: 3138 903b 2988 ae3b a4ce 29ba c8e3 f6b9
000001c0: 5ca8 9abb 5dba e0ba ec4f d33b d229 bb3b
000001d0: 838c 393a b1e2 263a d5df b13b a192 4cb9
000001e0: a54c f4bb f1e2 8cbb 310e 8239 8e3c 91ba
000001f0: f400 42bb 6220 93ba 1027 84bb b261 b93a
