gym-multigrid-master/results/coma/key/steps_1500000_ngames_14924/model_weights_save_dir/actor_3_episode_10000.pth (torch, 102416 bytes, 13 tensors)

fc1.weight f4 [64, 294]
0	0x3d804e44	0.06264928
1	0x3c22f37a	0.009945745
2	0x3d618b47	0.055064466
3	0x3d6ff72e	0.05858534
4	0x3d6d9ffa	0.058013894
5	0xbbf1f2c8	-0.007383678
6	0xbd77e5ce	-0.060521893
7	0x3cb03a9f	0.021512328
8	0xbc3af545	-0.011411016
9	0xbcb776c7	-0.022395505
10	0x3c96fb69	0.018430429
11	0x3d639000	0.05555725
12	0x3a55f887	0.00081623386
13	0xbc45c19c	-0.012070086
14	0xbbebf17a	-0.007200417
15	0x3d5b8805	0.053596515
16	0xbd567d41	-0.052365545
17	0x3c19ed20	0.009394914
18	0x3d2d5908	0.042321235
19	0xbc6d8f97	-0.0144995665
20	0xbcff7990	-0.031185895
21	0xbd60e205	-0.05490305
22	0x3d2ef20b	0.0427113
23	0x3ce54110	0.027985126
24	0xbc9451c0	-0.018105388
25	0xbb2f01d8	-0.002670398
26	0x3d5d7554	0.05406697
27	0xbc36581a	-0.0111294035
28	0x3ce56d74	0.028006293
29	0x3d1f9050	0.038955986
30	0x3b7adb8a	0.0038277828
31	0x3ccc1fff	0.0249176
32	0x3d6636b8	0.056204528
33	0xbc1d71ba	-0.009609634
34	0x3c874097	0.016510291
35	0x3d60d5c4	0.054891363
36	0x3d4a80fb	0.04943941
37	0xbc90423c	-0.017609708
38	0xbd09b757	-0.033622112
39	0xbcc6d60e	-0.024271991
40	0xbc95b9d1	-0.01827708
41	0xbcdc8100	-0.02691698
42	0x3d7119b6	0.05886241
43	0x3c0fac0e	0.008769048
44	0x3c144213	0.009048956
45	0x3d34de3b	0.044157248
46	0xbd072319	-0.032992456
47	0x3c281b10	0.010260358
48	0x3d1f711d	0.038926233
49	0x3d56d477	0.052448716
50	0xbd6166a6	-0.055029534
51	0x3b32cfc8	0.0027284492
52	0xbcd9fd42	-0.02661002
53	0xbd6cb870	-0.05779308
54	0xbccc2286	-0.024918806
55	0x3d7121ae	0.05887001
56	0xbd673bb4	-0.05645342
57	0xbcb4b108	-0.022057071
58	0x3d6bb307	0.05754378
59	0x3d2ebca6	0.042660378
60	0xbd3d875d	-0.04627167
61	0xbcae67e5	-0.021289775
62	0x3c8acfdc	0.016944818
63	0x3c657f9d	0.014007476
64	0x3ba586f4	0.005051488
65	0xbceddeb9	-0.029036867
66	0xbd4a8979	-0.04944751
67	0xbd04d501	-0.0324297
68	0xbd30fce7	-0.043209936
69	0x3d147b5d	0.03625046
70	0x3c2ca404	0.010537151
71	0xbcacffc8	-0.02111806
72	0x3d3546d5	0.044257004
73	0x3c548c40	0.012972891
74	0xbce5c79d	-0.028049285
75	0xbd62867e	-0.055304043
76	0xbd046d95	-0.032331068
77	0x3ca2ac04	0.019857414
78	0x3a8d534a	0.0010782268
79	0x3d471838	0.04860708
80	0x3d4f58e2	0.050621875
81	0x3d06f0c8	0.03294447
82	0xbd26fe91	-0.040770117
83	0xbc855e58	-0.016280338
84	0x3ceaad5a	0.028647114
85	0xbcad615e	-0.021164592
86	0xbd121259	-0.03566203
87	0x3cadec21	0.02123076
88	0x3d54b806	0.05193331
89	0x3cd9d3c4	0.026590236
90	0x39e9946a	0.000445518
91	0xbd81270a	-0.06306274
92	0xbd63e466	-0.05563774
93	0x3b823b6f	0.00397437
94	0x3d4213f9	0.04738233
95	0xbd2f1fe6	-0.04275503
96	0x3c06c5a2	0.00822583
97	0x3d133bf4	0.035945848
98	0xbd204b97	-0.039134588
99	0xbd176d47	-0.03696945
100	0xbd655326	-0.0559875
101	0xbb233580	-0.0024903715
102	0xbd763ff4	-0.060119584
103	0x3cd6876a	0.026187617
104	0xbd17e469	-0.037083063
105	0xb7e7544d	-2.7576601e-05
106	0x3d223c1e	0.039608113
107	0xbd63e216	-0.055635534
108	0x3d3ef775	0.046622712
109	0xbc1e9dab	-0.009681146
110	0xbc7ef5c1	-0.015561522
111	0x3d285045	0.041092176
112	0x3be1f2d2	0.0068954015
113	0x3d2d5958	0.042321533
114	0x3c7fea72	0.015619861
115	0xbcbf2ebe	-0.023337718
116	0xbcbda25c	-0.023148708
117	0x3c832d8d	0.016012931
118	0x3c1e2078	0.009651296
119	0xbd3a0b66	-0.045421027
120	0x3c1f124a	0.00970895
121	0x3d1270ca	0.035752095
122	0xbd67326f	-0.05644458
123	0x3d3f7c24	0.04674925
124	0xbcd8a873	-0.02644751
125	0xbd50bf2c	-0.050963566
126	0x3c4fc7d8	0.012681924
127	0x3d08e92c	0.033425495
128	0xbc29ba8d	-0.010359419
129	0xbd4758c1	-0.048668627
130	0x3d5193e8	0.051166445
131	0x3ca6cfb0	0.020362705
132	0x3c40161c	0.011724021
133	0x3c3e2ac8	0.0116068795
134	0xbccf1772	-0.025279734
135	0xba88d84d	-0.0010440439
136	0xbcc1f728	-0.023677424
137	0x3c0387c8	0.008027978
138	0xbbc4d7cb	-0.00600717
139	0x3cb9e488	0.02269198
140	0x3c809f2f	0.015700905
141	0x3d3c75ef	0.046010908
142	0x3c1eee58	0.00970038
143	0x3d1de3ea	0.038547434
144	0x3d3cdccc	0.046109006
145	0xbd3cb8fd	-0.046074856
146	0xbd21dc68	-0.039516836
147	0x3a867805	0.0010259157
148	0xbd272eda	-0.040816166
149	0xbc7cc8d8	-0.015428744
150	0x3d57232d	0.05252378
151	0x3ca521b0	0.020157665
152	0xbd3d6a1a	-0.046243764
153	0xbd674f60	-0.056472182
154	0xbd1b3091	-0.037888113
155	0x3d391870	0.04518932
156	0x3c5947fe	0.013261793
157	0x3d058bc8	0.03260401
158	0x3bfa109a	0.0076313736
159	0x3ce91e6c	0.02845689
160	0xbcb6a4f4	-0.022295453
161	0xbd3327b3	-0.043739032
162	0x3cae6845	0.021289954
163	0xbbd63dd1	-0.006538131
164	0xbd74903f	-0.059707876
165	0x3d250756	0.0402902
166	0xba443a0a	-0.0007485455
167	0xbca85da8	-0.020552471
168	0xbccdb68e	-0.025111463
169	0xbca9e05a	-0.020736862
170	0x3d1d7744	0.03844382
171	0xbc0c3a35	-0.0085587995
172	0xbd2e040d	-0.042484332
173	0x3d3de254	0.04635842
174	0x3d213f37	0.039366927
175	0x3c8d75de	0.017268118
176	0x3cb2b8a2	0.021816555
177	0xbc8239e4	-0.015896745
178	0x3ba6ba2c	0.0050881114
179	0x3c8e2c18	0.01735501
180	0x3ce551c4	0.02799309
181	0x3bed2c45	0.0072379434
182	0xbd53cc8a	-0.051708736
183	0x3c5831de	0.013195483
184	0xbc50f4e8	-0.012753703
185	0x3d6dea24	0.058084622
186	0xbd092f83	-0.033492576
187	0x3d4ede04	0.0505047
188	0xba5b73c1	-0.00083714357
189	0x3af691af	0.0018811728
190	0xbbf84a3b	-0.0075772083
191	0xbab13580	-0.0013519973
192	0x3d59c781	0.053168777
193	0x3b5cee89	0.0033711514
194	0xbc6e4ed1	-0.0145451585
195	0xbc65b3ab	-0.014019887
196	0xbd48f69a	-0.049063303
197	0xbcd8ae24	-0.026450224
198	0xbd2b2788	-0.041785747
199	0xbd1a02f0	-0.037600458
200	0xbcc832a9	-0.02443822
201	0x3cf39551	0.029734286
202	0x3d44081d	0.0478593
203	0xbd147880	-0.03624773
204	0x3cd2c7d8	0.025730059
205	0xbd3aaea8	-0.04557672
206	0xbd60e947	-0.05490997
207	0x3c48f196	0.01226463
208	0xbd73f3e8	-0.05955878
209	0xbd45d2fa	-0.048296906
210	0x3d015718	0.0315772
211	0x3cb0537b	0.021524182
212	0x3c152a51	0.009104327
213	0xbd713390	-0.058887064
214	0x3d396be4	0.04526891
215	0xbd10817e	-0.035279743
216	0xbc9e233c	-0.01930391
217	0xbcbbc5ba	-0.022921432
218	0xbcca643e	-0.024706002
219	0xbcb00c77	-0.021490319
220	0xbcefccfb	-0.029272547
221	0x3ade2020	0.001694683
222	0x3c89c143	0.016815787
223	0xbc354ea9	-0.011066117
224	0xbd12854c	-0.035771653
225	0x3cd76343	0.026292449
226	0xbd3ae627	-0.045629647
227	0xbd339e3f	-0.043852087
228	0xbd1d9395	-0.038470823
229	0x3cdf0ff7	0.027229292
230	0x3cbf4f3a	0.023353208
231	0x3d383b45	0.0449784
232	0xbd60666f	-0.05478519
233	0x3c872ecc	0.016501807
234	0xbd70392c	-0.058648273
235	0xbc32297b	-0.0108741475
236	0xbb0915a3	-0.0020917438
237	0xbd1b6f04	-0.03794767
238	0xbc8f254d	-0.017473841
239	0x3d04f354	0.03245862
240	0x3bc78470	0.006088786
241	0xbd2dffe8	-0.04248038
242	0xbd10b8c8	-0.03533247
243	0xbbe52cdb	-0.0069938726
244	0x3d5d9e15	0.054105837
245	0x3cc13944	0.023586877
246	0xbd5d6d01	-0.054059032
247	0xbbc7f6e5	-0.00610243
248	0xbcbe0f3b	-0.023200622
249	0xbbbc5e35	-0.005748535
250	0x3b5d6404	0.0033781538
251	0xbcce2bae	-0.025167312
252	0xbd4c72da	-0.04991422
253	0xbd062eb2	-0.032759376
254	0x391240d8	0.00013947801
255	0x3d55212b	0.052033585

fc1.bias f4 [64]
0	0xbc88e2ba	-0.016709674
1	0xbcce4408	-0.025178924
2	0x3ce1addc	0.027548723
3	0x3d058cb5	0.03260489
4	0xbd699dc3	-0.05703522
5	0x3cf4fc0a	0.029905338
6	0xbcd61a88	-0.026135698
7	0x3ce0bed4	0.027434744
8	0xbd5c3d86	-0.05376961
9	0xbd3064f3	-0.043065023
10	0x3d5c55cd	0.053792764
11	0x3d5e1b07	0.054224994
12	0xbc310634	-0.010804702
13	0x3d088cce	0.033337407
14	0xbd043f98	-0.03228721
15	0xbd436869	-0.047706995
16	0xbd1dc513	-0.038518023
17	0xbca0a007	-0.019607557
18	0xbb792022	-0.0038013537
19	0xbcc219a9	-0.023693876
20	0xbb3036e3	-0.0026888184
21	0xbd4b18b1	-0.049584094
22	0xbd0297ae	-0.031882934
23	0xbc2d9be4	-0.010596249
24	0x3cf6d735	0.030131916
25	0xbd59871d	-0.05310737
26	0x3cf7c78f	0.030246524
27	0x3d03efc2	0.032211073
28	0xbc6e760c	-0.014554512
29	0x3d368a86	0.0445657
30	0xbc9c4148	-0.019074097
31	0xbc8c12ee	-0.01709887
32	0xbd45a443	-0.048252355
33	0xbd7a663f	-0.061132666
34	0xbc27c53d	-0.010239896
35	0xbd24bfcd	-0.040221978
36	0x3c8babcf	0.017049698
37	0x3b3fecc3	0.0029285408
38	0x3ce5d00b	0.028053304
39	0x3c30266c	0.010751348
40	0xbd533e83	-0.051573288
41	0x3d29ebf4	0.041484788
42	0xbcaeb4ef	-0.02132651
43	0x3c6ddbb1	0.014517711
44	0x3d60f441	0.05492044
45	0x3d0f5d09	0.035000835
46	0x3d14d3c0	0.036334753
47	0xbd1d4ed5	-0.03840526
48	0x3d8321db	0.06402942
49	0x3c3bc730	0.011461064
50	0x3d81918e	0.063265905
51	0xbbedd20c	-0.0072577056
52	0xbd5e7393	-0.05430944
53	0x3d5000d0	0.050782025
54	0x3cb81d9d	0.022475058
55	0x3ce6b0d7	0.028160496
56	0x3d4fed82	0.050763614
57	0x3ba6bcb9	0.0050884155
58	0xbc858a12	-0.016301189
59	0xbc4e7d19	-0.012603068
60	0x3c6bb7bf	0.01438707
61	0x3d28c2c5	0.04120137
62	0x3cece526	0.02891786
63	0x3d4b0777	0.049567666

fc2.weight f4 [64, 64]
0	0xbdb75517	-0.089517765
1	0x3d8f6160	0.07000995
2	0xbd4b9e5e	-0.049711578
3	0xbdb590cd	-0.08865509
4	0x3d8f9532	0.070108786
5	0xbca5f73c	-0.020259492
6	0x3cf7ec30	0.03026399
7	0xbd137caa	-0.03600756
8	0xbc95d9f8	-0.018292412
9	0x3d4bb181	0.049729828
10	0xbd5891ac	-0.0528733
11	0x3dd87a43	0.105701946
12	0x3b6ded46	0.0036304756
13	0xbc9fbf18	-0.0195003
14	0x3dcb2de0	0.09920859
15	0x3b02e7c3	0.0019974567
16	0xbbe051d8	-0.006845694
17	0xbc70073a	-0.01465016
18	0xbde4b4c0	-0.11167288
19	0xbde7c7fc	-0.11317441
20	0xbdda5255	-0.10660235
21	0x3da986c6	0.08277659
22	0x3d540693	0.051764082
23	0xbcef51fd	-0.0292139
24	0xbd4585f2	-0.048223443
25	0x3c8371c4	0.016045459
26	0x3da860e1	0.08221603
27	0x3de8ab0e	0.11360751
28	0x3d8e5858	0.06950444
29	0xbdb5e8af	-0.088822715
30	0x3d5df660	0.05419004
31	0xbdafca3e	-0.085834965
32	0x3c74dc78	0.014945142
33	0xbd990b32	-0.074728385
34	0x3d2bc5ea	0.041936792
35	0xbddad1af	-0.10684525
36	0xbd33b501	-0.04387379
37	0x3ddc7aef	0.10765635
38	0xbd23d502	-0.039998062
39	0x3ddf0433	0.10889473
40	0xbd75dcb4	-0.060024932
41	0xbd4e68c8	-0.050392896
42	0xbdf53510	-0.119730115
43	0x3db96619	0.09052677
44	0xbdbd2506	-0.09235577
45	0xbd8127f1	-0.06306446
46	0xbd3f54bc	-0.04671167
47	0xbda562ff	-0.08075523
48	0x3d822d38	0.06356281
49	0xbd76aea3	-0.06022514
50	0x3d3d2a7e	0.0461831
51	0x3dd0ac2d	0.1018909
52	0x3c8d960a	0.017283458
53	0x3d52f7f1	0.051505987
54	0xbc569ae0	-0.0130984485
55	0xbd41a68d	-0.047277976
56	0xbd58fb91	-0.052974287
57	0xbe01223c	-0.12610716
58	0xbdc83a18	-0.097767055
59	0xbb59f717	-0.003325885
60	0x3d6b842d	0.0574991
61	0xbcaed3aa	-0.021341164
62	0xbcdaaee9	-0.026694732
63	0xbde0147d	-0.10941408
64	0xbb8aa619	-0.004231226
65	0x3d384e3e	0.044996493
66	0xbc2364f3	-0.009972799
67	0x3d8d33c8	0.06894642
68	0x3d965c70	0.0734185
69	0x3c75938f	0.014988794
70	0xbdd3faa1	-0.10350538
71	0xbd5c256a	-0.05374662
72	0x3ca66f72	0.020316813
73	0xbd4ace00	-0.049512863
74	0x3dd9e2a2	0.1063893
75	0xbccf9946	-0.025341641
76	0x3dd376ef	0.10325419
77	0xbd31a25a	-0.04336772
78	0xba862f47	-0.0010237478
79	0xbdf5dadc	-0.12004635
80	0x3de5ff85	0.11230377
81	0x3daf5236	0.08560602
82	0xbd8d9713	-0.06913581
83	0x3d9e7995	0.07738034
84	0x3d81c627	0.06336623
85	0xbdc3809e	-0.09546016
86	0xbd34971d	-0.044089425
87	0x3d505c74	0.05086942
88	0x3d051260	0.032488227
89	0xbd9494cb	-0.072549425
90	0xbd0ee842	-0.034889467
91	0xbcb326d0	-0.021869093
92	0x3ab50973	0.001381202
93	0x3df74f80	0.1207571
94	0xbdde0410	-0.108406186
95	0xbdaf7e20	-0.08568978
96	0xbd4edd48	-0.050504
97	0xbcb1ad77	-0.02168916
98	0xbdecb7ca	-0.115584925
99	0xbd1c1b6d	-0.038112093
100	0x3d97311c	0.07382414
101	0xbdeb5535	-0.11490861
102	0xbce5b5c3	-0.028040772
103	0x3df55191	0.11978448
104	0x3cd6572e	0.026164617
105	0xbdd87ab3	-0.10570278
106	0xbdda91ed	-0.106723644
107	0x3d77a9bd	0.06046461
108	0xbdf3eaed	-0.11910043
109	0xbd9080fa	-0.0705585
110	0xbd66b648	-0.05632618
111	0x3d6cc99d	0.05780946
112	0x3cf5248c	0.029924653
113	0xbd22a771	-0.039710466
114	0x3db740d8	0.08947915
115	0xbdbf0bd8	-0.09328431
116	0x3dd0bb78	0.10192007
117	0x3d276cf3	0.040875386
118	0x3de0dfc6	0.109801814
119	0x3defb22b	0.11703905
120	0x3d3f7730	0.046744525
121	0x3dd9cd34	0.106348425
122	0xbdfc5742	-0.123213306
123	0x3d90e5d4	0.07075086
124	0xbda3d20c	-0.07999048
125	0xbda84d59	-0.08217878
126	0x3c222950	0.009897545
127	0x3d82aa9d	0.06380198
128	0x3db3eb3a	0.087851
129	0x3d5e89f7	0.054330792
130	0x3de79636	0.11307947
131	0x3df85c51	0.12126983
132	0x3d5599b3	0.052148532
133	0x3c577155	0.013149579
134	0xbdc9c560	-0.098520994
135	0x3df54a93	0.119771145
136	0xbaf12439	-0.0018397636
137	0x3da4d441	0.08048297
138	0xbcdeeaf7	-0.02721165
139	0xbd9ad02e	-0.075592384
140	0x3d172487	0.03690007
141	0x3dbc9d09	0.092096396
142	0xbdb24db1	-0.08706225
143	0x3dd69ff9	0.10479731
144	0x3b8bc961	0.0042659496
145	0xbdf21038	-0.118195
146	0x3dc80ff1	0.097686656
147	0xbd9a6580	-0.07538891
148	0x3de2a126	0.11065893
149	0x3b7cd6f7	0.0038580277
150	0x3cc31a27	0.023816181
151	0xbc80f6b8	-0.015742645
152	0x3d9f590e	0.07780658
153	0x3c2742a9	0.010208764
154	0x3cb837fb	0.022487631
155	0x3db2f106	0.08737378
156	0xbda257d6	-0.079269096
157	0xbdce5cb1	-0.10076273
158	0x3d628934	0.05530663
159	0xbdb5e72d	-0.08881984
160	0x3d2f1716	0.042746626
161	0x3cd4643e	0.025926705
162	0xbdf24a9b	-0.11830636
163	0x3da52a7c	0.08064744
164	0x3d0a0f41	0.033705954
165	0xbc1bfac3	-0.0095202355
166	0x3d98b35d	0.07456086
167	0x3d53e712	0.051734038
168	0xbc7287bc	-0.014802869
169	0xbd9145ce	-0.07093392
170	0xbd724781	-0.059150223
171	0x3d965ca4	0.073418885
172	0x3de6bab0	0.112660766
173	0x3e0352d1	0.1282456
174	0x3d98aa4a	0.07454355
175	0x3d4a9c6c	0.04946558
176	0x3c4b6d08	0.012416132
177	0x3ab4601a	0.0013761551
178	0x3e0677e1	0.13131668
179	0x3df4f1b0	0.11960161
180	0x3d248ae2	0.04017151
181	0x3d6f0e39	0.058363173
182	0xbccb4d1f	-0.024817048
183	0x3daedc93	0.08538165
184	0x3def43e0	0.11682868
185	0x3be713fd	0.0070519433
186	0x3d40c1a6	0.047059678
187	0x3da791fc	0.08182141
188	0x3ba0fe1f	0.004913106
189	0x3de0d812	0.10978712
190	0xbdd8bec8	-0.10583264
191	0x3d47c003	0.0487671
192	0xbda39592	-0.07987513
193	0xbd71d027	-0.0590364
194	0xbd8ffe6f	-0.07030951
195	0xbdb43497	-0.08799093
196	0x3d3b0c45	0.045665998
197	0x3d7e0fd3	0.06202681
198	0x3de89213	0.113559864
199	0xbdd48198	-0.103762805
200	0xbd9700c7	-0.07373195
201	0xbd3581bd	-0.04431318
202	0xbae97f95	-0.0017814512
203	0x3da011da	0.07815905
204	0xbd7c7f9f	-0.061645146
205	0xbd54f20e	-0.051988654
206	0x3de8c1ec	0.11365113
207	0x3cfd9091	0.030952724
208	0x3d813b29	0.06310112
209	0x3d267e4e	0.040647797
210	0x3d850478	0.06494993
211	0xbd5ccccf	-0.05390626
212	0xbd11e865	-0.03562202
213	0xbc3aa846	-0.011392659
214	0x3ccf5e16	0.025313418
215	0xbdcebbb4	-0.10094395
216	0xbd081026	-0.033218525
217	0xbdc63f0b	-0.09679993
218	0x3d927a93	0.071522854
219	0x3ccffd45	0.025389323
220	0x3c3ec5ce	0.01164384
221	0xbd9605f5	-0.07325355
222	0xbd9276a7	-0.071515374
223	0x3dd5e4f3	0.10444059
224	0x3d5e3f23	0.05425943
225	0x3df18980	0.11793804
226	0x3ddc229a	0.10748787
227	0x3d026c32	0.031841464
228	0xbd88af39	-0.06674046
229	0xbde8b5c8	-0.11362797
230	0xbcb3403f	-0.02188122
231	0xbdb8cd75	-0.09023563
232	0x3d2ee0f4	0.042695
233	0x3cc0f9df	0.023556648
234	0xbd26abd5	-0.040691216
235	0x3dc1eeee	0.094694
236	0x3da4d885	0.0804911
237	0x3d47101d	0.04859935
238	0x3dad6a91	0.084675916
239	0xbd6a3de4	-0.05718793
240	0xbdab228a	-0.08356197
241	0x3d1e0416	0.038578115
242	0xbdf4c944	-0.11952451
243	0x3dc2618b	0.09491261
244	0x3dc47320	0.09592271
245	0xbd256c47	-0.040386464
246	0x3de148ff	0.11000251
247	0xbdc2bbf4	-0.095085055
248	0xbdf31475	-0.11869136
249	0x3d062e63	0.03275908
250	0xbd36e980	-0.044656277
251	0xbc8ba97c	-0.01704859
252	0xbdc3e539	-0.09565205
253	0x3dfde876	0.12397854
254	0xbd61d654	-0.05513604
255	0xbde1c008	-0.11022955

fc2.bias f4 [64]
0	0x3c425bc6	0.011862701
1	0xbd18e9d1	-0.03733236
2	0x3d2c8448	0.04211834
3	0xbd44dda7	-0.048062947
4	0x3dcc2317	0.0996763
5	0x3d70712f	0.05870169
6	0xbcb0e6ff	-0.021594523
7	0xbdcdc727	-0.10047751
8	0xbdd39220	-0.103306055
9	0x3daaada6	0.08333902
10	0x3df40f86	0.11917023
11	0xbc331f97	-0.010932825
12	0xbdc9fb07	-0.09862333
13	0x3d695380	0.056964397
14	0xbd88898e	-0.066668615
15	0xbd71c65b	-0.059027057
16	0x3e12ef43	0.14349084
17	0xbbb4f95e	-0.005522891
18	0x3c15cc4c	0.009142946
19	0x3c0decde	0.008662431
20	0xbc9ba4bf	-0.018999455
21	0x3c7629aa	0.015024582
22	0xbe000c04	-0.12504584
23	0x3d9976d5	0.074933685
24	0x3cc2d159	0.023781465
25	0x3dcf429c	0.101201266
26	0xbdca32b5	-0.09872953
27	0xbdce61a5	-0.10077218
28	0xbdcb2d3c	-0.09920737
29	0x3d62d6fe	0.055380814
30	0xbd84f072	-0.06491174
31	0xbc8e29af	-0.01735386
32	0xbdf8b262	-0.12143399
33	0x3cf93780	0.030421972
34	0x3dfcce1f	0.12344002
35	0xbca12b21	-0.019673886
36	0x3c4e9f7b	0.012611265
37	0x3c90ebaa	0.017690498
38	0xbdbbdc12	-0.091728345
39	0xbd6e1118	-0.05812177
40	0x3dba1f81	0.0908804
41	0xbded85fc	-0.11597821
42	0xbd29d45a	-0.04146228
43	0xbdd01dc7	-0.101619296
44	0xbd989e1a	-0.074520305
45	0xbc59fe2b	-0.013305227
46	0x3dce94c6	0.1008697
47	0xbda431a9	-0.080172844
48	0x3d99dd0b	0.07512864
49	0x3da4f8ed	0.08055291
50	0x3d0421fc	0.032258973
51	0x3d4368cc	0.047707364
52	0x3d6215e4	0.055196658
53	0xbd7b93a6	-0.061420105
54	0xbdad98a1	-0.08476377
55	0x3d4452d1	0.047930542
56	0xbca80a30	-0.02051267
57	0x3d15b32b	0.03654782
58	0xbcacf67c	-0.021113627
59	0xbda7ea69	-0.08199007
60	0x3d2a245b	0.041538578
61	0xbb9e6119	-0.0048333523
62	0x3db9b896	0.0906841
63	0xbd9932d9	-0.074804015

fc3.weight f4 [3, 64]
0	0x3da54e15	0.080715336
1	0xbd52ef55	-0.051497776
2	0x3d59a225	0.05313315
3	0xbdfac196	-0.12243955
4	0x3dacac69	0.08431322
5	0xbc8f5cb5	-0.01750026
6	0x3db043a6	0.08606653
7	0x3de32927	0.110918336
8	0xbc6aed9d	-0.014338878
9	0xbd9c5835	-0.07634012
10	0xbded750f	-0.11594593
11	0xbdfd41af	-0.12366044
12	0x3d937485	0.07199959
13	0x3dd9d212	0.10635771
14	0x3d30c221	0.043153886
15	0xbe04f5cc	-0.12984389
16	0xbdda88bb	-0.106706105
17	0xbd963219	-0.07333774
18	0x3c86dd47	0.016462935
19	0xbd97975a	-0.07401915
20	0x3dd1c46a	0.10242541
21	0x3c5ec4af	0.013596698
22	0xbdca1b14	-0.09868446
23	0x3d6e3ba3	0.058162343
24	0x3da9f6ca	0.082990244
25	0xbb92da5b	-0.0044815964
26	0xbd0d6ff6	-0.034530602
27	0xbd776bd9	-0.060405586
28	0x3bed6180	0.007244289
29	0x3dc92b0c	0.09822664
30	0x3d6c9982	0.057763584
31	0x3cc79971	0.024365159
32	0x3d5ade8f	0.053434905
33	0x3df2eda6	0.11861734
34	0x3d2037c1	0.03911567
35	0xbdbef854	-0.093247086
36	0x3da5bebc	0.0809302
37	0xbdc6cf85	-0.0970755
38	0x3d839702	0.06425287
39	0x3dd662d8	0.10468072
40	0xbd23f605	-0.040029544
41	0x3ce6de98	0.028182313
42	0x3da91c1b	0.08257314
43	0xbd93b7d1	-0.072127946
44	0xbd7b2894	-0.061317995
45	0x3c6665ce	0.014062358
46	0x3d41ffe9	0.047363196
47	0x3d80f173	0.06296053
48	0x3d2c676c	0.04209082
49	0x3c8a4b07	0.016881479
50	0xbde40543	-0.11133816
51	0x3b0e98a2	0.0021758457
52	0x3d3f1f81	0.046660904
53	0x3d746f30	0.05967635
54	0x3c4a0cc1	0.012332142
55	0x3db120d3	0.08648839
56	0xbcad89ff	-0.021183966
57	0x3d7323fe	0.059360497
58	0x3d844340	0.064581394
59	0xbdc39d5c	-0.09551498
60	0x3ded609f	0.11590695
61	0x3d7b8e0f	0.061414775
62	0x3c615042	0.013752045
63	0x3ccc0d0c	0.024908565
64	0x3db16489	0.08661754
65	0xbc0eada5	-0.008708392
66	0xbe057e0e	-0.13036367
67	0xbd32bcbb	-0.04363702
68	0xbe131e9a	-0.14367142
69	0x3d53d060	0.051712394
70	0x3d8f70a0	0.070039034
71	0x3da831b3	0.082126044
72	0xbd06e623	-0.03293432
73	0x3df29063	0.11843946
74	0xbdcae8e6	-0.09907703
75	0x3c38bc34	0.01127534
76	0x3de8a4c5	0.11359552
77	0x3da5ba08	0.08092123
78	0x3cc9a159	0.02461307
79	0xbe0da4b5	-0.13832362
80	0xbde3210c	-0.110902876
81	0xbd85d1f6	-0.065341875
82	0x3c04c6ce	0.008104039
83	0xbcb9fdf2	-0.022704098
84	0x3d930f1a	0.07180615
85	0x3dcd9ac3	0.10039284
86	0x3d0943b9	0.03351185
87	0xbe04a021	-0.1295171
88	0xbcb5a08c	-0.022171281
89	0x3d19e3a7	0.03757062
90	0xbdb7079f	-0.089370005
91	0x3de95396	0.11392896
92	0x3da3976e	0.07987867
93	0xbc8b0b55	-0.016973177
94	0xbdd15676	-0.10221569
95	0xbb4d5b0e	-0.003133479
96	0x3c05d3f7	0.008168212
97	0x3dee1aaf	0.11626183
98	0xbdd0538b	-0.101721846
99	0x3dc6384f	0.09678709
100	0x3dcd09af	0.100116126
101	0x3d4d606c	0.050140783
102	0x3df3b2e7	0.11899357
103	0x3d8044d0	0.06263125
104	0xbd7a3aef	-0.06109136
105	0xbdfc5e3f	-0.123226635
106	0xbd84c117	-0.064821415
107	0xbd0340b7	-0.03204414
108	0xbdc8da3a	-0.098072484
109	0xbc92cc95	-0.017919818
110	0xbda12bba	-0.07869668
111	0xbd78f738	-0.06078264
112	0xbca802e0	-0.020509183
113	0x3dc5eb2b	0.09663995
114	0xbdac59da	-0.08415575
115	0xbd3ab7d1	-0.045585457
116	0x3de2d86c	0.110764354
117	0x3d9f57e7	0.07780438
118	0xbddb6c41	-0.10714007
119	0x3df4a83d	0.119461514
120	0xbd68374d	-0.056693364
121	0xbde25443	-0.11051228
122	0xbac0029f	-0.0014649219
123	0x3de9dd13	0.1141912
124	0xbdf837f5	-0.12120048
125	0xbda7e016	-0.08197038
126	0xbd105575	-0.03523775
127	0xbdbbdc1e	-0.091728434
128	0xbd93ffd9	-0.072265334
129	0xbca06551	-0.019579561
130	0x3b2f2e45	0.002673046
131	0xbd81c82d	-0.063370086
132	0x3de5aec4	0.112149745
133	0xbbca8ed3	-0.0061815768
134	0xbd4674d8	-0.048451275
135	0xbd80939c	-0.06278154
136	0xbc923db8	-0.017851695
137	0xbd37babf	-0.04485583
138	0xbcf6f81b	-0.030147603
139	0xbdc92589	-0.098216124
140	0xbddbc47b	-0.10730835
141	0xbd8c55ba	-0.068522885
142	0xbdf2ee25	-0.11861829
143	0x3de2e2dd	0.11078427
144	0x3dbbceea	0.09170325
145	0x3c2a0cca	0.010379026
146	0x3d807ab7	0.06273406
147	0xbd2b8b6f	-0.04188102
148	0xbddcdc19	-0.10784168
149	0xbcbcb1bd	-0.023033971
150	0xbd5c493a	-0.05378077
151	0x3d811243	0.06302311
152	0x3d09ef72	0.03367562
153	0xbd0d982f	-0.03456896
154	0x3dbb1152	0.09134163
155	0x3dbfdeda	0.093686774
156	0xbd2a6255	-0.041597683
157	0xbd2a7e8e	-0.0416246
158	0xbb870030	-0.0041198954
159	0xbd9340ea	-0.07190116
160	0x3b56360d	0.0032686025
161	0xbd718a3e	-0.05896973
162	0xbca25673	-0.019816613
163	0xbdd14615	-0.10218445
164	0xbdb4a9f1	-0.08821476
165	0x3dc0742c	0.09397158
166	0xbdfa29cb	-0.122150026
167	0xbd56a310	-0.052401602
168	0x3df299ec	0.118457645
169	0xbd731180	-0.05934286
170	0x3df93252	0.12167801
171	0xbc7f404e	-0.015579296
172	0x3d4b9839	0.049705718
173	0x3dde99aa	0.10869153
174	0x3cbe7c3d	0.0232526
175	0xbd044e0a	-0.032300986
176	0xbca69a19	-0.020337151
177	0x39957643	0.00028507606
178	0xbdaba3b4	-0.08380833
179	0xbcb4c28c	-0.022065423
180	0x3dce22a3	0.100652
181	0x3d67f361	0.05662859
182	0xbd55af3a	-0.052169062
183	0xbcc24ead	-0.023719156
184	0xbde2878a	-0.11061008
185	0xbd99e169	-0.07513697
186	0xbc6ac38b	-0.014328848
187	0xbd7e8a22	-0.062143452
188	0x3db6f6ce	0.08933793
189	0xbc952f4b	-0.018211028
190	0x3d314d72	0.04328675
191	0xbdc2d669	-0.09513552

fc3.bias f4 [3]
0	0x3d9c91af	0.076449744
1	0x3d915ae4	0.07097414
2	0x3dc1fb02	0.09471704

actor_Q.1.weight f4 [8, 64]
0	0x3df669cc	0.12031898
1	0xbd8d5dc8	-0.06902653
2	0xbd471dac	-0.04861228
3	0x3de9a3ae	0.114081725
4	0xbcb61420	-0.022226393
5	0x3d3214d0	0.04347688
6	0xbd2e6a04	-0.042581573
7	0xbd3ba920	-0.045815587
8	0xbdb83750	-0.08994925
9	0x3d08926c	0.033342764
10	0xbd9970fa	-0.07492252
11	0x3da35070	0.079743266
12	0xbccc5080	-0.02494073
13	0xbcff1a78	-0.031140551
14	0xbd1a5a64	-0.03768386
15	0xbcc1a8d0	-0.023640066
16	0x3c956f18	0.01824145
17	0xbc29f0a0	-0.010372311
18	0x3dcd67c4	0.10029557
19	0x3cd48c50	0.025945812
20	0xbd0ad84c	-0.033897683
21	0x3db99968	0.09062463
22	0x3d008088	0.031372577
23	0xbcbb9fb0	-0.022903293
24	0x3d58db1c	0.052943334
25	0xbd49c5b4	-0.04926081
26	0x3de7e024	0.11322048
27	0xbd3fc0e0	-0.0468148
28	0xbd66ec84	-0.056377903
29	0xbdb8c66a	-0.090222195
30	0x3dadcfe8	0.084869206
31	0xbd39c5d0	-0.045354664
32	0xbd0844fc	-0.033268914
33	0xbd4cdc64	-0.05001487
34	0xbd28f014	-0.04124458
35	0x3dc8fa30	0.098133445
36	0xbd48b6dc	-0.049002513
37	0xbd18f23c	-0.037340388
38	0xbde7b1b6	-0.113131925
39	0xbdb80bee	-0.089866504
40	0xba4a6100	-0.00077201426
41	0xbdb1d73c	-0.08683631
42	0x3d76097c	0.06006764
43	0x3c83ef48	0.01610531
44	0x3dd0932c	0.10184321
45	0xbd00de40	-0.031461954
46	0x3df9464a	0.1217161
47	0x3cbdc4f8	0.023165211
48	0xbd858116	-0.06518762
49	0xbdcc4996	-0.09974973
50	0x3d9b5408	0.07584387
51	0xbd2dff04	-0.04247953
52	0x3daf669e	0.085644946
53	0x3ddc79f6	0.1076545
54	0x3db55462	0.08853985
55	0xbd8b878a	-0.068129614
56	0x3ddd84ac	0.10816321
57	0x3deaf048	0.11471611
58	0xbdb02112	-0.08600058
59	0xbd22a154	-0.039704636
60	0xbd9ffcd2	-0.078118935
61	0x3d1ce478	0.038303822
62	0xbc2ca640	-0.010537684
63	0x3d8e41e4	0.069461614
64	0xbd9aca54	-0.07558122
65	0xbda26326	-0.07929067
66	0x3d53ca3c	0.051706538
67	0x3c790f40	0.01520139
68	0xbdf6f45c	-0.120583266
69	0x3c001d60	0.007819504
70	0x3b121340	0.0022289306
71	0xbddb2afc	-0.10701558
72	0x3c8a68a8	0.016895607
73	0x3dc2a88a	0.095048025
74	0x3df4d854	0.11955324
75	0xbdca4024	-0.09875515
76	0x3ddb94f0	0.10721767
77	0x3d259bfc	0.04043196
78	0xbc972a70	-0.018452853
79	0x3dee47a2	0.116347566
80	0x3d05cea8	0.032667786
81	0x3d86f60c	0.065898985
82	0x3d5bcb34	0.053660586
83	0xbcbe89d0	-0.023259073
84	0xbc1154e0	-0.008870333
85	0x3d2a20f4	0.041535333
86	0x3d938e2c	0.072048515
87	0xbd9d204a	-0.07672174
88	0x3dbd0184	0.09228805
89	0x3d12aac4	0.035807386
90	0xbccc89a8	-0.024967983
91	0x3dfba026	0.12286405
92	0x3dc16646	0.09443335
93	0xbce9b188	-0.028527036
94	0x3def9a20	0.11699319
95	0xbd6c668c	-0.057714984
96	0xbd0ce740	-0.034400225
97	0xbc4bece0	-0.012446612
98	0xbddd342e	-0.10800968
99	0xbbbdc8a0	-0.0057917386
100	0x3d8ea27e	0.06964587
101	0xbdb775a6	-0.089579865
102	0xbd220114	-0.03955181
103	0xbdf2a37c	-0.118475884
104	0x3db49732	0.08817901
105	0xbd8b06d0	-0.06788409
106	0xbd46b604	-0.048513427
107	0x3b9513c0	0.0045494735
108	0x3dd11d6c	0.1021069
109	0x3d702e18	0.05863771
110	0xbb1dda80	-0.0024086535
111	0xbcc6af80	-0.024253607
112	0x3d892474	0.06696406
113	0xbce71d88	-0.028212324
114	0xbdff3e04	-0.124630004
115	0xbd5d5c70	-0.054043233
116	0xbc64ea20	-0.013971835
117	0xbd671968	-0.056420714
118	0xbc837c78	-0.016050562
119	0x3d3f482c	0.046699688
120	0xbd120d84	-0.03565742
121	0xbd848464	-0.06470564
122	0xbd37ee14	-0.044904783
123	0xbd58e1e8	-0.052949816
124	0xbd1e18b0	-0.038597763
125	0xbd37b420	-0.044849515
126	0x3df6521a	0.120273784
127	0xbdb420a4	-0.08795288
128	0xbd2f0c44	-0.042736307
129	0x3dc57146	0.09640746
130	0x3d1cbaac	0.03826396
131	0x3d425f40	0.04745412
132	0x3d560a00	0.05225563
133	0xbdb62540	-0.088938236
134	0x3dccf386	0.10007386
135	0x3d871f76	0.065977976
136	0x3cdee560	0.027208984
137	0x3dbdcef8	0.09267992
138	0x3dfeebb4	0.124473006
139	0x3d303578	0.04301974
140	0x3dc4fb96	0.09618299
141	0x3d6e3658	0.058157295
142	0xbdae1242	-0.08499576
143	0x3dd8c7f8	0.10585016
144	0x3b139040	0.00225164
145	0xbcd79fb8	-0.026321277
146	0xbdd0935a	-0.10184355
147	0x3d6b2010	0.057403624
148	0x3dfe4010	0.12414563
149	0xbcac4d10	-0.02103284
150	0x3c38a990	0.011270896
151	0x3ba9c620	0.005181089
152	0xbdcb4c1c	-0.09926626
153	0xbd76a100	-0.060212135
154	0xbd86bd38	-0.06579059
155	0xbbc56160	-0.006023571
156	0xbd64ef64	-0.055892363
157	0xbd814c86	-0.06313424
158	0x3d642ab8	0.055704802
159	0x3deed700	0.11662102
160	0x3cdb9718	0.026805446
161	0x3d8196c4	0.063275844
162	0xbcbb99f8	-0.022900566
163	0xbd835038	-0.06411785
164	0x3d75b41c	0.05998622
165	0xbd55fddc	-0.052244052
166	0x3dcd5c3a	0.100273564
167	0x3cd9f440	0.026605725
168	0xbda0e4e4	-0.078561574
169	0xbdbd4630	-0.09241903
170	0xbd997ad8	-0.07494134
171	0x3d104628	0.035223156
172	0xbdecfc28	-0.115715325
173	0xbdef8ec4	-0.11697152
174	0xbd5724f0	-0.05252546
175	0xbd594f80	-0.053054333
176	0xbbb53020	-0.0055294186
177	0x3d00f33c	0.031481966
178	0x3d7387ec	0.059455797
179	0xbda173fa	-0.07883449
180	0x3d2505d8	0.040288776
181	0xbdf64cc0	-0.12026358
182	0xbd54bd00	-0.051938057
183	0x3da18cac	0.07888159
184	0x3d27575c	0.040854797
185	0xbd301adc	-0.042994365
186	0xbbc09040	-0.005876571
187	0xbc526fe0	-0.012844056
188	0xbdae9674	-0.085247904
189	0xbd9d6072	-0.07684411
190	0x3d60ddd4	0.05489905
191	0x3c92d7f8	0.017925248
192	0x3d28b1a0	0.04118502
193	0xbca6ae00	-0.020346642
194	0x3d1a1d10	0.037625372
195	0x3d713e98	0.058897585
196	0x3d552ccc	0.052044675
197	0x3d4aad04	0.049481407
198	0xbbb0c400	-0.005394459
199	0xbdea99b2	-0.11455096
200	0xbd49d46c	-0.049274847
201	0xbdfb3830	-0.12266576
202	0xbd85ca1c	-0.0653269
203	0xbda5f622	-0.08103587
204	0xbd9c22fc	-0.0762386
205	0x3dc93484	0.0982447
206	0xbdbbcb04	-0.091695815
207	0x3c999808	0.018749252
208	0x3d9c2b7c	0.076254815
209	0xbd922f9e	-0.071379885
210	0x3d9a620c	0.07538232
211	0x3dc4513e	0.09585808
212	0xbc2d0bc0	-0.010561883
213	0x3da79e8a	0.08184536
214	0xbd1e4340	-0.038638353
215	0x3c1ec770	0.009691104
216	0x39445000	0.00018721819
217	0xbdf65022	-0.12027003
218	0x3d783ca0	0.06060469
219	0x3dd1203c	0.10211226
220	0x3d98ecf2	0.07467069
221	0xbc534fa0	-0.012897402
222	0xbdabae84	-0.083828956
223	0xbd317698	-0.04332599
224	0xbcf49d88	-0.029860273
225	0x3d6b14b0	0.057392776
226	0x3df4eec4	0.119596034
227	0xbda0df50	-0.078550935
228	0xbcebcd60	-0.028784454
229	0x3d8d43b8	0.06897682
230	0x3deb812e	0.114992484
231	0xbde25288	-0.11050898
232	0xbde155c6	-0.11002688
233	0x3dcea4b4	0.100900084
234	0xbc102140	-0.00879699
235	0x3d807d34	0.062738806
236	0xbda0c316	-0.0784971
237	0x3cfe67e0	0.03105539
238	0x3de61ef6	0.11236374
239	0x3d890d78	0.06692022
240	0x3d810704	0.06300166
241	0x3c97c2d0	0.018525511
242	0xbdd38326	-0.10327749
243	0xbd83b1e2	-0.06430413
244	0x3d93e554	0.07221475
245	0x3d4289b8	0.04749462
246	0x3d52002c	0.051269695
247	0x3d9c3b74	0.07628527
248	0xbd99abf6	-0.07503502
249	0x3cca0d88	0.024664655
250	0xbdda4236	-0.1065716
251	0x3dcfcbb4	0.10146275
252	0xbdc8d15a	-0.09805556
253	0x3de2744e	0.110573396
254	0x3d7d865c	0.061895713
255	0x3dfeaa18	0.124347866

actor_Q.1.bias f4 [8]
0	0x3c244790	0.010026827
1	0xbd7cc594	-0.061711863
2	0xbddafe88	-0.10693079
3	0x3d8e1b8e	0.069388494
4	0x3d8e47de	0.06947301
5	0x3d361874	0.044456914
6	0x3c94d658	0.018168613
7	0x3d6ee704	0.058325782

actor_K.1.weight f4 [8, 64]
0	0xbda964aa	-0.08271153
1	0x3df3ad3a	0.11898275
2	0xbdf9b178	-0.121920526
3	0x3c33a610	0.010964885
4	0xbcf7a898	-0.030231759
5	0x3dba12e6	0.09085636
6	0xbde62e1e	-0.11239265
7	0x3d055a58	0.03255686
8	0xbc87c0b0	-0.016571373
9	0x3d76a76c	0.06021826
10	0xbdd20e86	-0.102566764
11	0x3c8955d0	0.016764551
12	0x3dabbe40	0.08385897
13	0x3d8ebfaa	0.06970151
14	0x3d00d04c	0.031448647
15	0x3d2303d8	0.039798588
16	0xbdfbdbc2	-0.12297775
17	0xbc81cc60	-0.015844524
18	0x3d165750	0.03670436
19	0x3d9f84ac	0.07788977
20	0x3dddb5f0	0.108257174
21	0x3dccef3e	0.10006569
22	0xbd21f5e8	-0.039541155
23	0xbc329050	-0.010898665
24	0xbdfa3880	-0.12217808
25	0x3d6d47e4	0.05792989
26	0x3d6773f4	0.056507066
27	0xbdcc8a88	-0.0998736
28	0x3d915a1a	0.07097264
29	0xbbe83140	-0.007085949
30	0x3dff4862	0.12464978
31	0x3baf88c0	0.005356878
32	0x3ba1fd40	0.00494352
33	0x3d793ed8	0.060850948
34	0xbd3e0f18	-0.046401113
35	0xbc104510	-0.008805528
36	0xbd975834	-0.0738987
37	0xbdbf49d4	-0.093402535
38	0xbbe3d380	-0.006952703
39	0x3df6f342	0.120581165
40	0x3c30f5b0	0.010800764
41	0xbda1f5ac	-0.07908186
42	0x3dd2d39a	0.10294266
43	0x3db67820	0.08909631
44	0xbd7dcc20	-0.061962247
45	0xbbfb6420	-0.007671848
46	0xbda0a83c	-0.07844588
47	0xbd6b72ec	-0.057482645
48	0x3cf98a68	0.030461505
49	0x3de5f878	0.11229032
50	0x3ca3c9d8	0.019993708
51	0xbd15eb8c	-0.036601588
52	0x3db5d55c	0.08878586
53	0x3d9f01e4	0.077640325
54	0xbcf7d508	-0.030252948
55	0x3d6ec318	0.058291525
56	0xbd9045f0	-0.070445895
57	0xbcd73738	-0.026271448
58	0xbde85d2a	-0.11345895
59	0xbd6e837c	-0.058230862
60	0xbddc664c	-0.10761699
61	0xbda2c8fa	-0.079484895
62	0xbd591dc4	-0.053006902
63	0xbd904b80	-0.070456505
64	0xbd912e90	-0.07088959
65	0x3dc6b588	0.09702593
66	0x3bfa8560	0.007645294
67	0xbd43a944	-0.047768846
68	0x3d496c10	0.049175322
69	0x3d75fdf8	0.060056657
70	0xbd76b330	-0.06022948
71	0xbafb8e80	-0.0019192249
72	0xbdf36f72	-0.11886491
73	0xbdff6a32	-0.12471427
74	0xbd525880	-0.05135393
75	0xbd93cde0	-0.07217002
76	0xbd2cfaec	-0.042231485
77	0x3de79c42	0.11309101
78	0xbdbcde7a	-0.092221215
79	0x3db6d7a0	0.08927846
80	0x3d8e75cc	0.06956062
81	0x3d47e50c	0.04880242
82	0xbcb4c350	-0.022065789
83	0xbdbf902c	-0.093536705
84	0x3bc004e0	0.005859956
85	0xbd00cda0	-0.0314461
86	0x3cdaace8	0.026693776
87	0xbcee0f90	-0.029060155
88	0xbdf1f57c	-0.118144006
89	0x3cdf8878	0.027286753
90	0xbdc1a244	-0.09454778
91	0x3ddab818	0.10679644
92	0x3d6e4db4	0.058179572
93	0xbd21ae80	-0.039473057
94	0xbdeee250	-0.116642594
95	0x3cf67b18	0.030087993
96	0x3d8e9ec0	0.06963873
97	0xbdd768b6	-0.10518019
98	0xbd539780	-0.051658154
99	0xbdce9db4	-0.10088673
100	0x3c47d750	0.012197331
101	0xbcc3b198	-0.023888394
102	0xbdd19a9a	-0.10234566
103	0xbd20525c	-0.039141044
104	0xbcee8068	-0.029113963
105	0x3d792e70	0.060835302
106	0x3c1fc040	0.009750426
107	0xbbd9d4c0	-0.006647676
108	0x3d273c74	0.040829137
109	0xbdb5d952	-0.08879341
110	0x3cf31c50	0.029676586
111	0x3dcf8ffa	0.10134883
112	0x3d004b20	0.031321645
113	0xbd9b9568	-0.07596856
114	0xbddd70da	-0.1081254
115	0xbd118210	-0.035524428
116	0xbdd4e61c	-0.103954524
117	0x3cd65220	0.026162207
118	0x3c047bc0	0.008086145
119	0xbd959078	-0.07302946
120	0xbd5d1e74	-0.05398412
121	0xbd2ebd50	-0.04266101
122	0x3dff1380	0.12454891
123	0x3dbb6d24	0.09151676
124	0x3d5b9ec8	0.053618222
125	0x3d79a100	0.060944557
126	0x3d356728	0.04428783
127	0xbdd87ac4	-0.10570291
128	0xbd8dd348	-0.06925064
129	0xbce85bc0	-0.028364062
130	0xbddf23e6	-0.10895519
131	0xbb7f85c0	-0.0038989633
132	0xbcbd4408	-0.023103729
133	0x3c9761f8	0.018479332
134	0x3d2d3778	0.042289227
135	0x3dd5ae88	0.1043368
136	0xbdaf58a2	-0.08561827
137	0xbdc39784	-0.09550384
138	0xbc3a3530	-0.01136522
139	0x3d842dc6	0.06454043
140	0x3d0b2ac8	0.033976346
141	0x39df6e00	0.0004261583
142	0x3ce8d5a8	0.028422192
143	0x3deb7ed2	0.114987984
144	0xbdee29a2	-0.116290346
145	0x3ce46438	0.02787982
146	0xbd80a194	-0.062808186
147	0x3dba347c	0.09092042
148	0xbd892d66	-0.06698112
149	0xbdbdd1e8	-0.09268552
150	0x3b917580	0.004439056
151	0x3df85420	0.121254206
152	0x3d20582c	0.039146587
153	0x3c8ff278	0.017571673
154	0xbd4b4ccc	-0.049633786
155	0x3dfc6c0e	0.12325297
156	0x3d4cc510	0.04999262
157	0xbdd69e40	-0.104794025
158	0x3dd9431e	0.10608505
159	0x3c4c18c0	0.012457073
160	0xbdcd835c	-0.100348204
161	0xbaf98600	-0.0019037127
162	0xbb06d840	-0.0020575672
163	0xbca54d48	-0.020178452
164	0x3cc41058	0.023933575
165	0xbd701854	-0.05861695
166	0xbdada5f2	-0.08478917
167	0xbda2f200	-0.07956314
168	0x3c2ae4c0	0.010430515
169	0xbd912ad2	-0.070882455
170	0x3dceec10	0.10103619
171	0xbd87da7c	-0.066334695
172	0xbd3b9430	-0.04579562
173	0x3d4a03e8	0.04932013
174	0x3ceddb30	0.02903518
175	0x3d07a164	0.0331129
176	0xbb763c80	-0.0037572682
177	0x3d6a0728	0.05713573
178	0x3d8351ac	0.06412062
179	0x3dfeeb50	0.12447226
180	0xbdcac8ac	-0.099015564
181	0xbdb02a88	-0.08601862
182	0xbcc4a550	-0.024004608
183	0xbdd0a8e2	-0.10188462
184	0xbd3c6980	-0.04599905
185	0x3da0eb58	0.07857388
186	0x3dad3b9a	0.08458634
187	0xbd50f204	-0.051012054
188	0x3d25dd38	0.040494174
189	0xbd8c5e1c	-0.068538874
190	0x3df519f2	0.11967839
191	0xbd9bcfea	-0.07608016
192	0x3a972f80	0.0011534542
193	0x3deb1176	0.1147794
194	0x3d0fed90	0.035138667
195	0x3b92ae00	0.004476309
196	0x3cd88650	0.026431233
197	0xbcd89d90	-0.02644232
198	0xbde0d23c	-0.10977599
199	0xbd8742de	-0.06604551
200	0x3d89db4a	0.06731279
201	0x3d4cdda0	0.050016046
202	0xbdcf0f0c	-0.10110292
203	0xbd68f70c	-0.056876227
204	0xbdaa8fea	-0.08328231
205	0x3dfee4b6	0.12445967
206	0x3df6e20e	0.12054835
207	0x3cd2d550	0.025736481
208	0x3d8ad7e4	0.06779459
209	0x3db2d366	0.08731727
210	0xbdb36e10	-0.08761227
211	0xbd1c7cc4	-0.038204923
212	0x3dc9b120	0.09848237
213	0x3dfb750c	0.12278184
214	0xbde98988	-0.11403185
215	0x3dc9a512	0.09845938
216	0xbc885da8	-0.016646221
217	0x3d9ca5d4	0.07648817
218	0xbd384958	-0.04499182
219	0xbd1dd7d0	-0.038535893
220	0x3c4dcb30	0.012560651
221	0xbd1502b8	-0.036379546
222	0xbdca2140	-0.09869623
223	0x3deead5c	0.116541594
224	0xbded9a98	-0.11601752
225	0xbceb4600	-0.028719902
226	0x3bfd25a0	0.0077254325
227	0x3dde7eb6	0.10864012
228	0xbd1110f4	-0.03541656
229	0x3c8463c8	0.01616086
230	0x3d81ae40	0.06332064
231	0xbde5816a	-0.112063244
232	0x3d9ba966	0.076006696
233	0xbdb568cc	-0.08857879
234	0x3db8916e	0.090121135
235	0xbd96db2c	-0.073660225
236	0xbdab34fa	-0.08359714
237	0xbda369f2	-0.07979192
238	0xbdc5f816	-0.09666459
239	0xbb1e9680	-0.0024198592
240	0x3d807c22	0.062736765
241	0x3df2637c	0.118353814
242	0x3d9c49f8	0.07631296
243	0xbdde252a	-0.10846932
244	0xbd9c7f94	-0.07641521
245	0x3d440748	0.047858506
246	0xbd22e098	-0.03976497
247	0xbda45d10	-0.08025563
248	0x3db5c730	0.088758826
249	0xbdc20f94	-0.094756275
250	0xbac6cd80	-0.0015167445
251	0x3bfdc260	0.0077441186
252	0xbdd50ea0	-0.1040318
253	0x3d3646b0	0.044501007
254	0x3d8eebc6	0.06978564
255	0xbd3c3cbc	-0.04595636

actor_K.1.bias f4 [8]
0	0x3d90701c	0.07052633
1	0x3c7bf560	0.015378326
2	0x3ce1add0	0.0275487
3	0x3ce2b100	0.02767229
4	0xbc902318	-0.017594859
5	0x3d016a00	0.03159523
6	0xbdbd4f34	-0.092436224
7	0x3dda28a6	0.10652284

actor_V.1.weight f4 [3, 64]
0	0x3db7d05c	0.08975288
1	0x3dbbcf8e	0.09170447
2	0xbd061408	-0.032733947
3	0xbb6af0c0	-0.0035849065
4	0x3cc6c168	0.024262145
5	0x3de861ec	0.11346802
6	0xbdd9fc1a	-0.10643788
7	0xbd95562e	-0.07291828
8	0x3de10d5c	0.10988876
9	0xbd257e18	-0.040403455
10	0xbd70a598	-0.058751673
11	0x3d427198	0.047471613
12	0xbdb5e4d2	-0.08881535
13	0x3c250ac0	0.010073364
14	0x3cca4a90	0.024693757
15	0xbd0d0324	-0.034426823
16	0x3da04d86	0.078272864
17	0xbdc54830	-0.09632909
18	0xbcbbb3b0	-0.02291283
19	0xbd54bc5c	-0.051937446
20	0xbd491798	-0.049094766
21	0xbdb60198	-0.08887023
22	0xbdd24af0	-0.102681994
23	0x3da4506e	0.08023153
24	0xbd8e5e08	-0.06951529
25	0xbd81cdd4	-0.06338087
26	0xbd27de9c	-0.04098378
27	0x3db8ab70	0.09017074
28	0xbde98604	-0.114025146
29	0x3d653cd0	0.0559662
30	0xbdb4b036	-0.08822672
31	0xbc363ae0	-0.011122435
32	0x3c368830	0.011140868
33	0xbd227b90	-0.03966862
34	0x3d69bcc0	0.05706477
35	0xbd1844b8	-0.03717491
36	0xbc929d88	-0.017897382
37	0x3dabc4bc	0.083871335
38	0x3ca2faf0	0.019895047
39	0x3d3c2d5c	0.045941696
40	0xbd5095b4	-0.050924018
41	0x3d1399fc	0.036035523
42	0x3dfade42	0.122494236
43	0xbc6a0f30	-0.014285848
44	0xbdc7ea3e	-0.09761475
45	0x3d7303bc	0.059329733
46	0x3cfaa1a8	0.030594662
47	0xbbb01b60	-0.005374357
48	0x3a69f400	0.00089246035
49	0x3dc52192	0.09625544
50	0xbc3ee8e0	-0.011652201
51	0xbd38cd30	-0.045117557
52	0xbde1e772	-0.11030473
53	0x3d4c307c	0.049850926
54	0xbc4c34b0	-0.012463734
55	0xbda73168	-0.0816372
56	0xbdefd326	-0.11710195
57	0x3d8fe132	0.070253745
58	0xbc24d990	-0.010061637
59	0xbdf6ac78	-0.120446146
60	0x3c3be6d0	0.011468604
61	0xbd212fe4	-0.039352313
62	0x3deb576e	0.11491285
63	0x3d5e4af4	0.0542707
64	0xbdb7a054	-0.08966127
65	0xbd975d3e	-0.073908314
66	0xbd68b56c	-0.056813642
67	0xbddfcdfe	-0.10927962
68	0xbd9b2d82	-0.07577039
69	0xbdb8ebe6	-0.09029369
70	0x3dea761c	0.11448309
71	0xbd933750	-0.071882844
72	0xbc3c2af0	-0.0114848465
73	0x3db9bbaa	0.09068997
74	0x3d25e88c	0.040504977
75	0xbdd467ae	-0.10371338
76	0xbd55d2e4	-0.052203074
77	0x3d7ef46c	0.062244818
78	0xbd97226c	-0.07379612
79	0x3d253940	0.0403378
80	0xbd412dc8	-0.0471628
81	0x3dbc34ec	0.091897815
82	0xbd798848	-0.060920984
83	0xbdd9ee72	-0.10641183
84	0xbc9ba3a8	-0.018998936
85	0x3cb62af8	0.022237286
86	0xbcec8dc8	-0.0288762
87	0x3dfd5bba	0.12371011
88	0xbb57ea80	-0.003294617
89	0x3cbc8cf0	0.023016423
90	0xbd502330	-0.050814807
91	0x3da6b53a	0.08140035
92	0x3d206e3c	0.039167628
93	0xbcd21b40	-0.02564776
94	0xbdce7452	-0.1008078
95	0x3dad3b88	0.0845862
96	0xbd1a2570	-0.03763336
97	0x3d056fd4	0.03257735
98	0x3d9047b8	0.07044929
99	0xbd697090	-0.056992114
100	0xbcba39c8	-0.02273263
101	0x3dead912	0.11467184
102	0xbd9907a0	-0.074721575
103	0x3d9ce5ee	0.07661043
104	0x3d17c970	0.03705734
105	0xbdcc0bcc	-0.099631876
106	0xbd8c8e76	-0.0686311
107	0xbac63380	-0.0015121549
108	0x3cafb7c8	0.021449938
109	0xbd135cfc	-0.03597735
110	0xbd08b6d0	-0.03337747
111	0xbd850c7e	-0.06496523
112	0xbda6449e	-0.081185564
113	0x3b1ca940	0.0023904592
114	0xbdc2a2e6	-0.09503727
115	0xbdff6ace	-0.12471543
116	0x3d9a2364	0.075262815
117	0x3cc76278	0.024338946
118	0x3d9e4ad6	0.077291176
119	0xbc3e46a0	-0.011613518
120	0xbde51b36	-0.11186831
121	0xbca92550	-0.020647675
122	0x3db5781a	0.08860798
123	0xbc960998	-0.018315122
124	0xbd8668fc	-0.06562993
125	0x3d765d18	0.060147375
126	0x3dab187c	0.083542794
127	0x3df0ba64	0.11754301
128	0xbd92d656	-0.071697876
129	0x3d9f0774	0.077650934
130	0x3bb05980	0.005381763
131	0xbdc2c240	-0.095097065
132	0xbdd7df98	-0.10540694
133	0x3df84bd4	0.12123838
134	0xbc938198	-0.018006131
135	0xbd9dc69a	-0.07703896
136	0xbd853590	-0.06504357
137	0x3bec4580	0.0072104335
138	0xbde9e802	-0.11421205
139	0x3960d000	0.0002143979
140	0x3dee3bee	0.116325244
141	0x3dffd29e	0.12491344
142	0xbcee92c0	-0.02912271
143	0xbd5cc3f8	-0.053897828
144	0x3d0fc0ec	0.035096094
145	0x3da51f34	0.08062592
146	0xbd5bcbfc	-0.05366133
147	0x3aa65580	0.0012690276
148	0xbd121164	-0.035661116
149	0xbd98e69e	-0.07465862
150	0x3c6db310	0.014508024
151	0xbd1a5978	-0.03768298
152	0xbd34975c	-0.04408966
153	0x3d9ac732	0.07557525
154	0x3cc0eae8	0.023549512
155	0xbd3503c0	-0.04419303
156	0x3de5b836	0.11216776
157	0xbd33daf8	-0.043909997
158	0x3cf83060	0.030296504
159	0x3cead110	0.028664142
160	0xbd99fd3e	-0.07519005
161	0x3d67bbf4	0.05657573
162	0xbdee8e60	-0.116482496
163	0x3df09dbe	0.11748837
164	0xbd41c874	-0.047310308
165	0xbde6a600	-0.11262131
166	0xbcc09c68	-0.02351208
167	0x3c879d00	0.016554356
168	0xbd981dec	-0.07427582
169	0xbbb8ba60	-0.005637452
170	0x3dfd82b2	0.12378444
171	0xbdfacbd0	-0.122459054
172	0x3d986690	0.07441437
173	0x3c88d268	0.016701892
174	0xbda35ab6	-0.07976286
175	0xbdcaed7c	-0.09908578
176	0x3d112738	0.035437793
177	0x3dbdfc40	0.092766285
178	0x3dddfb28	0.1083892
179	0x3dae1598	0.085002124
180	0xbccbe140	-0.024887681
181	0xbdcc9870	-0.09990013
182	0xbd828db2	-0.063746825
183	0x3d1eb0f4	0.038742974
184	0xbc6b9da0	-0.014380842
185	0x3d47708c	0.048691317
186	0xbd096154	-0.033540085
187	0x3d1fa664	0.03897704
188	0xbdbc5ae2	-0.09197022
189	0x3dcc520c	0.09976587
190	0xbc4f59e0	-0.012655705
191	0x3d84bf98	0.06481856

actor_V.1.bias f4 [3]
0	0xbdb86e78	-0.09005445
1	0x3d91ee6c	0.071255535
2	0xbdb7bcee	-0.08971582

expert_K.weight f4 [3, 8]
0	0xbeac5f87	-0.33666632
1	0xbf2dd06f	-0.6789617
2	0x3e2a2ad4	0.166179
3	0xc01b5a97	-2.4274042
4	0xbf8b2d74	-1.0873246
5	0x3e34f77b	0.17672531
6	0xbfe48308	-1.7852488
7	0xbf88ad6e	-1.0677927
8	0xbc1085b5	-0.008820941
9	0x3f306c8b	0.68915623
10	0x3e02bd4d	0.12767525
11	0xbedc097e	-0.42975992
12	0xbf47167b	-0.7776868
13	0xbc35b8b1	-0.011091397
14	0x3f1bf406	0.60919225
15	0xbe1db155	-0.15399678
16	0x3fa69e16	1.3016994
17	0xbe57d653	-0.21077852
18	0x3e2850a5	0.16437013
19	0xbe705423	-0.23469596
20	0x3f5cc633	0.8623993
21	0x3eccd98d	0.40009728
22	0x3eddf20f	0.4334874
23	0x3fc14880	1.510025
