gym-multigrid-master/results/coma/key/steps_1500000_ngames_14924/model_weights_save_dir/actor_0_episode_10000.pth (torch, 102416 bytes, 13 tensors)

fc1.weight f4 [64, 294]
0	0x3d517252	0.051134415
1	0x3d3cbd1d	0.04607879
2	0xbd6f190c	-0.058373496
3	0x3ce211cc	0.027596377
4	0xbbaec730	-0.0053338036
5	0x3c478c88	0.012179501
6	0x3c9f272a	0.019427855
7	0xbd3c8b2b	-0.04603116
8	0x3ce14b8f	0.02750185
9	0xbd5d6ff8	-0.05406186
10	0xbd042305	-0.03225996
11	0x3d27881a	0.04090128
12	0x3c23cd6d	0.009997708
13	0xbd5d644c	-0.05405073
14	0x3d05f59b	0.03270493
15	0xbc6d88f9	-0.014497989
16	0x3b9977f8	0.004683491
17	0x3d3178da	0.043328144
18	0x3c2ea787	0.010660059
19	0xbd80f47b	-0.06296631
20	0x3bca9868	0.006182719
21	0xbb3a24b0	-0.0028403215
22	0x3d513661	0.05107725
23	0x3d38dd6c	0.04513304
24	0x3cf54db3	0.029944276
25	0xbaf46aa5	-0.0018647505
26	0xbca1bae5	-0.019742439
27	0xbd4113be	-0.04713797
28	0x3d0378f4	0.03209777
29	0x3cf7e464	0.030260272
30	0xbcb9fb2e	-0.02270278
31	0x3d38fef2	0.04516501
32	0xbd289dad	-0.041165996
33	0xbd18dd92	-0.03732068
34	0xba652cae	-0.00087423145
35	0x3d4de57c	0.05026768
36	0x3d05cdf7	0.032667127
37	0xbd6e44b9	-0.058171008
38	0x3cbd949c	0.023142152
39	0x3bfcfbde	0.0077204546
40	0xbd81b21f	-0.06332802
41	0xbbfe1560	-0.007754013
42	0xbd1bb9d9	-0.038019035
43	0xbd0e632c	-0.034762546
44	0xbd38c530	-0.045109928
45	0xbd22c698	-0.039740175
46	0xbd4627b4	-0.048377708
47	0xbd25e054	-0.04049714
48	0x3c4c94d1	0.0124866525
49	0xbd07e52b	-0.033177536
50	0x3cb65977	0.022259457
51	0xbd525e5b	-0.051359516
52	0x3ca158d0	0.01969567
53	0xbb0b2460	-0.0021231398
54	0xbd3b1cb2	-0.045681663
55	0xbcd8b1a0	-0.026451886
56	0x3c6eab96	0.014567276
57	0x3b17e52c	0.0023177369
58	0x3bc16621	0.0059020673
59	0x3cdb8574	0.026797034
60	0xbabf21e4	-0.0014582244
61	0x3d2e37ec	0.0425338
62	0xbc637531	-0.013882921
63	0xbd560bce	-0.05225735
64	0xbd64a4b1	-0.055821124
65	0xbc8bdeb0	-0.01707396
66	0x3d1a2fe5	0.037643332
67	0xbcb27ce5	-0.02178807
68	0x3c9bc4f0	0.019014806
69	0xbd36f5e1	-0.044668082
70	0x3d5e1cbb	0.05422662
71	0xbbf5f8d0	-0.0075064674
72	0x3d096879	0.0335469
73	0xbb849a97	-0.004046749
74	0x3d4dc9b3	0.050241183
75	0x3d2e30ea	0.042527117
76	0x3d438c21	0.04774106
77	0x3c2f7528	0.010709085
78	0x3ca968d1	0.020679863
79	0xbd49e5e2	-0.0492915
80	0xbd07a444	-0.03311564
81	0xbd3fe28d	-0.046846915
82	0xbc16fdbe	-0.00921577
83	0xbce3bde2	-0.027800504
84	0x3d428335	0.04748841
85	0xbcd1d157	-0.025612516
86	0xbca49ac3	-0.020093327
87	0x3c9e3d72	0.019316409
88	0x3d0e3d7b	0.0347266
89	0xbd140ff2	-0.03614802
90	0x3c6f00c9	0.01458759
91	0x3d5213b1	0.05128831
92	0xbb5810c4	-0.0032968977
93	0xbd616dd9	-0.0550364
94	0x3c7a9bd8	0.015295945
95	0x3bbafcf0	0.005706422
96	0x3c7a4ddd	0.015277353
97	0xbd4e1289	-0.050310645
98	0xbd4da835	-0.050209243
99	0xbd17f674	-0.03710027
100	0xbcc64c17	-0.024206204
101	0x3cd574f0	0.026056737
102	0xba9da2f0	-0.0012026709
103	0xbb8ceed7	-0.004300933
104	0x3c456ae4	0.0120494105
105	0x3b575312	0.003285591
106	0x3d510752	0.05103237
107	0xbce94362	-0.028474513
108	0xbd276028	-0.040863186
109	0xbd308290	-0.043093264
110	0x3cd11bd8	0.025525972
111	0x3c77ed03	0.015132192
112	0x3c72f6a9	0.014829316
113	0xba74ce00	-0.0009338558
114	0xbcf59e02	-0.02998257
115	0xbd325dc0	-0.04354644
116	0xbc66b545	-0.014081304
117	0xbb8286be	-0.0039833477
118	0xbcbf1888	-0.023327127
119	0x3c5d8298	0.0135199055
120	0x3c2c5a4a	0.010519573
121	0x3c7b3245	0.015331809
122	0x3b25cc4b	0.002529877
123	0xbd1d4fac	-0.03840606
124	0x3d38fcbb	0.045162898
125	0xbcb0a79e	-0.021564301
126	0x3d2e9d6e	0.042630605
127	0x3d6d5659	0.057943676
128	0xbd4fee3e	-0.050764315
129	0xbc898b32	-0.016790006
130	0x3be83f88	0.0070876516
131	0xbcdaba0a	-0.026700038
132	0xbcd698b3	-0.02619586
133	0xbd061e76	-0.032743894
134	0xbd372c9f	-0.04472029
135	0xbc08cfe8	-0.00835035
136	0x3d210f8b	0.039321464
137	0xbcc04076	-0.023468237
138	0xbc108fa2	-0.008823307
139	0xbd2a528d	-0.041582633
140	0x3d192b7a	0.037394978
141	0x3c831a40	0.016003728
142	0xbd587f7f	-0.052855965
143	0xbd6019c7	-0.054712083
144	0x3d3b8274	0.045778707
145	0x3d2053ce	0.039142422
146	0xbce62d42	-0.028097752
147	0x3d21cc49	0.039501462
148	0xbd55d082	-0.0522008
149	0x3baeb810	0.0053320006
150	0xbd4a5e65	-0.049406428
151	0x3c333c95	0.010939737
152	0x3b8a00b5	0.00421151
153	0xbd7c20ce	-0.061554722
154	0x3a937b16	0.0011251892
155	0x3d2daf84	0.042403713
156	0x3cd9dbb3	0.026594019
157	0xbd1001d9	-0.035158012
158	0xbd063b20	-0.03277123
159	0xbd07e51b	-0.033177476
160	0x3d3183e0	0.043338656
161	0xbcb2cd2e	-0.021826353
162	0x3c8daf27	0.017295433
163	0x3d3298b7	0.04360267
164	0xbcbd672a	-0.023120482
165	0xbcaab354	-0.020837463
166	0xbd2ab87f	-0.041679855
167	0x3cafb644	0.021449216
168	0x39ed5f87	0.00045275336
169	0x3d5043e9	0.050846014
170	0xbd611b0e	-0.054957442
171	0xbd5b2f60	-0.053511977
172	0xbd3eab0c	-0.04654984
173	0x3b1598a0	0.0022826567
174	0xbc7f8069	-0.01559458
175	0xbca57685	-0.020198116
176	0x3bfd2533	0.0077253818
177	0xbd105b6f	-0.035243448
178	0xbcafc7f0	-0.021457642
179	0xbd30443d	-0.043033827
180	0xbd2c29f1	-0.042032186
181	0xbcec836f	-0.028871266
182	0xbd09f3d5	-0.033679802
183	0x3d4ebe68	0.050474554
184	0xbd313572	-0.04326386
185	0xbd0f922c	-0.03505151
186	0x3d3389ee	0.043832712
187	0xbb883223	-0.0041563674
188	0xbd5039af	-0.05083626
189	0xbb9e4c75	-0.0048308917
190	0xbd43ac6e	-0.047771864
191	0x3d5c9088	0.053848773
192	0xbc9a59bf	-0.018841622
193	0xbb957d3f	-0.0045620496
194	0xbc3dfd5e	-0.011596052
195	0xbcb525ec	-0.02211281
196	0xbcd86c0d	-0.02641871
197	0x3cf51a18	0.029919669
198	0x3cca94e0	0.024729192
199	0xbca6a24f	-0.020341067
200	0x3a480d89	0.00076314114
201	0xbd783736	-0.06059953
202	0x3d31bff2	0.043395944
203	0xbd1ed760	-0.038779616
204	0xbcdbd13c	-0.02683317
205	0xbd143e16	-0.036192022
206	0x3c71e558	0.0147641525
207	0xbb1d6e00	-0.0024021864
208	0x3cc7d20f	0.024392156
209	0x3b861a88	0.0040925182
210	0xbd094b36	-0.033518992
211	0x3d50e55e	0.05099999
212	0x3c8c6833	0.01713953
213	0xbca58009	-0.020202653
214	0x3c456bae	0.012049599
215	0xbc8b2f7a	-0.016990412
216	0xbd1030ae	-0.035202675
217	0x3cd09e03	0.02546597
218	0x3cbcdbaa	0.023053963
219	0xbd33e1c1	-0.043916468
220	0x3d098f5f	0.033583995
221	0xbcc4655a	-0.02397411
222	0xbd672a92	-0.056437083
223	0xbd1a0905	-0.037606258
224	0x3d17c1d5	0.037050087
225	0x3d460a69	0.04834977
226	0x3bbb3f8c	0.0057143625
227	0xbcf76ace	-0.030202296
228	0x3ce650f5	0.028114775
229	0xbd70f19a	-0.05882416
230	0xbd767458	-0.060169548
231	0x3cecff84	0.028930433
232	0x3c31b0c1	0.010845364
233	0x3be5fc70	0.0070186183
234	0x3d0e25c1	0.034703974
235	0x3d2bc3bf	0.041934725
236	0xbc4945b9	-0.01228469
237	0x3d3d7ecf	0.046263512
238	0x3c6ef19c	0.014583971
239	0x3c622f78	0.013805263
240	0x3b9ff123	0.0048810407
241	0x3c8cc7d9	0.017185139
242	0x3d331aa8	0.043726593
243	0xbcda4225	-0.026642868
244	0xbd1b836e	-0.037967138
245	0x3c43d7f0	0.011953339
246	0xbd7c655e	-0.06162011
247	0x3ccbb69e	0.024867352
248	0x3b35d984	0.0027748058
249	0xbd0bf114	-0.034165457
250	0xbd3930da	-0.045212604
251	0x3c98ab3c	0.018636338
252	0xbd62058d	-0.055181075
253	0x3d4e4eea	0.050368227
254	0x3c759033	0.014987993
255	0x3d2e11fa	0.042497613

fc1.bias f4 [64]
0	0x3cd021d8	0.025406763
1	0x3d9f0dac	0.077662796
2	0x3ba299bd	0.0049621747
3	0xbcfc963b	-0.030833354
4	0x3d44ab21	0.048014764
5	0xbd6f885e	-0.05847966
6	0x3d14f573	0.03636689
7	0xbd0bb004	-0.03410341
8	0xbcea072b	-0.028567871
9	0xbcd43079	-0.02590202
10	0xbc952d00	-0.018209934
11	0xbaa9e20b	-0.0012961043
12	0x3c51db98	0.012808703
13	0xbcee0846	-0.02905668
14	0xbcbbb887	-0.022915138
15	0x3d22ef5c	0.039779052
16	0x3d371a1f	0.044702645
17	0x3d9143f3	0.070930384
18	0x3d1c5c44	0.03817393
19	0x3d39e239	0.04538176
20	0x3caa4b87	0.020787967
21	0xbd5efee8	-0.054442316
22	0x3d153949	0.036431585
23	0x3d3addc0	0.045621634
24	0x3d25a37a	0.040439107
25	0x3d2671c2	0.04063583
26	0xbd56cf78	-0.05244395
27	0x3ce840ad	0.028351152
28	0xbcab61a7	-0.020920588
29	0xbd61129d	-0.05494939
30	0xba1b6594	-0.0005927917
31	0x3c07c58b	0.008286844
32	0x3d07456e	0.033025198
33	0x3ccc84be	0.02496564
34	0x3ccc9100	0.024971485
35	0xbc2d33f7	-0.010571471
36	0x3c4b06a0	0.012391716
37	0xbc78fecb	-0.015197466
38	0xbb208352	-0.0024492336
39	0x3d4968cc	0.049172208
40	0x3c4f10ce	0.012638284
41	0xbb63598c	-0.0034690825
42	0xbd09a929	-0.03360859
43	0x3cd4af52	0.025962505
44	0xbce34e6e	-0.02774736
45	0x3d0ba992	0.03409726
46	0x3cf524be	0.029924747
47	0x3d4c541f	0.04988491
48	0xbd31424c	-0.043276116
49	0x3d5312ba	0.05153153
50	0xbd16f7ac	-0.036857292
51	0x3ce64ff6	0.0281143
52	0x3d142db8	0.036176413
53	0xbcd9a11e	-0.026566084
54	0xbcc2eb11	-0.023793729
55	0xbd214bd2	-0.03937895
56	0x3d5f679f	0.05454218
57	0xbcb2aa59	-0.021809744
58	0xbc52dd43	-0.012870136
59	0xbd4ab6ba	-0.049490668
60	0x3d05dba4	0.03268017
61	0x3d5db175	0.054124314
62	0x3cb408c3	0.021976834
63	0xbd00c730	-0.03143996

fc2.weight f4 [64, 64]
0	0xbd562aee	-0.052287035
1	0xbdaa6021	-0.083191164
2	0xbde1a8f0	-0.110185504
3	0xbd3a3bb6	-0.0454671
4	0xbd5b63d7	-0.05356201
5	0xbd540c21	-0.05176938
6	0xbc63ed1c	-0.013911512
7	0x3df0a4d6	0.1175019
8	0xbcc14ef8	-0.023597226
9	0x3d5ebd94	0.054380015
10	0x3dc26737	0.09492343
11	0xbda36f57	-0.07980221
12	0xbda0eb91	-0.07857431
13	0x3cadf416	0.021234553
14	0xbdf9e47b	-0.12201782
15	0x3ddc9888	0.107712805
16	0xbc289dc2	-0.010291519
17	0x3cdf000b	0.0272217
18	0x3ceacb5f	0.028661428
19	0x3cbe5c8a	0.023237485
20	0xbd8bf92f	-0.068346374
21	0x3dc81a30	0.0977062
22	0xbd8efcbd	-0.069818
23	0xbc842ad0	-0.016133696
24	0x3bcd6940	0.0062686503
25	0xbd695414	-0.05696495
26	0xbd84500e	-0.06460582
27	0xbcd4766b	-0.025935372
28	0x3d49665a	0.049169876
29	0xbb2d84b0	-0.0026476793
30	0x3d824ff0	0.06362903
31	0xbcdd2ffa	-0.027000416
32	0xbdb5f2b3	-0.08884182
33	0xbd8444fe	-0.06458472
34	0xbde63834	-0.11241189
35	0xbe03e196	-0.12879023
36	0xbaa7b53b	-0.00127951
37	0x3d0356dd	0.03206526
38	0xbde7d3d3	-0.11319699
39	0xbd12510d	-0.035721827
40	0xbd9965cb	-0.074901186
41	0x3c8452c8	0.016152754
42	0x3b1960ab	0.0023403566
43	0x3c3b4c83	0.011431816
44	0x3dc7bbb5	0.09752599
45	0xbd99c933	-0.07509079
46	0xbd9d6718	-0.07685679
47	0x3d06ad88	0.032880336
48	0xbdda7d8f	-0.1066848
49	0x3d84bdea	0.06481536
50	0x3c280be3	0.01025674
51	0x3dd1e9ef	0.102496974
52	0xbd9a10ab	-0.075227104
53	0x3d36d556	0.044637047
54	0xbdffdd2b	-0.12493356
55	0x3c236e82	0.009975078
56	0xbdf9ac0d	-0.12191019
57	0xbd3a69dc	-0.04551111
58	0xbdf5b3a9	-0.11997158
59	0xbde53984	-0.11192611
60	0xbddc8856	-0.107681915
61	0xbd434b2b	-0.047679108
62	0xbd454e75	-0.048170526
63	0xbc40239d	-0.011727241
64	0xbd7ee56d	-0.062230516
65	0x3d36a6de	0.04459273
66	0xbddf6180	-0.109072685
67	0x3d58dbe6	0.052944086
68	0x3d1f1639	0.038839553
69	0x3b9f7226	0.0048659025
70	0xbdcd2ec8	-0.100186884
71	0xbba8beb8	-0.0051496886
72	0xbd907e94	-0.07055393
73	0x3dc91a20	0.09819436
74	0xbd1f8426	-0.038944386
75	0xbd6db9e3	-0.058038604
76	0x3ce3d789	0.027812736
77	0xbdf655b5	-0.12028066
78	0xbda4b0e6	-0.08041553
79	0xbdb2d1ac	-0.08731398
80	0xbd9959de	-0.07487844
81	0x3deb6f3e	0.11495827
82	0x3dd92377	0.106024675
83	0x3d4648fe	0.048409455
84	0x3d73f222	0.059557088
85	0x3a989a61	0.0011642688
86	0x3d228771	0.03967995
87	0xbdf0ba50	-0.11754286
88	0x3c76042e	0.015015645
89	0xbcf218d3	-0.029552853
90	0x3c4a1431	0.012333916
91	0x3be3ee33	0.006955886
92	0x3ddfc845	0.1092687
93	0x3e0106fc	0.1260032
94	0xbcde3fad	-0.027129972
95	0xbbe8c87b	-0.0071039773
96	0xbd217207	-0.039415386
97	0xbdb440ba	-0.08801408
98	0x3cfe55cc	0.03104677
99	0xbd82d39a	-0.06388016
100	0x3bc08d2e	0.005876205
101	0x3ba74173	0.0051042377
102	0x3db7f065	0.089813985
103	0xbdef2340	-0.11676645
104	0xbd85bfb9	-0.06530709
105	0xbddfd65e	-0.10929559
106	0xbde4478e	-0.111464605
107	0xbd0e5704	-0.034750953
108	0x3d5b28a4	0.053505555
109	0xbc45a13e	-0.012062369
110	0xbdfe88b0	-0.12428415
111	0x3df0fb11	0.11766637
112	0x3d50f727	0.051016953
113	0xbd43758e	-0.04771953
114	0x3dc63248	0.09677559
115	0x3bd49a8a	0.006488149
116	0x3d0096e4	0.0313939
117	0xbd85f37d	-0.06540582
118	0x3cdf5aed	0.027265036
119	0xbde9651f	-0.113962404
120	0x3dc80b53	0.09767785
121	0xbda9af02	-0.08285333
122	0xbd1a1757	-0.037619915
123	0xbdbf1dad	-0.09331832
124	0xbd23d2ed	-0.039996076
125	0xbdc36b1a	-0.095419124
126	0x3deba337	0.1150574
127	0xbdff735a	-0.124731734
128	0xbc4546d2	-0.012040811
129	0xbd1f3525	-0.038869042
130	0x3cd7c165	0.026337335
131	0xbdce5d62	-0.10076405
132	0x3df69251	0.120396264
133	0xbcaec2b6	-0.02133308
134	0xbd17e96d	-0.037087847
135	0xbba8646d	-0.005138925
136	0x3daf687e	0.08564852
137	0xbdaeb47d	-0.08530519
138	0x3dc15dbf	0.09441709
139	0xbc2677ee	-0.010160429
140	0xbbc76e34	-0.0060861353
141	0x3dcb1bc7	0.099174075
142	0x3d669097	0.056290235
143	0xbd566cc0	-0.052349806
144	0xbd940f96	-0.07229535
145	0xbdc3d162	-0.09561421
146	0xbd0ab1f6	-0.033861123
147	0x3d3342cd	0.043764878
148	0x3d6a671a	0.05722723
149	0x3da3924e	0.0798689
150	0xbd63c93c	-0.055611834
151	0xbd0e62eb	-0.034762304
152	0x3e07c795	0.13259728
153	0x3df0ebd7	0.11763733
154	0x3de9f381	0.11423398
155	0xba39327e	-0.0007064714
156	0xbde91ed8	-0.11382836
157	0xbc4686d1	-0.012117104
158	0x3e03e874	0.12881643
159	0xbd581c69	-0.05276147
160	0xbd91be4d	-0.07116375
161	0x3e03d9ea	0.12876096
162	0xbbfd923d	-0.00773838
163	0x3e0ae4ee	0.13563892
164	0xbae858d8	-0.0017726673
165	0xbcc8b79a	-0.02450161
166	0xbd8b3e1d	-0.067989565
167	0xbd9180f4	-0.07104674
168	0x3d4eab8d	0.050456572
169	0x3dfdad7e	0.12386607
170	0xbd83e445	-0.06440023
171	0x3ddf417b	0.10901161
172	0xbd6b4d93	-0.057447027
173	0x3e0a6365	0.13514479
174	0x3cdf94d5	0.027292648
175	0x3e005fd2	0.12536553
176	0xbc022e79	-0.00794565
177	0xbcfc384c	-0.030788563
178	0xbda8d650	-0.08244002
179	0x3d7e1665	0.062033076
180	0x3999dacb	0.00029345448
181	0x3d17a10c	0.03701882
182	0xbd070088	-0.03295949
183	0xbce1474f	-0.027499823
184	0xbd623fc7	-0.055236604
185	0xbd86c876	-0.06581204
186	0x3de26db7	0.11056083
187	0xbd9d2d71	-0.07674683
188	0x3cf81111	0.030281575
189	0x3e0d3454	0.13789493
190	0xbcd999a0	-0.026562512
191	0xbdca20ef	-0.09869563
192	0x3d41aeed	0.047285963
193	0x3d809ef4	0.06280318
194	0x3aaa7172	0.001300378
195	0x3dbbaae5	0.09163455
196	0x3d913aa3	0.07091262
197	0x3de38be1	0.11110664
198	0xbdab1e7a	-0.08355422
199	0x3d8d53e6	0.06900768
200	0xbe007a3a	-0.12546626
201	0xbd99b076	-0.075043604
202	0x3d7deee7	0.061995413
203	0xbd765b55	-0.060145695
204	0x3ce822af	0.02833685
205	0x3db6387e	0.08897494
206	0x3d8c8df3	0.06863012
207	0x3dee07d3	0.11622586
208	0xbdd199c5	-0.10234407
209	0x3ddc657c	0.10761544
210	0x3d78c4da	0.060734607
211	0x3d792e16	0.060834967
212	0xbd603fc6	-0.05474832
213	0xbdf04d66	-0.117335126
214	0x3da9a1f0	0.0828284
215	0xbd2a3b38	-0.04156038
216	0xbd5dddbe	-0.054166548
217	0xbb2dbd51	-0.0026510546
218	0xbdaeb8ea	-0.08531363
219	0xbd280ca8	-0.041027695
220	0x3d95615d	0.07293961
221	0x3da1a474	0.07892695
222	0x3d5a72bb	0.05333207
223	0x3d01e041	0.031708006
224	0x3d879765	0.06620673
225	0x3d27cd1c	0.040967092
226	0xbdc5775e	-0.09641908
227	0xbd119466	-0.035541914
228	0x3b08183e	0.0020766403
229	0x3db117a9	0.08647091
230	0x3d8d086c	0.06886372
231	0x3d9aa77f	0.075514786
232	0x3dd99040	0.10623217
233	0xbdcc4520	-0.09974122
234	0x3dd177b4	0.1022791
235	0x3c011d85	0.007880573
236	0x3d77989a	0.060448267
237	0x3d63edbc	0.055646643
238	0xbd03598e	-0.032067828
239	0xbda1a53d	-0.07892845
240	0xbd95ea60	-0.07320094
241	0xbe053851	-0.13009764
242	0x3dc30fd3	0.095245026
243	0xbcc8832f	-0.024476616
244	0x3d9ae4a6	0.075631425
245	0xbabe3cb5	-0.0014513942
246	0x3d64bc00	0.055843353
247	0xbd697fd7	-0.057006683
248	0xbd167df8	-0.036741227
249	0xbdc7c5f6	-0.09754555
250	0xbd209e8e	-0.03921371
251	0x3de9636b	0.113959156
252	0xbd0c052b	-0.034184616
253	0xbd1f016f	-0.038819727
254	0xbdfd3d70	-0.12365234
255	0x3dc65fa6	0.09686212

fc2.bias f4 [64]
0	0x3db9fbff	0.090812676
1	0xbc5a43b4	-0.013321806
2	0x3cfa93bb	0.030588022
3	0xbdba0ef5	-0.09084884
4	0x3d92920a	0.07156761
5	0xbd6a2a41	-0.057169203
6	0xbd4d3217	-0.050096598
7	0x3c4b02d9	0.012390816
8	0xbdf71a64	-0.120655805
9	0xbd863559	-0.06553144
10	0xbd7a31a9	-0.061082516
11	0xbda3157e	-0.07963084
12	0xbda5407e	-0.080689415
13	0x3d8a9892	0.06767382
14	0x3ca36cdd	0.019949371
15	0x3d1a0069	0.037598047
16	0xbd6451aa	-0.055741943
17	0xbcff8509	-0.031191366
18	0xbda052ac	-0.078282684
19	0x3bceeaf1	0.0063146283
20	0xbd76cf27	-0.06025615
21	0xbe073b3b	-0.13206188
22	0xbce28d75	-0.027655343
23	0xbc797f7f	-0.015228151
24	0x3dc69cd3	0.096978806
25	0xbdc5278d	-0.09626684
26	0xbd8225d9	-0.06354875
27	0xbc92ceca	-0.01792087
28	0xbd0ee976	-0.034890614
29	0xbdbf2696	-0.093335316
30	0xbcbe209f	-0.023208914
31	0xbd144b25	-0.036204476
32	0x3d28c308	0.04120162
33	0x3bb9ef72	0.005674296
34	0xbcf6f146	-0.030144345
35	0xbdfe3c9c	-0.12413904
36	0x3d3bdba2	0.045863755
37	0xbcdf0ffc	-0.027229302
38	0x3dae41d0	0.085086465
39	0x3deca1a0	0.11554265
40	0xbdbd61e0	-0.09247184
41	0x3d820ffa	0.063507035
42	0xbd80ad8b	-0.06283101
43	0x3dfe6e3e	0.12423371
44	0x3aa72be8	0.0012754174
45	0x3c03823b	0.008026655
46	0x3cead7b8	0.028667316
47	0xbda18abf	-0.07887792
48	0x3de2f007	0.11080938
49	0xbda8dc81	-0.08245183
50	0xbda6c80d	-0.081436254
51	0x3dc0d67e	0.09415911
52	0x3de2c41b	0.110725604
53	0xbd0b7881	-0.03405047
54	0x3dcd29ff	0.10017776
55	0x3bf0999b	0.00734253
56	0xbd61a381	-0.05508757
57	0x3dd72682	0.10505392
58	0xbdca0749	-0.09864671
59	0x3de7c51a	0.11316891
60	0x3da74f92	0.08169474
61	0x3bb9f57e	0.005675017
62	0x3dd70112	0.10498251
63	0xbcbfe511	-0.023424657

fc3.weight f4 [3, 64]
0	0xbd8aa6b6	-0.06770079
1	0xbdfa12c1	-0.12210608
2	0x3df7930c	0.12088594
3	0xbd4f1448	-0.05055645
4	0xbd868bf5	-0.065696634
5	0xbd21c95c	-0.039498672
6	0xbcdb352a	-0.026758749
7	0x3be611d4	0.0070211682
8	0xbc60cbf2	-0.013720499
9	0x3deb5436	0.11490671
10	0xbd21f516	-0.039540373
11	0x3d87fade	0.06639646
12	0xbde02bc2	-0.10945846
13	0x3de6c183	0.11267378
14	0xbc10d18a	-0.0088390205
15	0xbde348ca	-0.11097868
16	0x3e0cdc0f	0.1375582
17	0xbdd4fbd4	-0.10399595
18	0xbbd1ad9b	-0.006398869
19	0x3daede64	0.085385114
20	0x3e170034	0.14746171
21	0xbdd5b0ae	-0.104340896
22	0x3e1d30d4	0.15350658
23	0xbd399778	-0.045310467
24	0xbda45d63	-0.080256246
25	0xbd1e64e2	-0.038670428
26	0x3df6ecd5	0.12056891
27	0xbcb508ed	-0.022098983
28	0x3adab940	0.0016687289
29	0x3d315cbf	0.04330134
30	0xbd4a90e6	-0.049454592
31	0x3d391844	0.045189157
32	0xbdd6eef9	-0.10494799
33	0xbdac8657	-0.08424061
34	0xbda70031	-0.081543334
35	0x3db84c2a	0.08998902
36	0xbcc190f5	-0.023628691
37	0xbd9787a8	-0.07398921
38	0x3d115d09	0.035489116
39	0x3d868c92	0.065697804
40	0x3d248ee1	0.040175322
41	0x3d745ba1	0.059657697
42	0x3d70868f	0.058722075
43	0xbddff27c	-0.10934922
44	0x3db5cdca	0.08877142
45	0xbdb387ed	-0.0876616
46	0x3b1ce87a	0.0023942278
47	0xbd1d6ac8	-0.038431913
48	0x3cec208f	0.028824119
49	0xbd8cb7bb	-0.06870981
50	0x3dd5432d	0.104132034
51	0xbdb09a20	-0.08623147
52	0x3d9265ea	0.07148345
53	0x3d795af2	0.060877748
54	0x3cd7c153	0.026337301
55	0xbd72d502	-0.05928517
56	0x3bc34bfe	0.0059599867
57	0xbd7c3c6b	-0.061581057
58	0xbd61f8bb	-0.05516885
59	0x3c8c2f54	0.017112412
60	0x3dd8c159	0.10583753
61	0xbc9b9e2e	-0.018996324
62	0x3df10e50	0.11770308
63	0x3b082e26	0.002077946
64	0xbda7dfb8	-0.08196968
65	0xbd8cf411	-0.068824895
66	0x3ca7acb7	0.020468099
67	0xbbeb1f72	-0.0071753794
68	0xbd1696b1	-0.036764804
69	0xbd0bdad2	-0.03414423
70	0xbdd101ff	-0.10205459
71	0x3cc4b1fe	0.024010655
72	0x3de4ca4a	0.11171396
73	0xbd884209	-0.0665322
74	0x3de42766	0.11140327
75	0xbdb1fee4	-0.08691195
76	0x3d75d387	0.06001618
77	0x3dd2e3bb	0.102973424
78	0xbda7faf1	-0.0820216
79	0x3c9c5645	0.019084105
80	0xbdc2f37f	-0.095190994
81	0x3ce4e7dc	0.02794259
82	0x3c51b645	0.012799804
83	0x3c8cb896	0.017177861
84	0xbd54ae31	-0.051923934
85	0xb989eeed	-0.0002630869
86	0xbcb3797d	-0.021908516
87	0x3d9c98cb	0.076463304
88	0x3d23be1a	0.039976217
89	0xbdf579e7	-0.11986142
90	0xbdb5da77	-0.088795595
91	0xbd162be0	-0.036662936
92	0x3dcd2a9f	0.10017895
93	0xbd5cfade	-0.053950183
94	0x3dcfa898	0.101395786
95	0x3da93465	0.082619466
96	0x3c102222	0.0087972
97	0xbb81097b	-0.0039378977
98	0x3cfcaf95	0.030845443
99	0x3d9b111e	0.07571624
100	0x3deb8e76	0.11501782
101	0x3c7f3093	0.015575546
102	0x3c87adac	0.016562305
103	0xbdefdc44	-0.11711934
104	0xbdf6568c	-0.12028226
105	0xbdaae4c2	-0.08344413
106	0xbe053f2a	-0.13012376
107	0xbd1ad4ce	-0.037800603
108	0x3dce3ea5	0.10070542
109	0xbd8e67b6	-0.06953375
110	0x3d164e26	0.036695622
111	0xbcf502ee	-0.029908624
112	0x3d99943a	0.07498975
113	0x3d03d327	0.032183792
114	0xbdd160ec	-0.102235645
115	0x3d28f474	0.041248754
116	0xbd2123a8	-0.039340645
117	0xbd008e7f	-0.031385895
118	0x3db7cd22	0.08974673
119	0x3de2190b	0.11039933
120	0xbd9ac8ba	-0.07557817
121	0x3cc32ab3	0.023824072
122	0x3d3f020a	0.046632804
123	0xbdbdbae3	-0.092641614
124	0xbd274ce5	-0.040844817
125	0x3c59fdb4	0.013305116
126	0x3df1febf	0.11816167
127	0x3dc38dd0	0.09548533
128	0xbde65444	-0.11246541
129	0x3da92dcb	0.082606874
130	0x3de437ff	0.11143493
131	0xbdb3c7dc	-0.087783545
132	0x3d06db54	0.03292401
133	0xbdcd0648	-0.10010964
134	0xbd06d34b	-0.03291635
135	0x3d92060f	0.07130062
136	0x3cc46f73	0.023978924
137	0xbcfdb42f	-0.030969707
138	0xbc2b830d	-0.010468257
139	0x3dad8263	0.08472135
140	0xbbc43cc9	-0.0059886915
141	0x3d8b7fae	0.06811462
142	0x3c878d88	0.01654698
143	0x3d0d34a5	0.034474034
144	0x3d491801	0.049095158
145	0xbdd74d01	-0.10512734
146	0x3c40e09a	0.011772299
147	0x3dc4092a	0.095720604
148	0x3d217a52	0.039423294
149	0x3deeae5f	0.116543524
150	0xbda341c3	-0.079715274
151	0xbdd64e0f	-0.10464107
152	0x3cb63e22	0.022246424
153	0x3dc68537	0.096933775
154	0x3da4683a	0.08027692
155	0xbcae4112	-0.021271262
156	0x3d295f39	0.041350577
157	0x3dc6ef4c	0.09713611
158	0xbd97b6f7	-0.07407945
159	0x3df33f56	0.11877315
160	0xbde8f7e3	-0.11375406
161	0x3de08765	0.109633245
162	0x3dabf999	0.08397216
163	0x3df88851	0.12135375
164	0x3aeb6546	0.0017959259
165	0x3daa7a05	0.08324055
166	0xbd3ab8fb	-0.045586567
167	0xbd989b1f	-0.07451462
168	0x3d4cea82	0.05002833
169	0x3dd4ec59	0.10396642
170	0xbbc4c5b8	-0.006005015
171	0x3cbed9d9	0.023297237
172	0x3d207958	0.039178222
173	0xbdb25af5	-0.08708755
174	0x3dca4f86	0.09878449
175	0x3d9a8f37	0.07546847
176	0x3dfcc3cb	0.12342032
177	0x3d4d5a63	0.050135028
178	0xbda8b2ea	-0.0823725
179	0x3d1a4b04	0.037669197
180	0xbdaf50d1	-0.085603364
181	0xbd99ed2c	-0.0751594
182	0xbd80b2c0	-0.06284094
183	0xbb531b30	-0.003221225
184	0x3d23e662	0.040014632
185	0x3ded76be	0.11594914
186	0xbd9c279d	-0.07624743
187	0xbde3502b	-0.11099275
188	0xbc9d9e8e	-0.019240644
189	0xbd7fdc1f	-0.062465783
190	0x3d10b1dc	0.03532587
191	0x3db2f225	0.08737592

fc3.bias f4 [3]
0	0xbbe4561f	-0.0069682742
1	0x3bba3b18	0.005683314
2	0xbd82ea67	-0.06392365

actor_Q.1.weight f4 [8, 64]
0	0xbd20ab3c	-0.0392258
1	0xbc921090	-0.017830163
2	0xbc15d780	-0.0091456175
3	0xbdaedcfc	-0.08538243
4	0xbcbdd2d8	-0.023171827
5	0xbdf0bbca	-0.11754568
6	0xbd2b6f8c	-0.041854426
7	0xbbf92b00	-0.007604003
8	0x3dff03ae	0.12451874
9	0xbd08a13c	-0.03335689
10	0xbd16021c	-0.036623105
11	0xbdafd1a2	-0.08584906
12	0x3d2371a0	0.039903283
13	0xbb3c6ec0	-0.0028752536
14	0xbc0ee4f0	-0.008721575
15	0xbdcc2b10	-0.09969151
16	0x3cad9a78	0.02119182
17	0x3c418960	0.011812538
18	0xbda14ec4	-0.078763515
19	0x3d972480	0.07380009
20	0x3c9b1be8	0.018934205
21	0x3db1ffc2	0.0869136
22	0xbd47d5e0	-0.04878795
23	0x3c82d4c8	0.015970603
24	0xbdcd812c	-0.10034403
25	0x3bf69880	0.0075255036
26	0xbd80955c	-0.06278488
27	0x3dde3168	0.10849267
28	0xbc899bd8	-0.016797945
29	0x3c9aa830	0.018879026
30	0x3dce07d0	0.10060084
31	0xbda2269a	-0.07917519
32	0x3d0d50ac	0.034500763
33	0x3d177628	0.036977917
34	0xbcf930f8	-0.030418858
35	0x3dbc6e90	0.092007756
36	0xbdbb8542	-0.09156276
37	0x3c526e20	0.012843639
38	0x3d122834	0.035682872
39	0x3d191d78	0.03738162
40	0xbd692e2c	-0.0569288
41	0x3d4db59c	0.050222024
42	0x3dafeae0	0.08589721
43	0x3d710200	0.058839798
44	0xbde0d8cc	-0.10978851
45	0x3cb0c528	0.021578386
46	0x3c8ae440	0.016954541
47	0xbd635b50	-0.055507004
48	0x3d612d6c	0.05497496
49	0x3ccee048	0.02525343
50	0x3dd2e7b2	0.102980986
51	0x3cfc6c70	0.030813426
52	0xbdc17b96	-0.094474
53	0x3d43f8d4	0.047844723
54	0xbc740ec0	-0.014896095
55	0x3d765d64	0.060147658
56	0x3da7b76c	0.08189282
57	0x3b7156c0	0.0036825389
58	0x3de6be2a	0.1126674
59	0x3cf611c8	0.030037776
60	0xbdc94f38	-0.09829563
61	0x3c387a10	0.011259571
62	0x3d0d2030	0.034454525
63	0x3db0c1d2	0.08630718
64	0xbdd31586	-0.1030684
65	0x3cdfa158	0.027298614
66	0xbd9df7f0	-0.07713306
67	0x3d2abc98	0.041683763
68	0x3dbceffa	0.092254594
69	0xbd6b4558	-0.05743918
70	0xbc95b240	-0.018273473
71	0x3dade718	0.08491343
72	0xbd84685a	-0.06465216
73	0xbd191e10	-0.037382185
74	0xbd3af0f0	-0.045639932
75	0x3c781cd0	0.015143588
76	0xbd13ea80	-0.03611231
77	0x3d08a8f0	0.033364236
78	0xbca73658	-0.020411655
79	0xbdcb9168	-0.099398434
80	0xbd94d2b0	-0.07266748
81	0xbce3c070	-0.027801722
82	0x3cd2a698	0.025714204
83	0x3d48c9e0	0.049020648
84	0x3c371230	0.01117377
85	0x3d1596fc	0.036520943
86	0x3d867eec	0.06567177
87	0x3cf47158	0.029839203
88	0x3d875758	0.066084564
89	0x3d8ecb06	0.069723174
90	0x3d0558f8	0.03255555
91	0xbd6dcdb8	-0.058057517
92	0x3dba5f06	0.091001555
93	0x3ddf0266	0.10889129
94	0xbcf97680	-0.030452013
95	0xbd7dee0c	-0.061994597
96	0xbba36a40	-0.004987031
97	0xbdd41788	-0.10356051
98	0xbd41b718	-0.047293752
99	0x3d3671e0	0.044542193
100	0x3d3db6c0	0.046316862
101	0xbcb356f0	-0.021892041
102	0x3d61e314	0.0551482
103	0x3de25c2e	0.11052738
104	0xbdea114a	-0.11429079
105	0xbcc325a0	-0.023821652
106	0x3d872976	0.06599705
107	0x3ddfbbbc	0.10924479
108	0xbd99508a	-0.07486065
109	0x3be4c8e0	0.006981954
110	0x3cf34518	0.029696032
111	0xbc81f5b0	-0.015864223
112	0x3c3ecc90	0.011645451
113	0x3cc3cae0	0.02390045
114	0x3cc531b8	0.02407156
115	0xbdfb01fe	-0.12256239
116	0xbcd2c318	-0.025727794
117	0xbd84455c	-0.06458542
118	0x3d9afdfa	0.075679734
119	0x3dbd276c	0.09236035
120	0x3c482340	0.0122154355
121	0x3de1bdc2	0.110225216
122	0x3d4e5a78	0.050379246
123	0xbd995e76	-0.0748872
124	0xbd5496d4	-0.051901653
125	0xbc8f6eb8	-0.01750885
126	0x3da09bf0	0.07842243
127	0xbc9cbfa0	-0.019134343
128	0x3cf90190	0.030396253
129	0x3d1048e8	0.03522578
130	0xbc8f8e28	-0.01752384
131	0x3dca056a	0.09864314
132	0x3bb40a60	0.005494401
133	0xbd240e30	-0.040052593
134	0x3dccafe6	0.099944875
135	0xbc6b5300	-0.01436305
136	0x3dc5dd9a	0.09661408
137	0xbd7e1e0c	-0.062040374
138	0xbd0b5180	-0.03401327
139	0x3d9aa31c	0.07550642
140	0xbdfa66b6	-0.12226622
141	0x3d55590c	0.052086875
142	0x3dfe3300	0.12412071
143	0xbda01196	-0.07815854
144	0xbde2e476	-0.11078732
145	0x3d4b8e60	0.049696326
146	0x3dda93ba	0.10672708
147	0xbd332960	-0.04374063
148	0xbd7d8dac	-0.061902687
149	0xbd2558f4	-0.040368035
150	0x3deaa974	0.11458102
151	0xbde998be	-0.114060864
152	0x3dc51d76	0.0962476
153	0xbde1bf4c	-0.11022815
154	0x3dd49e46	0.10381751
155	0x3da8048a	0.08203991
156	0xbd4ab72c	-0.049491093
157	0x3d025288	0.03181699
158	0xbb9ddc40	-0.0048175156
159	0x3d9e7026	0.07736234
160	0x3db0311c	0.08603117
161	0x3d88861c	0.06666204
162	0xbd1ad240	-0.037798166
163	0x3d98154a	0.074259356
164	0x3de974a2	0.11399199
165	0x3b35a640	0.00277175
166	0x3da4f6f8	0.08054918
167	0x3ded9862	0.1160133
168	0xbc9bf7d8	-0.01903908
169	0xbd95de4e	-0.07317792
170	0x3d369c04	0.04458238
171	0xbc5331a0	-0.0128902495
172	0xbb225480	-0.0024769604
173	0xbc6f1c20	-0.014594108
174	0x3dfb0ac0	0.1225791
175	0x3c6628f0	0.014047846
176	0x3dfc83a2	0.123297945
177	0x3da8bd7e	0.08239268
178	0x3d97dfc6	0.07415728
179	0x3c7c65c0	0.015405118
180	0xbd07eb4c	-0.03318338
181	0xbdff19ac	-0.124560684
182	0xbde872b4	-0.11350003
183	0xbd45bd64	-0.04827632
184	0xbde18670	-0.1101197
185	0xbd93dbba	-0.07219644
186	0x3b460440	0.0030214936
187	0x3dc0586a	0.09391864
188	0x3d478bdc	0.048717365
189	0xbdddb9c6	-0.10826449
190	0xba02da00	-0.0004991591
191	0x3d94edb2	0.07271899
192	0xbd9cddf8	-0.07659525
193	0xbdd6578c	-0.10465917
194	0xbdfc6fb8	-0.12325996
195	0x3db9b2b2	0.090672866
196	0x3daefe2a	0.08544572
197	0x3cc73090	0.024315149
198	0xbdbea46c	-0.09308705
199	0x3d81fdc2	0.063472286
200	0x3dcde73a	0.100538686
201	0xbdc2f3b4	-0.09519139
202	0x3d6a545c	0.057209358
203	0x3d6a74d4	0.057240322
204	0xbd11b400	-0.035572052
205	0x3d60f94c	0.054925248
206	0x3d68d4b4	0.056843475
207	0xbdac7dae	-0.08422409
208	0xbd9d5604	-0.07682422
209	0x3c0db100	0.008648157
210	0xbd6e7610	-0.058218062
211	0x3dba3206	0.090915725
212	0x3db28066	0.08715896
213	0xbd0f52e8	-0.034991175
214	0xbd9642d2	-0.07336964
215	0x3dc3c300	0.09558678
216	0x3d435f08	0.04769805
217	0xbd7a0794	-0.061042383
218	0xbd79a8a0	-0.06095183
219	0x3dfad4c8	0.12247616
220	0x3dd43cc4	0.103631526
221	0xbd32a9a8	-0.043618828
222	0xbd810502	-0.06299783
223	0xbc470360	-0.012146801
224	0x3c291d60	0.010321945
225	0x3c1a1c40	0.009406149
226	0x3d8a5580	0.06754589
227	0xbd0c20b4	-0.034210876
228	0x3de0d0d8	0.10977334
229	0x3d9498ca	0.07255705
230	0x3dc9d844	0.098557025
231	0x3d9632f6	0.07333939
232	0x3df11200	0.11771011
233	0x3c64d0b0	0.013965771
234	0x3db0f3b0	0.0864023
235	0xbc4feb20	-0.0126903355
236	0xbd8f34a0	-0.06992459
237	0x3cbbc1e0	0.022919595
238	0xbdc19a40	-0.09453249
239	0x3d8b9d34	0.068170935
240	0xbdf5936a	-0.119910076
241	0x3d5e5730	0.054282367
242	0x3d06000c	0.03271489
243	0x3d8ded2a	0.06930001
244	0x3dfb018a	0.12256153
245	0xbdb80298	-0.0898487
246	0x3de2715a	0.11056776
247	0xbdfb379a	-0.122664645
248	0xbcf74558	-0.030184433
249	0x3cea2aa8	0.028584793
250	0x3dcd3d10	0.100214124
251	0x3cbff538	0.02343236
252	0xbac91680	-0.0015341789
253	0x3df9d828	0.12199432
254	0x3da7e2f4	0.08197585
255	0xbdce1e3c	-0.100643605

actor_Q.1.bias f4 [8]
0	0xbdb52a0a	-0.08845909
1	0xbbe8b740	-0.007101923
2	0x3df11efc	0.11773488
3	0x3c000070	0.007812604
4	0xbd4fb0b4	-0.050705627
5	0xbd9851c8	-0.074374735
6	0xbdbefa8c	-0.09325132
7	0xbc46fcb0	-0.012145206

actor_K.1.weight f4 [8, 64]
0	0x3cc407f0	0.023929566
1	0x3d5eac90	0.054363787
2	0x3d8e8e54	0.06960741
3	0xbd8e8262	-0.06958462
4	0xbdb17496	-0.08664815
5	0xbdaada20	-0.08342385
6	0x3d794f98	0.060866922
7	0xbdc8754a	-0.09787996
8	0x3dc4f882	0.096177116
9	0x3d1bc3cc	0.038028523
10	0x3ba93440	0.0051636994
11	0xbdcb4c94	-0.099267155
12	0xbdb51720	-0.08842301
13	0xbdf67b4a	-0.12035234
14	0x3c94ea70	0.018178195
15	0xbc6e2700	-0.0145356655
16	0xba19af00	-0.0005862564
17	0x3d7e8b78	0.062144727
18	0x3d93a2b6	0.07208769
19	0x3d3f346c	0.046680853
20	0x3d7850c8	0.060623914
21	0x3a08a500	0.0005212575
22	0x3d8588c4	0.065202266
23	0x3d10f21c	0.035387143
24	0x3dbd035c	0.092291564
25	0xbc2574c0	-0.010098636
26	0x3d1bcf2c	0.03803937
27	0xbd771c94	-0.06032999
28	0x3d14fa00	0.03637123
29	0x3d580038	0.052734584
30	0xbdde2862	-0.10847546
31	0x3c7cc410	0.015427604
32	0x3de2c1d8	0.11072129
33	0xbdb08e70	-0.08620918
34	0x3d7f229c	0.062288865
35	0x3d58c3c8	0.052921087
36	0xb9691800	-0.00022229552
37	0x3d6983c8	0.057010442
38	0xbd31219c	-0.043244943
39	0x3df2f0fa	0.11862369
40	0x3d0654d8	0.032795757
41	0xbcec8098	-0.028869912
42	0xbd17753c	-0.036977038
43	0x3da71b0c	0.08159456
44	0xbddfb0d2	-0.10922398
45	0xbda2a968	-0.07942468
46	0xbd9e6e10	-0.077358365
47	0x3ceecfc8	0.029151812
48	0xbc3f4220	-0.01167348
49	0xbdfe3590	-0.1241256
50	0x3cccbd48	0.0249926
51	0xbd2a263c	-0.04154037
52	0xbcd69610	-0.026194602
53	0xbda16878	-0.07881254
54	0x3dbfa466	0.093575284
55	0x3db694de	0.08915113
56	0x3dc4d30a	0.09610565
57	0xbd9da756	-0.076979324
58	0x3dbb0e34	0.091335684
59	0xbdd39244	-0.10330632
60	0x3c0726b0	0.00824897
61	0x3cb51200	0.02210331
62	0xbd9eaa30	-0.077473044
63	0x3d218274	0.03943105
64	0xbdbdc71a	-0.09266491
65	0xbd02e770	-0.031958997
66	0x3d95b868	0.07310563
67	0x3da120c8	0.07867581
68	0xbcec7040	-0.028862119
69	0x3db9d664	0.09074095
70	0xbdbe157e	-0.09281443
71	0xbdf39ce2	-0.118951574
72	0x3dc8a774	0.09797564
73	0x3d750140	0.059815645
74	0x3db2a992	0.08723749
75	0xbbdc6c80	-0.0067268014
76	0x3dbd3616	0.09238832
77	0x3d61e6a8	0.05515161
78	0xbd1228b8	-0.035683364
79	0x3dfcd78c	0.123458
80	0xbce366a0	-0.027758896
81	0xbdea1906	-0.11430554
82	0x3dbb767a	0.09153457
83	0x3d974276	0.07385723
84	0x3d4960ec	0.049164698
85	0xbddf0eec	-0.10891518
86	0x3c5d3710	0.013501897
87	0x3dbdadbc	0.09261653
88	0x3deb8dd0	0.11501658
89	0x3cbe6af8	0.023244366
90	0xbd631ba4	-0.055446282
91	0xbcba7ea0	-0.022765458
92	0x3d92b890	0.07164109
93	0xbd673160	-0.056443572
94	0x3d7c2948	0.061562806
95	0xbdf2344c	-0.11826381
96	0xbd9c7a52	-0.07640518
97	0x3ddf1d8e	0.10894309
98	0xbddff34e	-0.109350786
99	0x3db0164e	0.08598004
100	0x3dd66982	0.10469343
101	0x3dd36c38	0.103233755
102	0x3dd9b21e	0.10629676
103	0xbd8dcd68	-0.06923944
104	0x3d910366	0.07080726
105	0xbda7eee8	-0.081998646
106	0xbdd42c50	-0.103600144
107	0xbdeecaec	-0.11659798
108	0x3d3df6e8	0.046378046
109	0x3deab3fa	0.11460109
110	0x3da1d390	0.079016805
111	0xbd31278c	-0.043250605
112	0x3d0f8eb4	0.0350482
113	0x3d9a8bc4	0.075461894
114	0xb908f000	-0.00013059378
115	0x3d806c64	0.06270674
116	0xbd66c2c4	-0.056338087
117	0x3c88d478	0.016702875
118	0xbc94f540	-0.01818335
119	0x3d23753c	0.039906725
120	0x3cb6d3f8	0.022317871
121	0xbbf34c80	-0.007424891
122	0xbd7ea774	-0.062171414
123	0xbdbea3f2	-0.09308614
124	0x3be46f20	0.006971255
125	0x3d6f2f84	0.058394924
126	0x3d8397ec	0.06425461
127	0xbc200670	-0.00976716
128	0xbdf5e59c	-0.12006685
129	0xbcb06310	-0.021531612
130	0x3dde2d46	0.10848479
131	0x3dd92d30	0.10604322
132	0xbd349c88	-0.044094592
133	0x3d27b00c	0.040939376
134	0x3c826130	0.015915483
135	0x3dc0982e	0.09404026
136	0x3d940d1e	0.072290644
137	0x3d873fcc	0.06603965
138	0xbbb27460	-0.005446002
139	0xbc9c50e0	-0.019081533
140	0x3cbc52c0	0.022988677
141	0x3cd6c1e8	0.026215509
142	0xbd5f1ad0	-0.05446893
143	0x3db2f9c6	0.08739047
144	0x3d46ccf8	0.048535317
145	0xbd90254c	-0.07038364
146	0x3d4b94b8	0.049702376
147	0xbd30d8fc	-0.043175682
148	0xbdb1d43c	-0.086830586
149	0xbdfd8cfc	-0.12380406
150	0xb96c3c00	-0.00022529066
151	0xbcfe4400	-0.031038284
152	0xbcd2d058	-0.025734112
153	0x3dbcb262	0.09213711
154	0xbd510ee0	-0.051039577
155	0xbd3f9a0c	-0.04677777
156	0xbd8abba8	-0.06774074
157	0x3d89a562	0.067209974
158	0x3ca55af8	0.020184979
159	0xbd8a2a80	-0.067463875
160	0x3db28cc2	0.08718254
161	0xbde3d0d0	-0.11123812
162	0xbd23d684	-0.0399995
163	0xbcf84da8	-0.030310467
164	0xbb3d50c0	-0.0028887242
165	0x3c090aa0	0.00836435
166	0xbbf4c0a0	-0.0074692518
167	0x3ac5b580	0.0015083998
168	0x3dfc8fec	0.123321384
169	0x3cc16eb0	0.02361235
170	0x3d5fe914	0.05466564
171	0x3de5b81a	0.11216755
172	0x3df2b1cc	0.11850318
173	0xbdb55cda	-0.08855601
174	0xbc8116b8	-0.015757903
175	0xbde1b15c	-0.11020157
176	0xbcc54078	-0.024078593
177	0x3de9c86c	0.114151806
178	0xbd9615e8	-0.07328397
179	0xbd3d8788	-0.04627183
180	0xbd38becc	-0.045103833
181	0x3d994498	0.07483786
182	0xbd6bfcf0	-0.057614267
183	0xbdacb090	-0.08432114
184	0xbd672e2c	-0.056440517
185	0x3d776f98	0.06040916
186	0xbde919e4	-0.11381891
187	0x3d4dcf9c	0.05024682
188	0xbdf8c4a4	-0.12146881
189	0x3dedac6c	0.116051525
190	0xbcc6f038	-0.024284467
191	0x3dffef2a	0.12496789
192	0xbde6f6f6	-0.11277573
193	0x3c844308	0.016145244
194	0xbca279f8	-0.01983355
195	0xbdfdbb94	-0.12389293
196	0xbd90a500	-0.07062721
197	0x3bcbb320	0.0062164217
198	0x3d8f74ce	0.070047006
199	0x3c319230	0.0108380765
200	0x3d3abde0	0.045591235
201	0xbdc2effa	-0.09518428
202	0x3cb2b888	0.021816507
203	0xbd94e4d4	-0.07270208
204	0xbd9ec2fc	-0.07752034
205	0xbd81d08a	-0.06338604
206	0xbda84a96	-0.08217351
207	0x3d9f6c14	0.07784286
208	0xbc229080	-0.009922147
209	0x3c9e7cb8	0.01934658
210	0x3c1466d0	0.009057716
211	0xbcafa3d8	-0.021440431
212	0xbd397db4	-0.045285895
213	0xbde5acda	-0.112146094
214	0xbde959a4	-0.11394051
215	0x3ddfc580	0.10926342
216	0xbdd1ce2e	-0.10244404
217	0xbd8a187e	-0.06742953
218	0xbdd9db5a	-0.10637541
219	0x3d243e4c	0.040098473
220	0xbd2cacd8	-0.042157024
221	0xbd4a58b0	-0.049400985
222	0x3dbedce4	0.09319475
223	0xbcf9ce30	-0.030493826
224	0x3d92330a	0.07138641
225	0x3a55e200	0.0008158982
226	0xbcfdd658	-0.030985996
227	0xbde7be44	-0.11315587
228	0xbd32ff4c	-0.0437005
229	0x3bc5f380	0.0060409904
230	0xbd266628	-0.040624768
231	0x3d8b5a0e	0.06804286
232	0x3ca5dbb0	0.020246357
233	0x3d1258e4	0.035729304
234	0x3def85de	0.11695455
235	0x3ded48fa	0.11586185
236	0x3cbc1578	0.022959456
237	0xbd8cacfe	-0.06868933
238	0xbdc36d90	-0.09542382
239	0xbcda0168	-0.026611999
240	0x3cfe0158	0.0310065
241	0xbcb4afa8	-0.022056416
242	0xbdbe554c	-0.09293613
243	0xbcc6a0d8	-0.024246618
244	0xbd87f12e	-0.06637798
245	0x3dc67edc	0.09692165
246	0xbce97910	-0.02850011
247	0xbcee98d0	-0.029125601
248	0x3dd9e188	0.1063872
249	0xbcc67f40	-0.0242306
250	0xbdc1a544	-0.0945535
251	0x3da4200c	0.08013925
252	0xbd8cd528	-0.06876594
253	0x3c0b32a0	0.008495957
254	0x3cad45f8	0.021151528
255	0x3b6cd040	0.003613487

actor_K.1.bias f4 [8]
0	0xbd36bf04	-0.04461576
1	0x3c9e81d8	0.019349024
2	0x3d399600	0.045309067
3	0xbd986394	-0.07440868
4	0xbdba1258	-0.0908553
5	0x3d04ad74	0.03239198
6	0xbd3dd308	-0.046343833
7	0xbd81ed1e	-0.06344055

actor_V.1.weight f4 [3, 64]
0	0x3c578ed0	0.013156608
1	0xbd04e008	-0.032440215
2	0x3d2ba17c	0.04190205
3	0x3cc0b808	0.023525253
4	0xbd996e5a	-0.07491751
5	0x3a7c1100	0.00096155703
6	0xbc519170	-0.012791023
7	0x3d2cb024	0.04216017
8	0xbd726464	-0.05917777
9	0x3d5dc268	0.05414048
10	0xbd640f9c	-0.05567895
11	0xbdf1ff4a	-0.11816271
12	0x3db4f44a	0.08835657
13	0xbd07f9f8	-0.033197373
14	0x3d8db5f2	0.06919469
15	0xbd6a0774	-0.057136014
16	0xbc2ce4b0	-0.01055257
17	0x3d62e808	0.055397063
18	0xbd78cd90	-0.060742915
19	0xbda19b5c	-0.078909606
20	0x3d4413a8	0.04787031
21	0x3d674428	0.056461483
22	0x3c52a3a0	0.012856394
23	0xbde65be6	-0.11247997
24	0xbd841950	-0.064501405
25	0x3bd98100	0.0066376925
26	0x3db84b4c	0.08998737
27	0x3d2c0f5c	0.042006835
28	0xbdd87026	-0.105682656
29	0x3d2dace8	0.042401224
30	0xbd9dfb90	-0.07713997
31	0xbdc9a20c	-0.09845361
32	0x3de0f78e	0.10984717
33	0xbdc887e4	-0.09791544
34	0xbddf54be	-0.10904835
35	0x3dee59b6	0.11638205
36	0xbd8256dc	-0.06364223
37	0xbd3f3958	-0.046685547
38	0x3d8b1e26	0.0679286
39	0x3dfb7164	0.12277487
40	0x3dfee834	0.12446633
41	0x3db09574	0.08622256
42	0xbdf927dc	-0.12165806
43	0xbde94966	-0.11390953
44	0x3dc9c330	0.09851682
45	0x3d0faac4	0.035074964
46	0xbc9c3fd0	-0.019073397
47	0xbdd0cd34	-0.101953894
48	0xbd461540	-0.04836011
49	0x3d90421a	0.07043858
50	0x3d2d90c8	0.042374402
51	0xbc9ffd28	-0.019529894
52	0xbd22f84c	-0.039787576
53	0xbd33dbe8	-0.04391089
54	0x3df288a4	0.118424684
55	0xbd342a80	-0.043985844
56	0x3db262a8	0.087102234
57	0xbdfe6ddc	-0.12423298
58	0xbd4cf9ac	-0.050042793
59	0x3d3b0764	0.045661345
60	0x3db8ba02	0.09019853
61	0xbdd8cfb6	-0.10586493
62	0x3d7d8880	0.061897755
63	0xbc53abb0	-0.012919351
64	0xbd540704	-0.051764503
65	0x3dfdf7ce	0.124007806
66	0x3dda27a2	0.106520906
67	0x3dd7b012	0.105316296
68	0xbd354b90	-0.044261515
69	0xbc0f43e0	-0.00874421
70	0xbc1d74a0	-0.009610325
71	0xbd633384	-0.05546905
72	0x3d0ec0c4	0.034851804
73	0x3d77e7e4	0.060523883
74	0x3db2a7e6	0.0872343
75	0x3d6133ac	0.05498092
76	0xbd476728	-0.04868236
77	0x3dff2770	0.12458694
78	0xbd5a9d58	-0.05337271
79	0xbc4aca20	-0.012377292
80	0xbd0cd320	-0.034381032
81	0xbd0a665c	-0.033789024
82	0x3deec902	0.11659433
83	0xbc461d30	-0.01209192
84	0xbdacecb8	-0.08443588
85	0x3df51a14	0.11967865
86	0x3d57f4c0	0.052723646
87	0x3d23c460	0.0399822
88	0xbd3d5dcc	-0.04623203
89	0x3d2e662c	0.042577907
90	0x3d23c498	0.03998241
91	0x3dea4a84	0.11439994
92	0xbd473258	-0.048631996
93	0x3dd72952	0.10505928
94	0x3c9778a0	0.018490136
95	0x3dfef940	0.124498844
96	0xbdf629c6	-0.120196864
97	0x3cd2a6e0	0.025714338
98	0x3df345fe	0.11878584
99	0xbce9bee8	-0.028533414
100	0xbd0c2b58	-0.034221023
101	0xbdaa0446	-0.08301596
102	0xbdb99914	-0.090624005
103	0x3b32d640	0.0027288347
104	0x3d3e4c18	0.046459287
105	0x3dee11ca	0.11624487
106	0xbdfdf548	-0.12400299
107	0xbdaf8aea	-0.08571418
108	0xbdee0870	-0.11622703
109	0xbda0bed0	-0.078488946
110	0x3c131ce0	0.008979052
111	0xbd2a4d14	-0.041577414
112	0x3dbd4b2e	0.09242855
113	0x3c335de0	0.0109476745
114	0x3d8b52c0	0.06802893
115	0x3c275df0	0.010215268
116	0x3cf29a70	0.029614657
117	0x3d398ab8	0.045298308
118	0xbde0db82	-0.10979368
119	0xbdcb5b6c	-0.09929547
120	0x3dbe768a	0.09299953
121	0xbdb906da	-0.0903451
122	0xbdeae2a8	-0.114690125
123	0xbd0c81a4	-0.034303322
124	0xbd8566a6	-0.06513719
125	0x3ce70928	0.028202608
126	0xbd036b44	-0.03208472
127	0xbd2fc7dc	-0.04291521
128	0xbdb84692	-0.08997835
129	0x3d92f4ac	0.07175574
130	0x3dee5712	0.11637701
131	0xbc209320	-0.009800702
132	0x3dc4d85a	0.09611578
133	0xbcd60050	-0.026123196
134	0xbd0dba04	-0.034601226
135	0xbc2258f0	-0.0099089
136	0xbdafb332	-0.08579101
137	0x3c8a3e08	0.016875282
138	0xbc07a6c0	-0.008279502
139	0x3dc17a1e	0.0944712
140	0xbdddf5f2	-0.10837926
141	0xbd00ba6c	-0.031427786
142	0x3dbabbec	0.091178745
143	0xbdf25fc2	-0.118346706
144	0x3ca7a4e0	0.02046436
145	0xbd9c36b8	-0.07627624
146	0xbd26798c	-0.04064326
147	0xbd541b40	-0.0517838
148	0x3d824cc0	0.06362295
149	0xbd5c762c	-0.053823635
150	0x3c02ccc0	0.0079833865
151	0x3cee3780	0.029079199
152	0xbda9421a	-0.08264561
153	0xbc766d50	-0.015040711
154	0x3da8631e	0.0822203
155	0x3cdfa3a0	0.027299702
156	0xbc5069b0	-0.01272051
157	0xbdb6bae2	-0.08922364
158	0xba971b00	-0.0011528432
159	0x3d3c620c	0.045991942
160	0xbdb9428c	-0.09045896
161	0xbbc1b6e0	-0.005911693
162	0xbd7aac14	-0.061199263
163	0x3de57f20	0.11205888
164	0xbde8fd2e	-0.11376415
165	0xbdadbe86	-0.08483605
166	0xbd7c1880	-0.061546803
167	0x3df3a9cc	0.118976206
168	0xbd838cb0	-0.064233184
169	0xbc952cf0	-0.018209904
170	0xbd78b960	-0.060723662
171	0xbd7fbec0	-0.062437773
172	0x3dc16cc2	0.09444572
173	0x3d3e1180	0.046403408
174	0x3dbe1030	0.09280431
175	0x3dc7b782	0.09751798
176	0xbd872374	-0.06598559
177	0xbc89e870	-0.016834468
178	0x3d1aa0e8	0.03775111
179	0x3cbb4330	0.022859186
180	0x3d971b92	0.073783055
181	0x3c619e40	0.01377064
182	0x3cc8b198	0.024498746
183	0xbc19f0d0	-0.009395793
184	0x3dfacaae	0.12245689
185	0x3d366f84	0.044539943
186	0xbd146638	-0.036230296
187	0x3db65d9a	0.08904572
188	0x3cffbcb0	0.031217903
189	0xbdfac944	-0.122454196
190	0x3d91da28	0.07121688
191	0xbdf6c6fa	-0.120496705

actor_V.1.bias f4 [3]
0	0x3c431470	0.011906728
1	0x3d2c4354	0.042056397
2	0x3dc3f1f4	0.09567633

expert_K.weight f4 [3, 8]
0	0xbff3ff5c	-1.9062304
1	0xc0094bcb	-2.145251
2	0xc0078771	-2.1176417
3	0xc0065fa5	-2.0995877
4	0xbdc63320	-0.0967772
5	0x3e8030e6	0.25037307
6	0x3f0caf68	0.5495515
7	0x3fdf6a50	1.7454319
8	0x3ee0e920	0.4392786
9	0x3fa88783	1.3166355
10	0xbe951c56	-0.2912318
11	0xbef3490b	-0.47516665
12	0xbea61092	-0.32434517
13	0xbf83f3b0	-1.0308743
14	0xbe1e16e4	-0.1543842
15	0xbf826a0a	-1.018861
16	0xbee80948	-0.4531958
17	0xbda3c14c	-0.07995853
18	0xbfd89eb4	-1.6923432
19	0xbf5e3260	-0.86795616
20	0x3f0e10bf	0.554943
21	0xbed02dac	-0.40659845
22	0xbe9c4265	-0.30519405
23	0xc004e29d	-2.0763314
