gym-multigrid-master/results/coma/key/steps_1500000_ngames_14924/model_weights_save_dir/actor_1_episode_10000.pth (torch, 102416 bytes, 13 tensors)

fc1.weight f4 [64, 294]
00000000: 5730 933b b4bf 793d 1ab2 0fbc 6f3b 043c
00000010: 686a 0abd 801b dfb9 78bf 4ebd 79e7 c33c
00000020: 24c1 ecbc 9e75 f3bc 6def b13b 6405 64bc
00000030: 584c 39bd 5e01 89bc f60e 14bd c005 3bbd
00000040: 7165 443d 36b4 023d 2b31 8e3c c9e0 d1bc
00000050: 0e63 893c bdaf e03c 27ac 213d 1a1d 2dbd
00000060: 05eb e6bc d3fa 14bb 24f0 143d 063d e6bc
00000070: c439 dc3c 6cad 17bd 8ac9 ef3c 0d6d 8cbc
00000080: 5383 11bd 9e39 c2bc 449a 203c 68b4 603c
00000090: d4a0 d13c e76f 833d 67f4 fb3c 2a68 823d
000000a0: 902d f7bc 90c4 4a3c bdb5 243d 5f4d 1cbc
000000b0: 3905 c9bc fa8c 663d 759b 2e3d cfbf 07bd
000000c0: 6fb6 603d c0eb bd3c 326f 2e3d 94ef 2d3d
000000d0: 743e 6e3d c6d7 9fbc 23fd e6bc 239f 2a3d
000000e0: 837a ee3b 46ae 563d 0087 ddbc bc21 06bc
000000f0: 42f2 cd3c 555b 50bd 4bc3 25bd ecbf 16bd
00000100: 8c95 27bd f2ef dbbc f560 b0bc daa7 22bc
00000110: 3c0f 6fbc 92e7 00bc b20b ea3c fe01 6bbd
00000120: 84fd 0c3d 5e16 a1ba ab55 e33c c274 8f3c
00000130: 6a97 063d ba7a 82bc 945d b9bc 7ae6 493d
00000140: 1df2 dc3b 3a44 34bd afc7 8dbc ea52 2d3d
00000150: 105e 593d e84e 433c 8590 813d c6cc 103d
00000160: 220c 703d bc6e 32bc d9df 02bd 191a f53b
00000170: 47ea 00bd 2fe0 2bbd 42f2 2abd 2e97 2fbd
00000180: ba96 16bd f267 913c 5e63 d7bb fac1 15bd
00000190: 61af 3fbd c81d 52bc a465 153d e4bb 063d
000001a0: aaf9 143d 5a25 1dbb b25e 8a3c 768d b3bc
000001b0: 7f04 593d 330d d6bc bf8b 39bb 2710 f3bc
000001c0: 1ccd 90bc 7901 37bd 676b 80bc ed73 ecbc
000001d0: 3d03 d83c 0621 083d ea95 7c3d 6ab0 4e3d
000001e0: c4f2 bb39 e973 9a3c 22e5 e93b 9686 2fbd
000001f0: 0fb7 003c 6062 193d de52 eabc 2d4b 4dbd
00000200: 3a90 223d 0939 463c d70c 403c 4cb9 8b3c
00000210: 353f 1bba 9b68 22bd 5599 32ba 4f1f 2abd
00000220: 625f 6a3d cd90 53bd d52a 21bd a9dc 55bc
00000230: f975 d43c 150c 3ebd d597 33bd 6735 ecbc
00000240: 4aaf 4dbd 80b6 553c 40c6 253d 7251 06bd
00000250: bdf5 fdbc befa 5d3d d431 23bd 02d6 853d
00000260: 43d3 0bbd 17e6 b8bc 4d5d 2c3d 3c1a 453d
00000270: fe91 b1bc 9c10 353d f6eb 03bd 6202 803d
00000280: b2ec 273d 65f9 57bd 9d64 0e3d b23a 8b3c
00000290: 2ce8 30bc bb2a 543b a011 583d b4cd 573d
000002a0: c6c8 5b3d 1ff7 62bd 7c3a 59bd fe2a 743b
000002b0: 556a e23c ecff c93c f74e 49bd 55f0 98bc
000002c0: 1fcf 5c3b f2db e13c c2a9 153c 7c4a 613d
000002d0: f82e 703a 8f7c cfbc fabc 543d 8457 6e3d
000002e0: b28d d53a e0eb 153c 356b c43c 36ba 88bb
000002f0: db45 44bd 25e6 183d 09b8 a43c 5eee 0b3d
00000300: ea84 14bd 51a0 ca3b 0eed 38bd 7845 23bd
00000310: 61b3 29bd 2af9 99bc ab11 043d 481f cc3c
00000320: 1675 96bc 850c c03b 2536 9ebc 9a5c c1bc
00000330: fd86 053d 0cd2 463d 1306 48bc f9a0 493c
00000340: fc2f a7bc 7c17 a13c ccd5 26bd a3e6 f2bc
00000350: 5b6f 5d3c 785c aa3c bc7b 3bbd 382d 913c
00000360: 95cd 7bbc 9727 023d 6843 bebc eb8b 39bd
00000370: 545d 46bd 749b eebc e69b 1cbc 19c9 1abd
00000380: f2e7 f4bc edd3 ebbc 90f6 d4bb 7838 2d3d
00000390: bd38 2abd ab78 9bbc cc9d 3b3c f54c 5cbb
000003a0: 285d 593d 20fa d23a e969 0f3d 7527 343c
000003b0: 55d4 d23c 8426 4f3b 7971 aebc 7ef6 ccbc
000003c0: bc8c 5d3d 6d35 183c 4af9 acbc e05a 1dbd
000003d0: ffbe e43c 129a 253d 4b40 a4bc 92df 4dbd
000003e0: 4a6b 603d 8c4f 683d 2e95 c9bc f00a 0bbb
000003f0: 1e7a 42bd d5ef 2ebd c0e5 a43c aae8 673d
0.0044918465 0.060973838 -0.00877049 0.008070811 -0.033792883 -0.00042554364 -0.050475568 0.023914086
-0.02890069 -0.02971917 0.005430153 -0.013917301 -0.045238823 -0.016724285 -0.03614708 -0.04565978
0.047948305 0.031910144 0.01735743 -0.025619881 0.016770866 0.027427549 0.039470818 -0.04226408
-0.028188238 -0.002273251 0.03636183 -0.02810527 0.026883014 -0.037030622 0.029270906 -0.017141843
-0.03552563 -0.023709115 0.009802405 0.013714887 0.025589384 0.06417828 0.030756189 0.06367524
-0.030173093 0.012375966 0.04021238 -0.009539931 -0.024538623 0.05628679 0.042628724 -0.033141907
0.054861482 0.023183703 0.042586513 0.042464808 0.05816503 -0.019512068 -0.028196877 0.04165567
0.007277788 0.052412294 -0.027041912 -0.008186754 0.025139932 -0.05086835 -0.04046945 -0.036804125
-0.040914103 -0.026847813 -0.021530608 -0.009927714 -0.0145910345 -0.007867711 0.02857003 -0.057374947
0.03442146 -0.0012289991 0.02775081 0.01751173 0.032859243 -0.015927661 -0.02262763 0.049292065
0.0067427293 -0.04401038 -0.01730713 0.0423154 0.05306822 0.011920668 0.06326393 0.035351537
0.05860532 -0.010890659 -0.03195176 0.0074799177 -0.031473424 -0.041961845 -0.04173494 -0.042868786
-0.036764838 0.01774976 -0.006573125 -0.036561944 -0.046798114 -0.012824483 0.036473885 0.03289403
0.03637091 -0.0023978562 0.016890857 -0.02191804 0.052982803 -0.02612934 -0.0028312055 -0.029670788
-0.017675929 -0.04467914 -0.015676213 -0.028863871 0.026368732 0.03323462 0.061666407 0.05046121
0.00035848294 0.018854098 0.0071379105 -0.04285296 0.007856145 0.037447333 -0.028603967 -0.05012052
0.039688326 0.012098559 0.011721811 0.01705613 -0.00059221993 -0.03965054 -0.00068130094 -0.041533764
0.05721987 -0.051651765 -0.03934749 -0.013053098 0.02593516 -0.04639824 -0.04384597 -0.028834058
-0.050215997 0.013044 0.04047227 -0.032792516 -0.031000966 0.054194205 -0.03984244 0.065349594
-0.03413702 -0.022570653 0.042081166 0.048120722 -0.02167606 0.044205293 -0.03220745 0.062504545
0.040997215 -0.052728076 0.03476392 0.016995762 -0.010797542 0.0032374102 0.052751184 0.05268641
0.05365827 -0.055411454 -0.05303429 0.003725707 0.027638594 0.024658166 -0.049147572 -0.018669287
0.003369279 0.027570698 0.009134712 0.055002674 0.00091622723 -0.025327949 0.051938035 0.05818893
0.0016292839 0.009150475 0.023976902 -0.0041725887 -0.047918182 0.037328858 0.020107286 0.03416287
-0.03625957 0.006183662 -0.045147948 -0.039861172 -0.041430835 -0.018795568 0.032243412 0.02491726
-0.018366378 0.0058608674 -0.019312927 -0.023603726 0.032599438 0.04854016 -0.012208479 0.012306445
-0.020408623 0.019664519 -0.040731236 -0.029650992 0.013515319 0.020796046 -0.0457723 0.017721757
-0.015368839 0.031776037 -0.023225501 -0.04529945 -0.04842885 -0.02912686 -0.009558653 -0.037789438
-0.029895756 -0.028787578 -0.006499119 0.04229018 -0.041558016 -0.018978437 0.011451196 -0.0033615206
0.053067356 0.0016096272 0.035013113 0.010995735 0.025736013 0.003160865 -0.021294342 -0.02501988
0.054089293 0.009290081 -0.021114964 -0.038416743 0.027923105 0.040430136 -0.020050189 -0.05026204
0.05478982 0.056716487 -0.024607267 -0.0021216236 -0.04747974 -0.04270919 0.020129085 0.05661837

fc1.bias f4 [64]
00000000: 0367 37bd c948 3fbc e173 843c 0d14 e83a
00000010: 8cbe 603b 7921 ef3c aafe b93c a7b5 55bd
00000020: 973b 2cbc d0ce 1d3d 670d 2a3d 6813 1a3d
00000030: 7ca6 4e3d adff 1cbc 540c 203c a541 cc3b
00000040: 3e04 583c 5f0a d03c b1da f93c 8c07 97bc
00000050: e50d 443d 3e69 343d 1dda c03b 86aa 573d
00000060: 8e21 d6bc d589 cabc 1069 64bd 7cf9 f6bc
00000070: a44d 9fbc ad2a bbb7 2797 f63c 573f 3b3d
00000080: e326 003d 3318 5c3c 961e f3bc 5bbb 9fbc
00000090: d0b5 60bd 7089 4b3c b839 603d 9f04 58bc
000000a0: f7bc 593c babc 4f3d 6a5a 7dbd 5282 903c
000000b0: 45ba 593d 3bbd b6bc 2048 27bd 5b49 15bc
000000c0: bf0e 43bc 3ad8 f8bc f373 a8bc 8bfa d23c
000000d0: 3c6f d5bc 1c32 513c 04b7 463d 345b eabb
000000e0: 6922 7e3b c0a4 203b 77a1 a2bc b237 51bd
000000f0: 7dc9 2abd 6ad0 b6bb ed5e 2d3d d7d3 e7bc
-0.044775974 -0.011675068 0.016168537 0.0017706171 0.0034293262 0.029190766 0.022704441 -0.05217519
-0.010512254 0.03852731 0.041516688 0.037616163 0.05045174 -0.009582442 0.009768564 0.0062334114
0.013184605 0.02539557 0.030499788 -0.018436216 0.047864813 0.04404568 0.005885376 0.05265286
-0.026139047 -0.024723927 -0.055764258 -0.03014826 -0.019446202 -2.231201e-05 0.030101372 0.045714702
0.031287085 0.013433504 -0.02967767 -0.019498518 -0.05486089 0.012422904 0.054742545 -0.0131846955
0.013289682 0.050717093 -0.061853804 0.017640267 0.053156156 -0.022307029 -0.040840268 -0.009111728
-0.011905371 -0.030376542 -0.020563101 0.025754234 -0.026054017 0.012768295 0.04851438 -0.0071519855
0.0038777834 0.002451226 -0.019852383 -0.051078506 -0.04169606 -0.005579044 0.042326856 -0.028299255

fc2.weight f4 [64, 64]
00000000: c3ba afbd b75a 2d3d 588a 3dbd d012 e53d
00000010: ab87 8c3d 1700 c0b9 255f 263d d645 5bbd
00000020: 3b5d 62bc 4018 3dbc 5e88 c7bd de04 bebd
00000030: 441e a2bc 7acf 313d 1835 a4bd a5cc c8bd
00000040: 8ca6 b6bd cd1d e13d 8bde d9bd 01a9 eabd
00000050: c2bd 34bd 0e07 d5bb f130 76bd b2d3 a2bc
00000060: 5a6c 1c3d d478 aa3b eac7 8a3d c1ce 083c
00000070: 5d96 fbbd 0a61 3abd 99f6 ea3d b943 53bd
00000080: f684 9c3d de97 5ebd 2f05 35bd 6e62 d23d
00000090: 03de db3d b1e0 923d c0ce 0e3d 7e13 98bd
000000a0: 4c28 9b3d 7ba0 dcbb dceb be3c 0ba1 a43d
000000b0: da6c e9bb 4394 c2bd a269 03be 5017 cfbb
000000c0: d90f 5fbd a81d d6bd d2af 843d 9c68 90bb
000000d0: 5563 02be 73f8 d8bc 8f0d fbbd 3346 5bbd
000000e0: dfb5 35bd 9976 dabd 69d9 bc3b d6e7 d4bd
000000f0: 6a98 c0bd 98d8 58bd 7d96 8abc 63f2 a5bd
00000100: cfc8 263d 6440 6ebd b78a e1bc 19b7 e83c
00000110: fb88 67bc 1369 773d 44d5 d63d 2c4a 0cbc
00000120: 7f13 17bd 06fb d83d cab9 873d f870 93bc
00000130: 95c9 e13c fe0c a9bd 22ce a2bd 75d1 17bd
00000140: d8ef d1bc ec63 133c 35f6 453d 0bcd b53d
00000150: 67c5 e9ba dc8f 093e 9efa d2bd 8658 f2bb
00000160: a856 8ebc 9fa4 acbd 1df7 eb3c 18fa 163d
00000170: 5492 a1bc 9194 a7bd 386d bc3d 8c4d 8abc
00000180: 4652 2fbc 68c2 3d3b 29f7 35bd 1506 0c3e
00000190: d533 cdbd 7b41 b33c 69e4 3ebd 27da 91bc
000001a0: f8ba 18bc 1d9f 36bd 29b0 70bc 102f 5bbc
000001b0: db07 453d d0c2 a53d 43f0 1f3d 4f97 c33c
000001c0: 1b5a a03b e1ae e73d d076 13bd 1c8a a6bd
000001d0: d9e5 c8bd 0336 893d 3b04 13bd 9b53 9e3d
000001e0: 0b3d 83bd e724 e23d 6633 01bd fa57 bcbd
000001f0: 744b d43d 2f09 3e3d be21 033e e5b3 fdbc
00000200: eb4d e63d 6a7a bcbc e6d4 ef3d 1982 bdbd
00000210: 12d2 bdbd d7d8 943d c3a8 b73c b2c9 f33d
00000220: b38a d23d de7f e2bc 8b6c bb3d 2264 863d
00000230: b9ee a03d 797b 5dbd ca4a babc 1924 ba3c
00000240: 54fa 973c 60e0 cd3d 65c7 d7bd 0823 953d
00000250: e55f 00be af7d d23d 76a6 923d 9c13 673d
00000260: 368d 7d3d c95e 1d3d 55b8 8d3c 3cf4 edbd
00000270: c611 8bbc b17c 1b3d a4bf 21bd fd5f 5abd
00000280: 5e35 d93c 2795 cfbc a539 03bd 6179 d7bd
00000290: cc5e 09b9 a3d5 0c3d ba80 1e3d 0942 d53d
000002a0: ddef 823c 7f2a d03c fc92 443d 2375 dbbd
000002b0: d29d 333c e5a3 bcbd 3dfd e9bd f9f0 903c
000002c0: 210a b0bd 4ecd febd 0d5f ebbd 0546 10bd
000002d0: 8f66 e0bd 6079 2c3c 26e7 5cbd 8cfa b9bd
000002e0: 8cac 973d 1529 633d 7774 513d b872 4d3c
000002f0: 758c a33b e2b2 f53d da88 eabc 25bd 563c
00000300: e519 bfbd 8550 f1bd 93f9 c1bd e372 003e
00000310: 8d57 01bd 7395 8cbc 9290 703d 8d8a aabd
00000320: 0e90 c3bd a2ff 9d3c dee2 d03d 388e 6a3d
00000330: 8e0f 12bd 6827 533c fbdd cbba ca25 b63c
00000340: 706e fabd 5884 7cbd e594 a03d bc1d 663d
00000350: 9080 573c ff81 963d 0527 cc3d a123 01bd
00000360: 69f6 e73d 3b43 ab3d 25a5 c2bd 4c3e 1ebd
00000370: 86dd 903c d92a 993d 8524 90bd f7b6 bd3c
00000380: 52b8 343d b085 253d 1343 f23d 637c d3bd
00000390: aaa1 c63d 4408 04bd ea89 8e3d 665a 723d
000003a0: f43d d23d 540f f53d 068b c1bd eb43 adbd
000003b0: 1ab5 233c b065 db3d e34a d8bd 4c98 e13c
000003c0: 0884 c8bd 3868 0a3e 39a5 09bd a7d9 e93d
000003d0: 84f6 fc3d ee52 363d 0469 7f3d 9def cabd
000003e0: 60cb a1bd 36cb 3a3d cbb0 da3d 6784 fd3c
000003f0: 5df1 0cbd 7017 2dbc 4f29 29bb fadf eb3d
-0.08580544 0.04232284 -0.046274513 0.11185229 0.06861814 -0.0003662116 0.04061808 -0.053533398
-0.013816173 -0.011541426 -0.09742807 -0.09278272 -0.019789822 0.043410756 -0.08017939 -0.09804658
-0.08918485 0.10992012 -0.1063815 -0.11458016 -0.04412628 -0.006501085 -0.060105268 -0.019876335
0.03818927 0.005202392 0.06776412 0.008350075 -0.12284539 -0.0455027 0.11472816 -0.051578257
0.07642548 -0.05434405 -0.044194397 0.1027268 0.10735705 0.07171763 0.03486514 -0.07425593
0.075760454 -0.006732998 0.023305826 0.08038529 -0.007123572 -0.09500935 -0.12833264 -0.0063199177
-0.054458473 -0.10454875 0.064788476 -0.0044070017 -0.12733205 -0.026485657 -0.122584455 -0.053533744
-0.0443629 -0.10667152 0.005763222 -0.10395782 -0.09404071 -0.052940935 -0.016917462 -0.08102872
0.04071885 -0.058166876 -0.027531965 0.02840762 -0.01413178 0.06040294 0.10489896 -0.008562606
-0.036883827 0.10594754 0.06627233 -0.017998204 0.027561942 -0.08254431 -0.07949473 -0.03706499
-0.025627062 0.008995991 0.048330504 0.088769995 -0.001783532 0.13433784 -0.10301708 -0.0073958067
-0.017375305 -0.084298365 0.028804356 0.0368596 -0.019723095 -0.08182634 0.09200519 -0.01688268
-0.010700768 0.0028954986 -0.044425163 0.13674195 -0.10019652 0.02188181 -0.046604548 -0.017804218
-0.009321921 -0.044585336 -0.014690437 -0.01337792 0.048103195 0.08093798 0.03904749 0.02387586
0.004893554 0.113126524 -0.03600198 -0.08131811 -0.09809465 0.06699755 -0.035892706 0.0773079
-0.064081274 0.11042195 -0.031543158 -0.09196468 0.10365954 0.046395477 0.1280584 -0.03096957
0.112453304 -0.02300759 0.11710529 -0.0925333 -0.09268583 0.072679214 0.022419339 0.11903705
0.10280361 -0.027648862 0.09151562 0.065620676 0.07858033 -0.05407283 -0.02274074 0.02272229
0.018551983 0.10052562 -0.10536078 0.07282072 -0.12536581 0.102778785 0.07160656 0.056415185
0.061902247 0.038420472 0.01729981 -0.1161885 -0.016976248 0.037960712 -0.039489403 -0.053314198
0.026514705 -0.025339676 -0.032037396 -0.10521198 -0.00013100653 0.034383427 0.038696982 0.10412986
0.015983516 0.025410889 0.047991738 -0.107157014 0.01096292 -0.09210948 -0.114252545 0.01769303
-0.08595682 -0.124415025 -0.11492739 -0.035223026 -0.109570615 0.010526985 -0.053931378 -0.09080991
0.074059576 0.0554591 0.05113646 0.012539558 0.004991109 0.1199701 -0.028629709 0.013106619
-0.09331111 -0.11782936 -0.09471431 0.12543826 -0.031577636 -0.017161107 0.058731623 -0.08327208
-0.095489606 0.019286934 0.101995215 0.057264537 -0.035659365 0.012887813 -0.0015553826 0.022234816
-0.122280955 -0.06164965 0.078408994 0.0561807 0.01315321 0.073490135 0.0996838 -0.03152812
0.11326296 0.083624326 -0.09504155 -0.03863363 0.017683756 0.07478876 -0.070382155 0.023158533
0.044121094 0.040410697 0.118292 -0.10326459 0.09698804 -0.032234445 0.06959899 0.059168242
0.10265723 0.11965814 -0.09450345 -0.0846022 0.009991908 0.10712755 -0.105611585 0.027538441
-0.09790808 0.13516319 -0.033604834 0.11418467 0.123517066 0.04451268 0.06235601 -0.09908984
-0.07900119 0.045603953 0.10678252 0.030946923 -0.03440987 -0.01056467 -0.0025811975 0.115173295

fc2.bias f4 [64]
00000000: fa23 bc3d b065 bcbd b606 f8bd 6f09 7c3d
00000010: 097a aebd 95dc 9bbd 374c 843d 246e a8bd
00000020: e5d9 23bd 7dee dcbd fc02 55bd 4c5a 143d
00000030: 6b2a 6a3d 3ac9 aa3c 969b 92bc 1391 903c
00000040: 9b6a 2bbc 6586 66bd 16af 783d 4c06 30bd
00000050: c879 793d 8c4d d8bd ccd4 9ebd e179 c93d
00000060: 62b0 80bd 2d88 123d fcfd 28bd 23cb 60ba
00000070: b348 c1bc 77e4 3a3c 2187 a63d 4193 e53d
00000080: cc02 e43d e0f2 f03d a691 8abd 4103 3dbc
00000090: 253b 113e 65a4 d0bd c384 dd3c 57f5 243d
000000a0: f9e5 b23d e64d 073d d163 dc3a 9fd3 d8bc
000000b0: 833b feb8 cd32 d1bd 7a0a 143d 0a83 babd
000000c0: 0082 cfbd ef24 94bd 12e4 a83d 3555 d3bd
000000d0: 1b92 1ebd 9ccd 183d baf8 833d effd 1b3b
000000e0: 6190 06bc b032 d33d a9b1 f3bd ecc4 a23d
000000f0: 1989 a53d 86fd 023e 3820 75bd 3db8 f03d
0.091865495 -0.09199083 -0.12110655 0.061532434 -0.0851937 -0.07610432 0.06459849 -0.08224133
-0.040002722 -0.107876755 -0.0520048 0.036218926 0.05716936 0.020847905 -0.017896455 0.017647302
-0.010462428 -0.056280512 0.06071385 -0.042974755 0.060907155 -0.10561666 -0.077554315 0.098377
-0.06283642 0.0357744 -0.041257843 -0.00085751916 -0.023594236 0.011407009 0.081312425 0.11209727
0.11133346 0.11765075 -0.067660615 -0.01153642 0.14182718 -0.10187606 0.027040845 0.040273037
0.0873527 0.033033274 0.0016814416 -0.026468096 -0.00012122749 -0.102147676 0.036142804 -0.09107025
-0.101322174 -0.07233607 0.08246626 -0.10318986 -0.038713556 0.03730546 0.06443925 0.002380248
-0.008213134 0.10312402 -0.1189912 0.07947716 0.0808279 0.12792024 -0.05984518 0.11753891

fc3.weight f4 [3, 64]
00000000: a1ff 7a3d 81f7 ee3d 330b d7bd 772d 953d
00000010: 0189 98bd a91d 5bba 7fe7 70bc 9e98 bc3c
00000020: 1cbc 8c3d 93a1 593d 78bc efbd 1ad6 173d
00000030: 535f f5bd 3f83 6abd d4d4 9e3d 95cd d03d
00000040: 603f 9a3d dec2 0a3e e16c e93d e8cc 88bc
00000050: a860 49bd 1140 d0bc 981f c9bc e413 90bd
00000060: a595 b1bd 8e9f 00bc 9878 d1bd 7d2d 8e3d
00000070: 8981 d5bd b91e 5fbd d3f4 e4bc e4d5 053b
00000080: f71a 753d 0627 ad3d b651 fb3d 3e9d b9bd
00000090: dbd9 6c3d 196a cc3d 3f25 833d 599c ff3d
000000a0: ee9b fdbd 5a39 3fbd b63e 88bd 235e 3b3d
000000b0: fdac 113d 60ac 2abd 95f5 9f3d fe43 a53a
000000c0: a8dd a1bd 102b 863c 3bf4 b33d 0130 e43d
000000d0: 11c4 62bd fdd1 a4bd b965 93bd 23c4 3cbd
000000e0: 4b73 723d ef32 d9bd dd13 45bd 9be9 c1bd
000000f0: 072d 813d 3d02 4d3d 4d0a 84bd e38d 9dbd
00000100: a8e0 22bb 91f7 913d 32e4 ae3d e44b c0bd
00000110: 60b7 9e3d a3d5 ad3d 9dda 023d b0a2 f3bd
00000120: 7c7b aebd d163 563a 895c ac3d 2fc3 9a3d
00000130: 96a4 3d3d 0562 77ba ab3d e3bd 7167 c73d
00000140: 5299 6e3d b0bd 02be ef56 f2bd 76b5 de3c
00000150: cda7 963d 4cd1 0bbd 6435 fc3c cb64 45bd
00000160: e67a fdbd 03b2 b03d 30de 9dbd 6f19 fc3d
00000170: a1f6 823d da8a 0ebe 7d57 cf3d 0f5a 823d
00000180: 214f 113d 84dc d8bd dc0a d7bd 3899 763d
00000190: e400 f0bd ef8e f83d 2f66 5d3d b9ec 00be
000001a0: b0d2 9c3d 9387 1d3d 4992 da3d 0e8e 4cbd
000001b0: 9c40 efbd b8b2 b6bd 55d2 0ebe fbfe c2bd
000001c0: 013d a7bd dc6a ddbd 797f f73d f265 583b
000001d0: eb55 c33d 7275 07be c287 cdbb 64f7 eabd
000001e0: 15ee b13c fe54 e03d 7922 42bc b0d6 01be
000001f0: a35c 403d ad33 f8bd 8307 f03d 1e31 943b
00000200: a7db 75bd d58c 983d b9bf 36bd 1c60 acbd
00000210: ad6d 5cbd fced 9cbc d0e6 683d f77b d6bd
00000220: fc21 36bd 2e6f 1bbd 5577 8e3b 57e5 b23d
00000230: d176 7dbd f8cf ab3d a3cb 9b3d f6f5 b0bd
00000240: 8950 8cbd f23c b0bd 2131 27bd 344f 653d
00000250: 7e2a a2bd 2404 5fbd 7e00 11bd 76b4 f23d
00000260: f749 85bd 48ae 2ebd 2724 bebd bf37 0abc
00000270: b8aa 8739 4e3c cdbd 9050 a2bd fe2c dfbd
00000280: 944c a03d fa4b b8bd 8d68 96bc 2d02 e83a
00000290: 973b f9bc 9d77 cf3c 26f3 f93d d638 d73d
000002a0: ed8d b7bc fdfa edbc 69c0 91bd 6bc1 a8bd
000002b0: 7829 96bd 9318 afbc f960 973d a064 fcbd
000002c0: 8158 efbd aada 113d 0f0c b4bd e460 d43d
000002d0: d9a3 f33d 93e2 5b3d a783 a93c 6b34 513d
000002e0: b96b d2bd 6692 9fbd 881e c0bb 82eb 7c3d
000002f0: 0ba5 db3d 196b 9e3d b48a ce3d d166 6d3c
0.061278943 0.116683014 -0.10500183 0.07284062 -0.074480064 -0.0008358607 -0.0147036305 0.023021992
0.068718165 0.053132605 -0.117058694 0.037069418 -0.11981072 -0.057254072 0.077554375 0.10195462
0.07531619 0.13550898 0.1139772 -0.01669927 -0.049164444 -0.025421174 -0.024551198 -0.07035044
-0.086711206 -0.007850541 -0.102280796 0.0694227 -0.104250975 -0.05447266 -0.027948773 0.0020421678
0.05984017 0.08454709 0.122714445 -0.09063195 0.05782495 0.09981174 0.064035885 0.12480993
-0.12383257 -0.046685554 -0.06652586 0.045744073 0.035565365 -0.041668296 0.07810513 0.0012608764
-0.07903606 0.016377956 0.08786818 0.111419685 -0.055362765 -0.080478646 -0.071971364 -0.046085488
0.059191983 -0.10605418 -0.048114646 -0.09468385 0.063074164 0.050050963 -0.06447277 -0.07693078
-0.0024853144 0.07127298 0.085396186 -0.09389475 0.0774982 0.084880136 0.031946767 -0.118962646
-0.085196465 0.0008178326 0.08416087 0.075567596 0.04629954 -0.00094369083 -0.110957466 0.09736527
0.058251686 -0.12767673 -0.118329875 0.027186137 0.07356224 -0.034135148 0.030787177 -0.048191827
-0.12376957 0.08627703 -0.077083945 0.123095386 0.06394697 -0.13920155 0.10124109 0.063648336
0.035475854 -0.10588935 -0.10500118 0.060204715 -0.1171892 0.121366374 0.054052528 -0.12590303
0.07657373 0.03845937 0.10672433 -0.04994016 -0.11682245 -0.08920807 -0.13947423 -0.0952129
-0.081659324 -0.108113974 0.1208486 0.0033019749 0.09537872 -0.13228396 -0.006272287 -0.11472967
0.021719972 0.10953711 -0.011849039 -0.12679553 0.046963345 -0.121192314 0.11720183 0.004522457
-0.06002393 0.074487366 -0.044616435 -0.08416769 -0.053815532 -0.019156449 0.056860745 -0.10472863
-0.044466004 -0.037947826 0.0043477216 0.08735149 -0.06188089 0.08389276 0.076072 -0.08640663
-0.06851298 -0.086053744 -0.040818337 0.055983737 -0.07918261 -0.05444731 -0.03540086 0.118508264
-0.06508248 -0.042646676 -0.09284239 -0.0084361425 0.00025876402 -0.10021268 -0.07925522 -0.108972535
0.07827106 -0.089988664 -0.0183604 0.0017700844 -0.030423922 0.02532559 0.1220458 0.105088875
-0.022406543 -0.029050345 -0.071167774 -0.082400165 -0.07332128 -0.021374023 0.07391543 -0.1232388
-0.11686803 0.035608925 -0.087913625 0.10370043 0.11896486 0.053682875 0.02069266 0.05107538
-0.10274453 -0.07791595 -0.0058630146 0.061748035 0.10724839 0.07735271 0.10085049 0.014489845

fc3.bias f4 [3]
00000000: b890 afbd aa3b b73b eb1c df3d
-0.08572525 0.0055918293 0.108941875

actor_Q.1.weight f4 [8, 64]
00000000: 1820 0cbd fceb 0d3d 4c38 8fbd 9468 d63d
00000010: 04de 01bd 76b5 8ebd c258 b9bd a4c3 7e3d
00000020: 1032 64bd f0f0 033d e006 e13d d4c9 44bd
00000030: 5e6f d13d 42fb 8dbd 76db f5bd d02d a53c
00000040: 6ad7 d2bd 502b a43c 3c1f a6bd aeab dd3d
00000050: 969b acbd 58a6 d73d 6e15 b33d 26f7 f83d
00000060: e082 78bd 7404 2b3d 240d f0bd 24cd 0a3d
00000070: 904e 9ebd e211 d13d aa3a 8dbd 6c8e c13d
00000080: f40b f1bd bae2 9dbd 2cc5 ae3d 08f8 7d3d
00000090: a235 adbd a499 4e3d 7ec2 fabd 6c5b c7bd
000000a0: 2c14 62bd 0a52 85bd de91 dfbd 90e0 29bd
000000b0: 68af c0bc b8e9 713d a0d9 3cbd c041 8fbb
000000c0: eed1 d6bd acd1 383d 24d4 8ebd 50f4 ff3c
000000d0: 1c97 6a3d 3e43 c23d ae1b 8d3d 98e9 b3bc
000000e0: b24a fb3d ec13 d0bd d001 2fbd b0a3 49bd
000000f0: 08b7 fc3d e0ee e73c b211 f2bd 5ed7 953d
00000100: fed4 9f3d d053 993c f89f 55bd 80bb 9a3d
00000110: c026 fa3b 084e 81bc 88a9 bc3c 48c7 bf3c
00000120: 4423 14bd f8eb 983d 4269 8dbd 183c b6bc
00000130: a044 fabb 28b9 02bd 9823 ab3c bcc5 4abd
00000140: 466a c23d c041 2bbc 70c5 c5bd c83c d8bd
00000150: 64de 123d 5023 dabd 808d 3e3b e072 e4bc
00000160: d04f 61bc 10c6 0f3d e094 7b3d 4675 973d
00000170: 504c 7cbc 868a e73d 2ecf ca3d 10cd f3bc
00000180: c8e9 34bd 92ae f93d 8a81 84bd 5ccb 4f3d
00000190: 2809 cb3c 4ef5 dbbd 4c74 cdbd bc5f 26bd
000001a0: 9c4d a93d 6acc bdbd 40c7 a8bb 7472 943d
000001b0: be7d f43d f68a 94bd 5085 08bd 782d 963c
000001c0: 8059 43bb 4031 08bd 34bc edbd 2851 fa3c
000001d0: 24c5 e3bd 90df d0bd 5c31 cbbd b877 8bbd
000001e0: 34d1 7b3d 68b3 ee3c ecad 5cbd 2cb1 62bd
000001f0: d226 f43d 1247 85bd e050 d8bd 48ec 70bd
00000200: 12b6 a03d 904c 7bbd a46a 2dbd 7057 433d
00000210: c0d9 06bc 7cff 773d 785b 1a3d 4cd8 a2bd
00000220: 9e3c c93d 9c67 0fbd a801 cd3c 7c13 cb3d
00000230: 5c9d c5bd f8cc 06bd 002d 35bb 0c07 913d
00000240: f837 b7bc 0ed0 df3d 14e0 8f3d 44cc 123d
00000250: c274 cd3d c488 823d 20d9 c2bb 08bf f1bc
00000260: 2ccc b5bd 90f5 263c 40db 34bd 9030 4fbc
00000270: 3018 2dbd e0a5 92bd 4267 df3d d4a6 c3bd
00000280: 7050 15bc 68ca d03d 904d 52bc 7487 ba3d
00000290: d035 043c b21f e4bd 0077 e83d a429 c53d
000002a0: 3a05 c43d 602d c03b 544b d7bd 0edb f8bd
000002b0: b83c b93c 5689 f9bd 38e4 9c3d 301e 803c
000002c0: 40bc 3cbc f889 81bd 8653 debd 30cd c1bc
000002d0: 8037 0cbc 44f6 413d cc2b 53bd 8066 883b
000002e0: 90bd 643d 02a5 e9bd e8bb 0dbd 3288 d93d
000002f0: f078 01bd 4c02 bdbd ae50 cebd 005d a4bd
00000300: 70b8 c0bc 94c6 a5bd 801d 3fbc e831 debc
00000310: 780e 8d3d 141a 893d 7ef1 debd 1af5 b4bd
00000320: 1c9a dabd 7441 7fbd 7c2e 4e3d a2eb a73d
00000330: f806 513d 245f 01bd 80e8 a83a f0a8 933c
00000340: d4f0 243d 700e 333d a085 a63d c0d5 043c
00000350: 56a6 c63d 20fb 003c 9c9d 5ebd ea49 e4bd
00000360: 46b0 d0bd ea5b b93d f848 f13d 0008 fb38
00000370: fcf7 533d a8c0 dabc 6ca8 473d 1813 e13d
00000380: 16a5 cdbd 64ec 653d 086b 0f3d 1ca9 6cbd
00000390: 600f b9bd 1c5e 8dbd 824c af3d 7836 933c
000003a0: 9045 343c d6e5 a23d 5a36 803d faa3 81bd
000003b0: e0cc 08bc 6012 a43d 167b ce3d 7233 8f3d
000003c0: a2ec fcbd 4283 d93d 4a88 d1bd a019 523d
000003d0: 028a abbd 9089 66bd f0f6 a03d 44b8 1abd
000003e0: 9e59 a43d 1e0c e63d 447f d73d 542e 05bd
000003f0: 60ef f8bd 28c7 22bd 32d1 d5bd 0003 053a
-0.034210294 0.03464888 -0.0699316 0.104691654 -0.03170587 -0.06968205 -0.09050132 0.062198296
-0.055711806 0.032212198 0.109876394 -0.04804404 0.1022632 -0.06932689 -0.120047495 0.020163447
-0.10294993 0.020040184 -0.08111426 0.10823761 -0.08428113 0.105297744 0.08744322 0.12156515
-0.060671687 0.041752294 -0.117212564 0.033887044 -0.07729828 0.10208489 -0.06895955 0.09450993
-0.11769858 -0.0770926 0.08533701 0.06200412 -0.08457495 0.050439492 -0.12244128 -0.09734234
-0.05519502 -0.06509788 -0.10916494 -0.041473925 -0.02352114 0.059060782 -0.04610598 -0.0043718517
-0.1048926 0.045121834 -0.06974056 0.031244427 0.057273015 0.09485482 0.06890045 -0.021961972
0.122701064 -0.1016005 -0.042726338 -0.04922837 0.12339598 0.028312147 -0.11819781 0.07316469
0.07804297 0.018716723 -0.05215451 0.07555294 0.007634014 -0.015784279 0.023030058 0.023410454
-0.036166444 0.074668825 -0.06904842 -0.022245452 -0.0076375753 -0.03191486 0.020890996 -0.04950498
0.09492926 -0.010452688 -0.09656799 -0.10558468 0.03585662 -0.106512666 0.002907604 -0.027886808
-0.013751939 0.035100996 0.061421275 0.07395415 -0.015399054 0.11305718 0.09902798 -0.029760867
-0.044168264 0.121915 -0.0647002 0.050731048 0.02478464 -0.107401475 -0.100319475 -0.040618643
0.08266756 -0.092675045 -0.0051507056 0.07248393 0.11938046 -0.07253067 -0.03333026 0.018332228
-0.0029807985 -0.033250093 -0.116081625 0.030556276 -0.11121586 -0.10198891 -0.09921524 -0.06809944
0.06147881 0.029138282 -0.053876802 -0.055344746 0.11921467 -0.06507696 -0.10562301 -0.058819085
0.07847227 -0.061352313 -0.04233803 0.04769081 -0.008230627 0.060546383 0.037684888 -0.079514116
0.09826015 -0.03501092 0.025025204 0.09915826 -0.096491545 -0.032910317 -0.002764523 0.07081422
-0.022365555 0.10928355 0.070251614 0.035839334 0.100320354 0.06373742 -0.0059462935 -0.029510036
-0.08876833 0.010190383 -0.044154406 -0.012645856 -0.042259395 -0.071605444 0.10908367 -0.09553304
-0.009113416 0.10194856 -0.012835875 0.09107867 0.0080694705 -0.11138858 0.113508224 0.09627083
0.095713094 0.005864784 -0.105124146 -0.12151156 0.02261196 -0.12184398 0.07660717 0.015639395
-0.011519492 -0.063251436 -0.108557746 -0.023657411 -0.008558154 0.047353998 -0.05155544 0.0041626096
0.055844843 -0.11408426 -0.03460303 0.1062168 -0.031609476 -0.09228954 -0.10073982 -0.08025551
-0.023525447 -0.080945164 -0.011664748 -0.027123407 0.06887525 0.06694427 -0.10885905 -0.08835812
-0.10673925 -0.06231828 0.0503373 0.0819924 0.051032037 -0.031584874 0.0012886673 0.018024892
0.040268734 0.04371494 0.08130956 0.008107603 0.09699695 0.007872373 -0.054349527 -0.111469105
-0.101898715 0.09050734 0.11781496 0.00011970103 0.05175017 -0.026703194 0.048744604 0.1098997
-0.10041253 0.056133643 0.035014182 -0.057778463 -0.09036136 -0.069027156 0.085595146 0.017970309
0.011002913 0.07953994 0.06260367 -0.06330104 -0.008349627 0.08011317 0.100820705 0.06992234
-0.123498216 0.106207386 -0.10231073 0.05129397 -0.08375932 -0.056283534 0.078595996 -0.037773386
0.080249056 0.1123278 0.10522321 -0.032514885 -0.12155032 -0.03974071 -0.104402915 0.00050739944

actor_Q.1.bias f4 [8]
00000000: c026 0a3d 4816 e8bd b8aa 6d3d f005 ac3d
00000010: d8eb c73d 6ac9 873d 90d3 e6bd de8e 973d
0.03372836 -0.11332375 0.05802414 0.0839957 0.097617805 0.066302136 -0.11270821 0.07400297

actor_K.1.weight f4 [8, 64]
00000000: ba02 afbd b8eb b43d 888b b13c 6064 2c3d
00000010: c05c b33b dec9 95bd 4cdb 37bd 4022 4abd
00000020: 8813 cc3c 602c b73c 4815 be3d 5cd0 6dbd
00000030: acb9 e03d f013 1c3c c8ea afbd 6096 eebb
00000040: 806d 4ebd 80de ffbb d07b 4ebd 10c9 773d
00000050: d087 47bc cc1d 353d c6e8 eebd 52f6 96bd
00000060: 3a5c c4bd 464f d13d 40aa f63d 4c7c 03bd
00000070: 6e74 cb3d 48bf 203d 70f4 cc3c c84f e23c
00000080: 0619 b4bd 0ee9 ccbd e206 a8bd 6a09 8abd
00000090: 00e7 17bc 20f5 8dbb 98ec ad3c 5403 7cbd
000000a0: 108f ce3d 3890 b4bc 94fe a43d a8ad 22bd
000000b0: 9cb0 c83d 0044 6b3c 0ac5 963d b029 30bc
000000c0: f08b 5cbc 9253 ffbd e462 633d 40ce 86bd
000000d0: 2c69 20bd f623 a83d 9a2f cfbd 40dd c43d
000000e0: b0cb 263d 58d7 373d 5221 f03d 6290 dc3d
000000f0: 7e13 f43d 746f 523d bcc0 f43d 0062 2a3b
00000100: 161a 863d 202b 9a3b 4c9a 583d 84a5 8c3d
00000110: 90a5 f43c c49e 8c3d 2037 9f3c 1858 053d
00000120: da9d e93d f42f 0cbd 5894 ea3d 3471 5bbd
00000130: cc7c 32bd 404c c9bc 7a8f bb3d 5028 263d
00000140: 3afb 9bbd 3401 4f3d da32 943d 4436 c2bd
00000150: c2f4 fcbd a2ab 9b3d e027 d2bd 5cf6 2b3d
00000160: 28da c13d f83c 37bd 34df 703d d8ed 8c3c
00000170: 68a5 c23c c604 f6bd a096 ea3b 5a56 dfbd
00000180: 505a 173d d4f8 dc3d a80e ac3d cc8d 4e3d
00000190: 5897 36bd dcde dbbd a232 dbbd 5658 b93d
000001a0: d455 ebbd 62a6 cd3d acb6 f9bd 6049 41bd
000001b0: f0a1 ab3c 8a88 c43d 3846 b03d 8a1f c9bd
000001c0: d42e 613d 1c48 dcbd 52d6 c13d 8842 cebc
000001d0: c626 ba3d c8c7 febd d85e 44bd aa9a a63d
000001e0: 1876 8dbc ceef 90bd e457 25bd 2013 b7bc
000001f0: ac2c 7ebd c0c8 f93c 3485 67bd 8e8d d43d
00000200: 1208 8cbd 707c cf3d 5cc8 4a3d 5887 d2bc
00000210: e42f 03bd d253 d4bd b45b d6bd 4e55 88bd
00000220: 1076 b6bd 2a21 c1bd 6401 af3d 58ae fbbd
00000230: 7442 ddbd 4020 5b3d e891 2abd da32 9a3d
00000240: 88a1 ee3d 00cc 70bb 087a ef3c d0d7 c53d
00000250: 2cb0 6e3d b66e f4bd 9607 e2bd 408d 923b
00000260: 68a7 d7bd e2c0 dbbd 7437 a9bd 201f e0bc
00000270: 5c71 30bd c2d7 b2bd 0cc5 87bd 64a8 adbd
00000280: 68cf 223d 6801 a7bd 9220 a43d d0d9 8bbd
00000290: 7ec7 af3d 206b 8fbb 30fa 9dbd aea5 833d
000002a0: 60b9 92bd 84fd b1bd 38e7 5b3d 1009 423d
000002b0: 901e 223d 60f8 5a3c 48f9 e73c e0d7 f2bd
000002c0: ae28 cfbd 5436 c2bd 3c84 d3bd 107a 943d
000002d0: 603a a2bd 661c c2bd 64c9 123d 7069 71bc
000002e0: 9803 3e3d 049b 25bd 3ae9 e63d 3c7f 343d
000002f0: 905e f53c a2f7 bb3d 6ce8 433d 1815 adbc
00000300: be28 ed3d c43f 02bd f8eb 6ebd 60f9 493c
00000310: a4fd df3d cc0d a4bd 3e05 c53d 80c6 edbc
00000320: 7acd d93d 94ba 2b3d c0c5 533d 401e 8f3b
00000330: b86a c33d ea3c bcbd 346e 75bd f248 cd3d
00000340: 5e19 803d 0894 abbd e470 e73d c0ac 6d3d
00000350: b89d 303d 10ec d13d f6b7 adbd 28fe bf3c
00000360: 2839 92bd c094 7c3d f05c 5d3d be87 82bd
00000370: be05 f5bd 24d3 ddbd f80d 733d 307b 6dbd
00000380: 3a30 ea3d c47b 1fbd 3c38 0cbd 7062 ad3c
00000390: 787a 3cbd 4c23 debd a0ad eb3d 5aec a53d
000003a0: 065e c2bd a097 f0bd 1e2e e2bd 887b 103d
000003b0: d0c4 30bd 40d3 cbbc a898 93bc e0a3 74bd
000003c0: 5e77 ad3d 569f aebd 00bb c9bc c878 09bd
000003d0: 00d8 c03d 98df a43c f86b 4cbd 68db 053d
000003e0: b4d4 21bd 0c2c 033d 003d e3bb 40e1 a3bb
000003f0: 5438 51bd fecf ab3d 503e bdbd c0da f83c
-0.08545442 0.08834022 0.021672979 0.042087913 0.005473703 -0.07313894 -0.044886872 -0.04934907
0.024911657 0.022360027 0.09281403 -0.058060035 0.10972914 0.009526238 -0.08589703 -0.0072811097
-0.050397396 -0.0078085065 -0.050411046 0.060494483 -0.012178376 0.04421787 -0.11665492 -0.073712006
-0.09587903 0.10220198 0.12044191 -0.03210096 0.099343166 0.03924492 0.0250189 0.027625933
-0.08793835 -0.10005389 -0.08204438 -0.06740077 -0.009271383 -0.0043321997 0.02123098 -0.06152661
0.10085881 -0.022041425 0.080563694 -0.039716393 0.097993106 0.014359474 0.07361801 -0.010752127
-0.013461098 -0.12467112 0.05551423 -0.06582308 -0.0391628 0.08209984 -0.10116501 0.096125126
0.040721595 0.044883102 0.11725105 0.10769726 0.1191778 0.05137582 0.11950824 0.0025998354
0.06547944 0.004704848 0.052881524 0.06867507 0.029864103 0.0686622 0.019435465 0.032554716
0.11407061 -0.03422542 0.114540756 -0.053574756 -0.043576047 -0.024572492 0.09158225 0.04056579
-0.07616277 0.050538257 0.07236262 -0.094830066 -0.12351371 0.07601096 -0.10261512 0.041982993
0.09465438 -0.04473588 0.058806613 0.017203256 0.023760512 -0.12012629 0.007159069 -0.10905142
0.036951363 0.10789648 0.08401233 0.050428197 -0.044577926 -0.107358664 -0.10703017 0.09050052
-0.1149098 0.10041501 -0.12193045 -0.047189116 0.020951241 0.09596355 0.08607143 -0.09820469
0.0549763 -0.10755941 0.094647065 -0.025178209 0.09089427 -0.12440449 -0.047942013 0.081349686
-0.017268226 -0.07076989 -0.040367022 -0.022347987 -0.06205432 0.030491233 -0.056523517 0.10378562
-0.06837477 0.101311564 0.049507484 -0.025699303 -0.032028094 -0.1036755 -0.1046671 -0.066568956
-0.089092374 -0.09430154 0.08545187 -0.12289113 -0.108036906 0.053497553 -0.041643053 0.075292304
0.116519034 -0.0036742687 0.029232994 0.096603036 0.05827348 -0.11935179 -0.11036603 0.0044724047
-0.10529977 -0.10730149 -0.0826253 -0.027358592 -0.043076858 -0.08732559 -0.066293806 -0.084793836
0.03974858 -0.08154565 0.08014025 -0.06828654 0.08582972 -0.004376784 -0.07713735 0.06428085
-0.07164264 -0.086909324 0.053687304 0.047371924 0.039579928 0.013364881 0.028317109 -0.11857581
-0.10115181 -0.094830185 -0.10327956 0.07249844 -0.079212904 -0.09478073 0.035836592 -0.014734611
0.046390146 -0.040431038 0.11274953 0.044066653 0.029952317 0.091780916 0.047829077 -0.021128222
0.115800366 -0.031799093 -0.058330506 0.012327522 0.1093705 -0.08010444 0.096201405 -0.029025316
0.10634895 0.04192598 0.05170226 0.0043676198 0.09541839 -0.09191306 -0.05991955 0.10023679
0.062548384 -0.08377844 0.11300829 0.058026075 0.043119162 0.102501035 -0.084823534 0.02343662
-0.07139808 0.061665297 0.05404371 -0.06373547 -0.11963986 -0.108312875 0.059339494 -0.05797881
0.1143498 -0.03893639 -0.034233317 0.021165103 -0.046015233 -0.10846576 0.11507726 0.08101721
-0.0949059 -0.1174767 -0.110439524 0.03527406 -0.043156445 -0.024881005 -0.018017128 -0.059726596
0.08470033 -0.08526485 -0.024625301 -0.03356245 0.09416199 0.020126149 -0.049907655 0.032679945
-0.03950949 0.03202443 -0.006934762 -0.005001217 -0.05107911 0.08389281 -0.09240401 0.030377746

actor_K.1.bias f4 [8]
00000000: 244e 333d 40fd bbbc f4c7 fabd 98d2 703d
00000010: a860 933c b09f 77bd a80c 683d 2ccc 7e3d
0.043775693 -0.022947907 -0.12245169 0.058794588 0.017990425 -0.060455024 0.056652695 0.062206432

actor_V.1.weight f4 [3, 64]
00000000: e4c6 3ebd aca2 62bd 48a6 413d 7cee 613d
00000010: 9e7e 8cbd 803e 28bd 7858 123d 60f9 98bc
00000020: 30ef 9ebd 8051 c23d 8e59 b0bd fa23 903d
00000030: 8455 043d 2ec0 aa3d 68e5 cfbc c057 a3bc
00000040: aafb d0bd c0e6 83bc 807d caba 904d 963c
00000050: 78fe 9a3c 92c9 873d 00f0 b03a 8043 a53b
00000060: 58f8 d5bd 18b6 7ebd 8003 cfbb b802 3bbd
00000070: ace6 693d 1cf2 98bd 805a 38bb d851 f8bd
00000080: dc30 6d3d a061 3abd 64ec a7bd 804d fa3d
00000090: 5c74 c0bd acc9 b33d a856 503d 7283 bb3d
000000a0: 9073 023c 6061 89bc 10b0 6ebc 66df ab3d
000000b0: 7249 a43d 541e f53d 00db 6c3b 70be 92bd
000000c0: de07 a23d 6232 eb3d 78a0 ad3c 5cb9 ca3d
000000d0: e02b 953d f68e 8cbd fc35 0dbd 30ce ccbc
000000e0: 6a4b c1bd 4090 573c 0045 653b 404f c6bd
000000f0: 80f0 a9bb 9cb7 22bd 6476 2e3d 70c4 993c
00000100: a0c1 a9bd f817 efbd f64c e83d 6003 883c
00000110: c033 af3c 6a0d db3d 4e90 cc3d 2830 613d
00000120: 8004 01bb c0a9 aa3b 885c d53d 2e44 843d
00000130: 24e1 9bbd 1866 e13d 90fc 163c 005a 27bb
00000140: eaf4 82bd 0479 413d ee65 c5bd 04e6 1d3d
00000150: 424b e03d 0019 acbd a0ba 113c 1072 d13c
00000160: bee2 82bd 3067 e7bc ea41 f03d a020 cfbd
00000170: cc3b 243d 860c 853d 62c0 8bbd 80f5 ba3a
00000180: 0c32 af3d 8025 ac3a 503d 733d 3081 323c
00000190: c004 1fbd e4e5 973d b298 a73d dcb5 c2bd
000001a0: 4018 bfbc 0e38 fc3d e8db 323d 10c4 0e3c
000001b0: 5a68 9a3d f0dc 193c 70e9 6abc d48c a73d
000001c0: 50a4 5abc cc8d d1bd 1447 29bd 40d8 a2bd
000001d0: 00fc 60bd 7efe e33d ba2e e33d f8f8 923d
000001e0: 401a e33b b85a 993c f027 40bd 7ad4 a1bd
000001f0: e010 19bd 44f6 e83d 4e45 873d 5e01 8dbd
00000200: 8c90 433d e07b 6fbc 60a0 da3d 0c06 3abd
00000210: 3007 aebc eafa 8d3d a406 eabd 58a9 4a3d
00000220: 0201 fc3d 1a40 f43d a890 a33c a0e8 94bd
00000230: 24db 01bd 54f7 a1bd 58ef c2bd c4b0 4dbd
00000240: b86b 70bd 4011 0fbd f817 80bd f023 b73c
00000250: 5402 a6bd 94b7 c5bd 800e d6bc 900f e03c
00000260: 20b6 eb3d 5877 b43d 2eee f83d b226 8b3d
00000270: f6d2 a03d fc0f e53d d055 89bd 781d c13d
00000280: 40fd c0bc ea0a d9bd c807 5cbd 4c33 d1bd
00000290: 2225 90bd 7872 2d3d e873 993d 2c5b d7bd
000002a0: 9cf6 493d 508a 343c 345b 99bd e6c1 a9bd
000002b0: 003d 073a 0a0f 8cbd cc76 15bd 8870 74bd
000002c0: 9091 5e3d f4b1 4bbd 8ed1 b8bd 108e 2e3c
000002d0: 1033 f63d 985d 61bd b08e ba3d 88fb 203d
000002e0: ecf9 e53d 38b8 1bbd 80ac dc3c a82c d3bc
000002f0: 002b 7abd be4f 95bd 0077 54bd 2032 ac3b
-0.046576396 -0.055330917 0.04727772 0.055159077 -0.06860088 -0.04107523 0.0357289 -0.018673599
-0.07760465 0.09488201 -0.08610831 0.07038112 0.032308117 0.083374366 -0.025377944 -0.019939303
-0.10204251 -0.016101241 -0.0015448779 0.018347532 0.018920168 0.06630243 0.001349926 0.005043447
-0.104477584 -0.062185377 -0.006317556 -0.04565689 0.05710475 -0.07468054 -0.0028130114 -0.121249855
0.057907924 -0.04550326 -0.08199385 0.12221813 -0.09397194 0.087787 0.05086389 0.091559306
0.007962123 -0.016770065 -0.014568344 0.08392219 0.08021821 0.11968675 0.0036141276 -0.07165229
0.07911657 0.11484219 0.021194682 0.09898636 0.07283759 -0.06863205 -0.03447531 -0.025000662
-0.09438212 0.0131569505 0.0034983754 -0.096830845 -0.0051861405 -0.039725885 0.042593375 0.018770427
-0.08288884 -0.116744936 0.11342804 0.016603172 0.021386981 0.10695918 0.099884614 0.054977566
-0.001968652 0.005208224 0.104180396 0.06458317 -0.076113015 0.11005801 0.009215489 -0.0025535822
-0.0639437 0.04723455 -0.09638582 0.038549438 0.10951854 -0.08403206 0.0088945925 0.025567085
-0.06390904 -0.028247446 0.11731322 -0.101136446 0.04009609 0.06496529 -0.068238035 0.0014263839
0.085544676 0.0013133734 0.059384644 0.0108950585 -0.03882289 0.07416895 0.08183421 -0.09507343
-0.023326993 0.12315379 0.04366675 0.008713737 0.07539435 0.0093910545 -0.014337882 0.08181158
-0.013344839 -0.10232124 -0.04132755 -0.07951403 -0.054927826 0.11132525 0.11092897 0.07176393
0.0069306195 0.018720016 -0.046913087 -0.07901855 -0.03736961 0.113750964 0.06605016 -0.068850264
0.047745273 -0.014616936 0.1067512 -0.045415923 -0.021243662 0.06932624 -0.11427048 0.049477905
0.1230488 0.11926289 0.019966438 -0.07270932 -0.03170313 -0.07908502 -0.095183074 -0.050217405
-0.05869648 -0.03492856 -0.06254572 0.022356004 -0.08105913 -0.096541554 -0.026129961 0.02735117
0.11509347 0.088118255 0.12154804 0.0679449 0.078527376 0.111846894 -0.067058206 0.09429449
-0.023558259 -0.10597785 -0.05371836 -0.10214862 -0.070383325 0.042345494 0.074928105 -0.105154365
0.04930745 0.011019304 -0.07488099 -0.08288936 0.0005158931 -0.06838806 -0.036490247 -0.05967763
0.054338038 -0.049730256 -0.090243444 0.0106539875 0.12021458 -0.0550209 0.09109247 0.03930238
0.112293094 -0.03801748 0.026937723 -0.02577813 -0.061076164 -0.072906 -0.0518713 0.005254999

actor_V.1.bias f4 [3]
00000000: ec31 84bd aa59 9fbd 28f8 8dbd
-0.06454834 -0.07780774 -0.06932098

expert_K.weight f4 [3, 8]
00000000: b40b 2abf a68a 42c0 ea13 49bf 39a1 a9bf
00000010: b949 683f 86f1 bf3d d0dd e6bf 829d f43d
00000020: 4987 92be 3c96 533f 7edf 9e3f 15cd c6be
00000030: bdd8 57bf b55a ab3e 45b4 9dbe 4e49 5c3f
00000040: 9b76 7f3f 5d60 ccbe aa24 86bf 27b4 ed3f
00000050: 4333 07bf 0af3 0a40 8edc 03c0 cf95 0cbf
-0.6642411 -3.0397124 -0.7854601 -1.3252326 0.9073749 0.09372239 -1.8036442 0.11944105
-0.2861884 0.82651114 1.2411954 -0.3882834 -0.8431509 0.3346764 -0.30801597 0.86049354
0.9979035 -0.3991727 -1.0479939 1.8570603 -0.52812594 2.171084 -2.0603366 -0.5491609
