gym-multigrid-master/results/coma/key/steps_1500000_ngames_14924/model_weights_save_dir/actor_2_episode_10000.pth (torch, 102416 bytes, 13 tensors)

fc1.weight f4 [64, 294]
000000 8d 1d 9a 3c 4c 5f d1 3c aa 73 a4 bc 1a dc 22 3c
       0.018812919 0.025558136 -0.020074684 0.009940172
000010 7d cb d5 3a 6c aa 7b bc 42 c8 83 3d fb 84 16 3d
       0.0016311255 -0.015360456 0.064346805 0.036747914
000020 71 85 51 3d ca cb 50 3c cc 0f 9a 3c a3 e4 5d bd
       0.05115265 0.0127439 0.01880636 -0.054173123
000030 36 46 3c 3d 04 0a a7 3c 23 74 12 3c bd 14 53 3d
       0.045965396 0.020390518 0.008938822 0.05153345
000040 dd c9 0a 3d 88 e1 b5 bb 63 d1 23 bd 98 d0 8c bb
       0.033883918 -0.005550567 -0.03999461 -0.0042973273
000050 a2 aa 4a bd a6 26 be bc 64 b4 54 3d a8 5d 19 3c
       -0.049479134 -0.023211788 0.051929846 0.009360708
000060 4b d1 ac 3c e3 c1 f0 bc cf da 55 3c 18 39 9d bc
       0.021095892 -0.029389327 0.013052656 -0.019192263
000070 d8 a8 c1 bc 50 23 c1 3b 3b 93 80 3d 32 8c 7b bc
       -0.023640081 0.005894102 0.06278082 -0.015353249
000080 6e e2 e8 3c 7a ff bf 3b a0 78 2e 3d bc 4f 41 bc
       0.028428283 0.0058593126 0.042595506 -0.011798795
000090 f7 2a 38 3d 21 02 f4 bc 8e a4 07 3d ec 8a 14 3c
       0.04496285 -0.029786171 0.033115916 0.009066325
0000a0 1f b8 17 3d 60 c4 78 3b 09 53 5b 3c 43 ff 43 3d
       0.037040826 0.0037958845 0.013386496 0.04785086
0000b0 02 38 1e 3c 0c 4c ea 3c ed 6b 39 bd 80 2f d2 b9
       0.009656908 0.028600715 -0.04526894 -0.00040089712
0000c0 7d b2 4d 3d 78 29 51 3d c9 f0 3d 3d f6 8c 14 bd
       0.050219048 0.05106494 0.04637221 -0.036267243
0000d0 7c fa 67 bd dd ec 44 bd ec 9c 93 ba 2d 99 49 3d
       -0.056635365 -0.048077453 -0.0011261976 0.049218345
0000e0 e1 99 22 3d ab a9 14 bd 53 7f 5a 3d c2 ef 3c 3d
       0.03969753 -0.03629462 0.053344082 0.04612709
0000f0 bd 1b 14 3d 5a e6 de 3a 5d 21 f8 bc 09 e8 1f 3b
       0.036159266 0.0017005906 -0.030289346 0.0024399778
000100 de b3 e0 3c fc 8e 4c bd 5c 8a 11 bc 70 23 5d 3d
       0.027429517 -0.049941048 -0.008883085 0.053988874
000110 bf 12 35 bd 37 ab 84 3d 5f 7f 5a bb 24 89 4a 3d
       -0.04420733 0.06477969 -0.003334008 0.049447194
000120 60 fd d1 bb af e2 82 bc b0 ab 38 3d b8 59 0c bc
       -0.0064083785 -0.015977232 0.04508561 -0.0085663125
000130 32 b6 54 3d c8 8b 7d bc ac 40 d2 3c b6 21 83 3c
       0.051931567 -0.015475221 0.025665604 0.016007286
000140 86 4a a9 3b 01 65 8f 3d 70 b0 89 3c 80 41 69 ba
       0.0051663546 0.07001687 0.016807765 -0.0008898005
000150 91 0a dd 3c cd d4 98 bc a9 59 e6 3c 23 af 36 3d
       0.026982578 -0.018656159 0.028118925 0.044600617
000160 01 e6 83 bc 80 2c 06 bc bf 36 56 bc 53 fe ed bc
       -0.016100885 -0.008189321 -0.013074576 -0.029051935
000170 2c 04 0a bd 2b 23 6e 3d 40 9b 24 bd 6e 77 5c bd
       -0.033695385 0.058139008 -0.04018712 -0.053824835
000180 fe 3d 23 3c 9a 99 8a 3b fb aa 5b 3d ee 00 2b 3b
       0.009963511 0.0042297365 0.053629857 0.0026093083
000190 74 61 d8 bc 5c a5 9b 3c f8 36 03 3d 82 ff 62 bb
       -0.026413657 0.018999748 0.032034844 -0.0034637158
0001a0 c0 f6 98 bc e3 fe 82 3c 72 1f 53 3d 40 d8 d8 3a
       -0.018672347 0.01599068 0.05154366 0.001654394
0001b0 c0 c8 36 3d aa 0e 92 bc d6 b2 59 3d 87 e1 55 3d
       0.044625044 -0.017829258 0.053149067 0.052217033
0001c0 5b 85 c9 3b 96 3b 54 bd 4b 6b 8e 3d f6 c5 21 bd
       0.0061499304 -0.051814638 0.06954058 -0.03949543
0001d0 c9 bd 93 3c 64 6e ca bb 5f 1f 06 3d c4 71 4d bd
       0.018034833 -0.0061777104 0.03274476 -0.050157323
0001e0 4c 30 09 bd c7 75 79 bc 39 fb 28 3d 1d 8f 88 3d
       -0.033493325 -0.015225834 0.04125521 0.06667922
0001f0 95 bd 0e bd 6c e1 34 3d 34 68 a2 3c 55 ff a3 bc
       -0.03484877 0.04416029 0.019825079 -0.020019213
000200 b6 76 6f 3d 04 42 86 ba b5 10 78 3c 04 f3 fb 3c
       0.05846282 -0.0010243063 0.015140702 0.030755527
000210 39 cd 89 3b 1d 05 3b 3c 94 eb 76 3d 61 bb 76 3c
       0.0042053727 0.011414793 0.06028326 0.015059323
000220 5f 28 6f 3d 76 23 d1 bc 6a b9 1a 3d 83 15 f2 3c
       0.05838811 -0.025529604 0.03777448 0.029551273
000230 c1 fa 71 3d ed 10 38 3b d1 a9 11 bd 47 93 f6 bc
       0.05907703 0.002808626 -0.03556234 -0.030099524
000240 6f 20 41 bd 9d af 64 bc b3 a5 83 3b b1 61 fa bb
       -0.04715007 -0.013957885 0.0040175556 -0.0076410403
000250 28 f9 06 bd 2c 0b aa 3c 0e ed 97 bc 0a b3 33 bc
       -0.032952458 0.02075728 -0.018545654 -0.010967979
000260 6b fb 93 3c 3a b0 c3 3c ad 4d 2e 3d ad 25 40 bd
       0.018064221 0.023887742 0.042554546 -0.04691093
000270 44 20 84 3c c2 24 62 3d 16 e5 26 3d 15 44 d8 3c
       0.016128667 0.055210836 0.040745817 0.026399652
000280 97 f7 63 3d 40 4d a0 3c 8c 41 80 3d b2 be b2 bc
       0.055656042 0.019568086 0.06262502 -0.021819446
000290 ea 50 32 3d 0d 10 63 3b db 8f 34 bc f0 d4 c0 3c
       0.043534197 0.0034647018 -0.011020626 0.023539037
0002a0 af c6 26 3d 03 82 e4 bc c5 86 cb bc 75 bc fb bc
       0.040716823 -0.027894026 -0.024844537 -0.030729512
0002b0 1e 5e 44 bd 36 3b 1b bd 60 29 80 3d da 26 02 bd
       -0.04794132 -0.037898265 0.06257892 -0.031775333
0002c0 a5 b2 c7 3c de 80 b2 bc 56 1a f7 3b 60 ed c7 3c
       0.024377177 -0.021789964 0.0075409813 0.024405181
0002d0 bb a7 e6 3c 7f a6 18 3d a9 11 81 3d 74 d6 4d 3d
       0.028156152 0.037268158 0.063021965 0.050253347
0002e0 ba ef 07 3d c8 84 8d 3c 04 81 83 bc 99 95 04 3d
       0.033187605 0.01727523 -0.01605273 0.03236923
0002f0 0d 0b c2 bc 2c 19 b3 3c 8f 2c 00 3d a4 b4 48 bc
       -0.02368691 0.021862589 0.031292494 -0.012250099
000300 95 82 06 bd 4f bc 37 bd 52 33 c8 bb c4 0d 4b 3c
       -0.032839376 -0.04485732 -0.0061096335 0.012393419
000310 67 0b e2 bc 24 b1 81 3c b5 0a ae 3b 8b 9c 23 3b
       -0.027593328 0.015831538 0.005311335 0.0024965133
000320 0a c5 19 3d 24 2f 80 ba 23 34 15 3d 18 38 8b 3c
       0.037541427 -0.0009779674 0.036426675 0.016994521
000330 49 4b 09 3c 54 2b 55 bc e8 82 64 bc 5a cd 90 3d
       0.008379766 -0.0130108185 -0.013947226 0.07070418
000340 bf 9b 84 3d 28 a4 cf bb aa 51 34 3c 10 4c 4c bd
       0.06475019 -0.0063367076 0.011005798 -0.049877226
000350 51 7b 05 bd 59 ad 4b bc 40 4f 04 bd a0 16 06 bc
       -0.032588307 -0.012431466 -0.03230214 -0.008184105
000360 01 b3 da 3c 0c 21 6a 3d 24 63 39 3d d4 e8 0e bd
       0.026696684 0.057160422 0.045260563 -0.03489001
000370 29 17 2a bd 28 78 ae bc cc 8d 21 3d 06 cf da 3c
       -0.041525993 -0.02129753 0.03944187 0.026710045
000380 7c 19 b1 bc 51 2d 09 bc 7f 47 5e 3d a0 22 9a 3c
       -0.021618597 -0.008372621 0.054267403 0.018815339
000390 67 32 46 bd 00 65 0c bb 7b 90 b9 3b 31 e4 16 bd
       -0.04838791 -0.0021422505 0.0056629754 -0.036838714
0003a0 cf 0d 9d bc 1e 61 4f bd e5 43 c9 bc e8 67 25 bb
       -0.019171624 -0.050629728 -0.024568507 -0.0025238935
0003b0 53 ff a7 3c 63 3f b5 3a f8 fb 22 bd 4c 37 31 bd
       0.02050749 0.0013828095 -0.039791077 -0.043265626
0003c0 75 46 a6 3b 44 54 66 ba 42 8b 65 3d bc 93 87 3d
       0.005074317 -0.000878636 0.05604101 0.06619975
0003d0 37 40 1e 3d 48 3b 0f bd 66 30 72 3d 38 25 d2 bc
       0.03863546 -0.034968644 0.059128188 -0.025652513
0003e0 f8 bd 4b 3d c0 1a 22 bc 04 d7 05 3d 98 c2 ba 3c
       0.049741715 -0.009894073 0.032675758 0.022797868
0003f0 f8 cd 85 bc e6 13 96 3c 05 3b f5 3c fc 0b 7c 3b
       -0.016333565 0.018320035 0.02993537 0.0038459292

fc1.bias f4 [64]
000000 56 b8 28 bc d0 ff 1a bd a4 8a 1e 3d 0e 05 88 3c
       -0.010297855 -0.037841618 0.038706437 0.016603973
000010 eb 98 11 3d 68 93 49 bd 2d 67 b7 bb 21 11 08 bd
       0.035546225 -0.049212843 -0.0055970163 -0.03321946
000020 9a 9f 0e 3d a5 b9 7a 3c 59 ca 34 3d 1b bd d0 3a
       0.034820177 0.01530305 0.044138286 0.0015925498
000030 b3 de 65 3b 74 ec 3d bc 90 ed 03 3d 5e a6 d8 3c
       0.0035075366 -0.011592019 0.03220898 0.026446518
000040 75 f8 51 bd 8b 5e 15 bd 8b e9 a1 3c a4 a2 99 3c
       -0.051262338 -0.036467116 0.019764682 0.01875431
000050 b9 13 89 3a ad 6d 48 bc cd 22 23 3d 94 61 26 bd
       0.0010458148 -0.01223318 0.03982811 -0.0406204
000060 2f 1d 89 bc 83 c4 e6 bc 9b 93 d4 3c ab ee 41 3d
       -0.016737549 -0.028169876 0.02594929 0.047346752
000070 0c 7f b8 bc 5c 27 47 bd ae 18 84 3d 80 01 57 3d
       -0.022521518 -0.04862152 0.0645002 0.052491665
000080 72 c9 25 3d 7e 1b 39 3d 64 20 0b bb 00 be 6e bc
       0.040475316 0.045192234 -0.0021229023 -0.014571667
000090 75 ea 93 3c 61 47 47 bd 53 dd 27 3a cd 75 b9 3c
       0.018056134 -0.048652057 0.00064035243 0.02263918
0000a0 ad 9d 3e bd 9a a2 3b 3d 51 0f 81 3d a6 58 c0 3b
       -0.04653709 0.045809366 0.063017495 0.0058699427
0000b0 1c fa 30 3d af 03 48 3d 91 bc 26 bd 24 85 ec bc
       0.043207273 0.048831638 -0.040707175 -0.02887208
0000c0 74 cf 9c bc f0 9e 6b bc c3 a0 53 3d d5 db 0f bd
       -0.01914189 -0.014381155 0.051666986 -0.035121758
0000d0 87 4b 2f bd 0c 6c 6a 3d 44 06 72 bd 21 6d 68 bd
       -0.042796638 0.057231948 -0.059088007 -0.0567447
0000e0 58 c1 81 3a e8 76 4e 3d ea a6 a4 bc 97 27 42 bc
       0.000989954 0.050406367 -0.020099122 -0.011850259
0000f0 77 0e 8f bc 0b 4b 3c bd d8 fd 1b 3c 49 24 5f bd
       -0.017462952 -0.045970004 0.00952097 -0.054477964

fc2.weight f4 [64, 64]
000000 cc 3a d9 bd 34 14 05 3d c6 ba da 3d db e9 fb bd
       -0.10606918 0.03248997 0.106801555 -0.12300464
000010 3b 6b 60 bd bf df dc bd 72 c2 ce bc 83 23 1b 3d
       -0.054789763 -0.10784864 -0.025239203 0.037875663
000020 86 d0 07 bc 7c 10 6c 3c 53 d2 f5 bd 12 42 73 bc
       -0.008289462 0.014408227 -0.12003007 -0.014847295
000030 f7 b8 bc bc 7e 3a 1e 3d ec 16 d7 bd b9 6a 4e bd
       -0.023037417 0.03863 -0.10502419 -0.050394747
000040 00 cc 5d 3d 36 1e 1a 3d 76 bf b0 3d 57 85 39 bd
       0.054149628 0.037626468 0.08630268 -0.04529318
000050 90 ca 53 bd ee 46 5c bc 29 fd 96 bd 0b f7 ba 3d
       -0.05170685 -0.013444645 -0.07372505 0.09129151
000060 24 7b 54 3d a2 93 e1 3d 5a de f7 bc 0f 42 eb bd
       0.05187525 0.11014487 -0.030257393 -0.11487209
000070 eb fc 63 3c fd 91 af 3d ef ca c0 3d 5c d7 06 bb
       0.013915281 0.08572767 0.094137065 -0.0020575142
000080 4b 59 0c 3d 17 c8 c2 3d 85 40 ec 3c 70 19 12 3d
       0.034264844 0.0951082 0.028839359 0.03566879
000090 50 03 06 bc ea 04 e4 bc 02 1c 98 bc 35 de 61 bc
       -0.008179501 -0.027834374 -0.018568043 -0.013785888
0000a0 90 b8 9a bd 38 be 73 ba 63 38 80 3d 06 7e 92 3d
       -0.07554734 -0.0009298059 0.06260755 0.07152943
0000b0 36 e3 0e 3d 3d f7 b3 bd 2f 32 89 bc 64 8b c9 3d
       0.034884654 -0.08787391 -0.016747562 0.0984104
0000c0 b7 a6 49 3d 06 a9 4c bc 70 dd cf 3d 27 19 17 3c
       0.049231257 -0.01249147 0.10149658 0.009222305
0000d0 81 58 2d bd 93 49 35 bb 55 58 cc 3d ed 0c 41 3c
       -0.042320732 -0.0027662262 0.099777855 0.011782867
0000e0 ef c4 96 3d e3 b5 61 3d 6e ac b7 3d 79 df 18 3d
       0.07361781 0.0551051 0.08968435 0.037322495
0000f0 e7 7f 1f 3c 27 8f 1b bd ae bb 0f 3d 88 a5 d9 bc
       0.009735084 -0.037978318 0.035091095 -0.02656819
000100 28 b0 a8 bd 21 6d 83 3d 9e 2d 4c 3c bc f0 e0 3c
       -0.08236724 0.06417299 0.012462048 0.027458541
000110 f7 14 c4 3d 5b 0e 30 3b bf 9c d1 3d 43 9e ab bb
       0.09574311 0.0026864025 0.10234975 -0.005237372
000120 6c 03 3d 3d b6 da 4a 3c 97 58 5f 3d dc 29 d6 bb
       0.04614584 0.012381246 0.054527845 -0.0065357517
000130 a2 0e d7 bc 82 0d b2 bc ef 4c d1 3d cb a6 c4 bd
       -0.026252095 -0.021734957 0.10219752 -0.09602126
000140 da bb e4 bd 7e 28 bd 3c f8 90 b0 3d 0d 5e d8 3d
       -0.11168642 0.023090597 0.086214006 0.10564814
000150 6d 22 d2 bb a3 c1 80 3d 50 ba ca bc c2 c1 99 bd
       -0.0064127953 0.06286933 -0.024747044 -0.075076595
000160 9e 0a 6a bd 39 54 d8 3d 60 e5 a8 bb 4a f8 39 bc
       -0.05713903 0.10562939 -0.0051542968 -0.011350701
000170 c8 e6 43 3c 1a 90 6a bd 71 e2 5c bd a5 c4 d6 3d
       0.011956878 -0.057266332 -0.05392689 0.10486726
000180 ad 79 63 3d ed 25 28 3d a1 4b da bc 55 d2 0c bd
       0.05553596 0.041051794 -0.02664739 -0.034380276
000190 e2 3e 02 3e d5 45 7d 3d 38 f0 d4 bd 3a f8 70 3d
       0.127193 0.061834175 -0.103973806 0.058830477
0001a0 f0 b2 78 3b 01 57 4f bd 07 e8 9e 3d 2f 2a 0a 3d
       0.0037948452 -0.050620083 0.077590995 0.033731636
0001b0 fd 72 d1 bb bb b1 20 3d bd dd 4e 3c 12 e8 01 3e
       -0.0063918815 0.039231997 0.012626109 0.12686184
0001c0 b5 61 84 3d 30 d7 c4 bd 9f bb a7 3d 32 8e 3d 3c
       0.06463949 -0.09611356 0.08190083 0.011569547
0001d0 16 37 cc 3c c8 78 18 bd d3 1c 9b bd 64 06 a4 3d
       0.02492861 -0.03722456 -0.07573857 0.080090314
0001e0 4a 02 3c bc 00 c1 12 bd be e3 18 bc 3d d3 d4 3d
       -0.011475155 -0.03582859 -0.009331642 0.10391853
0001f0 4e 46 80 3b 31 98 3a bd 39 aa 34 3c 5c 37 b1 3d
       0.003914631 -0.045555297 0.011026912 0.08653137
000200 20 26 9d 3d b8 42 f9 3d 03 55 8f 3a db fb 85 3c
       0.076732874 0.12170929 0.001093537 0.016355446
000210 f8 dc d8 3a d6 e2 f6 3d a2 ce 1a bd 63 23 05 3e
       0.0016545346 0.12054984 -0.037794717 0.1300178
000220 04 02 6e bd 48 12 9a bd 68 b3 86 bb f4 2f 74 3d
       -0.05810739 -0.07523018 -0.0041107424 0.059616044
000230 e3 70 7c 3d 18 d0 a6 bd 82 a2 94 3d b2 ff 42 3d
       0.061631095 -0.081451595 0.072575584 0.04760713
000240 6a 9a 95 bc 90 47 b7 3d 6b a8 44 bd 2c 55 0b bd
       -0.018262107 0.08949196 -0.04801218 -0.034016773
000250 34 8d 05 3e e2 b6 20 3d 77 46 af bd 4f 4c a3 3c
       0.13042146 0.03923691 -0.08558362 0.019933848
000260 a9 f5 1e 3d d9 88 5f bc d9 0a 82 b9 34 29 4d bd
       0.0388085 -0.013643467 -0.00024803614 -0.050088122
000270 fe a6 a4 3d a4 36 eb 3c 63 98 8f bc 44 c6 3d bd
       0.08039664 0.028712578 -0.017528718 -0.04633166
000280 49 c2 47 bd b7 3b 82 3d 0f 5b 88 bd 20 3e 66 bc
       -0.04876927 0.06359046 -0.06657993 -0.014052898
000290 cc 52 99 bd 05 2b 88 3d a8 8d 84 bd 1a 59 a4 3d
       -0.074864954 0.0664883 -0.06472331 0.08024807
0002a0 9e 16 f5 bd 96 8b 7e bd b4 1d f0 3d ff d4 3f 3d
       -0.119672045 -0.06214484 0.117244154 0.04683399
0002b0 29 a3 86 bd 7c ec 2b bb 8f 88 96 bc 09 b6 e1 bd
       -0.06574089 -0.0026233485 -0.018375663 -0.110210486
0002c0 18 ea f6 3d ad 49 d3 bd 0b 46 d9 bc 3b 28 66 bd
       0.120563686 -0.10316787 -0.026522657 -0.05619071
0002d0 97 0b 73 bc 3d 7d 25 bd 6e ce 5b 3d 0e 8b a8 3d
       -0.014834306 -0.04040264 0.053663664 0.082296476
0002e0 2a 21 b7 3b 54 df c1 3d e0 72 22 3d dd d0 ae bd
       0.0055886703 0.094664246 0.039660335 -0.08535931
0002f0 82 08 a0 3c ee 0f 41 3d 9c 28 06 3d e7 87 95 bd
       0.019535307 0.047134332 0.032753572 -0.07301312
000300 31 18 e6 3c 51 12 23 3d 30 af d8 3d a6 27 3d 3d
       0.028087707 0.03981239 0.10580289 0.04618039
000310 53 ce 15 3d bb af 08 bd 69 e1 dc 3d 32 b1 4e bd
       0.03657372 -0.033370715 0.10785181 -0.050461955
000320 1a c5 f9 3d a9 82 21 3c 7e ed 6d bd c5 3a 74 3c
       0.12195797 0.009857812 -0.05808782 0.01490659
000330 1f 53 d7 3d 7f 6c 80 bd b8 1d 2e 3c 24 90 82 3d
       0.10513901 -0.06270694 0.010627203 0.06375149
000340 02 d6 aa 3c 1a cd ff 3d 03 82 c8 3c 66 e6 e5 bc
       0.020854 0.12490292 0.024476057 -0.028063964
000350 5d a8 af bd 08 e6 eb bd 82 2b 8d 3d ee d9 88 3d
       -0.085770346 -0.11518484 0.06893064 0.06682192
000360 6c 65 9f 3d c5 59 e7 bd 75 d8 d7 bd 6b cf a4 3c
       0.077830166 -0.11296419 -0.10539333 0.020118436
000370 1a 09 9d 3d 91 62 af bc e4 e1 06 3e 4a 88 91 bd
       0.076677516 -0.021409305 0.13172108 -0.07106073
000380 77 11 9b 3c 21 b4 b6 3d e5 3d fd bc 20 34 8c bd
       0.018929226 0.089210756 -0.030913303 -0.068458796
000390 d2 82 54 bc 6e 27 b6 bc c9 3c 1e bd 0f b6 d1 bd
       -0.012970643 -0.022235598 -0.038632188 -0.10239803
0003a0 4f f4 a0 bd 90 05 e8 3d 51 f6 b9 3c 27 66 ec bc
       -0.07859098 0.11329186 0.02270046 -0.028857304
0003b0 64 82 dc bc 8a c4 4b bc 1c 93 7b 3d f6 ce 1d 3d
       -0.026917644 -0.012436995 0.06141959 0.03852745
0003c0 48 16 89 3c aa 3f 01 bd 32 2d 9a bc d5 11 41 3d
       0.016734257 -0.031554855 -0.018820379 0.047136147
0003d0 1b 69 07 3e 10 59 49 3d c9 24 c5 bd b3 38 9b 3d
       0.13223688 0.049157202 -0.09626157 0.07579174
0003e0 e9 30 1f 3d 56 30 8f bd 0a c4 c0 3d 02 22 0b 3e
       0.038865004 -0.06991641 0.094123915 0.13587192
0003f0 1e 74 34 bc 53 c4 f3 3c 9d d9 ca 3d 23 cd cd bd
       -0.011014013 0.0297567 0.09904788 -0.10048892

fc2.bias f4 [64]
000000 3b bf ec bd 23 88 32 b8 f1 29 77 3d c4 8d 16 bd
       -0.11559912 -4.2565294e-05 0.060342733 -0.036756292
000010 7d 83 ed 3d 36 e8 73 bd b5 31 dd bd 2f d3 59 3d
       0.11597345 -0.059547625 -0.108004965 0.053179916
000020 b9 7a 35 3d 44 05 6d bd 9f c7 df 3c 94 84 42 3d
       0.04430649 -0.05786635 0.027316866 0.047489718
000030 b0 6a c7 bc b6 a1 8a 3d ea cd fc bd 9f c1 08 3e
       -0.024342865 0.06769125 -0.123439625 0.1335511
000040 1e aa 0d bd eb df a6 3c c5 8f 94 3b fb 87 a2 3d
       -0.034586065 0.020370444 0.00453374 0.079360925
000050 de 7f e5 3d 5d 2d 60 bd 72 77 03 bd f3 f3 d6 bd
       0.11206029 -0.05473076 -0.032096334 -0.10495748
000060 54 7a a4 3d 84 ea 11 3c 56 f6 fb bd f3 a4 15 bd
       0.08031145 0.008906011 -0.12302844 -0.03653426
000070 1a 07 bf 3d 6b 4a b8 3c 74 02 56 3c 81 07 a1 3d
       0.093275264 0.022496423 0.013062108 0.078627594
000080 3f af b6 3d 4b d5 b0 bc 01 2c d5 3d e1 87 f5 3c
       0.08920144 -0.021586081 0.10408784 0.029972019
000090 73 08 42 bc 2d a0 39 bc 3c 65 80 3d e5 78 a8 3d
       -0.011842835 -0.011329693 0.06269309 0.08226184
0000a0 ea 39 ff 3d a9 ba c5 bd 33 d6 10 3d 83 2c 8d 3d
       0.12462218 -0.09654743 0.035360526 0.068932556
0000b0 61 f9 12 3c 65 1c 90 bd ec ad c9 bd 91 5c 1f bd
       0.008970589 -0.07036666 -0.09847626 -0.038906638
0000c0 4c 6d 16 3a a1 34 6c 3d 59 63 00 3e 18 68 85 bd
       0.00057383324 0.05766738 0.12537898 -0.06513995
0000d0 2e f4 ea bd dd ca 93 bc c5 78 83 bd 4e 15 2f 3d
       -0.11472355 -0.018041069 -0.06419519 0.042744927
0000e0 55 ff 9e bd fc 9c fe bd ba 0b aa bd 90 6c d2 3a
       -0.077635445 -0.12432286 -0.08303018 0.0016054083
0000f0 2d c2 72 bc 44 2d bd bd fd d0 77 bc 43 d3 83 bc
       -0.014816803 -0.09237149 -0.01512551 -0.016091948

fc3.weight f4 [3, 64]
000000 65 c6 a0 bd 63 8b b2 bd 13 14 2b 3c 3f 5e c9 3d
       -0.07850341 -0.08717992 0.010441798 0.09832429
000010 72 ff 69 3d d7 2b 23 3d 75 b6 c3 bb d1 ca f1 bd
       0.057128377 0.03983673 -0.0059726783 -0.11806262
000020 7c 02 d4 bd d8 ef 41 3d da df a1 3d cd 50 8e 3b
       -0.10352036 0.047347873 0.079040244 0.0043431283
000030 97 1e e5 bd a5 fa 90 bd b5 22 ad bd e1 ed 18 bd
       -0.11187475 -0.07079057 -0.084538855 -0.037336234
000040 5d cc fa 3d 3a 3e 5b 3b ec 83 91 bc 83 7c ba bd
       0.122460105 0.0033453838 -0.0177631 -0.0910578
000050 71 2e 97 3d 3d 0e ab bd a7 54 66 bd 51 da 83 3d
       0.07381905 -0.08352325 -0.056233075 0.06438125
000060 33 b3 09 3e e8 35 96 3d 4f c3 ee 3c 82 95 a9 bd
       0.13447265 0.073345006 0.029145865 -0.082804695
000070 1f 98 01 3e 02 9b 02 bc ef 04 15 3d 0c c5 82 3d
       0.12655686 -0.007971527 0.03638166 0.0638524
000080 3f f6 89 3d ac 0e c4 bd 82 06 55 bd 2b 2f f1 bc
       0.06736421 -0.09573111 -0.05200816 -0.029441437
000090 ce 8f cd 3d 36 a4 2e ba ca c6 c6 3d 89 4f f2 bd
       0.10037194 -0.00066620426 0.09705885 -0.118315764
0000a0 6e 5d c8 bd 42 85 74 3c db a0 e3 3d 6c 91 3a 3d
       -0.09783445 0.014924349 0.11114665 0.04554884
0000b0 98 21 be bd ba ad b0 3d de 87 8d 3d b2 77 a3 3d
       -0.09283751 0.08626886 0.0691068 0.079818144
0000c0 e4 35 1a 3d 96 a9 e1 bd 18 fb ba bd ee e5 d2 bd
       0.03764905 -0.11018674 -0.091299236 -0.10297762
0000d0 c6 10 d1 3d a7 62 ab bd ca df 39 3c 3d 5b dc 3d
       0.102082774 -0.08368426 0.011344859 0.1075959
0000e0 b7 b9 ba 3d f7 b7 5c 3d 5a 15 ea bd fc 86 eb bd
       0.091174535 0.05388638 -0.11429854 -0.115003556
0000f0 c0 5e f3 3b 71 e6 a5 bd 5c ad dc 3a 5c 7b ab 3d
       0.0074270666 -0.08100594 0.0016836333 0.08373138
000100 74 60 aa 3d c4 6c bb 3a ca 17 27 bb 67 f4 f1 bd
       0.08319178 0.0014299382 -0.0025496357 -0.11814194
000110 ea 52 03 be 36 77 7f 3d 31 76 bb 3d 92 5a 85 3d
       -0.12824598 0.062369548 0.091534026 0.065114155
000120 a7 85 b7 3d 02 10 01 bd ed 58 0b 3c 83 f6 d4 3d
       0.08961039 -0.031509407 0.008505088 0.10398581
000130 5f d7 cf 39 6f f8 ab 3d 7a 56 56 3d 2f 30 a1 bd
       0.0003964258 0.08396994 0.052328564 -0.078705184
000140 7a fc 95 3c a4 ab 59 3c 2e b3 a6 bd a9 0c 95 3b
       0.018308867 0.013285551 -0.081396446 0.0045486283
000150 31 09 bf bc 55 6a 81 3c dc 72 00 3d 4b ea 08 be
       -0.023319812 0.015797773 0.03135954 -0.13370626
000160 f6 99 bd bd 2a dd 25 3d e0 88 97 3a bc e0 23 bd
       -0.09257881 0.04049412 0.0011561178 -0.040009245
000170 48 07 c7 bd 35 b5 83 3d 06 52 90 3d b4 c4 c6 3b
       -0.09718186 0.06431047 0.07046895 0.0060659293
000180 df 55 bc bd 23 c4 ec bd 7e 6e 9f bd 6e c4 b0 bd
       -0.09196066 -0.115608476 -0.077847466 -0.08631216
000190 46 74 ab 3d 24 76 e4 bd f0 c7 c6 bd 60 53 9f 3d
       0.08371787 -0.11155346 -0.09706104 0.077795744
0001a0 ce 10 6e 3c ed 8e 8d 3d 95 ba fe 3d 92 c0 8a 3c
       0.014530374 0.069120266 0.124379314 0.016937528
0001b0 77 4a 54 3d b5 7e 54 bd 75 ef bc 3d eb f2 15 bd
       0.051828828 -0.05187865 0.0922536 -0.036608618
0001c0 05 38 e1 bc 47 f6 bc bc d9 b4 f3 bd a3 76 24 3d
       -0.027492533 -0.023066653 -0.11899728 0.040152203
0001d0 12 e3 35 bd b6 04 e3 bc 1d 36 74 3d 3c a2 8c bc
       -0.044406004 -0.027712207 0.05962192 -0.017167203
0001e0 f0 38 0c bc 62 11 d0 3d 74 08 8b bd 78 3b 9a bd
       -0.008558497 0.101595655 -0.06788722 -0.07530874
0001f0 cb 66 e4 3d 0a 57 0d bc a1 fa 78 bd de 63 56 3d
       0.11152419 -0.008626709 -0.060785893 0.052341335
000200 c9 33 10 3d a9 95 2d 3d d7 ce e4 3d 65 2c 68 3b
       0.035205636 0.042379055 0.11172264 0.0035426852
000210 2c 6b ee 3c 6c b1 4d 3d 1f 76 2b bd b4 b2 f7 3d
       0.029103838 0.05021803 -0.041860696 0.12094632
000220 b4 96 dd bd 29 b2 70 bd b1 38 c8 3d 7a ed 85 bd
       -0.1081976 -0.058763657 0.09776438 -0.06539436
000230 bc b5 b2 3c fc 30 1e bb e4 4d 35 bc b7 01 24 bd
       0.021815173 -0.0024138084 -0.011065934 -0.040040698
000240 e0 82 45 3c b9 cd de bd ee 6e aa 3d 30 a4 a2 bd
       0.012055129 -0.10879082 0.083219394 -0.079414725
000250 57 02 f2 3c 44 de 53 3d 24 d4 a3 bd a3 a6 0a bd
       0.029542131 0.05172564 -0.07999447 -0.033850323
000260 a0 fb ec 3d 50 c1 e6 3c 02 d4 9d bd 29 af 57 bd
       0.11571431 0.02816835 -0.07706453 -0.05265728
000270 ab 4d 0e bd 96 18 8c bd 3e 4a 64 3d 62 6f 84 bd
       -0.03474204 -0.06840627 0.055734865 -0.06466557
000280 3c 54 a5 3d 05 85 5e 3b 8d 1a 2d bc 62 8a 5e bd
       0.08072707 0.0033953798 -0.010565412 -0.05433119
000290 81 75 46 3d 21 44 f6 3d d8 f7 89 bd 99 50 2d 3c
       0.048451904 0.12024713 -0.067367256 0.010578298
0002a0 db 9c ef bd 34 a5 b0 3d 12 5f c5 bd 53 00 01 3e
       -0.1169984 0.0862526 -0.09637274 0.1259778
0002b0 95 85 e8 3d c1 d1 f7 3c 1d 2f 9a bd e0 df bd bd
       0.11353604 0.030251386 -0.075285174 -0.092712164
0002c0 df 06 a2 bd bf 78 2d 3d 1f 4b 31 3d f2 2f 25 3d
       -0.07911467 0.04235148 0.04328453 0.040328927
0002d0 33 1a 78 3a 27 7e 9d bd cf 9c 38 3d b8 0a 9f bc
       0.0009464353 -0.07690077 0.04507142 -0.01941429
0002e0 da bf 41 3d 05 eb 93 bd 7e b7 3b bd 64 ed 86 3d
       0.047302105 -0.07222561 -0.04582929 0.065882474
0002f0 98 3d 81 3d 92 58 8e bd d3 60 ab 3c 5e a5 3b 3d
       0.06310576 -0.06950487 0.020920193 0.045812003

fc3.bias f4 [3]
000000 2e fd d1 bd 26 1e 46 bd 59 7e db bd
       -0.10253368 -0.048368596 -0.10717458

actor_Q.1.weight f4 [8, 64]
000000 b2 99 99 bd 60 2c f2 bc 86 7b cb bd a0 a4 5a 3c
       -0.07500018 -0.029562175 -0.099356696 0.013344914
000010 8a 3b 87 bd 40 e6 2a bd 18 00 9e bd c4 ac b4 3d
       -0.06603153 -0.04172349 -0.07714862 0.08822015
000020 ae d9 bb bd c0 db f4 3c c0 96 79 bd fe c4 fd bd
       -0.091723785 0.029889941 -0.060934782 -0.12391089
000030 44 dd 08 bd 40 c9 87 3b 80 e3 a6 3a 80 2c 5d bc
       -0.03341414 0.004143864 0.0012732595 -0.013499379
000040 b2 34 93 3d 60 12 69 bd 8c 65 a5 3d 5c 2c f5 3d
       0.07187785 -0.05690229 0.08076009 0.119713515
000050 18 6c a2 3d d8 2b d3 bc 22 cc cf bd 00 24 27 bd
       0.079307735 -0.025777742 -0.10146357 -0.040805817
000060 42 7a aa bd 70 87 3a bc 7c 31 ae 3d 62 14 d8 bd
       -0.083241 -0.01138483 0.08505532 -0.10550763
000070 d0 f7 0c 3d 82 66 85 bd 8a be 87 3d e0 b8 65 bc
       0.03441602 -0.065136924 0.06628139 -0.014021128
000080 04 74 60 bd 86 dc 87 bd 00 f7 b6 bd 22 55 fe bd
       -0.05479814 -0.066338584 -0.0893383 -0.124185815
000090 6c 99 41 bd 84 72 3b bd 28 5e ce 3c fe 8e b1 3d
       -0.047265455 -0.045763507 0.025191382 0.08669852
0000a0 18 e2 fb bd 70 43 74 bc e6 ae fb 3d a0 33 ed 3d
       -0.12298983 -0.0149086565 0.122892186 0.11582112
0000b0 3c e6 04 bd e6 9b de bd ac 37 1a bd 28 da 2d bd
       -0.03244613 -0.10869579 -0.03765075 -0.04244438
0000c0 0c a9 df 3d 64 de b7 3d d8 db 01 3d 68 cd 39 bd
       0.10920915 0.089779645 0.0317038 -0.045361906
0000d0 10 35 87 3c 10 61 e0 bd 26 3b c2 3d 08 75 ee bd
       0.016504794 -0.10956013 0.09483938 -0.11643416
0000e0 c4 f5 81 3d a0 c0 a2 bb 42 94 d3 3d 22 36 ee 3d
       0.06345704 -0.0049668103 0.10331012 0.11631419
0000f0 be aa e3 3d ec c3 22 3d 58 09 f4 3d 38 f8 0d 3d
       0.11116551 0.039737627 0.11915845 0.034660548
000100 38 3c b1 bd f0 79 f4 3d 7c 62 61 bd 2a 95 be 3d
       -0.08654064 0.1193732 -0.055025563 0.093057945
000110 e0 02 ef bc 7c 3c 76 3d 80 50 0d 3c 36 45 e6 bd
       -0.029176176 0.060116276 0.00862515 -0.1124367
000120 da 6e e1 bd 08 21 dc 3c 80 88 0e bd c0 6d f8 3d
       -0.110074714 0.02687122 -0.034798145 0.12130308
000130 dc e3 88 3d 98 ba 86 3c 8c d5 19 bd 90 2f 31 bc
       0.06684086 0.016446397 -0.03755717 -0.010814562
000140 4c dd 27 bd a0 49 9e 3d e0 fc b1 bd 8e b7 9d bd
       -0.04098253 0.077288866 -0.0869081 -0.07701026
000150 30 74 a4 3d 38 1a b9 bd 08 38 9c bd 10 30 da 3d
       0.080299735 -0.09038204 -0.076278746 0.106536984
000160 ce f2 fd 3d 5c a3 de 3d 78 d9 d4 3d e4 8f d5 bd
       0.12399827 0.10871002 0.10393041 -0.104278356
000170 00 dd b8 bb c0 a3 ee 3d 22 02 ea 3d 50 88 7f bd
       -0.0056415796 0.116523266 0.11426188 -0.062385857
000180 08 88 f1 3c bc 46 ed bd 98 71 fe 3d a0 45 f7 3b
       0.02948381 -0.11585757 0.1242401 0.0075461417
000190 bc b6 ac bd 0e c1 f6 bd a4 2c e4 3d 8c d2 b8 bd
       -0.08433291 -0.12048541 0.11141327 -0.09024534
0001a0 1a b7 a7 bd 06 fb e7 bd 40 28 74 3d d0 07 be bd
       -0.08189221 -0.11327176 0.059608698 -0.09278834
0001b0 70 97 67 3d a8 18 05 bd a0 9f b1 bc d4 62 2c bd
       0.056540906 -0.032494217 -0.02168256 -0.042086437
0001c0 00 1c 58 ba 44 cd 17 bd c0 2d 43 3c e0 dc 3d 3c
       -0.00082439184 -0.03706099 0.011912763 0.011588305
0001d0 c8 13 40 bd e4 e5 46 bd bc a1 80 bd 3c 32 3a bd
       -0.046893865 -0.048559085 -0.062808484 -0.045458063
0001e0 b6 69 a3 bd 80 40 a7 3d 04 84 1f bd 68 71 93 3c
       -0.07979147 0.08166599 -0.03894426 0.017998412
0001f0 76 f3 bf 3d 56 fe be 3d 50 e1 c7 bd a4 97 f9 3d
       0.09372608 0.093258545 -0.09759772 0.12187126
000200 2c b9 c8 3d 44 3b b2 3d b8 18 c2 3c 8c 17 ae 3d
       0.09800944 0.0870271 0.023693427 0.08500585
000210 ec 98 32 3d 54 e0 83 bd fc 0a 38 3d 84 3d e7 bd
       0.04360287 -0.064392716 0.04493235 -0.1129103
000220 20 ed 25 bc bc 1b 9d 3d f0 6d ed 3c d8 9e 57 3d
       -0.010127336 0.076713055 0.028983086 0.05264172
000230 f0 1d b2 3c 8a fb c9 bd 7c 3c be 3d a0 a5 cb bc
       0.021742791 -0.098624304 0.0928888 -0.02485925
000240 cc 22 1d 3d f0 b4 3c 3d b0 8d c8 3c 74 8d 0e bd
       0.038363263 0.046070993 0.024481624 -0.03480287
000250 d8 69 be bc 50 6e c1 bc fa ba 84 bd 6c d4 b6 3d
       -0.02324383 -0.023612171 -0.064809754 0.08927235
000260 e0 7e 01 3c c8 1f e3 bc a2 41 bd 3d f8 51 ee 3d
       0.0079037845 -0.027725115 0.09241034 0.11636728
000270 f0 23 c5 3c 20 11 b5 bc d0 83 a3 bc 7a f8 a3 bd
       0.024064988 -0.022102892 -0.019960314 -0.080063775
000280 38 1b 38 3d de f2 dc 3d 88 85 07 3d d8 22 45 bd
       0.044947833 0.10788511 0.03308633 -0.048128933
000290 1e d2 ce bd c0 7e 67 3b e8 b8 4f bd 60 aa e8 3c
       -0.100986704 0.0035323352 -0.05071345 0.028401554
0002a0 94 53 c4 bd e0 2d 36 bd c4 e8 0e 3d ce 48 be bd
       -0.09586254 -0.044477344 0.03488995 -0.0929123
0002b0 bc 10 6e bd 80 00 62 bb 98 5d 4e bd a4 60 ce 3d
       -0.058121428 -0.0034485161 -0.050382227 0.100770265
0002c0 3c 68 c9 3d 0a 25 e2 bd e8 8e b3 bd ee 86 f9 3d
       0.09834334 -0.11042221 -0.087674916 0.12183939
0002d0 f0 37 67 bd 7e 1d 8b bd 80 07 89 bc 4e 15 a1 bd
       -0.05644983 -0.067927346 -0.01672721 -0.07865392
0002e0 e4 d6 4b bd 30 73 8e 3c 14 77 d5 bd c2 67 e1 3d
       -0.049765483 0.01738891 -0.10423103 0.11006118
0002f0 72 5b af bd 72 0f 94 3d 86 88 fd 3d e4 08 80 bd
       -0.08562364 0.072295085 0.123795554 -0.06251696
000300 a2 de b9 bd 40 c3 bc bb 80 7b 93 3a 50 69 d1 bc
       -0.09075667 -0.0057605803 0.0011252016 -0.025562912
000310 60 f6 53 3d 90 2b 13 3d 68 4f ab 3d 60 ca 68 bd
       0.051748633 0.035930216 0.08364755 -0.056833625
000320 08 e6 fb bd 4c 88 40 bd 20 9c b1 3d 10 e6 fe 3d
       -0.12299734 -0.047004983 0.086723566 0.12446225
000330 b2 9b f3 bd a0 a2 91 3b a8 23 9f 3d 46 b3 8c bd
       -0.11894931 0.0044444352 0.07770473 -0.06870131
000340 20 43 49 bd 2c cc 5a 3d 34 54 0d 3d dc 3a c5 bd
       -0.04913628 0.05341737 0.03450413 -0.09630367
000350 78 a3 87 3d d0 ef f1 bd b0 05 94 3c 22 3b e9 bd
       0.06622976 -0.11813319 0.018069118 -0.11388232
000360 68 ea 6c 3d a0 90 90 3c a4 9a c3 3d fe e8 cd bd
       0.057840735 0.017647088 0.0955098 -0.10054205
000370 00 89 6c bd 90 fe d9 bc ec fb ac bd f4 b8 47 bd
       -0.05774784 -0.026610643 -0.08446488 -0.04876037
000380 ae b7 ea 3d f0 e7 4f bd 90 51 c7 bd f0 48 6e 3d
       0.11460815 -0.050758302 -0.09732354 0.058175027
000390 96 37 e4 3d 1e 29 a3 3d 62 40 d4 3d 70 cf e5 3c
       0.11143415 0.07966827 0.103638425 0.028053015
0003a0 4c f9 be 3d 86 80 87 3d aa 15 86 3d 46 c7 ed bd
       0.09324893 0.06616311 0.06547101 -0.11610274
0003b0 06 07 db bd 42 f6 f1 bd 78 b2 48 3d c0 2b 69 bc
       -0.10694699 -0.11814548 0.048998326 -0.014231622
0003c0 b4 08 01 3d b2 6e a8 3d e0 a7 d5 bc a8 43 82 3c
       0.03150244 0.082242385 -0.026081026 0.015901402
0003d0 30 8e 6c 3d be 6f 89 3d a8 8f dd 3c f8 d9 8a 3c
       0.057752788 0.06710766 0.02704604 0.016949639
0003e0 a8 25 7d bd d8 11 41 bd 9e 10 9a bd f8 ce f7 bd
       -0.06180349 -0.047136158 -0.07522701 -0.12100023
0003f0 60 c5 c6 3c 06 e0 8e 3d b6 18 aa bd ac a5 a1 bd
       0.024264038 0.06976323 -0.083054945 -0.078929275

actor_Q.1.bias f4 [8]
000000 60 ba 17 bd d0 81 6d bc 6c 7c 0b bd 98 5b d9 bc
       -0.037042975 -0.014496282 -0.034054205 -0.026532933
000010 80 54 33 3b 50 21 4e 3c 9c 01 27 3d b8 12 81 bc
       0.0027363598 0.0125811845 0.04077302 -0.015755996

actor_K.1.weight f4 [8, 64]
000000 80 45 d0 ba 30 b9 db 3d 00 2d 8f 3a c8 5b e2 3d
       -0.0015889853 0.10728681 0.0010923445 0.11052662
000010 d4 1d 17 3d 24 a5 6a 3d 2a cd 95 3d 68 1f 51 3d
       0.03689368 0.057286397 0.073145226 0.051055342
000020 1c 6b 90 bd a0 fb 68 bc 58 3c d9 bd 44 7a e7 3d
       -0.070516795 -0.014220148 -0.10607213 0.11302617
000030 60 bc 09 3d 1a 5d ff 3d 9e cf a0 bd f0 df e7 3d
       0.033626914 0.124689296 -0.078521 0.113220096
000040 d8 7d d8 bd 98 0c 77 3d 38 21 81 bc 30 ee 6b bc
       -0.10570878 0.060314745 -0.01576291 -0.01440005
000050 1c bc a9 3d 80 6a 57 3d 5a d3 c9 3d 94 96 2c 3d
       0.08287832 0.0525918 0.09854765 0.04213579
000060 88 bd c8 bd 60 96 45 3d 22 1a b9 3d 08 1b 44 3d
       -0.09801775 0.048239112 0.090381876 0.04787734
000070 d4 15 e1 3d be c9 ae 3d d8 6b ee 3d bc 6b b8 3d
       0.109904915 0.08534573 0.11641663 0.09004924
000080 9a fc b4 3d 6c b9 bb bd c0 c3 42 3c cc 57 b3 3d
       0.088372424 -0.09166226 0.011887491 0.0875698
000090 80 31 8a bb d4 2c d4 3d b0 6d 54 3c a8 99 93 bd
       -0.0042173266 0.10360113 0.012965605 -0.07207042
0000a0 5a bd 82 bd da a7 ee 3d 2c 0f 52 bd 90 15 81 bd
       -0.06383772 0.11653109 -0.051284 -0.06302941
0000b0 00 1b d9 bb b2 0c bc bd ba 15 93 3d 8c d9 cd 3d
       -0.006625533 -0.09182109 0.071818784 0.100512594
0000c0 d8 14 df 3c 3a b9 f5 3d d8 b7 d4 bc b0 08 47 3d
       0.027231619 0.1199822 -0.02596657 0.04859227
0000d0 d0 6a 9a bc c4 8b 36 bd 7e 26 b8 3d e0 1a 86 3c
       -0.01884976 -0.044566885 0.08991717 0.016370237
0000e0 8a 89 ef bd 9e a6 cb 3d 94 09 75 3d e4 88 0a bd
       -0.11696155 0.09943889 0.059823588 -0.033821955
0000f0 bc c5 05 bd 70 00 b9 bc ac df 96 3d 20 eb 99 bd
       -0.032659277 -0.022583216 0.07366881 -0.0751555
000100 b8 d2 29 3d b0 86 ff 3d 28 e8 b6 bd 60 a0 eb 3c
       0.041460723 0.124768615 -0.08930999 0.028762996
000110 02 ad 86 bd 84 ca 34 bd 48 58 11 bd 50 20 9e 3d
       -0.06575967 -0.044138446 -0.035484582 0.07721007
000120 14 74 9d 3d 20 b0 03 bd 18 eb b6 bd 58 55 5e 3d
       0.07688156 -0.032150388 -0.08931559 0.05428061
000130 80 7a af bc a6 92 88 3d 1c db 01 3d 60 f7 79 3c
       -0.021420717 0.06668596 0.0317031 0.015256733
000140 18 6b ea bc 34 a7 34 bd ce 29 8b bd 48 5b 21 3d
       -0.02861552 -0.04410477 -0.06795083 0.039393693
000150 30 e4 5f bd 90 9b fd bc cc be 06 bd 68 89 a2 bc
       -0.054660976 -0.030957967 -0.0328968 -0.019840911
000160 c4 ef 87 3d a0 b6 9f 3b b0 54 92 3c 80 d0 30 bc
       0.066375285 0.0048740655 0.017862648 -0.010791898
000170 a2 b2 b8 bd e0 68 87 bc 60 29 ee 3b 28 2f 8d bc
       -0.090184465 -0.0165295 0.007268116 -0.0172344
000180 f4 7b 54 bd b8 31 ab bd cc 48 d4 bd 1e 73 8f 3d
       -0.051876023 -0.083590925 -0.103654474 0.07004379
000190 98 ae dd bd 24 18 e8 bd c4 9d c7 bd 48 9d fe 3d
       -0.10824317 -0.113327295 -0.09746888 0.12432343
0001a0 7a cf a6 3d 88 29 27 bd 78 93 df bd 80 08 89 bd
       0.08145042 -0.04081109 -0.10916799 -0.06691074
0001b0 38 92 75 3d 8a 1b 81 bd 5c 48 fb 3d de f2 bb bd
       0.0599539 -0.06304081 0.12269661 -0.091771826
0001c0 c8 7a 82 bd 54 4c e9 bd 70 76 39 bd 9e b5 a8 bd
       -0.06371075 -0.113915116 -0.045278966 -0.08237766
0001d0 3c b5 4f 3d 8a 40 90 bd 54 12 3e bd 40 6c 1a bb
       0.050709948 -0.0704356 -0.046404198 -0.0023563057
0001e0 6a a3 e1 bd 6c ea 9f bd 78 04 8a bc 38 e7 66 bd
       -0.11017497 -0.07808384 -0.016847834 -0.05637285
0001f0 64 43 4a 3d a0 e5 02 bc 22 b4 f6 bd 28 74 b2 bc
       0.049380675 -0.007989317 -0.12046076 -0.021783903
000200 84 5c 4a 3d 38 4c 72 3d 40 aa b4 bb 56 ee c3 3d
       0.049404636 0.05915472 -0.0055134594 0.09566943
000210 86 e6 eb 3d c0 ce 5d bd e0 c1 d1 bb 80 01 ca 3b
       0.11518578 -0.05415225 -0.0064012855 0.0061647296
000220 58 08 3b 3d e8 35 6c 3d 5c 9b bd 3d 00 ed e1 3b
       0.045662254 0.057668597 0.09258148 0.0068947077
000230 98 9a 68 3d 8c 26 83 3d 58 23 b6 3c 18 82 b4 bd
       0.056788057 0.064038366 0.02223365 -0.08813876
000240 52 55 ea bd c4 77 f5 bd 68 05 a0 bc 08 49 bc bd
       -0.11442055 -0.11985734 -0.019533828 -0.09193617
000250 b0 a5 71 bc 18 72 cb 3d 54 10 91 bd f0 e7 2c 3d
       -0.014748976 0.09933871 -0.070831925 0.04221338
000260 8c c2 5a 3d 94 57 8b 3d b2 75 99 bd a0 a7 37 3c
       0.05340819 0.068038136 -0.07493152 0.0112093985
000270 58 da 8b bd 80 94 0a bb 24 89 4c 3d 34 24 96 bd
       -0.06828755 -0.0021145642 0.049935475 -0.07331124
000280 02 cd da bd 4a c4 aa 3d b0 f8 72 3d 2c 10 98 bd
       -0.106836334 0.083382204 0.059319198 -0.074249595
000290 1c 93 e5 bd 0c 55 42 3d f0 56 18 3d 68 0a 7c 3d
       -0.112096995 0.04744439 0.037192285 0.06153336
0002a0 88 8e 96 bc 40 66 64 bc 10 ad 6e 3d bc 50 96 3d
       -0.018378511 -0.013940394 0.058270514 0.073396176
0002b0 4a d0 bc 3d f6 ff f6 bd a0 f6 23 bd 24 53 a9 3d
       0.092194155 -0.120605394 -0.04003012 0.08267811
0002c0 8c e2 2c bd 10 be 2d bc 68 7e c8 3c 60 3b 19 3c
       -0.04220824 -0.010604396 0.024474338 0.009352535
0002d0 fa 04 88 3d 48 a9 f6 3c 88 09 72 bd e2 ab ca bd
       0.06641574 0.030110016 -0.05909112 -0.09896065
0002e0 72 2c fa 3d 62 04 c4 3d 5c 41 31 3d e0 65 c7 3d
       0.122155085 0.095711485 0.043275222 0.09736228
0002f0 68 67 50 bd a8 59 97 bd 38 2c 96 bd aa 26 eb bd
       -0.050879866 -0.073901474 -0.07332653 -0.11481984
000300 18 bd a0 3d 9e 48 f6 3d 56 2e da bd 90 67 4d 3c
       0.07848567 0.120255694 -0.10653369 0.012536898
000310 98 02 ad 3c 06 e9 8a 3d 06 ce ff bd ea cd 99 bd
       0.0211194 0.06782727 -0.12490468 -0.07509978
000320 e0 c4 d1 bb 96 55 90 3d 90 c9 15 3d 3a d0 df bd
       -0.006401643 0.07047574 0.036569178 -0.10928388
000330 54 46 44 3d 9a e9 e6 bd 52 3d b7 bd bc 81 ec 3d
       0.047918633 -0.11275025 -0.08947243 0.11548182
000340 4c d7 c7 3d 14 81 10 3d 48 a0 df bc f6 87 a7 3d
       0.097578615 0.03527935 -0.027298108 0.08180229
000350 e0 e5 df bd ee cd e4 3d d2 e7 80 3d 78 f3 a8 3c
       -0.10932517 0.111720905 0.06294216 0.020623907
000360 62 4a 9c 3d 90 ba 54 bd 70 b2 a0 bc f0 59 3c bd
       0.07631375 -0.051935732 -0.019616336 -0.04598421
000370 c8 54 8a bc b0 6e e3 3d 76 a7 ee 3d 30 6e 6c bd
       -0.01688613 0.11105096 0.116530344 -0.05772227
000380 90 5c 77 bd f0 df 49 3d c4 5d 64 3d 74 fb aa bd
       -0.06039101 0.04928583 0.055753484 -0.08348742
000390 00 c4 3f 3a 98 2e ee bc ac 01 4f 3d 60 5f f5 3c
       0.0007315278 -0.029074952 0.050538704 0.029952705
0003a0 76 b7 fd 3d 88 65 ea 3c 80 a3 64 3b 14 18 a0 3d
       0.12388508 0.028612867 0.0034887493 0.078170925
0003b0 d0 ee d0 bc 60 8a 5b bd e0 b4 81 3d 40 f6 73 bd
       -0.0255045 -0.05359876 0.06333327 -0.059561014
0003c0 88 3e 70 3d c4 3a 75 bd 2c ef b5 3d d0 a6 9d bd
       0.058653384 -0.059870496 0.08883509 -0.076978326
0003d0 00 be 00 3a b8 3d 08 3d 28 1a 3c bd 00 00 5f bb
       0.00049111247 0.033261985 -0.045923382 -0.00340271
0003e0 e0 e0 e6 3b 40 25 78 3b 44 60 57 3d 56 cd ba 3d
       0.00704585 0.0037864 0.05258204 0.09121196
0003f0 f2 d8 d7 3d e8 0d ed 3d 08 51 f7 bc 20 b2 f0 3b
       0.10539426 0.11574918 -0.030190006 0.007345453

actor_K.1.bias f4 [8]
000000 5a 8a c2 bd f8 28 39 bd d4 f0 9f bd a6 59 ab 3d
       -0.09499045 -0.045205086 -0.07809606 0.083667085
000010 fe 28 e1 3d d0 cb d4 bd c0 40 a6 3b e8 aa 1c bd
       0.10994147 -0.10390437 0.005073637 -0.038248926

actor_V.1.weight f4 [3, 64]
000000 10 8e 4e 3c 00 a0 83 3b d0 5c b5 bd a0 59 fc 3d
       0.0126071125 0.004016876 -0.08855593 0.12321782
000010 3c 68 a7 bd c0 d0 f3 3b e0 65 d8 bc 20 ea f2 3c
       -0.08174178 0.0074406564 -0.026415765 0.029652655
000020 b4 f3 33 bd a4 12 63 bd 38 82 d7 3c fa 9a a9 bd
       -0.043933585 -0.0554377 0.02630721 -0.082815126
000030 24 26 95 bd 26 fd 81 bd f0 e4 b9 bc 50 7a 61 bd
       -0.07282665 -0.06347112 -0.022692174 -0.055048287
000040 c0 b2 1f 3b 80 e6 94 3d 92 b2 d3 bd 90 67 46 bc
       0.0024368018 0.07270527 -0.10336794 -0.012109652
000050 04 af e1 3d 12 77 9c bd 60 7c 4d bd e0 8b 95 bb
       0.1101971 -0.07639898 -0.05016744 -0.0045637935
000060 a0 39 34 3c 70 30 30 bc c8 11 ab 3c e0 8a 51 bc
       0.011000067 -0.010753736 0.020882502 -0.012789458
000070 e0 6c 76 3c c0 1e 1b 3d a0 a9 da bd 94 3d 04 bd
       0.015040606 0.037871122 -0.10676885 -0.032285288
000080 a0 f7 a6 3c 0e a5 f4 3d 80 40 07 3d a0 27 d8 3c
       0.020381749 0.11945544 0.033020496 0.026386082
000090 32 17 ff 3d 64 01 c8 bd 38 b9 c6 3c a0 19 bb bb
       0.12455596 -0.0976589 0.024258241 -0.005709842
0000a0 e8 99 b1 bc 20 f2 6c bd 00 c4 ba bc 70 91 2b 3c
       -0.021679834 -0.057848096 -0.022798538 0.010471687
0000b0 20 6a d4 bb 26 2e a7 3d 1c da ac 3d 38 fe b3 3c
       -0.0064823776 0.08163099 0.084400386 0.021971807
0000c0 1c ef 2c bd e6 a9 e4 3d d0 3d df 3d d0 a2 94 3c
       -0.04222022 0.11165218 0.10900462 0.018144041
0000d0 1c cb ef bd e0 a7 00 3d 3c 25 54 3d 5a b6 c5 3d
       -0.11708662 0.031410098 0.051793322 0.096539214
0000e0 34 55 8e bd 64 b9 cb 3d b8 6d 27 bd 38 3b 95 bd
       -0.06949845 0.0994747 -0.04087612 -0.07286686
0000f0 f0 28 6d 3d c8 34 8f 3d b8 d6 a7 3c 80 e9 84 3a
       0.05790037 0.06992489 0.020488128 0.0010140389
000100 68 ef e5 bd 96 d1 ce 3d b2 e4 d3 3d 38 f8 62 bd
       -0.11227304 0.10098569 0.103463545 -0.0554125
000110 44 57 c3 3d c6 79 96 bd 18 ad e7 3c a0 a7 f7 bd
       0.09538129 -0.07347445 0.02828078 -0.12092519
000120 c0 53 a9 bd 80 0b 55 bb c8 27 f1 3c 8c 50 a7 3d
       -0.08267927 -0.0032508075 0.029437914 0.0816966
000130 b4 70 71 bd 08 93 17 3d d4 56 03 bd f8 44 34 3d
       -0.058945373 0.037005454 -0.032065228 0.044011086
000140 80 e9 9b bd ac 09 4a 3d a4 62 8f bd f8 1f 51 3d
       -0.07612896 0.04932563 -0.07001236 0.05105588
000150 1c d9 cf bd 20 d9 23 bd 44 36 66 bd 6a 6c 94 3d
       -0.10148832 -0.04000199 -0.056204095 0.07247241
000160 ae 18 ff 3d d8 b1 c4 bc 30 ca fc bc 30 c2 9b bc
       0.12455879 -0.024010584 -0.03085813 -0.019013494
000170 a8 76 cd 3c 08 ef ad 3c a0 d5 31 3d 50 49 22 3c
       0.025080994 0.021232143 0.04341662 0.009905174
000180 b4 8c 1b bd 64 5c c3 3d 1c 68 6f 3d f8 24 3f 3d
       -0.03797598 0.095391065 0.058448896 0.046666116
000190 6a 30 fc bd 38 1d 8d bc 2a d3 fb 3d 00 8d f0 3c
       -0.12313922 -0.017225847 0.12296136 0.029364109
0001a0 e0 81 c9 bc 08 68 87 bc 1c a1 0e 3d 24 17 1a 3d
       -0.024598062 -0.016529098 0.034821615 0.037619725
0001b0 7c 0b ab 3d 92 3e d2 3d 3c 1f 48 3d 30 32 59 bd
       0.083518 0.102658406 0.048857912 -0.05302638
0001c0 e4 cb 6b bd 38 18 a9 3d e0 af 58 3c 6c 46 fc bd
       -0.057567492 0.082565725 0.013225526 -0.123181194
0001d0 c6 4e ec bd 88 71 3a 3d 78 14 c2 3c 12 e6 8c 3d
       -0.11538462 0.045518428 0.0236914 0.0687982
0001e0 06 92 bb bd 00 39 99 3d 30 9b 98 3d 70 12 de bd
       -0.09158711 0.07481575 0.07451475 -0.108433604
0001f0 2a 1d dc 3d ec fc 2e bd d0 60 ca bc 24 7f cb 3d
       0.1074775 -0.042721674 -0.024704367 0.099363595
000200 50 ba 12 3c 4a 39 93 bd 80 7f b9 3d d6 06 c3 bd
       0.008955553 -0.071886614 0.09057522 -0.09522788
000210 e6 b2 85 3d c2 8d c3 bd d0 ed bc 3d 58 67 b4 bd
       0.06528263 -0.095485225 0.09225047 -0.08808774
000220 24 ec 53 bd 60 ab be 3c dc f0 3e bd f4 db 8d bd
       -0.051738873 0.023275077 -0.04661642 -0.06926718
000230 3c 48 6b 3d 38 d3 b9 bd 24 4a 4f bd c4 60 76 bd
       0.057441935 -0.0907349 -0.050607815 -0.060150877
000240 68 04 eb bc 0a 07 84 3d de 84 e5 3d f0 12 5e bc
       -0.028688625 0.06446655 0.11206983 -0.01355432
000250 a2 9a ad 3d e0 8e f6 bc f0 ed 4c bd 84 cf 65 3d
       0.084767595 -0.030097425 -0.050031602 0.056106105
000260 4a e5 98 3d 5e 65 dd bd 40 14 9b 3d 3a 41 a2 bd
       0.074656084 -0.1081035 0.07572222 -0.07922597
000270 48 42 da 3c 4c af 5d 3d ea 29 db 3d 90 6b 72 bc
       0.026642933 0.054122254 0.10701354 -0.014796153
000280 58 e2 8f 3d 8c f8 95 3d 10 0a 2c bd 40 f4 31 bc
       0.070255935 0.07322797 -0.042001784 -0.010861456
000290 d0 31 71 3c bc 65 f0 bd 32 5d 9f bd 84 18 38 bd
       0.014721349 -0.11738154 -0.077814475 -0.044945255
0002a0 fc f5 dd bd 6a d9 d5 bd b0 ea 6c 3d ec 6a 30 bd
       -0.108379334 -0.10441859 0.057841003 -0.04307072
0002b0 78 72 75 bd a0 fd 3a bd dc 95 8e 3d d8 9b 86 3c
       -0.05992362 -0.045652032 0.06962177 0.016431734
0002c0 08 c6 e7 3d 6c de 90 bd 90 f2 07 bc 76 e9 9c 3d
       0.11317068 -0.070736736 -0.0082975775 0.07661717
0002d0 d0 6a 54 bd 62 9f be 3d f0 ec d6 3c 90 df bf 3c
       -0.051859677 0.093077436 0.026236027 0.023422033
0002e0 f0 fd d6 3c b4 f9 b7 bd 52 47 d7 3d f0 bf eb 3d
       0.026244134 -0.08983174 0.1051165 0.115112185
0002f0 fc 3b fe bd 14 8f 90 3d 80 d2 2f 3b e0 1a 82 bb
       -0.12413785 0.0705854 0.0026828349 -0.003970489

actor_V.1.bias f4 [3]
000000 9e 52 99 bd 38 12 c5 3d 98 51 2a 3d
       -0.07486461 0.096226156 0.04158172

expert_K.weight f4 [3, 8]
000000 a4 d4 43 bf 3d d4 f2 3d 18 5b 03 3e c5 3d d9 3d
       -0.7649634 0.118568875 0.12827718 0.10607485
000010 6c d7 22 be 04 69 3f bf 7e 15 06 40 dd 93 e7 3e
       -0.1590249 -0.74769616 2.0950618 0.45229998
000020 d9 94 aa bd 41 6b 84 3f 7f 83 91 bf 02 2f bf 3e
       -0.08329172 1.0345231 -1.1368254 0.37340552
000030 ca 28 50 bf 40 ab ef 3e 16 dd 3a be f1 f7 cf bf
       -0.8131224 0.4681034 -0.182484 -1.6247541
000040 e3 66 25 3f 29 d4 21 bf bd 07 cb 3d bb fa e0 bf
       0.6461012 -0.63214356 0.09913585 -1.7576517
000050 d3 8b 7a 3e 12 5f 23 bf ac ae 77 3f e6 cf d7 bd
       0.24467401 -0.6381694 0.96750903 -0.105377
