gym-multigrid-master/results/coma/key/steps_1500000_ngames_14924/model_weights_save_dir/critic_episode_10000.pth (torch, 322303 bytes, 6 tensors)

fc1.weight f4 [64, 1181]
0	0x3cf47888	0.02984263
1	0xbc0c666c	-0.008569341
2	0x3ac495ea	0.0014998291
3	0x3c125d50	0.00893338
4	0x3ba321a8	0.0049783774
5	0x3c191bbc	0.009344991
6	0x3c18a5d0	0.0093168765
7	0xbd308ee2	-0.043105014
8	0xbd182d69	-0.03715268
9	0xbd47be17	-0.04876527
10	0x3ca47086	0.020073187
11	0x3c539de8	0.012916066
12	0xbc124002	-0.008926393
13	0xbc261fe4	-0.010139439
14	0x3d11f062	0.035629638
15	0xbce0f306	-0.027459633
16	0x3cae1010	0.021247894
17	0xbd3ae0b1	-0.04562444
18	0xbca598f8	-0.020214543
19	0x3c8f8ee2	0.017524187
20	0x3c97a192	0.01850966
21	0x3d00f110	0.031479895
22	0xbc5db11a	-0.013530994
23	0x3c7c8665	0.0154129015
24	0xbb239d70	-0.0024965666
25	0xbd12f767	-0.035880473
26	0x3d4e4a7a	0.050363995
27	0x3cb27263	0.02178306
28	0xbb914ed4	-0.004434446
29	0xbce58bd1	-0.028020771
30	0xbce4b9dc	-0.027920656
31	0xbd5875f4	-0.052846864
32	0xbce931eb	-0.028466186
33	0xbb64d1d5	-0.0034915109
34	0xbd1afe85	-0.037840385
35	0xbcf2ffea	-0.029663045
36	0xbcdaebea	-0.02672382
37	0xbb01df72	-0.0019817022
38	0xbd1dbc2c	-0.038509533
39	0xbd270cee	-0.040783815
40	0xbcd72dac	-0.026266895
41	0xbb8c94ee	-0.0042902147
42	0xbc8110dd	-0.015755111
43	0xbd4d9678	-0.050192326
44	0x3d1d588e	0.03841453
45	0x3ce933c6	0.02846707
46	0x3ce09efa	0.027419556
47	0x3b25ce80	0.0025300086
48	0xbcc4f631	-0.024043174
49	0xbd0b3e63	-0.033995043
50	0xbc92ede3	-0.017935699
51	0x3d622ac1	0.055216555
52	0x3b9a5a50	0.004710473
53	0x3b1a7e83	0.0023573942
54	0xbca94cc1	-0.020666482
55	0xbd3add60	-0.045621276
56	0x3cef5f4d	0.029220248
57	0xbc9b68ac	-0.01897081
58	0xbbbdfa5c	-0.0057976674
59	0x3c9f79ff	0.019467352
60	0xbc94601c	-0.018112235
61	0xbd55ff1c	-0.052245244
62	0xbc95fa94	-0.018307962
63	0xbd13378d	-0.03594165
64	0xbd3d4568	-0.04620877
65	0xbd672462	-0.05643118
66	0x3b9a6b68	0.004712511
67	0xbd068030	-0.032837093
68	0xbc8c3076	-0.017112952
69	0x3cd530f1	0.026024314
70	0x3c023021	0.007946045
71	0xbce21f7d	-0.027602905
72	0xbb220520	-0.0024722293
73	0xbd45d656	-0.04830011
74	0xbd6fc59b	-0.05853806
75	0x3cbb8ffe	0.02289581
76	0x3c82e2ae	0.01597723
77	0xbb9c08cb	-0.0047617904
78	0xbb9f6794	-0.0048646424
79	0xbb9fee25	-0.004880684
80	0xbc95f28a	-0.018304128
81	0x3d6606ad	0.05615871
82	0x3d24a15c	0.040192947
83	0x3cfb426e	0.030671325
84	0xbce21667	-0.027598573
85	0xbc848437	-0.016176326
86	0xbd109274	-0.03529592
87	0xbca5ddbe	-0.020247336
88	0x3c68f1dc	0.01421782
89	0x3c3d31d0	0.011547521
90	0x3bcdf3d0	0.006285168
91	0xbb975c46	-0.004619154
92	0xbcc33c20	-0.02383238
93	0xbb2d13d1	-0.0026409517
94	0xbc674a8e	-0.014116896
95	0x3c0e7e8c	0.008697163
96	0xbcb1846c	-0.021669589
97	0xbc795551	-0.015218095
98	0xbd002ca9	-0.03129259
99	0xbd13c7c8	-0.036079198
100	0xbd354f43	-0.044265043
101	0xbd4cd06b	-0.05000345
102	0x3c426054	0.011863787
103	0xbd2167e2	-0.03940571
104	0xbd3968b0	-0.045265853
105	0xbcd4c268	-0.025971606
106	0xbc14b086	-0.00907529
107	0xbd4f4b3d	-0.050608862
108	0xbce08840	-0.027408719
109	0xb9779fa9	-0.00023615234
110	0xbcc3b7f9	-0.023891436
111	0xbd5c52fe	-0.053790085
112	0xbc07c116	-0.008285781
113	0xbcf78385	-0.03021408
114	0xbc996bf1	-0.018728228
115	0xbcea6e80	-0.028617144
116	0xbd50184d	-0.050804425
117	0xbd578dc5	-0.052625436
118	0xbd39b077	-0.045334306
119	0xbd1e0d9f	-0.03858721
120	0xbcc826b1	-0.024432512
121	0xbc5dc11e	-0.013534812
122	0xbd55a304	-0.052157417
123	0x3cfa7099	0.030571269
124	0xbbf5e644	-0.0075042564
125	0xbc494cf1	-0.012286411
126	0xbc9f8ce6	-0.019476365
127	0xbd63fef7	-0.055663075
128	0xbc1081c6	-0.008820003
129	0x3b6474f0	0.003485974
130	0x3c375d94	0.011191744
131	0xbaea04c0	-0.0017854199
132	0x3c824f82	0.015907053
133	0xbc9f1500	-0.019419193
134	0xbd6e34ba	-0.058155753
135	0xbc969378	-0.018380865
136	0xbd4b9240	-0.04970002
137	0xbd50c012	-0.050964423
138	0x3cd85fc4	0.026412852
139	0xbcbf3b92	-0.023343835
140	0xbd22d57d	-0.03975438
141	0xbbc21e85	-0.0059240484
142	0xbba351d9	-0.0049841222
143	0xbd10a398	-0.035312265
144	0x3b7420a0	0.0037250891
145	0xbd15b48d	-0.03654914
146	0x3cd780ec	0.026306592
147	0xbc1d61c3	-0.009605828
148	0xbd316250	-0.04330665
149	0xbc6a5733	-0.0143030165
150	0x3bdd4e48	0.0067537166
151	0x3d5fb7ab	0.05461852
152	0x3b68f7fa	0.0035548196
153	0xbd32acec	-0.043621942
154	0xbd6a0467	-0.057133105
155	0x3d226fe2	0.03965748
156	0x3c9932a6	0.018700909
157	0xbc26253a	-0.010140711
158	0xbd2e83eb	-0.042606276
159	0xbd4910f0	-0.04908842
160	0xbc402a1b	-0.011728789
161	0x3b4c60fc	0.0031185737
162	0x3c8728ec	0.016499005
163	0xbc8e6eb8	-0.01738678
164	0xbc8d92a6	-0.017281841
165	0xbc2c4914	-0.01051547
166	0xbc87327a	-0.016503561
167	0xbcd6eb95	-0.026235381
168	0xbd04f607	-0.032461192
169	0xbca070a9	-0.01958497
170	0xbc59c1f9	-0.013290876
171	0xbc97918c	-0.01850202
172	0x3bd3bef8	0.0064619742
173	0xbc3fc8a8	-0.011705555
174	0x3c99a1f4	0.018753983
175	0xbcea0155	-0.028565088
176	0xbcaa89e9	-0.020817714
177	0xbd103c47	-0.035213735
178	0xbba981de	-0.005172952
179	0xbd132d5c	-0.03593193
180	0x3c783be8	0.0151510015
181	0xbca4bef9	-0.020110594
182	0xbcd6e25f	-0.026230989
183	0xbc0d070f	-0.00860764
184	0xbd501bda	-0.05080781
185	0xbc20861b	-0.009797598
186	0x3a1a1660	0.0005877968
187	0xbc532b22	-0.012888702
188	0x3be6a5a5	0.0070387893
189	0x3d130f9f	0.03590357
190	0x3d0b07e5	0.033943076
191	0xbaf34a20	-0.001856152
192	0xbcaa89a9	-0.020817595
193	0x3d510721	0.05103219
194	0xbd62acb7	-0.055340495
195	0xbc3bfc90	-0.01147379
196	0xbbc505a7	-0.0060126367
197	0x3b3a3bde	0.0028417031
198	0xbc07e990	-0.008295432
199	0xbcb1ff97	-0.02172832
200	0xbb2f308d	-0.002673182
201	0x3d5319bc	0.051538214
202	0x3d6a840e	0.057254843
203	0xbcb66469	-0.022264676
204	0xbc25ef80	-0.010127902
205	0xbb4003a5	-0.0029299047
206	0xbd6c6fd2	-0.057723828
207	0xbd061c6a	-0.03274194
208	0xbc5bd360	-0.013417095
209	0x3d1a7752	0.03771145
210	0xbb437248	-0.0029822756
211	0xbd488504	-0.04895498
212	0xbbdc7de4	-0.0067288745
213	0x3c9925ac	0.018694721
214	0x3c65ee54	0.014033873
215	0xbc4784ea	-0.012177685
216	0xbc87ad1a	-0.016562033
217	0xbd18f8d0	-0.03734666
218	0xbd208469	-0.039188776
219	0xbbbb1199	-0.005708885
220	0xbd4afb45	-0.049556036
221	0xbbfa980d	-0.0076475204
222	0xbc7ac44c	-0.01530559
223	0xbcdf3146	-0.027245175
224	0xbc7135d9	-0.014722311
225	0xbd6f9923	-0.058495652
226	0xbc559482	-0.013035895
227	0x3c2375ee	0.009976847
228	0x3c1e8eb0	0.009677574
229	0xb8e93b79	-0.000111213834
230	0x3d7108bd	0.058846224
231	0x3c93b453	0.018030321
232	0x3ce26f76	0.02764104
233	0x3d687e3f	0.056761023
234	0x3cbee8e8	0.023304418
235	0x3d219db1	0.039457027
236	0x3bde1aab	0.0067780814
237	0xbd63df38	-0.0556328
238	0x3c78e348	0.015190907
239	0x3cad248b	0.02113559
240	0x3c9734d8	0.018457815
241	0xbc9fd02b	-0.019508442
242	0xbd222119	-0.039582346
243	0xbd5ca008	-0.053863555
244	0xbcf21a63	-0.029553598
245	0x3ca70534	0.020388223
246	0xbc95a425	-0.018266747
247	0xbd563bb8	-0.052303046
248	0xbd5d49c4	-0.054025427
249	0x3c92ea6e	0.01793405
250	0xbc580a66	-0.013186073
251	0x3d32128c	0.04347472
252	0xbc23256a	-0.009957651
253	0xbd7059e3	-0.058679473
254	0xbcafd517	-0.021463914
255	0xbc464334	-0.012100983

fc1.bias f4 [64]
0	0xbcdc3050	-0.026878506
1	0xbcedd5ed	-0.029032672
2	0xbe87becb	-0.2651275
3	0xbe258fc0	-0.16168118
4	0xbc569469	-0.013096907
5	0xbd025332	-0.031817622
6	0xbd958994	-0.073016316
7	0xbe0582a8	-0.13038123
8	0x3f612ebf	0.87961954
9	0xbdbd0fec	-0.092315525
10	0xbb9692c7	-0.004595134
11	0xbd5ac620	-0.053411603
12	0x39ca7abc	0.00038619887
13	0xbceb3ae4	-0.028714605
14	0xbd7e38a8	-0.06206575
15	0xbdcb7ff8	-0.099365175
16	0xba9b9cba	-0.001187227
17	0x39e1db0b	0.00043078544
18	0x3c529fb4	0.012855459
19	0xbcd788e8	-0.0263104
20	0xbcf08897	-0.029362006
21	0xbd5fec4f	-0.05466872
22	0xbdbb5eb2	-0.09148921
23	0xbd02019f	-0.031739827
24	0xbcb67aed	-0.022275412
25	0xbd85ebb4	-0.065390974
26	0xbd6190b3	-0.055069637
27	0x3f0c84ff	0.54890436
28	0x3ea676d9	0.3251255
29	0xbc8e5817	-0.017375989
30	0x3e815dc5	0.25266853
31	0xbd1b408b	-0.03790335
32	0xbd30860f	-0.0430966
33	0xbd557ba8	-0.05211988
34	0xbdf04bb7	-0.117331915
35	0xbd2a069e	-0.041510217
36	0xbd38dae6	-0.045130633
37	0xbd1a2be0	-0.0376395
38	0xbd1b1c52	-0.037868805
39	0xbd76b275	-0.060228784
40	0xbdb72bca	-0.08943899
41	0xbe113068	-0.14178622
42	0xbe1404d4	-0.14454967
43	0x3e59ebb1	0.21281315
44	0xbd325472	-0.043537565
45	0xbe78cfa9	-0.24297966
46	0xbcbe0798	-0.02319698
47	0xbd47405e	-0.04864537
48	0xbd0777d8	-0.033073276
49	0xbc908ff3	-0.017646765
50	0xbe3f1a48	-0.18662369
51	0xbd052012	-0.032501288
52	0xbe1207a5	-0.14260729
53	0xbd3b049d	-0.045658696
54	0xbd1d07bc	-0.038337454
55	0xbceb6f2d	-0.028739536
56	0xbd14e893	-0.036354613
57	0xbd654d2e	-0.055981807
58	0xbe23d390	-0.15998673
59	0xbcad0534	-0.021120645
60	0xbd745fb1	-0.05966157
61	0xbe3f3b2c	-0.18674916
62	0xbd3d0792	-0.046149798
63	0xbdaaca5b	-0.083393775

fc2.weight f4 [64, 64]
0	0x3d014452	0.031559296
1	0x3da8abc3	0.08235886
2	0x3db46938	0.088091314
3	0xbdc61fc2	-0.09674026
4	0xbd719a45	-0.058985014
5	0xbe0232d3	-0.127147
6	0xbbe5aee8	-0.007009376
7	0x3df446f5	0.119275965
8	0xbdd44bab	-0.10365995
9	0x3d8460c5	0.0646377
10	0x3d39fd86	0.045407794
11	0xbd865b46	-0.06560378
12	0xbda469f2	-0.0802802
13	0xbe0531bd	-0.13007255
14	0x3e2a9ca6	0.16661319
15	0xbb3e90f9	-0.002907811
16	0x3ce1382b	0.027492603
17	0x3ce099fd	0.027417177
18	0xbd9d53d4	-0.076820046
19	0x3d0a3760	0.033744216
20	0x3d505b0e	0.050868087
21	0x3dc4a21c	0.096012324
22	0x3bd73e25	0.0065686875
23	0x3da1e196	0.07904355
24	0xbdb6efd3	-0.089324616
25	0x3db54227	0.08850508
26	0xbd9292e8	-0.071569264
27	0x3c4950b4	0.0122873075
28	0xbe0f3e29	-0.13988556
29	0xbc3e5ebb	-0.011619265
30	0xbddf81b1	-0.109134085
31	0x3e04cf7e	0.12969777
32	0xbd538502	-0.051640518
33	0x3ce0f318	0.027459666
34	0xbe07ed60	-0.13274145
35	0x3dc7f83c	0.09764144
36	0xbcda9d79	-0.026686417
37	0x3dad1082	0.08450414
38	0xbda540c7	-0.08068996
39	0xbc1db084	-0.009624604
40	0xbdc75b17	-0.09734171
41	0xbdcc879c	-0.09986803
42	0x3e09db90	0.13462663
43	0xbdbd6fb3	-0.092498206
44	0xbc2f5535	-0.010701467
45	0x3da009cf	0.07814371
46	0x3bdd0239	0.0067446497
47	0x3e2b7789	0.16744818
48	0xbdc8ba25	-0.09801129
49	0x3c76c958	0.0150626525
50	0xbcc75b80	-0.024335623
51	0x3cead611	0.028666528
52	0xbe035470	-0.12825179
53	0x3e169eba	0.14708987
54	0xbc9d94bb	-0.01923596
55	0xbcdffd97	-0.0273426
56	0x3d9425ce	0.07233773
57	0x3dac3c6b	0.08409961
58	0x3b47df21	0.0030497985
59	0x3da91a80	0.082570076
60	0xbca887b5	-0.020572523
61	0xbe496dc0	-0.19670773
62	0xbd91d7c9	-0.07121236
63	0x3dba851d	0.091074206
64	0xbaf53b5d	-0.0018709708
65	0xbddf60a3	-0.10907104
66	0x3c47cd86	0.012194997
67	0xbdde6857	-0.10859745
68	0xbd10d21e	-0.035356633
69	0x3d7f6f2b	0.062361877
70	0x3da7dbe6	0.08196239
71	0x3d969ea5	0.07354478
72	0xbe66405b	-0.22485487
73	0xbe106047	-0.14099227
74	0x3dc2b917	0.09507959
75	0xbdaf7b61	-0.085684545
76	0x3d931dc5	0.071834125
77	0x3c9e3839	0.019313918
78	0xbdedba35	-0.11607782
79	0xbc283223	-0.01026586
80	0xbc71da9b	-0.014761592
81	0xbcf8fa36	-0.030392747
82	0xbbeb09d1	-0.007172801
83	0x3d1a891f	0.037728425
84	0x3db77bd3	0.089591645
85	0xbde4d15b	-0.11172744
86	0xbdad376c	-0.084578365
87	0x3ad4b1ab	0.0016227266
88	0x3cc34c93	0.023840224
89	0xbd1d0910	-0.03833872
90	0xbd6d7d8e	-0.057981066
91	0xbe2f7f80	-0.17138481
92	0xbd47f54f	-0.04881793
93	0x3dc831c1	0.09775115
94	0x3be06fa1	0.0068492447
95	0x3d950e5a	0.07278128
96	0x3dc617d7	0.09672516
97	0xbc0cb66b	-0.008588414
98	0xbda222e7	-0.07916813
99	0x3ccfbe90	0.025359422
100	0xbd93f4f0	-0.072244525
101	0x3d8ad185	0.06778244
102	0xbd7db1e4	-0.061937228
103	0xbdfdb238	-0.12387508
104	0xb9c33890	-0.0003723544
105	0xbd5210e4	-0.05128564
106	0xbdb1d5e1	-0.08683372
107	0xbc343f63	-0.011001441
108	0xbdf79ee3	-0.12090852
109	0xbd74de9f	-0.05978262
110	0x3e0741db	0.13208716
111	0xbd2901a9	-0.04126135
112	0x3d316204	0.043306366
113	0xbe1a5080	-0.15069771
114	0x3e121191	0.14264514
115	0xbd9132f4	-0.07089797
116	0xbda12d8a	-0.07870014
117	0x3d020292	0.031740732
118	0x3e1290d0	0.14313054
119	0x3d1fd8b4	0.039025024
120	0xbdaef9a0	-0.08543706
121	0xbd0da74d	-0.03458338
122	0xbd39dc06	-0.045375846
123	0xbdcb36b9	-0.09922547
124	0xbd94ad8e	-0.072596654
125	0xbd058e0c	-0.03260617
126	0x3a236a26	0.0006233774
127	0x3e05f45c	0.13081497
128	0x3d945e65	0.07244567
129	0xbce8ec5c	-0.028433017
130	0x3d859e73	0.065243624
131	0x3d049042	0.032364137
132	0xbda79ad1	-0.08183826
133	0x3d7ab06e	0.061203413
134	0x3ceac4f3	0.028658366
135	0xbdd0de82	-0.1019869
136	0xbdb98cae	-0.09060036
137	0x3dd82a42	0.10554935
138	0x3d240990	0.040048182
139	0x3d6e84fb	0.05823229
140	0xbd92c1a0	-0.07165837
141	0x3d9065c7	0.070506625
142	0xbd11d1f3	-0.035600614
143	0x3a0d9c88	0.0005402048
144	0xbd8f51eb	-0.069980465
145	0x3dca3f2e	0.09875332
146	0xbdb55254	-0.088535935
147	0xbaa85d5c	-0.0012845206
148	0x3dd8a5e0	0.10578513
149	0x3d039154	0.032121018
150	0xbdd43068	-0.10360795
151	0xbce89c20	-0.028394759
152	0x3d8b6321	0.06806017
153	0xbda7c3ee	-0.081916675
154	0xbe143f54	-0.14477283
155	0xbca14d0c	-0.01969006
156	0xbe2b5cf2	-0.16734675
157	0xbc4ea04f	-0.012611463
158	0xbe891c96	-0.26779622
159	0xbb056470	-0.0020354055
160	0xbdaf2a03	-0.08552935
161	0x3c7916ad	0.01520316
162	0xbd1fe9a1	-0.039041165
163	0x3d11b569	0.035573397
164	0xbd0a0b3c	-0.03370212
165	0xbdba8e7d	-0.09109209
166	0x3da62eeb	0.08114418
167	0x3e39e41a	0.1815342
168	0xbe18cb3a	-0.14921275
169	0xbb950938	-0.004548218
170	0xbdd173a4	-0.10227135
171	0xbcef34d4	-0.029199995
172	0x3d8d4482	0.068978325
173	0xbd9c44a4	-0.0763028
174	0xbd02504f	-0.03181487
175	0x3ddf728f	0.10910522
176	0xbd64b5c5	-0.05583741
177	0x3cce5edf	0.025191722
178	0xbe1b43b0	-0.1516254
179	0x3e072932	0.13199309
180	0x3dd604ff	0.10450172
181	0x3c68e261	0.014214129
182	0xbd70d0ad	-0.05879276
183	0xbdc73600	-0.097270966
184	0x3cd962dc	0.026536398
185	0xbcbe70de	-0.023247179
186	0xbdd40821	-0.10353113
187	0xbade8afb	-0.0016978675
188	0xbd26f492	-0.040760584
189	0x3cef835e	0.029237445
190	0x3dff1705	0.124555625
191	0xbe3e62e9	-0.18592419
192	0x3abdea78	0.0014489433
193	0xbe026a40	-0.12735844
194	0xbdc90fd5	-0.09817473
195	0x3d1a770d	0.037711192
196	0xbdf9999d	-0.121875025
197	0xbd52e40b	-0.05148701
198	0x3d977466	0.07395248
199	0xbddbef3f	-0.10738992
200	0xbd3a3344	-0.045459047
201	0x3c03f337	0.008053592
202	0xbc046f61	-0.008083195
203	0xbc5130c7	-0.012767977
204	0xbe13f317	-0.144482
205	0xbe117a9d	-0.1420693
206	0x3df948db	0.12172099
207	0x3d4c807e	0.049927227
208	0x3dce863d	0.10084198
209	0x3caba046	0.020950448
210	0x3d51a646	0.05118396
211	0x3d014243	0.031557333
212	0x3dfafc2f	0.122551315
213	0x3e2c5715	0.16830094
214	0x3c3a9459	0.011387908
215	0xbd89948b	-0.067177854
216	0xbdbe9cd9	-0.0930726
217	0xbd94094f	-0.07228338
218	0xbdb7321e	-0.08945106
219	0xbdbead76	-0.09310429
220	0xbdfe587b	-0.1241922
221	0x3d1711bd	0.03688215
222	0xbd9b973f	-0.07597207
223	0xbd165ce1	-0.03670967
224	0x3da30149	0.079592295
225	0x3cda7219	0.026665734
226	0xbdc6e387	-0.09711366
227	0xbdc8eb16	-0.09810464
228	0x3d9fe3cb	0.0780712
229	0x3c1b28d7	0.009470186
230	0x3e09f8dc	0.13473839
231	0xbd5ce789	-0.053931747
232	0x3dedd31a	0.1161253
233	0xbc8f3170	-0.017479628
234	0xbe0a5ebb	-0.135127
235	0xbaccb8e1	-0.0015619063
236	0xbceb92fe	-0.028756615
237	0xbde202b4	-0.11035672
238	0x3df3b5af	0.11899888
239	0x3d99e68c	0.075146765
240	0xbd60c58f	-0.054875907
241	0xbe16e523	-0.14735846
242	0x3aaaffec	0.0013046241
243	0xbd9db523	-0.07700565
244	0x3c268e1a	0.010165716
245	0xbd7e3275	-0.06205984
246	0x3d619cef	0.055081304
247	0x3d8cf4ee	0.06882654
248	0xbd81fd9d	-0.06347201
249	0xbd97ef95	-0.074187435
250	0x3d0954ea	0.033528246
251	0x3d12fb05	0.035883922
252	0x3c81e7b6	0.015857559
253	0xbd1d21bf	-0.03836226
254	0x3cf4aa45	0.029866347
255	0xbdace497	-0.084420376

fc2.bias f4 [64]
0	0xbde5ef88	-0.112273276
1	0xbd59f006	-0.05320742
2	0xbe088cf1	-0.13335015
3	0x3c875f4f	0.016524939
4	0xbe43fb5d	-0.19138856
5	0xbd27b89f	-0.040947553
6	0x3c99ab47	0.01875843
7	0x3c3ee276	0.011650672
8	0xbd82c93c	-0.06386039
9	0xba801014	-0.0009770417
10	0xbe08c022	-0.13354543
11	0xbe444763	-0.19167857
12	0xbe9e3eec	-0.3090738
13	0xbddb2fad	-0.10702453
14	0x3d3b17f1	0.04567713
15	0x3cd83c08	0.026395813
16	0xbe1a9bd1	-0.15098502
17	0xbd33e928	-0.043923527
18	0xbda3c932	-0.07997359
19	0xbe0b8e4f	-0.13628505
20	0xbe10426f	-0.14087842
21	0xbda5f4a5	-0.08103303
22	0x3d88741d	0.06662772
23	0xbe8e248e	-0.27762264
24	0xbd56614a	-0.052338876
25	0x3d81c86c	0.063370556
26	0xbe08abc6	-0.13346776
27	0xbe48811d	-0.19580503
28	0xbdf14f35	-0.11782686
29	0xbe0b1d6a	-0.1358544
30	0xbb9a8efc	-0.004716752
31	0xbdeb1aea	-0.11479743
32	0xbc5f1f9a	-0.013618374
33	0xbb8a2ded	-0.0042169006
34	0xbe3d8725	-0.18508585
35	0x3df548bb	0.11976763
36	0xbcf6efe2	-0.030143682
37	0xbe549adf	-0.20762204
38	0xbe360c45	-0.17778118
39	0xbe15a4b1	-0.14613606
40	0xbd042607	-0.03226283
41	0xbe0ae15d	-0.13562532
42	0xbe55169c	-0.20809406
43	0xbd0e3d94	-0.034726694
44	0x3da77f02	0.08178522
45	0x3c2ff421	0.010739357
46	0xbd9eeba9	-0.07759792
47	0xbce52c63	-0.027975267
48	0x3d8c8c7a	0.06862731
49	0xbcc8a4d0	-0.024492651
50	0x3f9251d1	1.1431218
51	0x3d13ebd2	0.036113568
52	0xbb06d44f	-0.0020573323
53	0xbd2d5965	-0.04232158
54	0x3d54f0c2	0.051987417
55	0xbdb41f86	-0.08795075
56	0xbe23b4d5	-0.1598695
57	0xbdcc8973	-0.09987154
58	0xbd30a51b	-0.043126207
59	0x3d357ffc	0.04431151
60	0x3d2abd5b	0.04168449
61	0xbe41c0bf	-0.18921183
62	0xbd135ccf	-0.03597718
63	0xbd5debd3	-0.054179978

fc3.weight f4 [3, 64]
0	0xbd1d6fb3	-0.038436603
1	0x3d626a7f	0.055277344
2	0xbd73f6e0	-0.05956161
3	0xbd78f554	-0.060780838
4	0x3b85e868	0.004086543
5	0x3c8ff819	0.017574357
6	0xbdd522ab	-0.10407003
7	0xbcdaebb5	-0.026723722
8	0x3d0bd7cb	0.034141343
9	0xbda2c9c4	-0.0794864
10	0x39ab57f1	0.00032681183
11	0xbc72fd61	-0.014830918
12	0x3babc028	0.0052414127
13	0xbae7fe69	-0.0017699722
14	0x3d07b9a4	0.033136025
15	0x3d79e94e	0.061013512
16	0x3bd0f6e5	0.0063770884
17	0x3d6bc00b	0.057556193
18	0x3dbfaa30	0.093586326
19	0xbd8c37ff	-0.06846618
20	0x3db8891d	0.09010527
21	0xbd625229	-0.055254135
22	0x3c4ab5ee	0.012372477
23	0xbd54e206	-0.051973365
24	0x3dcbbdbc	0.09948298
25	0xbc84f641	-0.016230704
26	0xbd9b708a	-0.075898245
27	0x3dacb6dd	0.08433316
28	0x3dfe41ae	0.12414871
29	0x3d8c80bc	0.06860492
30	0xbd686289	-0.056734595
31	0xbc8db943	-0.017300254
32	0x3dc26eef	0.09493815
33	0xbaddfdde	-0.001693662
34	0x3d89e24a	0.06732614
35	0x3b2a9a3e	0.0026031877
36	0x3c05a1ec	0.008156281
37	0x3bb99295	0.005663226
38	0xbd8083fc	-0.06275174
39	0x3d4643ef	0.04840463
40	0xbc4a6d64	-0.012355182
41	0xbbdcddac	-0.0067402925
42	0xbb9b9a66	-0.0047486303
43	0x3cd7be33	0.026335811
44	0x3b06a620	0.0020545796
45	0x3cd2ae3f	0.025717853
46	0xbcf8321e	-0.030297335
47	0xbc490032	-0.012268113
48	0x3c7b54f3	0.015340078
49	0xbb9ad15b	-0.004724664
50	0xbe393893	-0.18087988
51	0xbd2c99ce	-0.042138867
52	0x3bdc759f	0.0067278887
53	0x3ca3a9f0	0.019978493
54	0x3d8afa21	0.067859896
55	0xbb6c526a	-0.0036059865
56	0x3cb04070	0.021515101
57	0xbdbacf27	-0.091215424
58	0xbd1722a2	-0.036898263
59	0xbc5531a0	-0.01301232
60	0x3c03a8a4	0.0080358125
61	0xbc956549	-0.018236773
62	0xbc54c1b2	-0.012985634
63	0xba77ae18	-0.0009448244
64	0x3d032f23	0.032027375
65	0xbb524e73	-0.0032090216
66	0xbcd92224	-0.026505537
67	0x3b899539	0.004198697
68	0x3ceaad76	0.028647166
69	0xbd6f3651	-0.05840141
70	0xbdf6ab48	-0.12044388
71	0xbd2287b9	-0.039680216
72	0xbd92e1b4	-0.07171956
73	0x3e11e0ab	0.1424586
74	0x3b5a1de1	0.003328197
75	0x3c535939	0.01289969
76	0xbdc56861	-0.09639049
77	0x3caa3de2	0.020781461
78	0xbdbc07f4	-0.091812044
79	0xbdc49bae	-0.09600006
80	0xbbd74581	-0.006569565
81	0xbd79bc56	-0.060970627
82	0x3d0f95bf	0.03505492
83	0x3db3b202	0.08774187
84	0x3dede6bd	0.116162755
85	0x3ce1f9f3	0.027585005
86	0x3d1b3d35	0.03790017
87	0xbe228daa	-0.15874353
88	0x3c463438	0.012097411
89	0xbac90cc2	-0.0015338885
90	0xbd231c36	-0.039821826
91	0x3deaec42	0.11470844
92	0x3e01cc22	0.12675527
93	0x3c0e68d5	0.008691986
94	0x3ae4f8b3	0.0017469138
95	0x3b4270bf	0.0029669253
96	0x3d9f5bfd	0.07781217
97	0x3bb12e82	0.0054071555
98	0x3dab17ad	0.08354125
99	0x3bfb696e	0.0076724803
100	0x3d5a627f	0.05331659
101	0x3d5f2cff	0.05448627
102	0x3d3c006c	0.04589884
103	0x3bc0333c	0.0058654826
104	0xbae64a31	-0.0017569718
105	0xbbe737e2	-0.0070562223
106	0xbb926cbe	-0.0044685295
107	0x3dca23ed	0.098701335
108	0xbd69fe2d	-0.057127167
109	0xbd779c29	-0.06045166
110	0x3dfc6cad	0.12325416
111	0x3cd2606f	0.025680749
112	0x3c0d75fa	0.008634085
113	0x3d317134	0.04332085
114	0xbe44a34f	-0.19202922
115	0xbd6c2ce7	-0.05766001
116	0xbd6d6eb2	-0.057966895
117	0xbc8bc2ec	-0.01706072
118	0x3dbd8b94	0.09255138
119	0x3c0b1361	0.008488507
120	0x3de63174	0.11239901
121	0xbd4632f8	-0.04838845
122	0xbc66a3d7	-0.014077148
123	0xbbc8e13d	-0.006130366
124	0xbd7c2957	-0.061562862
125	0xbcd74c00	-0.026281357
126	0xbd508ff3	-0.05091853
127	0xbd9fd0fc	-0.078035325
128	0x3d2b20be	0.041779272
129	0x3d93320c	0.0718728
130	0x3d5b4d24	0.053540364
131	0x3d107276	0.03526541
132	0x3cdf7163	0.027275747
133	0xbc8a518a	-0.016884584
134	0xbd892d6c	-0.06698117
135	0xbc9ad165	-0.018898675
136	0x3dae7a23	0.085193895
137	0x3d93b15d	0.07211564
138	0xbc333700	-0.010938406
139	0x3cde2736	0.027118307
140	0xbd607115	-0.054795343
141	0xbcfd4db4	-0.03092084
142	0xbc923d6a	-0.01785155
143	0x3c92d892	0.017925534
144	0xbd072d3c	-0.033002123
145	0xbda95bf9	-0.082694955
146	0xbb79093c	-0.003799989
147	0xbd2bfef6	-0.041991197
148	0x3c53d905	0.012930159
149	0xbb99922c	-0.0046866145
150	0x3cb8815e	0.022522625
151	0xbdd61b16	-0.10454385
152	0x3df720d6	0.1206681
153	0xbab2fe47	-0.0013656103
154	0x3d224225	0.03961386
155	0x3db517e9	0.08842451
156	0xbcd06bbd	-0.025441999
157	0xbd4c4d3b	-0.04987834
158	0x3ccb0651	0.024783285
159	0x3b2eff54	0.002670248
160	0x3db75b1f	0.08952927
161	0xbcb1edec	-0.021719895
162	0x3da26165	0.07928733
163	0x3cb9f6b7	0.02270065
164	0x3b7b8358	0.0038377848
165	0xbda8251f	-0.08210205
166	0x3cc4c0ec	0.024017774
167	0xbc4ae6fa	-0.012384171
168	0x3c030aa8	0.007998146
169	0xbcf72fde	-0.030174192
170	0xbcb130f2	-0.021629784
171	0x3d2f6178	0.042817563
172	0x3d53e7b0	0.051734626
173	0x3da1f264	0.079075605
174	0xbd7558b0	-0.059899032
175	0xbd7176c2	-0.058951147
176	0x3cd6b16c	0.026207648
177	0x3cc3b26e	0.023888793
178	0xbe4437c8	-0.19161904
179	0x3c9189e7	0.017765952
180	0xbd057886	-0.032585643
181	0x39ced717	0.00039451636
182	0xbafed877	-0.0019443174
183	0x3da14826	0.07875089
184	0xbd177773	-0.03697915
185	0x3c0d77d5	0.008634527
186	0xbce05e8d	-0.027388835
187	0xbc3a76a7	-0.011380828
188	0xbcb7c46f	-0.022432534
189	0xbdd8a23d	-0.105778195
190	0xbca9a819	-0.020710038
191	0xbda394f7	-0.07987397

fc3.bias f4 [3]
0	0xbf8d3d83	-1.1034397
1	0xbf3b9843	-0.7327921
2	0xbf34bb8b	-0.7059867
