gym-multigrid-master/results/coma/key/steps_1500000_ngames_NA_USE_KG_ball + key/model_weights_save_dir/actor_3_episode_10000.pth (torch, 101114 bytes, 11 tensors)

fc1.weight f4 [64, 294]
00000000: 469b 283d 1dad 303d 7842 373d b6d2 5dbd
00000010: 53b4 66bc e800 1e3d bdbf a1ba e8ed 353c
00000020: 2c96 903c 2896 043c 4cee 143d 502b 663c
00000030: b9b0 edbb 3bba f8bc 8b11 7f3d 7058 493d
00000040: 8b66 083d e610 3a3d 711a 2a3a 24f3 7dbc
00000050: 749e d0bc 6ce0 38bd 5253 643d 20d1 653d
00000060: 3487 d8bc d35c d23c e40e 783c da9b 263d
00000070: 1af8 20bd 5685 0fbd d59f d53c 5cc3 6f3d
00000080: 2663 f63c 319c 3abd 6d35 283d 3479 57bd
00000090: aef4 76bc 4ea0 933d d9e1 723d 5f9c e53c
000000a0: ae8c 463c 6e54 1c3d 6cae 07bd 51fe 823d
000000b0: 6253 093d c074 493c 5e90 243d 6881 c6bc
000000c0: 9aca 303c 1711 29bb 469c e0ba 7af6 663d
000000d0: 50da 753d 589f dcbc 5042 dfbb 78c8 2a3d
000000e0: a02b 073d 3115 f0bc 248b 583c c441 5ebc
000000f0: 1a82 3e3d 384e 143d fc9f 823d cd07 803c
00000100: 54dd 1e3c d863 153d 59ae 4d3c 20e5 6ebb
00000110: 5fc6 093d 09c0 c2bc ac18 2c3d 50d5 e4bc
00000120: 1a92 8e3d 9b54 d5bb e10a 293c 29f0 983c
00000130: 4659 f1bb 0017 d0ba 10f5 ee3c cbdc bf3c
00000140: 9be7 113d 6c4c 523d f328 893d 6234 5d3d
00000150: 292f ca3b f1bf 903c 83f1 20bd 29f5 3d3d
00000160: cb83 8a3c 7e9a 37bd b496 7a3b 7112 1cbd
00000170: 46ac 523b ec12 f9bc 741d 9d3c 16ed 14bd
00000180: 61ee f0bc 6c59 ad3c 1482 813b b52c 313d
00000190: b332 adbc 4014 53ba 0377 153d b275 293d
000001a0: b642 be3b e715 093d e05e 313d 58dc 77bc
000001b0: 60a6 193d b702 613d 56c8 5e3d c12e f1bb
000001c0: be09 6abc a9b8 3ebd 1f59 013d cc81 713c
000001d0: e724 d1bc 1bfb 9ebc 4415 3abc 681e 703c
000001e0: e7ac 863d f69b 5e3d 2082 cd3b be81 493d
000001f0: c5f7 e63c 70f2 5c3d 245f 6f3c 6124 293d
00000200: 5329 193c ce52 2fbd d413 4fbd 8233 493d
00000210: 13f0 2a3d 4236 803c 847b 243c 40d3 3abd
00000220: 71dd cebc e07c 983c aed4 d6bc d444 0a3d
00000230: a426 383d e43f ffbc 78bb 8c3d 74dd a03c
00000240: 8e53 a33d 81ad ea3c d9fd e03c 3784 eb3c
00000250: 2c4b 533d 5658 663d 5f98 ec3c ad43 0e3d
00000260: ed5d 1bbd 7763 863d 3d15 883d 3ff8 4abd
00000270: 0d78 bc3c 47a1 4c3d f5d8 ab3c 1cd6 363d
00000280: ad5c fb3a 58f8 83bb d034 c63c 4b46 97bc
00000290: 84ac 543d 2f7c 593d 1877 1d3d afa8 82bc
000002a0: 2ad0 803d 5f56 23bd 7c99 233d 15c1 30bc
000002b0: 4d5f a83b 80ca a1ba b3ea 943c 2f25 443d
000002c0: 9d69 00bd fe38 c03c 2aa8 ebbc 4060 653d
000002d0: 9393 9a3c ade3 833d e448 6d39 f7c3 a73c
000002e0: b74e 5ebc 9a3b 22bd c335 033d b2ba 5fbc
000002f0: bbfe 313d 2200 ed3a 5ea3 15bd c1f0 5bbd
00000300: 626c 983d 0f55 a13d dc11 ca3c ebd9 1c3d
00000310: 5c63 a03c 00da 313c 965c d83c 0b5b d8bc
00000320: aecd 813d 5c66 c0bc 5952 663d b0e2 5cbb
00000330: 2b02 313d 9923 553c d70f 703d 3f28 793d
00000340: 8fa9 093d 388e 193c 8c5e 8b3d 7b5d 873d
00000350: cbbd 40bc d55f 00bd 4917 1ebc 3874 5c3d
00000360: c086 323d 7198 133d 3592 aebc 834b 11bd
00000370: 443c debc f8d5 e93c 7ec2 de3c 1580 bb3c
00000380: dbac 19bd 1c8d 9e3c 7476 5d3d 24ad 4c3d
00000390: b9c6 d23b 34c0 d0bb 2b31 833d 7bf7 5b3a
000003a0: aba6 85bc 888e da3c c8c0 aebc 84b3 2f3d
000003b0: 8ed2 333d e265 793c 5f90 973d 98e0 7d3c
000003c0: 54ea 903d b99c 573c 49d4 8a3d 6de6 4b3d
000003d0: e0c0 173d cada 293d b8f1 32bc 7f44 313d
000003e0: 8af8 203d cc61 483d 3341 243d c87d bfbc
000003f0: 6e7e 05bd 1e2e 3e3d a285 9a3c c23f d8bc
0.041163705 0.043133844 0.044741124 -0.054156028 -0.014081079 0.038575083 -0.0012340468 0.011104085
0.017649733 0.008092441 0.03636007 0.014048412 -0.007253733 -0.03036224 0.06227259 0.049156606
0.033300918 0.04542627 0.00064889254 -0.015499864 -0.025466181 -0.0451359 0.055743523 0.05610764
-0.026431657 0.025679028 0.015140269 0.040675975 -0.039299108 -0.03503927 0.02607719 0.05853592
0.030076575 -0.045559112 0.041066576 -0.052605823 -0.015072985 0.0720831 0.059297416 0.028028665
0.012118502 0.038166456 -0.033125326 0.06396163 0.033526786 0.012295902 0.04017674 -0.024231628
0.0107904915 -0.002579754 -0.0017136417 0.056387402 0.060022652 -0.02693145 -0.006813325 0.04169509
0.03300059 -0.02930698 0.013216767 -0.013565484 0.046510793 0.036207408 0.06378171 0.01562872
0.009696323 0.03647217 0.012553775 -0.0036452487 0.033636447 -0.02377321 0.042015716 -0.027933747
0.069614604 -0.00651033 0.010317535 0.018669205 -0.0073653786 -0.0015875995 0.02916959 0.023420712
0.035621267 0.051342413 0.066972636 0.054005034 0.0061701727 0.01766965 -0.039292824 0.04637638
0.016908547 -0.04482507 0.0038236799 -0.038103525 0.003214614 -0.03040453 0.019179083 -0.036358915
-0.029410543 0.021160804 0.003952274 0.043255527 -0.02114234 -0.0008052029 0.03649045 0.04137201
0.0058062924 0.033468153 0.04330337 -0.015128218 0.037512183 0.05493423 0.054390274 -0.00736031
-0.014284549 -0.046562824 0.031579133 0.014740419 -0.025530292 -0.019406846 -0.011357609 0.014655687
0.06575947 0.054347955 0.0062716156 0.049195997 0.028194318 0.053942144 0.014610086 0.04129446
0.009348231 -0.042803578 -0.05055602 0.049121387 0.04173286 0.015650872 0.010039214 -0.04561162
-0.025252076 0.018614233 -0.02622446 0.033757046 0.044958726 -0.031158395 0.06871694 0.019636847
0.07974921 0.028647186 0.027464794 0.028749568 0.05158536 0.056236587 0.02888125 0.03473251
-0.03793137 0.0656194 0.06644676 -0.049553152 0.023006463 0.049958494 0.020977477 0.044637784
0.00191774 -0.0040274076 0.024195105 -0.018466135 0.051922336 0.053096946 0.038443655 -0.015949575
0.06289704 -0.03987729 0.039941296 -0.010788222 0.005138314 -0.0012343675 0.01817832 0.047887024
-0.03135072 0.023464676 -0.02876671 0.055999994 0.018869197 0.0643991 0.00022629235 0.020479186
-0.013568572 -0.03960762 0.032033693 -0.0136553515 0.04345582 0.0018081705 -0.036532752 -0.053696398
0.074425474 0.07877552 0.02466672 0.03829376 0.019578628 0.010855198 0.026411336 -0.0264106
0.063380584 -0.023486309 0.056230877 -0.0033704452 0.04321496 0.013008975 0.058608856 0.060829397
0.03360897 0.0093722865 0.06805143 0.06609627 -0.011764 -0.031341393 -0.009649106 0.053821772
0.04358554 0.03603405 -0.021309951 -0.035472404 -0.027128346 0.028544411 0.02719235 0.022888223
-0.037518363 0.019354396 0.054068044 0.049969807 0.006432381 -0.0063705686 0.064058624 0.00083910645
-0.016314825 0.026679292 -0.02133216 0.04289581 0.043901972 0.015222045 0.074005835 0.015495442
0.070759445 0.013159924 0.067787714 0.049780298 0.037049174 0.04146842 -0.010921888 0.043278214
0.039299525 0.04892139 0.04010124 -0.023375407 -0.032591276 0.0464307 0.01886255 -0.02639759

fc1.bias f4 [64]
00000000: 5751 353d 476c 413d bc47 6abd ee39 c8bc
00000010: 6898 91bc 539f 6bbc 6ccf 6a3c 21a7 d73c
00000020: 189b b53a c7b4 8e3b 8d7c 5cbc 0840 b03a
00000030: 5512 553d e637 553d fdce 333c 6507 2a3d
00000040: 6b5b a4bc b466 68bb 23d5 12bd 2d0f 843d
00000050: 6dd6 633d 9f42 293d 272f 093d 3d9b ffbc
00000060: 8fc5 9fbc ded7 a2bc 6179 f73c 43bd 113c
00000070: 9ba5 453d 1047 893d f4eb eb3c 4a55 a33d
00000080: 2740 073d c362 a33d 49b0 e9bb 96a8 d1bc
00000090: 7ee6 313d f7b8 a03a eea7 aebc cd2b 283c
000000a0: 3912 d5bc 5d83 f33c 24ef 833c 1f42 c2bc
000000b0: 46fb 773d 75b8 b4bc eea1 373d d91d 8d3d
000000c0: 6cf4 06bd 8d68 4abc bd53 d63c c397 40bc
000000d0: fc15 a33c 5ba6 70bc c37d b43c 39d3 7f3d
000000e0: c52c 873d 36f6 893d cbd7 923d 7c2a aebc
000000f0: 164e 863c 24ce a43d 778b 20bd 5fa5 78bc
0.044267025 0.047222402 -0.057197317 -0.024441686 -0.017772868 -0.014381248 0.01433168 0.02632481
0.0013855426 0.0043550464 -0.01345743 0.0013446817 0.052019436 0.052055262 0.010974643 0.04151096
-0.020063123 -0.0035461606 -0.035847794 0.06448207 0.055624414 0.0413233 0.033492234 -0.031201953
-0.019503383 -0.019878324 0.030209245 0.008895221 0.048253637 0.06703007 0.028799035 0.07975252
0.033020165 0.07977822 -0.0071316105 -0.025593083 0.043432705 0.0012262155 -0.02132031 0.010264349
-0.026009666 0.029725725 0.016105242 -0.02371317 0.060542367 -0.022060612 0.044832163 0.068904586
-0.032947943 -0.012354028 0.026162976 -0.011754933 0.019907944 -0.0146881 0.022032624 0.062457297
0.06600336 0.06736414 0.071700655 -0.021260493 0.016394656 0.08047131 -0.039195504 -0.015176146

fc2.weight f4 [64, 64]
00000000: 15e3 873d 667d 2bbb 8e85 833c c411 8ebc
00000010: 3676 e33d 98b0 963d 0f0e f23d f5f0 793c
00000020: aa0c 3ebd 7034 89bb b9d6 163d 283d d63c
00000030: ef28 7fbd 6b7e eebd 15b0 e8bc 10c5 8dbd
00000040: 1c4f f6bd 6d03 a13d e17d f23c 6027 5d3c
00000050: 919a a2bd f7db 3cbc a6b9 f1bd 25c4 af3d
00000060: 2603 adbd 7f16 b43c 278c f23c 5b72 633d
00000070: d4dd 55bd ed0b 6cbd 4960 a03d 56c2 8b3d
00000080: 7738 e43d 49a7 a93c 6d2d 9a3c d09a d3bd
00000090: 0233 ebbd 6df0 dcbd c4d7 aa3d 8920 3e3d
000000a0: ab14 e63d 1ea3 a93d 4084 cfbc 879c 9b3d
000000b0: ea42 c0bc b46a f4bd 1107 fabd 2c92 8bbd
000000c0: a441 a5bd 14ea febd 3f6e d6bc d003 10bc
000000d0: 32c1 833c d4ee 043d 68ff 963d 4a48 95bd
000000e0: 14de e23d 73c8 49bd e7a1 e03d 513b a83c
000000f0: 82e2 e03d b6f1 f9bd 85b5 133d 77c8 4bbb
00000100: 2b22 b33d 467e a6bd b8d6 bebd 0b40 87bc
00000110: 5e06 de3d acd8 69bd ca79 fc3c 8ee0 993b
00000120: e212 9e3c f3d0 0f3e 64f2 5bbb 2234 d0bd
00000130: aead ebbd 1bff 0a3e bd39 70bc 7acc bebd
00000140: 59d8 fc3d db0b e23d 2e5d b23d c9d4 2e3d
00000150: 3987 c23d ce5c 52bc 4060 6fbd c50f 713d
00000160: ed33 29bd 1f33 df3d 0efc bfbd bf3e 91bd
00000170: 21d9 e13d 4f5f e83d ceb0 9d3d 129b ddbc
00000180: 787b bf3d b93f c73d b4f7 a1bc eaad 453c
00000190: cffa 86bd 818b 3b3c c230 e7bd 3bcc 153e
000001a0: d9a9 fb3c cb81 a7bd b2c3 afbc bd75 7bbc
000001b0: a410 bebd 51bb 9e3d 3528 87bb 3290 853d
000001c0: 23ec f43c bd60 de3b 7209 503d 0294 15bc
000001d0: a82a e93d 5fee dfbc 5c02 403d f572 b2bd
000001e0: 1ba1 f03d bea9 24bc 7d2d fa3d fc57 8f3c
000001f0: 5b15 303d f482 9dbb b5b4 85bd 7cc4 b6bd
00000200: 8b94 0b3e 2795 e33d 41d2 50bd 43e0 90bd
00000210: 7326 93bd f10b 863d 128f 4dbd f222 9a3c
00000220: 4820 003e d8cd 623d feed 82bc 1e03 163d
00000230: f0d4 cb3d 5008 bcbd eba7 78bb 2e00 bdbd
00000240: 372c 723d e6e2 40bd eec1 9cbd c826 1ebc
00000250: 6881 20bc f91a 0fbc 92f2 25bc c4ea e63c
00000260: 1dd3 133e 301f 9a3d b43b adbd f6c4 e6bb
00000270: 9849 cc3d f3dc 79bd 2bf4 933d dfea a63d
00000280: 8303 bbbd f9a4 3e3d be52 1ebd 2498 66bd
00000290: 6d48 8abd 1461 1abc 41df 003e 494d f03d
000002a0: 2ef0 043e 9f76 903d 6624 3e3d a678 eb3d
000002b0: fc45 cbbd 6061 903d e88e 2c3d d60c e03d
000002c0: e702 613a a527 9cbd fc0e 7fbd b4fb d53c
000002d0: b93b a6bd a6db a83d c175 8f3d 3f46 653d
000002e0: c332 1f3d d600 8cbd 94cb 673d 60cb 8d3d
000002f0: e8ed a23d d702 80bd 0a36 0b3e 3b4a 7a3b
00000300: 15c3 91bd 43c1 273d 4f48 dabb 245b f13d
00000310: 1a98 2d3d dab5 ad3d 73df e3ba 9914 f4bc
00000320: 59de 133d 5b45 fdbd 21b1 3bbc c4a3 e03d
00000330: 8b5d 823d c854 b63d 5823 8d3d 976f aebd
00000340: 75f4 c43d 56c3 cb3d 7646 e53d a9f9 e43a
00000350: fa7c 02be 2892 6a3d 37df 563d 0aea b7bd
00000360: 80de 71bd a65c edbd 596b 8c3b 9983 793d
00000370: 2958 9cbd b2d8 163d 7cde ca3d 43f8 b63d
00000380: 4b23 763d 7d6a bd3d 9e66 eb3c 7f0c c2bd
00000390: 0247 283d 2730 f1bd 4516 1b3a d18c 123c
000003a0: b1db 4a3b 03b8 8fbd f0b4 933d db82 d0bd
000003b0: d8de 103d 9903 5e3d eb37 a9bc 315b 67bd
000003c0: 67bd 4abb 3f05 833d 78b6 993d 276c d23d
000003d0: de7a b7bc a14c 3b3d d5e8 fdbd e0bd b13d
000003e0: a20c 253d d96f ef3d 6500 a0bd a252 fbb9
000003f0: 7bc2 503d bec3 963d 25f6 ea3d 3208 4e3b
0.06635109 -0.0026167273 0.016054895 -0.017342456 0.11106531 0.07357901 0.11819088 0.015255203
-0.046398796 -0.0041871592 0.03682587 0.026152208 -0.062294897 -0.11645206 -0.028404275 -0.06922352
-0.12026808 0.078619815 0.02960104 0.013498157 -0.079396375 -0.011527053 -0.11802988 0.085823335
-0.08447866 0.021983383 0.029607845 0.05552898 -0.052213505 -0.05762856 0.07830865 0.06824176
0.11143582 0.02070965 0.018820489 -0.103322625 -0.11484338 -0.10788045 0.08341935 0.046417747
0.11234411 0.08283065 -0.025331616 0.075982146 -0.023469407 -0.119344145 -0.12208379 -0.068149894
-0.080691606 -0.124469906 -0.026175616 -0.0087899715 0.016083334 0.032454327 0.073729336 -0.07289179
0.11077514 -0.04926343 0.109683804 0.020536097 0.10980703 -0.12204306 0.036061782 -0.0031094828
0.087467514 -0.081295535 -0.09318298 -0.01651003 0.10841058 -0.0570914 0.030819792 0.0046959585
0.019296113 0.14044552 -0.0033561224 -0.101661935 -0.11507736 0.13573878 -0.014662203 -0.093163446
0.123459525 0.110374175 0.08709179 0.042683396 0.09498448 -0.012839509 -0.0584414 0.05885293
-0.041309286 0.108984224 -0.093742475 -0.07092046 0.11027742 0.11346304 0.076997384 -0.027051482
0.09349722 0.09728951 -0.019771434 0.01206539 -0.06590807 0.011446835 -0.11288597 0.14628689
0.030720638 -0.08179053 -0.02145562 -0.015347895 -0.09280518 0.077505715 -0.004124666 0.06521644
0.029897755 0.0067864344 0.050790258 -0.009129526 0.11385089 -0.027335344 0.04687725 -0.087133326
0.117494784 -0.010050235 0.122157075 0.017498009 0.042989116 -0.0048068706 -0.06528608 -0.08924195
0.13630883 0.11112433 -0.050981764 -0.070740245 -0.07185068 0.065452464 -0.05018527 0.018815491
0.12512314 0.05537209 -0.015982624 0.036624067 0.09952724 -0.09181273 -0.0037941884 -0.0922855
0.059124198 -0.047091387 -0.07654177 -0.009652801 -0.009796478 -0.008734458 -0.010128634 0.028188117
0.14436002 0.0752548 -0.08458653 -0.0070425225 0.099749744 -0.06100173 0.07224306 0.08150267
-0.09131529 0.04654405 -0.038653128 -0.056297436 -0.06752095 -0.009422559 0.12585165 0.11733491
0.12982246 0.07053875 0.04642143 0.11497621 -0.09925458 0.07049823 0.042128474 0.10939948
0.00085835013 -0.07624749 -0.06227015 0.026120998 -0.0811686 0.082450196 0.07004882 0.055975195
0.03886677 -0.06836097 0.05659063 0.06923556 0.07955533 -0.06250542 0.13594833 0.0038191217
-0.07117287 0.040955793 -0.006661452 0.11784962 0.042381383 0.08481951 -0.0017385319 -0.029794978
0.03610072 -0.12366744 -0.011455805 0.10968736 0.06365498 0.089028895 0.06891507 -0.08517378
0.09616939 0.09949367 0.1119508 0.0017469424 -0.12742987 0.05726829 0.052458968 -0.08980186
-0.059050083 -0.11589937 0.004285258 0.060916517 -0.07634003 0.03682775 0.09905717 0.08934071
0.06009225 0.09248827 0.028735455 -0.0947504 0.041083343 -0.117767625 0.0005916099 0.008944706
0.00309537 -0.07017519 0.072122455 -0.10181209 0.03536877 0.05420265 -0.020656547 -0.05648345
-0.0030935647 0.06397485 0.07505506 0.10274535 -0.022397455 0.045727376 -0.12397925 0.08678794
0.04029525 0.11691255 -0.07812575 -0.00047936017 0.05096672 0.073615536 0.114727296 0.003143799

fc2.bias f4 [64]
00000000: cd3f 173c ec2b ed3d 8126 103e 45b9 df3d
00000010: ce6d cabd 45eb a73d 1f44 983d 430f 41ba
00000020: e9f9 50bd 18cd fcbd 210a 82bd 985f ce3d
00000030: 10ff 3c3d 68a0 283d 5478 8fbd 59c7 e23c
00000040: eab8 b0bd f726 a4bc 9e6c 053e 3333 3ebc
00000050: 3dd2 a83d 5fdc 893c 77a0 f3bd 9a5f 8f3d
00000060: 1f73 9f3d 834d ed3d 68cc ec3d f62e 8cbc
00000070: c3bf ac3c 3769 e7bd d222 003e 1a54 e13d
00000080: a175 9abd bee0 393c f0c5 e8bc eeb4 1f3d
00000090: 2bc2 ec3d 8d27 dcbd e907 4cbc 1222 c93d
000000a0: e7b0 2fbc 8e9a 083e 0cec 863d e8d0 0fbd
000000b0: 4b97 bbbd 4560 683c b4a8 fe3d 8d39 c63d
000000c0: a928 acbc 4eb6 763d 30ac c83d 760d 203c
000000d0: c9dc d1bd d123 20bd 1a51 afbd 5f8c c0bc
000000e0: a98b 503d b2fe 243c ff0b 52bd aa1d 3abc
000000f0: 2681 a13c 5852 07bd 2969 203d bd39 c53d
0.00923152 0.11580643 0.14077188 0.10924009 -0.09884225 0.08199171 0.07434868 -0.000736464
-0.051019583 -0.12343806 -0.06349588 0.10076827 0.046141684 0.0411686 -0.07005373 0.027682947
-0.086290196 -0.020038111 0.13029715 -0.0116088865 0.08243225 0.016828714 -0.118958406 0.070006564
0.077856295 0.1158705 0.11562425 -0.017112236 0.021087533 -0.11299365 0.12513283 0.11002369
-0.07541967 0.011345087 -0.028414696 0.038990907 0.11560472 -0.10749731 -0.012453058 0.098209515
-0.010723329 0.13340208 0.06587991 -0.035111338 -0.09159716 0.014183109 0.12434521 0.09678946
-0.021015482 0.060232453 0.09798467 0.009768834 -0.102471896 -0.039096657 -0.08560391 -0.023504434
0.05091444 0.01007049 -0.05128097 -0.0113596115 0.019714903 -0.033037513 0.03916279 0.09630153

actor_Q.1.weight f4 [8, 64]
00000000: b2f8 fb3d fade bd3c 9c57 89bb d110 dcbd
00000010: 6ec9 823d 16d7 aabd 29cf d1bd e1a2 b23d
00000020: 3621 f0bd 9dc0 d3bd da69 fdbd d298 f9bd
00000030: 2de1 0bbb 7324 7a3d 971f 873d 8525 b73d
00000040: cc64 283d 783e c43d 44b2 b03d 9858 a3bd
00000050: 09db b03d b6da c23d 7fa2 ddbd 6056 c5bd
00000060: 8348 4b3d ac0b 7a3c 4fd8 f23d 7e3a 163c
00000070: d6b0 9dbc f124 45bc 0cf2 a9bb ebf7 d03d
00000080: 9ec5 8e3c e800 eabc a8e6 d3bc 3c89 4e3d
00000090: fe65 9b3c e583 783d 9ab2 823d 16b8 463c
000000a0: b9e0 e93b 5523 8fbd 96aa e93d 7503 e2bd
000000b0: b934 a1bd b27d 823c 18f6 27bd 4581 99bc
000000c0: 1720 a43d 9024 813c 3946 d8ba a4fc db3d
000000d0: 384b 313b 2e0c be3d c1af f63d 4123 72bd
000000e0: f292 dd3d d3ba 093d 2189 00bb f6e7 fc3d
000000f0: a5f3 11bd 388e e7bd c0a2 993d 95e1 b6bd
00000100: 43de fabd d163 2abd 2fd3 ca3c a564 9eba
00000110: 3c8f ea3d f03d 433c 9973 933d 9e3b 15bd
00000120: 6a8d 9c3d 2bb9 d1bd 255f 76bd 24c3 183d
00000130: 1588 ecbd 8985 c2bd e3c2 3c3d 61ad e63d
00000140: 2bf5 92bb 735b 70bd 0399 1dbd a353 83bc
00000150: f9d5 da3c 2fb0 793d ba9f 003e 156c bfbd
00000160: 8ca4 f53c e887 c8bd de17 3c3d dd15 113c
00000170: 9bbb 0abc e049 db3d 2d40 e8bd ef11 00be
00000180: 146f bc3d 7eab 08be 900b c3bd b4af 95bd
00000190: d981 c7bd b441 913d 235c b6bd 878c 9c3c
000001a0: 43af 67bc b1f8 683c 8a16 b3bd 0b52 f43d
000001b0: 032a 8bbc f20f e73b 4078 c5bd 8dcb b73d
000001c0: 4afe 8abd 7406 973d 8b7b 993d a28e 8dbd
000001d0: 0212 a7bd 80f2 323d 7262 d33d 3b54 1d3d
000001e0: 3de2 e4bd a73d 09be 1bc4 9f3d 67f7 66bc
000001f0: 0581 653d c906 01be 936c 863d 8c44 a13d
00000200: 6ea2 d73d 0d50 d93d 088c a63d 7b68 aa3b
00000210: 9999 463d 7296 1d3d 6de4 4f3d 4c8a abbc
00000220: 7ac6 9b3b d95a 50bb 699a e33c 774c bdbd
00000230: 57c9 1e3b 6442 b9bc 0fe1 9c3d 9d96 cfbd
00000240: b2d0 aabd bbba 5a3d dada f93d 053f cd3d
00000250: 7e2d 943d 75f7 d6bd b78d c23d 15ef 183d
00000260: 5ae1 b0bd 5eda 323d 93a9 a6bc db45 eebb
00000270: 26f3 003e b44b 6cbd 1510 a1bd 0fd2 58bd
00000280: fd38 10bd 0aee 393d 866c d13d fa07 0fbd
00000290: e5d4 a23d 2268 c9bc fa28 98bc 24c5 4fbd
000002a0: b0d3 533d 4a23 e13d 44a3 b43d 1966 30bd
000002b0: ac88 bebc ff5c 91bd 53da 933d 6322 7f3c
000002c0: f0a2 22bd ced4 6c3d 3cde 273d 3c68 c13d
000002d0: bf25 823d 4401 c9bd a9b0 1e3d cfcb c13d
000002e0: 9836 c8bd 7584 e53d 673c e0bd 0d39 413d
000002f0: 41c1 843c c6d1 693d d8f3 a2bd c854 02bd
00000300: 4316 c9bc c66e 10bd 99e0 19be e004 44bd
00000310: 0d3f 4e3c 55e8 b53d 8af5 e63d f0f4 f4bc
00000320: bcf2 dbbd 0ef8 f3bc 6ace 493d b178 4bbc
00000330: d5ec 2cbd 2075 d93d 6543 ab3d 8a29 fb3d
00000340: fe1b 843d eb6d 733d 1b81 88bd fc70 a83d
00000350: 47e6 513d 2d69 293d 7509 0ebd 5305 6c3d
00000360: d2ae 343d 16f9 40bc d26b 50bd bd2b 4dbd
00000370: 5dbf 8abd 4fe8 de3c fdc3 df3d 5ce2 4cbc
00000380: 244f e43d 5ead 26bd 3dd5 30bd 6899 cfbd
00000390: e91a c9bc 677a ae3d e15a b23d 5b4d 9dbd
000003a0: 844a af3d ce99 b4bd c94b cfbd d3c8 153d
000003b0: 6392 cb3d 9968 abbd 82a2 103a d2a7 253b
000003c0: 9b00 56bd 5de3 933d e9c5 04bd 0378 ebbd
000003d0: 2aaa 473c 9ba9 983d 6396 693d 2aa9 a2bc
000003e0: f322 9a3d 196f 44bd ddb1 85bc f58f ebbc
000003f0: 575f b5bc cfe1 e1ba 9a75 9abd 1217 ad3c
0.12303294 0.023177613 -0.004191352 -0.10745395 0.06386076 -0.08341806 -0.10244591 0.08722473
-0.117250845 -0.103394724 -0.12373705 -0.12187351 -0.0021343932 0.061069917 0.06597822 0.08942703
0.041111752 0.095822275 0.086277515 -0.07975882 0.08635528 0.09514372 -0.10822009 -0.09635615
0.0496297 0.015261572 0.11857664 0.009169219 -0.019249361 -0.012032733 -0.005186325 0.102035366
0.017428216 -0.028564885 -0.025866821 0.050423846 0.018969532 0.06067266 0.06381722 0.01212885
0.0071373847 -0.06989161 0.1140949 -0.110358156 -0.07871384 0.015929077 -0.041006178 -0.018738398
0.08013933 0.015764505 -0.001650042 0.10741547 0.002705289 0.09279667 0.12045241 -0.059115652
0.10819043 0.033625435 -0.0019612985 0.123489305 -0.03563275 -0.11306423 0.07501745 -0.08929745
-0.12249424 -0.0415991 0.024758903 -0.0012084438 0.11453101 0.0119166225 0.07199783 -0.03643381
0.0764416 -0.10240396 -0.06014933 0.037295476 -0.11549393 -0.09498126 0.046084296 0.11263538
-0.0044847927 -0.058680963 -0.038476 -0.016031092 0.026713358 0.060959037 0.12560931 -0.09346787
0.029985689 -0.09791547 0.0459212 0.00885531 -0.00846758 0.1070745 -0.113403656 -0.12506841
0.09200874 -0.13346669 -0.0952369 -0.07308903 -0.09741563 0.0709261 -0.089042924 0.019109977
-0.014140907 0.014219449 -0.08744533 0.11929711 -0.016987806 0.0070514614 -0.096420765 0.08974371
-0.06786783 0.07374278 0.07494267 -0.06911971 -0.081577316 0.043688297 0.10321511 0.038410407
-0.11175964 -0.13402425 0.07801076 -0.014097071 0.056031246 -0.12600245 0.06563678 0.078744024
0.10529028 0.106109716 0.081321776 0.0052004433 0.048486326 0.038473554 0.050754953 -0.020939969
0.004753885 -0.003179243 0.02778359 -0.092431 0.0024228895 -0.022614665 0.07660114 -0.10136149
-0.08340587 0.053400736 0.12199946 0.10021786 0.072352394 -0.104964174 0.09499686 0.03733738
-0.086367324 0.043665282 -0.020344531 -0.007271511 0.12592754 -0.057689384 -0.078643955 -0.052934702
-0.0352106 0.045393027 0.10225777 -0.034919716 0.07950763 -0.024585787 -0.018574227 -0.050725117
0.051715553 0.10993059 0.08820203 -0.043066118 -0.02325853 -0.07097816 0.072193764 0.015572163
-0.03970617 0.057820134 0.040983424 0.09443709 0.06354856 -0.098146945 0.038742695 0.094627015
-0.09776038 0.11206905 -0.10949021 0.04717355 0.016205432 0.05708482 -0.07956666 -0.031819135
-0.024546748 -0.03526189 -0.15027083 -0.04785621 0.012588275 0.088822044 0.112773016 -0.029901952
-0.10739657 -0.029781368 0.049269117 -0.012418912 -0.042218048 0.10618043 0.08362464 0.12263782
0.064506516 0.059430998 -0.0666525 0.08224675 0.051245 0.04136007 -0.034676988 0.057622265
0.044112034 -0.011778137 -0.050884075 -0.05009054 -0.06774781 0.027210383 0.10926054 -0.01250514
0.111479074 -0.04069268 -0.04317211 -0.10136682 -0.024548965 0.0851944 0.0870874 -0.0768077
0.085591346 -0.088183984 -0.10121877 0.036568474 0.099400304 -0.0836956 0.00055173796 0.002527703
-0.05224667 0.072211005 -0.032415304 -0.114975 0.012186566 0.07454225 0.057028186 -0.019856054
0.07526197 -0.047957513 -0.016320163 -0.028755167 -0.022140188 -0.0017233434 -0.07541962 0.021129165

actor_Q.1.bias f4 [8]
00000000: ded7 323d 6e45 57bb b0a3 f23d 540f 7e3d
00000010: 36bf f63d 965f 5c3d 0b6c 353d 2bb2 6cbc
0.0436629 -0.003284778 0.11847627 0.062026337 0.12048189 0.053802095 0.04429249 -0.014446775

actor_K.1.weight f4 [8, 64]
00000000: 0db4 cebd 08ba bd3c a892 09bd dc27 a53c
00000010: e273 25bd b2e9 943d 96bd 923d 98c6 79bb
00000020: 6157 bfbd 76ea c2bd 60b5 b33d 49aa d23d
00000030: f7e8 a9bb 8ffd b1bd 3351 8d3d 189f 71bd
00000040: bae8 a7bd b4ce 063e 02a1 c2bb b1c3 a13a
00000050: ffde b43c 155b c8bb daf2 d13c 771c f0bd
00000060: 158c 603d 5d99 c03c a1d4 f43d d336 cbbd
00000070: 40b2 c5bd e681 c6bd 1557 803d 9cff 89bd
00000080: 3da4 5abc 111d dcbd 8f9d 383d 25e9 043e
00000090: 2542 2dbc a71b 033d c829 1c3c fb5e c3bd
000000a0: 475a 1dbd d733 a83d cc43 e4bd 33cf 84bd
000000b0: 6815 e6bd d8a5 acbd ff36 71bc 1070 c93d
000000c0: b158 90bd a4d1 c43d 0e5d ac3d 6cef 0c3d
000000d0: 3caf d23c ffae 853d 7aec 53bd 4947 a9bd
000000e0: 1a51 5e3d 3a0c c2bb d037 f33c da9a eabb
000000f0: 95ba 98bd 9702 e73c 85f4 17bc 4275 ac3d
00000100: 944e 90bd 3c6e 753d 848d bebd cda6 a03c
00000110: 465a f2bd b1b5 b13d 1d87 75bc bb8c 813d
00000120: 5d16 ee3d da8b a5bc 4252 edbd 2670 0cbe
00000130: a8d5 20be d02b 933d a67c 943d 4753 3c3d
00000140: 183b 2dbe d31b d8bd b61b d7bd 90f7 88bc
00000150: 0d3a a7bd e058 9d3d 24ae 9b3c f7b4 fbbd
00000160: d429 073d c866 b43d 29e9 04bd 6e67 3cbd
00000170: bfad 71bd f3ce 583c a896 853d 54bc e43c
00000180: 1905 943c 806d c93c aca3 f73d 7eef 553c
00000190: 0274 f1bd c856 5d3d c0f4 d4bd 0796 503c
000001a0: e41e 983d 7010 89bd f197 bebb 2e39 a33d
000001b0: 1c05 7bbd 15e4 afbd b5bd 62bc 9708 a63c
000001c0: 5af4 8a3d 5970 353d 19b9 66bc 34ff d6bd
000001d0: 1574 01bd f2a9 b93c 5cc6 843d 2465 e93c
000001e0: 3241 ab3d a251 16bd 65d3 343d f8cb 853d
000001f0: 90fb bebd a41a b03d 4542 a63c 5e28 6c3c
00000200: 15a0 123d d662 b73d 1a1a 71bb f6cb c7bd
00000210: 4024 16bd 3bcd c6bd f336 783d d963 9f3d
00000220: ad37 af3d 1dc8 90bc d017 e43d a5cc abbd
00000230: bf18 893c 4292 f83d b82e aa3d 698a fe3c
00000240: 7c3a d7bd 8834 aabd 0c18 54bd fcdc 413c
00000250: 8788 67bc 5fe9 9a3d 623e dc3d e345 2b3d
00000260: 3539 bdbd d7e1 09bc 98dd 363d 0302 9fbd
00000270: 722d fa3d bf78 b43d 82aa 4e3b 12e6 91bd
00000280: 1d87 a13b 1000 b13c 6e40 013e 1ac5 b0bd
00000290: c9c1 d23d d29a dd3d cfda 6d3d e4fc e93d
000002a0: a8e5 9a3d 0b02 17bd fcec ebbd dac8 b3bc
000002b0: be0d d5bc 1d61 a7bd 92a7 86bb baa8 58bd
000002c0: 089d 30bd 45af 83bb d9ea d43d 3870 a1bd
000002d0: 3572 e439 0042 f73d 6199 ae3d 4bb2 c8bd
000002e0: 2ca7 fe3d 7e38 a0bc ba55 8ebd c50b d63b
000002f0: dc09 f73d a7f4 adbd e824 6dbd ab7b 04bc
00000300: 7452 a7bd 58fc 7bbd 0259 31bc 7278 a4ba
00000310: dcd2 79bd 08a0 bb3d 38c9 1b3b 25ff 32bd
00000320: 2036 75bd 260c a5bc 631f eebc b4ee 07bd
00000330: 68ff aebd 1860 dabd 2062 5cbd 6550 ecbd
00000340: 4609 ca3d 0e35 943d c704 b53c 9ccb 943d
00000350: 3986 0ebd f37d b8bd 05b6 a0bc 7c2f 45bd
00000360: f18e 563d 55d3 8c3c 5b11 c7bc e31b ca3d
00000370: 5073 c53d 137b 18bd 7673 23bd 509a e7bb
00000380: 5688 91bd 64be ca3b ba28 86bd af21 91bc
00000390: 3104 bbbd ca16 a4bd 7adb c13d d6ae e1bd
000003a0: 2dd0 36bd dee0 ef3d ab5e 3fbd 7ea2 d33d
000003b0: 8fd5 cebc 1d58 493d 6931 ef3d e055 8c3c
000003c0: 578f 4abd 3c1f c9bc 8c70 323c ab84 a7bd
000003d0: 0214 50bc 078d de3d ad51 663d 6098 8ebd
000003e0: a847 a8bc 260e dabd d7dc 96bd ae92 2dbc
000003f0: dbcd 6dbd 3ca3 a93d 055e bdbc c271 143d
-0.10092936 0.023159996 -0.033587128 0.020160608 -0.040393718 0.07271136 0.07165067 -0.0038112756
-0.09342838 -0.09517376 0.08774829 0.102863856 -0.0051852423 -0.086909406 0.06900253 -0.058989614
-0.08198686 0.13164788 -0.005939604 0.0012341646 0.02207899 -0.0061143734 0.025628496 -0.11724179
0.054821093 0.02351063 0.11954618 -0.09922566 -0.09653139 -0.09692745 0.062666096 -0.06738207
-0.0133448215 -0.107477315 0.045072135 0.12979563 -0.010574852 0.032008793 0.009531446 -0.095396005
-0.038416173 0.08213013 -0.11145744 -0.064848326 -0.11234552 -0.0843007 -0.014722585 0.09835827
-0.070481665 0.09610298 0.08416186 0.034408018 0.025718324 0.065275185 -0.051739193 -0.0826555
0.054276563 -0.0059218677 0.0296897 -0.007159573 -0.07457463 0.028199477 -0.009274607 0.08420803
-0.070462376 0.05991958 -0.09304336 0.019610787 -0.118336245 0.08677233 -0.014985827 0.0632567
0.11625359 -0.020208288 -0.11587955 -0.13714656 -0.15706503 0.07186091 0.07250337 0.045977857
-0.16917074 -0.10552182 -0.10503332 -0.01671961 -0.08165369 0.07682967 0.019003935 -0.12290376
0.032998875 0.088086665 -0.03244892 -0.045997076 -0.059003588 0.013232934 0.06522876 0.027921833
0.018068837 0.024588346 0.12091765 0.013057588 -0.11789705 0.05403784 -0.10398245 0.012731082
0.07427767 -0.06692588 -0.0058164527 0.079698905 -0.06128417 -0.08588425 -0.013839175 0.020267768
0.067848876 0.044296596 -0.014082217 -0.10497895 -0.031604845 0.022664044 0.064831465 0.02849061
0.083620444 -0.036698945 0.044146914 0.065330446 -0.093253255 0.08598831 0.020295272 0.014413921
0.035797197 0.08954398 -0.003678924 -0.09755699 -0.036655664 -0.09707113 0.06059928 0.07782716
0.08555541 -0.017673546 0.111373544 -0.08388642 0.016735433 0.121372715 0.08309692 0.031071858
-0.10509202 -0.08310801 -0.051780745 0.011832472 -0.014131672 0.07564043 0.10754086 0.041814696
-0.09239427 -0.008415661 0.044644922 -0.077640556 0.12215699 0.08812093 0.0031534736 -0.071239606
0.004929437 0.021606475 0.12622234 -0.08631344 0.10290868 0.10820545 0.05807 0.11425188
0.07563335 -0.036867183 -0.115198106 -0.02194636 -0.02600753 -0.0817282 -0.0041093314 -0.052895285
-0.043118507 -0.0040186965 0.10396356 -0.07882732 0.0004357264 0.120731354 0.085253485 -0.09799632
0.12434229 -0.019558188 -0.06949945 0.0065321648 0.120624274 -0.08493929 -0.057896525 -0.008086125
-0.081700236 -0.06151995 -0.010824444 -0.0012548103 -0.060992107 0.09161383 0.0023771059 -0.043700356
-0.05986607 -0.020147394 -0.0290677 -0.03318663 -0.085448086 -0.1066286 -0.053804517 -0.115387715
0.0986505 0.07236682 0.022097005 0.07265398 -0.034795973 -0.09008398 -0.019618044 -0.048140988
0.052382413 0.017190615 -0.024300268 0.098686 0.09641135 -0.037226748 -0.039905034 -0.007067956
-0.07106082 0.006187247 -0.06550737 -0.017716257 -0.09131659 -0.08012159 0.0946569 -0.110196754
-0.044632126 0.11712812 -0.04672114 0.10333727 -0.025248317 0.049156297 0.11679346 0.017130792
-0.049453106 -0.024551027 0.010891091 -0.08179601 -0.012700083 0.108667426 0.056230236 -0.06962657
-0.02054198 -0.1064723 -0.073663406 -0.010594053 -0.058057647 0.082830876 -0.023116121 0.0362413

actor_K.1.bias f4 [8]
00000000: de39 b8bd 3aa8 b03d 02ac 893d ac7e 0c3e
00000010: c481 a63d fad8 a9bd 60b8 90bd 498b b5bd
-0.08995412 0.08625837 0.06722261 0.13720196 0.081302196 -0.08293338 -0.07066417 -0.08864457

actor_V.1.weight f4 [3, 64]
00000000: 6218 033c 0226 4ebc 332a 2c3d 783a 033d
00000010: 0d5b 0f3d 5302 c7bc 4638 b53d 373e 25be
00000020: b4a5 e8bc bf7b c7bc d983 2abe 0402 00be
00000030: 4411 e1bc ddcf c6bd 14f6 b8bc 05f3 98bd
00000040: 6175 393d fd52 393c cd24 19be d451 e7bc
00000050: 1aa8 21bc f58c 2ebe b16e 56bc 13ae 46bd
00000060: 2c08 7cbd 1dba 28bd fc56 e9bd caf8 69bd
00000070: ee3f e1bd 038d 6cbd 42f6 673b eb86 a4bd
00000080: b073 e93d 0115 c6bc e0a6 50bc d9a9 21be
00000090: f139 a0bd c94f a8bc 7f21 a23d 08ad d7bc
000000a0: 6948 2bbe 7ae6 e2bd 2294 22bb 96f5 9cbd
000000b0: 1ff1 e5bc 9b3e aebd ab21 f1bc 4a80 07be
000000c0: a898 943d f741 ef3c be2a 363c 79d1 e6bc
000000d0: 6ef1 9bbd 6d29 113d 50fe a63d 9af6 4a3d
000000e0: c249 b03d 0b29 6cbd ecbc b2bd bfdc eb3c
000000f0: 8657 3b3d cfaf e2bd cd4b 39bd ee74 5fbd
00000100: 8ba0 97bd bde9 88bd 61b0 8f3c 900f e7bd
00000110: 5daf f03d 1af6 653d 8045 ee3d a0ee 2dbd
00000120: 3980 4e3d 74b2 fa3c b6e9 18be 385c 4c3c
00000130: b424 cebd fff2 cbbb bd32 173d 03d6 983d
00000140: 7e4d 9abd 7b58 a7bd 02ec cc3c 7940 fa3b
00000150: 2a71 56bc 8d24 0fbe 8290 ba3d 5d5d 1e3d
00000160: ffc9 abbd dac0 af3d a64f 0abe 7bfd 84bd
00000170: 7bde 89bc 3e50 f83d 284f 3bbd 8ba1 853d
00000180: 6234 f5bd 13fb 3abc 1450 933d f824 b0bd
00000190: 5a78 0abe 4746 24bd d148 82bd e1f7 85bd
000001a0: d1ac 883d f8c7 36bd a6a9 8bbd 2e03 e6bc
000001b0: 9fc4 743d 944b 2bbc 19c0 da3d 5af2 82bd
000001c0: ce7e 74bd e750 adbd 4cfe 0b3c ed78 f63d
000001d0: 820a 8e3d ecea c63d c297 1ebc 7a2e cabd
000001e0: 9d0e 4a3d c094 f93d 5911 903d e2f1 663d
000001f0: 1421 0dbd 2174 79bc 15f8 873d 105c 64bd
00000200: ff6e b1bd f107 ed3d 47c1 9a3d 3806 e93c
00000210: 9472 efbd 9a0d c0bd b5a7 c43d 8677 9f3d
00000220: 98d6 97bd 6ece 98bd 56b8 353e d8db 6abd
00000230: d7eb 8e3d bfa4 7fbd bb08 103e f5e5 aebd
00000240: b6f8 4c3d 8ed4 0e3d c2bb 2d3e 4049 193e
00000250: 9e4f 03bd 7cfe 933d 15bf ebbd 4dc7 d43d
00000260: 287f ab3d c0d3 edbd 7acf 183e 2750 8abd
00000270: 723f 843c 78ee ebbd b0d8 c83d 321e 993d
00000280: daec a73c 6800 d83d d625 dfbc f2b6 8b3d
00000290: 06e5 833d 1987 953d db9b 023c 4e57 8f3d
000002a0: 3c2e 533d 164e a03d a877 573c c167 b0bd
000002b0: be6a e1bd d7eb 233e 6e53 f43d a598 aa3d
000002c0: c752 3fbd b93c 28bc 80de e63d 0a57 c33d
000002d0: 3690 9e3d 9def 273e bd57 f1bd 40da 8cbd
000002e0: 12f6 dfbd 21df 1e3c a354 983d 0b39 a8bd
000002f0: 54eb 39bd dc98 053e fc27 c23d 8dc1 41bd
0.008001419 -0.012582304 0.04203243 0.032038182 0.034998942 -0.0242931 0.08848624 -0.16137014
-0.028399326 -0.024350999 -0.16651858 -0.12500769 -0.027474053 -0.097076155 -0.022578277 -0.07468227
0.045277957 0.01131129 -0.14955445 -0.02823726 -0.009866739 -0.17045958 -0.013087914 -0.048505854
-0.06153123 -0.041193116 -0.11393544 -0.05712203 -0.10998522 -0.057751667 0.0035394584 -0.08033546
0.11399019 -0.024179937 -0.012735099 -0.15787448 -0.078235514 -0.020545857 0.07916545 -0.026327625
-0.16726841 -0.11079116 -0.0024807532 -0.07664029 -0.028069077 -0.08508035 -0.029435 -0.13232532
0.07255679 0.02920626 0.011118589 -0.028176056 -0.076144084 0.035439897 0.08153975 0.049551584
0.08607818 -0.05765633 -0.0872744 0.028791783 0.045737766 -0.11068689 -0.045238305 -0.054554872
-0.07403668 -0.06685207 0.017540159 -0.11282265 0.11752198 0.056142904 0.1163435 -0.0424639
0.05041525 0.030602671 -0.14932904 0.012473159 -0.10065594 -0.0062240358 0.036913622 0.074626945
-0.07534312 -0.08171173 0.025014881 0.0076370803 -0.013088504 -0.13978787 0.09109594 0.038663257
-0.08388137 0.085817054 -0.13506946 -0.0649366 -0.01682972 0.1212468 -0.045729786 0.065249525
-0.11972882 -0.0114124 0.07193008 -0.08600801 -0.13522473 -0.040106084 -0.06361545 -0.0654142
0.06673587 -0.0446243 -0.06819467 -0.028077688 0.059757825 -0.010455031 0.10681171 -0.06393881
-0.059691243 -0.084626965 0.008544516 0.120347835 0.06935598 0.097127765 -0.009679737 -0.09872146
0.049330343 0.12186575 0.07034559 0.05638302 -0.034455374 -0.015225441 0.06639115 -0.05575186
-0.08663749 0.1157378 0.07556396 0.028445348 -0.11691776 -0.09377594 0.096023 0.07786469
-0.074139774 -0.07461248 0.177461 -0.057338566 0.06978577 -0.062412973 0.1406583 -0.085399546
0.050041877 0.034870677 0.16966155 0.14969349 -0.03205835 0.072262734 -0.115110554 0.10389576
0.083738625 -0.11612654 0.14922896 -0.06753569 0.016143534 -0.11520094 0.09806955 0.074764624
0.020498682 0.105469525 -0.027239721 0.068220034 0.06440167 0.073011585 0.007971729 0.06999074
0.051557764 0.07827394 0.013151087 -0.086135395 -0.110066876 0.16007935 0.119299755 0.08329896
-0.046709802 -0.010268384 0.11272907 0.09538086 0.0774235 0.16399999 -0.11784313 -0.068775654
-0.10935606 0.009696753 0.07438018 -0.08214005 -0.045390442 0.13046592 0.09480283 -0.047303725

actor_V.1.bias f4 [3]
00000000: 69c9 26bd 759e 43bd bbbd 383d
-0.040719423 -0.04775854 0.045102816

expert_K.weight f4 [3, 8]
00000000: f138 55be 2510 3d3f 2c58 e1be e326 9d3f
00000010: f355 d0be 5885 aa3e 74a2 65bf eb4d 393f
00000020: 41ef 71bf 3a6e 583e 3c0e c13d b9bf 23bf
00000030: eacf 933e dfc7 15bd 2a2d b9bf c1d5 a83f
00000040: a911 7b3e 06c8 133f de07 e4be 3a58 8ebe
00000050: 70d6 a13f 2458 60bf 0e14 9dbf 6775 213e
-0.20822503 0.7385276 -0.44012582 1.2277492 -0.40690574 0.33304858 -0.8970101 0.7238452
-0.945057 0.21135798 0.09426543 -0.6396442 0.28869563 -0.036567565 -1.4466908 1.3190233
0.24518456 0.57727087 -0.44537252 -0.27801687 1.2643566 -0.8763449 -1.2271745 0.15767442
