gym-multigrid-master/results/coma/key/steps_1500000_ngames_NA_USE_KG_ball + key/model_weights_save_dir/actor_1_episode_10000.pth (torch, 101114 bytes, 11 tensors)

fc1.weight f4 [64, 294]
00000000: 9761 933d 3a9b 483d 1e44 51bd d5fd 49bd
00000010: 9681 493d b40f 863c a758 d33b 4e86 10bd
00000020: a087 96bc 8997 243d 5629 cb3c b84a 15bc
00000030: 26d2 7abb 17c2 04bc 30c1 783d 6646 99bc
00000040: 0a82 3d3d f16a 6dbd 4c9e f4bb 10b0 1a3d
00000050: 8e16 5d3d 3d97 2ebd ca53 1e3d a884 c5bb
00000060: 58cf dcbb b39f 9d3d 5214 623d f7ba 613d
00000070: 59b1 05bc b0af 85bb 519e 963c c9fb 58bb
00000080: 5639 f13c d95a 1b3d 4c9b 6d3d 0425 d23c
00000090: 48b1 44ba 8aed 983d f4fb 48bc 3c47 b93b
000000a0: 4a63 7e3b 7225 81bc e882 913d 778c d63b
000000b0: 73f2 14bd 8a1c 6d3d d3fd f73c 44d1 983c
000000c0: cba0 a9bb ea32 0e3d e1c9 d73c 3dac 663d
000000d0: 7c3d 86bc 86c6 483d c808 c93c e8d4 933d
000000e0: 7533 4abd 5334 783c 7a30 803d 041e 5abc
000000f0: 47f0 3d3b 1b3c 9fbc 6208 13bd d34d 9d3b
00000100: c5af 0b3d e426 5e3d 6ea0 1abd 06eb a3bc
00000110: 9791 31bd f092 04bd ef25 a03c 22ea 9ebc
00000120: f0ba 863d 451c e63c 0ecd 433d a788 483c
00000130: e7d1 ff3c e822 ad3c af1b dbbc d81d d5bc
00000140: a4d7 6f3d c746 f5bc 039f f8bc ac1c 83bc
00000150: 1ad9 6bbc f672 bf3c 906a f3bb e80d 56bc
00000160: 402a 05bd 5021 093d fc3f 933d 331b 363c
00000170: 7da6 4d3d 55f4 2fbc 69c3 3cbc 207e 97bb
00000180: 4efa b9bc 103f b33c 23d4 8c3b 2961 433d
00000190: 4982 19bd 1c3e 70bc d87f 7c3d cd32 14bd
000001a0: 5e6a a13c 467b d0bc 3c68 aebb beec c5bc
000001b0: d447 493d 35d3 aebb 1286 893c 84da 9b3c
000001c0: 484e b6bc 60f3 e5bb b686 6f3d a9d6 0d3d
000001d0: af29 383b e85a 26bd b59f c33b 9cc9 af3c
000001e0: 98f9 9bbc 182f 8a3c db1d 2bbc 223d 843d
000001f0: 1140 f8bc a420 22bd 1e71 7fbc 060b 7e3d
00000200: 7ad4 c4bc ec69 d8bb 7030 b9bc 4fa5 eebc
00000210: 290c 7b3d e96b 183d 8ccf 453d ea0f 553d
00000220: 7853 bbbc f4af 00bc e578 0c3d fcd5 be3c
00000230: 10e6 2f3d 4081 2e3c 6977 d33c e8a5 8fbb
00000240: af77 993d f396 263d f4fb 0dbc 4c8c 443d
00000250: b300 da3c b404 6abd 6818 4f3d cc04 18bd
00000260: f526 793c 7ad8 c43c 61e1 5a3d a667 453d
00000270: 4f00 953d 0d91 8e3d 01ff 6d3d 390a 4dbc
00000280: c926 233b 34c8 11bd a4bb 723d 08f8 4f3c
00000290: c495 2b3b d750 483c 146b aa3c 10e6 4b3d
000002a0: f663 9cbc cc46 683d 07c1 623d aa05 ecbc
000002b0: 847d 3bbd e023 e6ba 1bc7 0c3d 2f41 0a3d
000002c0: d097 6f3d fb7c 2d3d f630 cf3c fc99 18bd
000002d0: 3853 d63c 981a 3a3d 7b39 07bb 34fa e4bc
000002e0: 2d05 cd3b b1bd 53bd 36fc 8f3d 3765 813d
000002f0: 2414 853d c1db fb3c 19f3 003d 5872 9ebc
00000300: 3fab db3c 44e2 233d c70a 043d 269c 2c3c
00000310: 863b 8e3d 4c63 0fbc 36c9 033d b56f 00bc
00000320: aecc d23b 3de0 54bd a64b e13c 3e9b 0ebd
00000330: f5f7 1cbc 3916 e33c 3e98 b93a f31b 1fbd
00000340: 6de7 00bc 14f6 1bbd 1546 12bd da66 843d
00000350: 5675 063d 45ab 0f3c 7527 07bd e861 313c
00000360: 0629 223d 2bd6 3a3d 82f3 1bbd 1f2e 14bd
00000370: 2781 33bc 7008 a33c b384 c0bc 6e36 213d
00000380: 4a5a 07bd 9cd5 a43c f64b a9bc d483 58bd
00000390: 2219 a6bc b1ee ae3c b160 bd3c 7683 b73c
000003a0: c991 813d 3cd1 963c 93db 923d ec02 aabc
000003b0: 838e 863c 57a6 2f3d 3f9f 7eb9 42c7 bfbc
000003c0: f94c 9d3d 66af 813d 8906 c8bc 149a 5d3d
000003d0: af16 1c3d 80ce 1d3d 0b06 783d f5e5 913d
000003e0: 87b2 47bc b12c e2bc 8ad6 4e3d 50b5 293b
000003f0: 6d34 653d 46e9 9abc 8498 1dbb d649 c33c
0.07196348 0.04897616 -0.051090352 -0.04931434 0.04919585 0.01636491 0.006449777 -0.035284333
-0.018375218 0.040183578 0.024799984 -0.009112053 -0.003827223 -0.008102915 0.060731113 -0.018710326
0.046266593 -0.057963315 -0.0074651595 0.037765563 0.053976588 -0.0426247 0.038654126 -0.0060277767
-0.0067385845 0.07696476 0.05519516 0.055109944 -0.008159959 -0.0040797815 0.018386038 -0.003310906
0.029446285 0.037928436 0.05800943 0.025652416 -0.00075032236 0.07467182 -0.012267102 0.0056542438
0.0038816505 -0.015764926 0.071050465 0.0065475064 -0.03636403 0.057888545 0.0302724 0.018654473
-0.0051766387 0.034716524 0.02634138 0.056316603 -0.01638674 0.04901745 0.02454032 0.07218343
-0.04936548 0.015149194 0.06259246 -0.01331282 0.0028982328 -0.01943784 -0.035896666 0.004800537
0.034103174 0.054236308 -0.037750654 -0.020009529 -0.043351736 -0.032366693 0.019549338 -0.019398753
0.06578624 0.028089652 0.047802977 0.012239612 0.031228019 0.021134809 -0.026746599 -0.026015207
0.05855526 -0.029940976 -0.03034926 -0.016004883 -0.014395023 0.023370247 -0.0074284747 -0.013064839
-0.032510996 0.033479035 0.071899384 0.011114883 0.050207604 -0.010739406 -0.011521199 -0.0046231896
-0.022702362 0.021880656 0.0042977496 0.04770008 -0.037477765 -0.0146632455 0.06164536 -0.03618126
0.01970404 -0.025449406 -0.0053224843 -0.024160739 0.049140766 -0.0053352364 0.016787563 0.019025095
-0.022254124 -0.007017538 0.05847808 0.034628544 0.0028101017 -0.04061404 0.0059699663 0.02145844
-0.019039914 0.01686816 -0.01044413 0.06456973 -0.030303987 -0.03958191 -0.015590934 0.06202223
-0.024027098 -0.0066044237 -0.022606105 -0.02913156 0.061290894 0.037212286 0.048293635 0.05201713
-0.02286695 -0.0078544505 0.03429498 0.023295395 0.042944014 0.010650933 0.025813775 -0.0043837912
0.07493531 0.0406713 -0.008666027 0.04798536 0.026611662 -0.05713339 0.050560385 -0.03711395
0.015207042 0.024029005 0.053437594 0.04819455 0.072754495 0.0696126 0.05810452 -0.012514644
0.0024894944 -0.03559132 0.05926098 0.012693413 0.0026181797 0.012226305 0.020803012 0.04977995
-0.019090634 0.056708142 0.055359866 -0.028811295 -0.045773998 -0.0017558299 0.03436957 0.03375357
0.05849439 0.04235552 0.025291901 -0.037256226 0.026162729 0.045435518 -0.0020633626 -0.027951337
0.0062567205 -0.051694576 0.07030527 0.06318133 0.06497982 0.030744435 0.031481836 -0.019341633
0.026815055 0.040010706 0.03223684 0.010535276 0.06944947 -0.008751702 0.03217431 -0.007839133
0.006433091 -0.051971663 0.027501892 -0.03481602 -0.009580602 0.027720558 0.0014159752 -0.038845014
-0.007867676 -0.038076475 -0.035711367 0.0646493 0.032826744 0.008768861 -0.032996614 0.010826565
0.039589904 0.045614403 -0.038074024 -0.036176797 -0.010956085 0.019901484 -0.023500776 0.03935855
-0.03304509 0.020121388 -0.020666104 -0.052860096 -0.020275656 0.021354051 0.023117395 0.022401553
0.063266344 0.018410318 0.07170787 -0.020753346 0.016425377 0.042883243 -0.00024282651 -0.023410443
0.07680697 0.06332283 -0.024417179 0.05410202 0.03810757 0.038527012 0.060552638 0.07123939
-0.01218856 -0.027609201 0.05049757 0.0025895424 0.0559582 -0.018910062 -0.0024047205 0.023838919

fc1.bias f4 [64]
00000000: 8f03 a03d 03b6 6ebc 3ea6 6a3d aed6 2c3d
00000010: 1cc6 3dbc 551b 1e3d 3814 6cbc 4237 973c
00000020: 3c46 1abc ec40 abbc 35cd 343d 1d1d bf3c
00000030: 6ea5 943d 7963 2fbc a8f1 5f3c a60f 823d
00000040: 4b01 71bd 3c1a dabc 6233 73bd 6139 703d
00000050: 2e53 d03c 7bfc 173c 942a b9bc f7e1 86bc
00000060: d320 0bbd cff2 07bd ccf6 32bd 0f10 d9bb
00000070: 9e37 0e3d c73d 253c 2839 97bc 9714 303d
00000080: dc52 303c 95f4 243c a426 383d 6377 2c3d
00000090: 2aa3 743d 8718 523d 4ce4 b7bc f2b0 8f3d
000000a0: 69a6 02bd 0d3b 543b 62a5 40bc b81c a53c
000000b0: da03 073d 4802 1f3c 194e 023c 4331 2b3d
000000c0: d285 7bbc c3e7 2c3d b173 dc3a cc36 20bd
000000d0: 6795 a13b 22ed 4fbd d773 56bd 4f31 863d
000000e0: 4d5e 953d c579 37bd 0ae3 d4bc 70a0 083d
000000f0: 4a44 573d fbf6 073d be61 cf3b ea94 b33c
0.07813179 -0.014569762 0.057287447 0.042196922 -0.0115828775 0.038600285 -0.014409117 0.018458966
-0.009416159 -0.02090498 0.044141013 0.023329312 0.07258116 -0.0107048685 0.013668455 0.06350641
-0.058839124 -0.026623838 -0.059375174 0.05864847 0.025430288 0.009276505 -0.02260331 -0.01646517
-0.03396685 -0.033190545 -0.043692395 -0.006624229 0.03472101 0.01008553 -0.018459871 0.042988386
0.010761943 0.0100680785 0.044958726 0.042106044 0.059725918 0.051292922 -0.022447728 0.070161715
-0.031896982 0.003238383 -0.01175818 0.020155296 0.032962658 0.009705134 0.00795319 0.041795027
-0.0153517295 0.042213213 0.0016819147 -0.03911476 0.00493114 -0.050763257 -0.052356567 0.065523736
0.07293377 -0.044793863 -0.025987167 0.03335613 0.05255536 0.033194523 0.0063287904 0.021921594

fc2.weight f4 [64, 64]
00000000: b3d3 f13d d229 a53d 9ede 38bd 4788 62bc
00000010: d101 f73d ed5e 2dbd 34be df3d 7bc6 17bd
00000020: ce0a d8bd 71ff e9bd d4c4 c6bd 3b55 073e
00000030: 798c 233d bde9 d03d 5256 ba3d 6b6e 0c3d
00000040: 97d8 7dbd cadf b13d 3b48 073e 7237 c0bd
00000050: 5a0a 31bd d311 a93d d0d2 97bd e3ca c43c
00000060: 84a9 2ebd 925a 90bd aa25 9ebc 9d38 db3d
00000070: e065 8ebc 63d5 35bd 55fe 493c b692 1f3d
00000080: cfd8 ef3d 9aab 093e e699 893d 652a a63d
00000090: af03 de3d f1e1 cbbd 7542 343d 586c e73d
000000a0: 9bb1 89bc 35af e23d 6c80 983b c4eb 973c
000000b0: a7dd 8b3c feae d33d 24fa ff3d 9d76 a93c
000000c0: b320 83bd a449 46bd 089c 5bbd 944c a13d
000000d0: 91bf ec3d 8616 6e3c 931a a3bc 75db cebd
000000e0: b105 953d 6782 acbd 560a d93d c696 903d
000000f0: 9427 c0bd f3fa 093d 555e c43d bab2 0b3e
00000100: b436 bb3c 8df5 133e b4b4 47bd 6623 22bd
00000110: 1a15 90bd f9ec cd3d 1fbb 5b3d 0c11 14bc
00000120: 69df d83c 16b9 863c ee6c 4cbd e2be 6a3c
00000130: 3c0b af3d c2c9 4bbd cfd4 3ebc 010c a5bd
00000140: 5f81 bb3b 4627 123e 7c41 22bd fca2 8fbd
00000150: 940b a4bd acd9 5c3d d54d 093e 80b9 133e
00000160: a9fa 38bd a4cd bc3d 76ee 853d 2aea a53d
00000170: 7209 1ebb 28d6 1b3d c4ad 68bd 6e42 773d
00000180: f66a 8d3d cdff c93d ccc6 483d 3d7d 21bb
00000190: 6c2c 703d 5602 74bd d49d 903d 0a76 073e
000001a0: e67c d03c 4771 af3d 6071 dd3d 2165 db3d
000001b0: 7fa9 e13d 9d8a 9b3d cc24 843d 2f6c c63b
000001c0: 427d bbbc 4320 9cbc 9e4a af3b 4c68 0c3e
000001d0: 0397 633b 9f4a ab3d 6c09 b0bc 43a9 233d
000001e0: d34e a43c 16d9 e33d 2f0a b73a e1a9 afbd
000001f0: f3e5 6f3d 853d a0bd 8d38 8dbc b4d3 b53d
00000200: 5a18 e7bc f090 d4bc cf1b 253d 49a9 01be
00000210: ced6 c1bc cee0 383d e7a2 bfbc 3643 c6bb
00000220: a54b 543d ddb8 3b3d 4835 d3bd a9fc 8abc
00000230: 9f98 c13d 7d63 b03d fd5e ac3d cf5e c93d
00000240: 2326 e0bc e61e b83c 7fa4 f53c 1a22 043d
00000250: e5b3 283d d157 1b3d 3524 07bd 2718 d93d
00000260: acc9 7d3d 5ee1 dc3c 668b cf3d 962c bdbd
00000270: b102 4dbd c35f e8bd 2d48 37bd 805b 80bd
00000280: c431 79bb 7859 353d e5dc ea3d 0c5b ad3d
00000290: 0ffa d03c a314 8fbd e907 29bd b5ec ebbd
000002a0: abf5 233d 433f eb3d e023 00bd 079a 063d
000002b0: c022 8a3d 0422 00be 20eb 473c 1458 983d
000002c0: 5cf5 63bd ea65 b9bd 8155 ccbb 7b84 93bc
000002d0: 5e1f dcbd d588 0cbd 40a5 383d 236b bebd
000002e0: 1098 21bd 96be d73d 2ea1 4dbc 790e 4c3c
000002f0: ebf2 573c c184 cfbc 322a ddbd c14d febd
00000300: 4c08 56bc 5fda 533d 05ba 21bd 53b8 c6bd
00000310: a91b 333d 180c 2cbd 5001 e83d 7f4a 943d
00000320: 7a34 083b 7a11 193d 33f5 5abd fbcd 09bc
00000330: b8f7 4fbc d2a5 bfbd 4a34 b0bd 2327 46bc
00000340: 3fb7 4b3d 8c9b 97bd 9d6f c0bd 0f7c abbd
00000350: cda2 e33d 5289 d7bd 32ea e0bd b894 2fbd
00000360: 8011 3cbc 351c 68bd 13ff 8dbc c9ca 2b3d
00000370: 5e52 4a3c 6ecb 933d b965 473c c5e8 febd
00000380: 735a 1dbd 7658 d63d 1336 42bd e806 a33d
00000390: 7828 4ebd f2f2 25bd 34d0 db3d f397 da3d
000003a0: da5e 9c3d d7af 1e3d 39ff 86bd 0c06 a43d
000003b0: 112c b8ba dbc7 e23c bd2d a33d 6ef1 43bc
000003c0: 97c0 bebd e2c4 fabd 8700 08bb 572f 63bd
000003d0: b1ee f1bd 658a 913d 3bbd d13a 5e8b fcbd
000003e0: 99ae b0bc 210a f2bd 7964 47bd a4d7 2dbd
000003f0: 68be d3bd 242d 293c 6bdf c2bd f179 dcbd
0.118079565 0.08064617 -0.04513418 -0.013826436 0.12060893 -0.042326856 0.1092495 -0.03705452
-0.10548936 -0.11425675 -0.09705511 0.13216107 0.039928887 0.10200832 0.090984955 0.03428499
-0.061974134 0.086852625 0.13211147 -0.09385575 -0.043222763 0.08255353 -0.07413256 0.024022525
-0.04264213 -0.07048525 -0.019305069 0.107041575 -0.017382562 -0.044392955 0.012328704 0.038958274
0.11711275 0.13444367 0.06718807 0.08113555 0.10840546 -0.09955204 0.04400869 0.11299962
-0.016808322 0.11068574 0.004653981 0.018545039 0.017073466 0.103361115 0.124988824 0.020686442
-0.06402721 -0.048410073 -0.0536156 0.07875934 0.11559976 0.014531737 -0.019910133 -0.10100452
0.07276476 -0.0842331 0.105976745 0.07060008 -0.09382549 0.03368659 0.09588305 0.13642398
0.022853233 0.14449139 -0.048756316 -0.03958454 -0.07035275 0.100549646 0.05364525 -0.009037267
0.026473718 0.016445678 -0.04990857 0.014327737 0.08547065 -0.049752958 -0.011647417 -0.0805893
0.0057222093 0.14272794 -0.039613232 -0.07013509 -0.08010021 0.053918526 0.13408597 0.14426231
-0.045160923 0.0921891 0.065396234 0.08101304 -0.0024114517 0.038046032 -0.05680634 0.060366087
0.06905167 0.09863243 0.049017712 -0.0024641298 0.058636114 -0.05957254 0.07061353 0.13228622
0.025450181 0.08566528 0.1081264 0.10712648 0.11018657 0.07594798 0.06452331 0.006055377
-0.022886876 -0.019058352 0.0053494712 0.13711661 0.0034727461 0.08363842 -0.021488868 0.039956342
0.020057118 0.1112539 0.0013964827 -0.08577324 0.058568906 -0.07824234 -0.01723888 0.0887827
-0.028209854 -0.025948018 0.040309723 -0.12662233 -0.023661997 0.045136265 -0.023393108 -0.0060504926
0.051829953 0.045830596 -0.10312897 -0.01696618 0.09452938 0.08612726 0.08416555 0.098325364
-0.027361935 0.022475671 0.029985664 0.032259084 0.041187186 0.037925545 -0.032993514 0.1060031
0.061959907 0.026962932 0.1013401 -0.0923702 -0.050051395 -0.1134639 -0.044746567 -0.06267452
-0.0038024047 0.044274777 0.114679135 0.084646314 0.025509862 -0.06986358 -0.04126731 -0.11519758
0.04002921 0.114866756 -0.031284213 0.032861736 0.06744909 -0.12512976 0.012202054 0.074386746
-0.055653915 -0.09052642 -0.006235779 -0.018007508 -0.1074817 -0.03431018 0.04507947 -0.092977785
-0.03945166 0.10534398 -0.012550635 0.012454622 0.013180475 -0.025331857 -0.10799064 -0.12417174
-0.013063502 0.051721927 -0.039484043 -0.09703126 0.04372755 -0.04200372 0.11328375 0.072407715
0.0020783232 0.037370183 -0.053456496 -0.008410926 -0.012693338 -0.093577996 -0.08603723 -0.012094292
0.049735304 -0.07402715 -0.093962885 -0.08373272 0.11115036 -0.10524239 -0.10982169 -0.04286644
-0.011478782 -0.056667525 -0.017333543 0.041941438 0.012348739 0.072165355 0.012170249 -0.12446741
-0.038416337 0.10466091 -0.04741485 0.07960302 -0.050331563 -0.040514894 0.10733071 0.10673513
0.07635279 0.038741913 -0.065916486 0.08008966 -0.0014051219 0.02768319 0.07967708 -0.011959417
-0.09314077 -0.12244584 -0.0020752267 -0.05546507 -0.11813105 0.07106475 0.001600183 -0.1233127
-0.02156763 -0.11818338 -0.048679803 -0.04244198 -0.103390515 0.010325704 -0.0951527 -0.10765446

fc2.bias f4 [64]
00000000: ed63 89bd ee1d 4d3d e8a5 eb3d 3962 4abb
00000010: 4709 823d 3235 f53d 532f cfbd b530 ea3d
00000020: c12f 483d 3512 8d3d cefe a83b 1228 01bd
00000030: 8a68 c8bd c67a edbd d789 f2bd e6da 75bc
00000040: 4bc8 f1bc 52d7 89bd 6f94 113d b878 353d
00000050: dd21 0c3d a661 903d 068b d63c 4582 ee3c
00000060: 0cb3 91bd d236 823d b6f5 ec3d 6062 3a3d
00000070: 3dc8 ae3d 3de6 49bd fae3 04be b026 ab3d
00000080: 635d df3d 4602 793d ffd0 12bc ced0 653d
00000090: 40ee 49bd 1427 0d3c a36a 8c3d 4b7b 013e
000000a0: 3b14 093e 1bc3 ddbd df33 cc3d a15a 1f3d
000000b0: 7f3a f63d 7478 86bd 64ee 6e3d e082 c7bc
000000c0: 0882 9cbb 5f09 8e3d d696 f1bc c894 ab3d
000000d0: 02a8 0dbd 4d97 123d 939f 94bc 2e30 ba3d
000000e0: 1128 c13b 3fc5 f8bc b736 efbb 74f4 0a3d
000000f0: a98e aebd 695a 85bd 5db0 b7bd b605 fb3d
-0.067085125 0.05007737 0.115062535 -0.00308813 0.06349426 0.11973037 -0.10116448 0.114350714
0.048873667 0.06888238 0.005157328 -0.031532355 -0.09785564 -0.11595683 -0.11842697 -0.015005803
-0.029514452 -0.06730522 0.035541948 0.04430458 0.034211982 0.07049875 0.026189338 0.029114852
-0.071142286 0.063581124 0.11570303 0.045503974 0.08534286 -0.049291838 -0.12977591 0.083569884
0.10906484 0.060793184 -0.008960961 0.056107335 -0.04929948 0.008615274 0.06856277 0.12644689
0.13386624 -0.10828229 0.09970831 0.03890479 0.12022876 -0.06565943 0.058332816 -0.024354398
-0.004776243 0.06935381 -0.02949087 0.08377987 -0.034584053 0.035788823 -0.018142497 0.09091221
0.005894669 -0.030367492 -0.0073002237 0.033924535 -0.08523304 -0.06511385 -0.089691855 0.12256949

actor_Q.1.weight f4 [8, 64]
00000000: 53d0 12ba 679e fb3d 7548 ac3d fab1 c53c
00000010: 78d2 023d 7af7 dc3d 4f64 fcbb cc74 3c3d
00000020: 49cd 67bd 2fc7 b53d c02b 003e fc14 d73d
00000030: 4137 10bd 025e fa3d 0733 873d 9989 593d
00000040: 76bd 3fbd bc9b 7dbc 2905 263d 6519 24bd
00000050: 7351 0f3e 8072 6b3d 3769 7e3d 1ce1 183d
00000060: f339 6f3d 0cdd 273d a2b5 db3d c068 e23c
00000070: cde2 76bd 9398 263c 884b 543d e727 52bd
00000080: aa08 b1bd 12b8 2dbd 9014 86bd 07b7 b3bc
00000090: 28b7 213c 886a f9bd de92 d6bc 428c 93bd
000000a0: ec04 173c 9c00 b73c d997 80bd 368e 673d
000000b0: d8a5 c43c e401 d1bc 2e47 8c3d af33 79bc
000000c0: 7938 51bd f3e1 413d d301 85bd 8197 82bd
000000d0: 7e23 3bbc 4736 96bc 8150 c93d 793b 24bd
000000e0: 080e cabd 7377 acbc 2b07 3f3d 9acc e8bc
000000f0: af83 98bd f202 613d 96dc c93d 63c4 ad3a
00000100: 45ea 983c a2d8 aebc 5447 dcbd 73eb 953d
00000110: b3b2 af3d f55f 65ba 9a49 60bd 6b03 523d
00000120: b013 f53d d837 2e3d 181e 94bd 3cae adbd
00000130: d112 f43d 3e95 adbd da84 1c3b 2891 003e
00000140: 068f 84bd 5e10 c3bd 06a6 9f3d ad18 163d
00000150: cc77 c23d adb0 1abc bbfa 353d 0b06 c33d
00000160: 3325 943d f11c 02bd 6c32 983d 1a5f a33d
00000170: 1c79 64bd 3464 5f3c 2186 7fbd 145d 0abc
00000180: a5bb 313d d6ce 083d 2055 aa3d fa46 c6bd
00000190: 3dfc 933d 45ff c2bc 6a8b d53d 41c5 ff3d
000001a0: 81cc 65bc 691b 973c ec7c f83d a12f dcbd
000001b0: 5ed4 2dbd 6a05 763c 1eb9 983d aaa1 c0bc
000001c0: 2727 803c 81f0 8a3b 2cfc c93d 31af 983d
000001d0: 7421 693d df0b 56b8 f6d1 99bd 6c75 62bd
000001e0: 1ab9 7a3d a09e 4b3d 779e f63d b61c 933c
000001f0: 238c 27bb a7a7 243d fee7 dfbd c937 2f3d
00000200: 66c7 0abd f1af acbd 26bd b43d beca c63d
00000210: 629a d7bd e8d1 c9bd 85cf 993d 5b88 7bbd
00000220: ca6d 8cbd ab47 bb3d 0c75 7cbd 098a 53bd
00000230: dcb6 97bd 6ff9 2ebd 52be 423d 35fd aa3d
00000240: dff9 d73c 1764 d8bc 9311 223d 7b82 4b3c
00000250: e6d0 41bd bfd5 893d 938a abbc 678b a63d
00000260: ae21 ccbd d7dd 96bd c233 e23d 54e9 48bd
00000270: 6a01 663d e1a0 95bc 44f9 3d3c 259e 2eba
00000280: 04dd 3fbb 29a2 d63d 8aab 0f3e f954 ff3d
00000290: 46ad ff3d 117b b9bd 7c2b 663c b001 103e
000002a0: 15eb a1bd 16ec ed3c 67f7 4b3d c4c2 db3d
000002b0: ee92 5b3d a10b f73c 2239 f0bb 3da4 853c
000002c0: 0d75 b5bd 2617 9b3c ac5a 94bd f216 9fbd
000002d0: 16a8 afbd 8648 d73d 570f cabd 7867 11bd
000002e0: 570d 0a3d 0438 c13d 87d4 c0bb 7708 a93b
000002f0: 08c0 dd3d 21da d8bd 1fc0 a53d c7f7 c83d
00000300: b415 0a3e ae87 20bd e5c3 003e 728d 863d
00000310: 39fe b63d cd0f b0bd dfcc a13d fdc4 59bd
00000320: ed55 223c 778f 89bb cda7 3c3d 7c35 703d
00000330: cde0 a83d 3599 f2bd 0c7c e03c ce7b bebd
00000340: 3a19 57bd 833b 7c3d 1c19 0a3e 1559 b93d
00000350: 1deb 103e 61b9 ee3d 6cef ee3b c18e cebc
00000360: 0681 a3bc da31 96bc d199 41bd 34e4 91bd
00000370: e128 0e3c 4227 a5bd 3cb8 903d 9b5f aebd
00000380: 73da 95bd 924e 7cbb 6f86 073d ce06 903d
00000390: 9e03 c13d 6f7f c73d 604a 98bd e150 943d
000003a0: 65d4 fd3d 9235 4c3d ee9d 083e 5923 dabd
000003b0: e10f d6bc 822d 26bd d2b9 863d 7f56 6a3d
000003c0: f65a 43bd d60d 6e3d d67a 373c f16f 57bd
000003d0: d406 dabb 258d d93d 9a18 ee3d 1032 68bd
000003e0: 1db8 babd 8c73 73bd 4b24 64bd 9402 923d
000003f0: 2df1 cebd 1b9e 2dbd f027 e3bd bb7d 893d
-0.0005600501 0.12286072 0.084122576 0.024132717 0.031939 0.1078939 -0.0077023874 0.046009824
-0.05659226 0.08875882 0.1251669 0.10502049 -0.035208944 0.12224962 0.066015296 0.05310974
-0.046811543 -0.0154790245 0.040532265 -0.04006328 0.13995914 0.057482243 0.06211206 0.037324056
0.058404874 0.04098229 0.10728003 0.02763784 -0.060274888 0.0101682125 0.051829845 -0.051307585
-0.08644231 -0.04241187 -0.06546891 -0.02193786 0.009870328 -0.12178522 -0.026193079 -0.072044864
0.009217482 0.022339158 -0.06278963 0.056532107 0.024004862 -0.025513597 0.06849514 -0.015210076
-0.051079247 0.047334623 -0.064944886 -0.06376553 -0.011422036 -0.018336428 0.09829808 -0.04009578
-0.098659575 -0.021053052 0.046637695 -0.028417874 -0.07446992 0.05493445 0.098565266 0.001325738
0.018666396 -0.021343533 -0.10755792 0.07320299 0.08579006 -0.00087499555 -0.054757692 0.05127279
0.11966646 0.042533726 -0.072323024 -0.08480498 0.119176514 -0.08475731 0.0023882897 0.12555373
-0.06472592 -0.09524606 0.07795338 0.036644626 0.09495506 -0.009441537 0.04442857 0.09522637
0.07233658 -0.031765882 0.07431492 0.079771236 -0.05577956 0.01363473 -0.062383775 -0.008445043
0.043391842 0.03340038 0.083170176 -0.096815065 0.07225845 -0.023803363 0.10426982 0.12488795
-0.014025808 0.018445687 0.12133202 -0.10751272 -0.042438857 0.015015939 0.07457183 -0.023514587
0.01564367 0.004240096 0.09862551 0.0745529 0.05691667 -5.103263e-05 -0.0751075 -0.055287763
0.061211683 0.049711823 0.120419435 0.017958026 -0.0025565706 0.04019895 -0.10932921 0.04277781
-0.033881567 -0.08431996 0.0882514 0.09706639 -0.10527493 -0.098544896 0.07510284 -0.061409336
-0.06856878 0.09144529 -0.061635062 -0.051645312 -0.074079245 -0.042718347 0.047544785 0.08349077
0.026364265 -0.026414914 0.03956754 0.012421246 -0.04731836 0.06730222 -0.0209401 0.08132058
-0.099673614 -0.07366531 0.11045028 -0.049050644 0.056153692 -0.01826519 0.011595074 -0.00066611386
-0.0029276023 0.10480148 0.1403028 0.12467379 0.12484221 -0.09056676 0.014048453 0.14063144
-0.079061665 0.029043239 0.049796488 0.10730508 0.05360692 0.030156912 -0.0073310295 0.016313666
-0.08860216 0.018931936 -0.07243857 -0.07768048 -0.08576982 0.105118796 -0.09866207 -0.035499066
0.033704128 0.09434512 -0.0058847102 0.00515848 0.10827643 -0.1058848 0.08093285 0.09812885
0.13484842 -0.039191894 0.12574728 0.06569947 0.08935208 -0.08596764 0.07900404 -0.05316638
0.009908182 -0.0041980105 0.046058465 0.058644757 0.08246002 -0.11845628 0.0274029 -0.093009576
-0.052514292 0.061580192 0.13486141 0.09050194 0.14152189 0.11656452 0.007291725 -0.025214555
-0.019958984 -0.018334318 -0.04726583 -0.071236044 0.0086767385 -0.080641285 0.0706639 -0.08514329
-0.073170565 -0.003849898 0.03308719 0.07032548 0.09424518 0.09741103 -0.07436061 0.07241989
0.12394027 0.049855776 0.13341495 -0.10651273 -0.026130619 -0.040570743 0.06578411 0.057211395
-0.04769417 0.058118664 0.01119872 -0.05259699 -0.006653646 0.10622624 0.11625786 -0.05668837
-0.09117148 -0.059436366 -0.055698674 0.07129398 -0.101045944 -0.04238711 -0.11091602 0.06713434

actor_Q.1.bias f4 [8]
00000000: 2b41 c9bc 761f 29bd 4562 093e d299 46bd
00000010: 129f ddbd 5530 84bd ca1f ab3d 9d3d 56bd
-0.024567207 -0.04128977 0.13416393 -0.04848654 -0.10821356 -0.06454531 0.08355673 -0.052304853

actor_K.1.weight f4 [8, 64]
00000000: 5c77 28bd f425 853d a5f7 61bc 8b65 6e3d
00000010: 3a75 083d d3ce a0bd 8c57 c53d 2daa 0ebd
00000020: 33c5 993c c5e5 ec3d d9de bebd 3a83 16bd
00000030: c1be 7a3b 66c3 893d 3a28 c6bc 019a eb3d
00000040: 11d6 7c3d b28b fd3c eba5 e63d 87cc 8c3d
00000050: 237f eebb 9ae5 f0bc db23 71bd 713c 063c
00000060: ee16 3fbd 86bb 92bc b803 b0bc 5c8c 7ebd
00000070: f378 da3d 6b4c b4bd 8ab4 a3bb da3e cc3d
00000080: aa0c 8fbc b57c d73d e0fc e83c 8e1f e0bd
00000090: 8155 de3d 3dba bb3d 4a47 c33d 4e6f a53c
000000a0: b87c c8bd a11d 00be f24b da3c e5c5 d6bd
000000b0: 26aa 9e3d 6984 a13c 352f 37bc 656f 59bd
000000c0: 73ea c8bd f54a dcbc 2734 53bc 0cdd 393d
000000d0: a5b9 5dbd 7d5d 6c3b bd60 6e3d e66b eebd
000000e0: 5475 1abd 5994 e73d 542a 0cbd 7920 c7bd
000000f0: c8fc cbbd 29f4 acbd 8ace f0bc 1102 9cbd
00000100: 4fff f63b f686 79bb c0ad 923d f8b8 873d
00000110: 535a d9bd 3fbf 90bd 9983 b7bd e2b6 37bd
00000120: 9eb0 663d 1924 ca3d eaf5 8a3d 07a0 e7bc
00000130: e66c c33c cb8c 953c a709 283d 3661 8b3d
00000140: a56d b63d 4071 703c 5647 ed3d dad9 873c
00000150: 6f91 19bd f63e c2bd 431d 97bd b97f da3d
00000160: c48d f13d 7218 e93a 633d 9d3d 7f83 99bb
00000170: 997a 6e3d 3c8c 033e 294a cfbd 35f8 953d
00000180: 3ecd 223d 3b68 22bd 4e48 8cbd 1ba2 4abd
00000190: 12f9 b63d d11a af3c 2c47 dd3c cc20 d73d
000001a0: 23bf ac3d 7ce3 6dbd a4fc a23c ada9 a13d
000001b0: 0b6f f23d bf12 be3d c5f7 d8bd bb4a 003e
000001c0: 49e5 a4bd 8df7 5a3d 4684 89bd 41d4 1abd
000001d0: fc18 a53d 7c49 a5bc da46 ca3d 2f8c df3d
000001e0: 442c da3d 75a6 23bc bc7d e9bd c0ca fbbc
000001f0: 0510 ddbd 9bba 1c3c 1440 c43d cf21 0a3e
00000200: d239 163e ccb4 103d 9b31 f43d ec44 513d
00000210: beb1 863c be80 f83d dc4d 8bbd a2fa bcbd
00000220: b8f0 83bd 3c17 6cbd 7743 a6bd 8406 89bd
00000230: 5a4c 8e3d a9af f03d eb18 cf3d d37d a7bd
00000240: 4ef1 023e 94af 353d ceb1 a7bd 6b61 353a
00000250: 74a6 1c3b cabf 573d cd21 dc3c 9490 c1bd
00000260: 2f14 2abd 1142 b0bd b76d 823d deff c2bd
00000270: ad2c 52bd bb91 a33d 1b70 d03c 6ff1 123e
00000280: df43 6dbb c4df 423b 275d ac3d 1325 bbbd
00000290: 449d f73d 4e8b 87bc fb9a 143e cb0f 953d
000002a0: ba85 c43d 4fec efbd 1b3b cc3d 42b1 a93d
000002b0: 220b c13a 9a93 7e3d 151b 2d3d 09cc 7e3d
000002c0: 7865 b0bd 1840 89bd b332 f13c f360 18bd
000002d0: 8db8 d13d 7555 57bb 088b 593d 78fe 9ebc
000002e0: 1026 27bd 34e1 8bbb ede4 aebd e523 853c
000002f0: 453c c13d 91b2 3ebd b030 fe3d 9a96 51bd
00000300: 2955 51bc f7c6 87bd 7776 3d3d 0d61 aebd
00000310: 5fed c6bd 9dc5 2b3d 1384 26bd 2f7d e4bc
00000320: 29fb 013d caf0 b3bd 42e6 5ebd 80c0 863c
00000330: 5215 13bd 6a26 f3bd 2182 8cbc e015 ce3d
00000340: ebf8 ec3d e4c4 bbbd 606b d43c 4316 ad3d
00000350: ab51 803d b8c4 e93d 88ba babb cf6d 52bc
00000360: 44e3 073d fa63 98bd 1a01 f33d 7300 8a3c
00000370: ef52 b4bd bc51 adbc bcb9 08bd 5bc7 09bc
00000380: 0b41 a0bd afcc 123d a95a 833d ffc7 93bc
00000390: b7f7 533d b505 a43d 417a 9cbd 6c82 b23d
000003a0: 8abb 4dbd 04a1 fd3d 9112 923d ce12 9ebd
000003b0: ee5c 113e ccc7 0f3e d9dd 2ebc e50c e93d
000003c0: 861c 853d 5198 9e3d 103c b6bd 2569 0d3d
000003d0: f5af 003e 1553 acbd 8d3d ae3d ed93 20bd
000003e0: f05f d1bd ec39 543c 7c72 90bd 1f00 85bd
000003f0: 726e 633d bb04 a0bd fce9 89bd 87ee c5bd
-0.041129455 0.065013796 -0.013791953 0.058202308 0.03331492 -0.078519486 0.09635839 -0.03483026
0.01877079 0.115672626 -0.093198486 -0.03674624 0.003826067 0.067267224 -0.024189103 0.11503983
0.061727587 0.030950401 0.11262115 0.06874948 -0.0072783395 -0.029406358 -0.058872085 0.008193121
-0.046652727 -0.017911684 -0.021486148 -0.062145576 0.106676005 -0.08803638 -0.004995887 0.099729255
-0.017462093 0.10521833 0.028440893 -0.109435186 0.10856152 0.091663815 0.09535082 0.020194676
-0.09789413 -0.12511303 0.026647542 -0.10486964 0.07747297 0.019716458 -0.011180689 -0.05308475
-0.09810343 -0.026891211 -0.012890852 0.045376822 -0.054132123 0.0036066466 0.058197726 -0.11641674
-0.03770955 0.11307592 -0.034220055 -0.097229905 -0.099603236 -0.08445007 -0.02939536 -0.07617582
0.0075377594 -0.0038074828 0.071620464 0.06627077 -0.10612931 -0.07067727 -0.08960647 -0.044852145
0.05632078 0.09870166 0.06785186 -0.02827455 0.023855638 0.018255612 0.04102483 0.06805651
0.08907632 0.014675438 0.11585872 0.016583372 -0.037492212 -0.09484665 -0.07378628 0.106688924
0.11794618 0.0017783775 0.07677724 -0.004684865 0.058222387 0.12846464 -0.10121567 0.07322732
0.039746515 -0.039650183 -0.068497285 -0.049471002 0.08934225 0.021375092 0.027011476 0.105043024
0.08434894 -0.058078274 0.019895859 0.07893691 0.11837586 0.09280919 -0.10594133 0.12528507
-0.08051545 0.05345874 -0.06714682 -0.037800077 0.08061406 -0.020176642 0.09876795 0.1091541
0.10652974 -0.009988417 -0.11400935 -0.030736327 -0.10794071 0.009565975 0.095825344 0.1348946
0.14670494 0.03532867 0.11923524 0.05109112 0.016442176 0.121339306 -0.0680196 -0.09227492
-0.06442398 -0.057639346 -0.08118337 -0.06690696 0.06948157 0.117522545 0.101121746 -0.08178296
0.12787363 0.044356897 -0.081882104 0.00069191185 0.0023902925 0.05267314 0.026871586 -0.09451404
-0.041523155 -0.08606351 0.06368583 -0.09521459 -0.051312137 0.0798678 0.025444081 0.14349912
-0.0036203784 0.0029735425 0.08416205 -0.09137931 0.12090543 -0.016545918 0.14512245 0.07278403
0.09595819 -0.11714994 0.09972211 0.08285762 0.0014728049 0.062152483 0.042262156 0.0622063
-0.08613104 -0.06701678 0.02944312 -0.037201833 0.102402784 -0.0032857333 0.053111106 -0.01940845
-0.040807784 -0.0042687897 -0.08539758 0.016252467 0.094353236 -0.046557013 0.1241163 -0.051169015
-0.012776651 -0.066297464 0.046255555 -0.08514605 -0.09713244 0.041936506 -0.0406533 -0.027891723
0.031733666 -0.08786161 -0.05441881 0.016449213 -0.035909005 -0.11872561 -0.017151894 0.10062766
0.11570915 -0.09168413 0.025930107 0.08451512 0.06265577 0.11414474 -0.005698506 -0.012843563
0.03317572 -0.07440944 0.118654445 0.016845917 -0.08804881 -0.021157138 -0.033380255 -0.008409346
-0.07824906 0.035839733 0.064137764 -0.018039702 0.05174991 0.08008901 -0.076405056 0.08716282
-0.05022768 0.12384227 0.071324475 -0.077184305 0.14195606 0.1404106 -0.01067301 0.113794126
0.06499581 0.07743896 -0.08898175 0.0345241 0.12567122 -0.08414284 0.08507834 -0.039203573
-0.10223377 0.012953263 -0.07053086 -0.06494164 0.05552525 -0.07813402 -0.06734082 -0.09664636

actor_K.1.bias f4 [8]
00000000: b9b6 37bd c8d8 16bc 459d 33bd b12e 3d3d
00000010: 408e 82bd 6111 c13d 335c 83bd dfb5 c43d
-0.044851992 -0.009206958 -0.043851156 0.046187107 -0.06374788 0.09427143 -0.0641407 0.09605002

actor_V.1.weight f4 [3, 64]
00000000: f719 8a3c 275c b5bd 8f2f 1abd 17e7 d9bd
00000010: 41f1 dfbd 69cd cebd faba f5bd df44 00be
00000020: 8de8 9e3d fdf9 2cbe 67b5 0fbe e536 3a3d
00000030: 7d28 c0bd 88df 903d ab2c e93d 3800 29bd
00000040: 296e b13c 7f7f b93d 9195 e039 ff95 25be
00000050: 1970 0fbe 6237 cebc 5887 2cbe b32b 0cbe
00000060: 1afb b1bd d087 04bd 5af7 dabd a011 05be
00000070: 9bdf ddbd 3889 fcbd b252 003d 7bd2 e2bd
00000080: 4992 983d 6c8b f0bd c4e2 253d 39ad 1abd
00000090: dcda aabd de4f 763d 8314 cfbd 82d2 0cbe
000000a0: f615 883c ba91 223d 935a d1bb 8725 e3bc
000000b0: 2e45 79bb d92b 1fbe d91a 07be f062 0abe
000000c0: dd3e 2bbe cbe0 8d3d bbec e6bd 7e2a 01be
000000d0: ba55 093d 5ae5 3abd 0e71 5b3c 77a3 37bd
000000e0: b8f3 df3d 39c8 2abb ac34 a43c 7882 a23d
000000f0: 9168 2d3d 57a7 f6bc 7ec3 e23d ccf5 86bd
00000100: 35ae 8cbd a949 4d3b e277 dc3d cd28 a1bd
00000110: c956 c93d a861 16bd 5bd6 c73d 08d2 073d
00000120: 2f7c 3f3d d483 0cbc 2763 b23d 0d55 c6bd
00000130: a46e 9cbd d87a c83d 34eb 803d 3de4 c7bd
00000140: c279 e23d 4a72 653d e7be 153d 0aa1 cd3d
00000150: d1f2 bfbd 51c8 813c 0eb0 a5bd 2684 5d3d
00000160: 9fdc 593d 193d 84bd af4f 05be b9bb f2bd
00000170: 7e64 6e3d ede3 90bd 2724 dc3d b0e5 42bd
00000180: 7858 16bd e0c1 fd3b cd64 90bd 1e92 f3bd
00000190: 8cde e23d 1a10 a93d f5d4 d1bd 42de 07be
000001a0: 564f fdbd 68c0 f33c b87e 6bbd 344b debc
000001b0: 5163 e8bc 4176 94bd 516a 9b3d 23e7 c9bd
000001c0: 4d07 efbc ec6a 13bd 64a7 ba3d e44f 3d3c
000001d0: d78f 4cbd f24a b93c fe6b 4cbd f25f f23c
000001e0: 980b 4ebb 4bf9 b5bc ebd7 52bd f294 993d
000001f0: 4cc3 c6bd c21e bf3c f065 093d 95aa cb3c
00000200: 894b fa3d 9bdd 8c3d b4f8 cbbd f49c 85bd
00000210: 6a9e 89bd 404a d5bc 0de6 e03d 7867 0e3e
00000220: 7af7 4a3d 45d2 843c 066d cfbb 84df d9bd
00000230: a5db 8a3c b86f acbd 787e d9bd dfac 4f3d
00000240: e09b 9d3d a3df f1bc efc3 8e3d 694a 913d
00000250: b06c b03d bd3e bd3c e19c 20bd 4989 333d
00000260: 6938 b7bd 3a47 bdbd d89e 5d3c 8e15 11bd
00000270: 0b88 2e3d 20cf e9bc afd7 7d3d eb03 033e
00000280: 4b3a cabd cc0a 893d 4888 103e 776a f739
00000290: da01 ebbd 83a3 29bd e6e8 a1bc 04f5 91bd
000002a0: 4da8 073e 9867 b1bd eb4f df3d a39e 433c
000002b0: e918 a93d 62ca 973d 4512 6f3d 1075 08bc
000002c0: 510f b33c 67a2 613d b210 6f3d 1edd b43d
000002d0: 1402 a3bd 749d a83d 1e16 f23d 5a0e a4bc
000002e0: 844e 3d3c 640e 153e c91e e03c 8599 be3d
000002f0: 75b8 91bd 7f35 4dbd 28f4 96bd 752f 293d
0.016858084 -0.08855467 -0.03764301 -0.1063978 -0.109346874 -0.10097773 -0.119985536 -0.12526272
0.07759199 -0.16892238 -0.14034043 0.045462508 -0.093827225 0.07073885 0.11385473 -0.041259974
0.021658974 0.09057521 0.00042836045 -0.161705 -0.14007606 -0.025172893 -0.16848505 -0.13688545
-0.08690472 -0.032356083 -0.1069171 -0.12995005 -0.10833665 -0.1233086 0.031328864 -0.11075302
0.07449777 -0.117453426 0.040499464 -0.037762854 -0.08342525 0.06013476 -0.10111334 -0.13752177
0.016612034 0.039689757 -0.006388971 -0.027727855 -0.003803562 -0.1554407 -0.13193835 -0.13514304
-0.16723199 0.069276415 -0.112756215 -0.12613866 0.03352902 -0.045628883 0.013393654 -0.044833627
0.109351575 -0.0026059283 0.020044647 0.07935041 0.04233605 -0.03010909 0.110724434 -0.06589851
-0.06869165 0.0031324422 0.10765053 -0.0786911 0.09831006 -0.036714226 0.09757682 0.033159286
0.04674929 -0.008576352 0.08710318 -0.09684191 -0.076382905 0.097890556 0.062948614 -0.0976033
0.1105838 0.056017198 0.03655901 0.100404814 -0.093724854 0.015842589 -0.080902204 0.054081105
0.053188916 -0.06456966 -0.13018678 -0.118522115 0.058201306 -0.070747234 0.10749083 -0.04758233
-0.036705464 0.007744059 -0.07050476 -0.11893104 0.11077604 0.08255024 -0.102456965 -0.13268378
-0.12368648 0.029754832 -0.057493895 -0.027135469 -0.02836767 -0.07249118 0.075886376 -0.09858539
-0.029178286 -0.03599064 0.091139585 0.011554692 -0.049941864 0.022618745 -0.049907677 0.029586766
-0.0031440016 -0.022213599 -0.051475447 0.07499112 -0.09705219 0.023330096 0.03354448 0.024861613
0.122214384 0.068782054 -0.09959546 -0.06524077 -0.06719668 -0.026036382 0.10981379 0.13906658
0.04955242 0.016213546 -0.0063301353 -0.10638335 0.016950438 -0.08419746 -0.10619825 0.050701972
0.076957464 -0.029525584 0.06970965 0.07094271 0.086144805 0.023101205 -0.03921211 0.043832097
-0.08946306 -0.09242101 0.013526641 -0.035420947 0.04261021 -0.028541148 0.06197327 0.12794463
-0.098744 0.066915125 0.14114487 0.00047190834 -0.114749625 -0.041415703 -0.019764375 -0.07126811
0.13247795 -0.08662337 0.10903915 0.011939677 0.08256704 0.07411648 0.058367033 -0.008328691
0.02185789 0.05508652 0.05836553 0.08831237 -0.07959381 0.08233157 0.11820625 -0.020026375
0.011554364 0.14556271 0.02735843 0.09306625 -0.071152605 -0.050099846 -0.07370788 0.041305024

actor_V.1.bias f4 [3]
00000000: de35 c23d 37ab ae3b 618f 8b3d
0.094829306 0.005330469 0.06814457

expert_K.weight f4 [3, 8]
00000000: 07b1 70bf 405f 08bf 1c42 243f cabb aebf
00000010: 322d 483d f408 903f 50e2 73be d82f 633d
00000020: bb0f 14bf 80f7 d9bf 5af7 e3bf 53b3 44be
00000030: 4576 743e 8dde 13bd 5282 013d a6f9 20bf
00000040: 74d1 683e bf45 893e 76dc 4bbf 36b7 d63e
00000050: a30b a8bf 3c97 7b40 08d3 06be d5a8 8abf
-0.9402012 -0.5327034 0.64163375 -1.3651059 0.048871227 1.1252732 -0.238168 0.05546555
-0.578365 -1.7028656 -1.7809861 -0.19209032 0.23873241 -0.036100913 0.031618424 -0.62880933
0.2273615 0.26811025 -0.7963327 0.41936654 -1.3128551 3.9311056 -0.1316644 -1.0832773
