gym-multigrid-master/results/coma/key/steps_1500000_ngames_NA_USE_KG_ball + key/model_weights_save_dir/actor_2_episode_10000.pth (torch, 101114 bytes, 11 tensors)

fc1.weight f4 [64, 294]
000000 66 69 95 bc 9b c8 8f 3d 2a 73 ca bc 02 18 d2 3a
       -0.018238734 0.07020684 -0.024713118 0.0016028883
000010 88 9a 2c 3c 56 55 13 3d 45 76 5f 3b 42 c1 c9 bc
       0.01053489 0.035970055 0.0034097594 -0.024628285
000020 ff 70 c7 3c e5 2a bb 3c d8 93 0e 3d 30 8f ee 3b
       0.024345873 0.022847602 0.034808964 0.007280253
000030 22 ea 63 3d 07 03 1c 3d a7 da 5e 3d 50 98 8c 3c
       0.05564321 0.038088825 0.054407742 0.017162472
000040 f1 af 7a 3d e8 22 c1 bc 70 a4 40 3d 45 e4 af 3c
       0.061202947 -0.023576215 0.04703182 0.021471152
000050 71 c8 05 bd d5 f6 0d bd ce d9 9f 3d 7a d1 67 3d
       -0.03266186 -0.034659225 0.07805215 0.056596257
000060 ba c5 4c 3d 2c 30 ff 3b f3 44 71 3d 96 e8 49 3d
       0.049993254 0.007787725 0.058903646 0.049294077
000070 02 18 2a bc c0 43 5d 3a a4 33 3d bc 73 e6 e0 bc
       -0.0103817005 0.00084405765 -0.011547957 -0.027453637
000080 1e 0d 96 3d 69 e6 04 3d 8a 70 0d 3d 98 91 89 3c
       0.07326721 0.0324463 0.034531154 0.016793057
000090 80 7c 9b 3c 34 11 1b 3d 04 b4 ad bc 9b 9c 3a 3d
       0.018980265 0.037858203 -0.021204002 0.045559507
0000a0 21 3d 37 3d c0 dd 29 3c e8 6e 61 bb e5 74 04 bd
       0.04473603 0.010367811 -0.003439838 -0.03233804
0000b0 68 6f 04 bd 85 34 1d bd 39 11 7b 3c 08 b6 3c 3c
       -0.032332808 -0.038380165 0.01532393 0.011518009
0000c0 4e a6 80 3d 17 06 aa 3b 68 8b 61 bb a5 cc ba bc
       0.0628172 0.0051887142 -0.0034415368 -0.02280266
0000d0 9d f3 99 3c f8 2a 49 3c 71 70 2d 3d aa a9 1b 3d
       0.018792922 0.012278311 0.04234356 0.0380036
0000e0 b0 a1 1c bc 05 26 d3 bc a6 52 97 bc 7a 87 82 bc
       -0.009560034 -0.025774965 -0.018472027 -0.01593374
0000f0 dd 9a 6b bb ed b6 34 3d f7 90 09 bd 2a 76 19 3d
       -0.003595046 0.044119764 -0.033585515 0.037466206
000100 21 21 64 bc 66 58 dd bc 61 de 99 bb 11 24 38 bc
       -0.013923914 -0.02701969 -0.004695699 -0.011239068
000110 74 ce 69 3d 6d c6 21 bd fb cb 72 3d 80 d0 25 3a
       0.057081655 -0.039495874 0.059276562 0.00063253194
000120 17 eb 15 3d 69 ff 95 3d c8 6e 40 3d ef de b8 bc
       0.036601152 0.07324106 0.04698065 -0.02256724
000130 ea e4 ca 3c a8 63 23 bd 70 fb a9 3b 98 87 42 3d
       0.024767358 -0.03988996 0.0051874444 0.047492594
000140 2c b2 bb bc 63 b0 9b 3b ca ed 44 3d ac 2e f5 3c
       -0.022912107 0.0047512515 0.048078336 0.029929481
000150 9c 0d 63 3d db 24 51 3d 74 e8 a4 3b 2b f0 22 bc
       0.0554329 0.05106054 0.0050325934 -0.009944956
000160 e3 dc 13 bd e8 9a bb 3c 01 7c af 3b 38 0b ae 3c
       -0.036099326 0.022901013 0.0053553586 0.021245584
000170 f7 dd 67 3d 3e a5 6c bc 61 c5 38 3c 5c b0 c3 3c
       0.056608167 -0.014443694 0.011277528 0.023887806
000180 3e a9 0c 3d 38 bd 07 3d 3c 4c 87 3c cb 34 c7 3b
       0.03434109 0.033139437 0.016515844 0.0060792915
000190 22 db 9e bc 00 37 2e bb b6 a9 e1 3c dc b7 27 3d
       -0.0193916 -0.0026583076 0.027546745 0.040946826
0001a0 bd 6c 25 3d 2b 7f ad bc 45 00 6d bc 78 fc af 3c
       0.040386904 -0.021178802 -0.014465396 0.021482691
0001b0 af d3 a6 3d c4 9f ad 3c c9 34 82 3d c5 1b 36 3d
       0.08145844 0.021194346 0.06357724 0.044460077
0001c0 cc 8a e0 bb 88 56 13 3d d6 4d 22 bc d4 45 c3 bb
       -0.0068524834 0.035971195 -0.009906253 -0.005959252
0001d0 ff 12 8b 3d 5d 4e 9a 3c df 41 8b bc 08 8f b2 bb
       0.067907326 0.018836195 -0.016999183 -0.0054491796
0001e0 b6 c2 ac 3d 92 a2 14 3d 82 ec 1b bd 92 3e f3 3b
       0.08435576 0.03628785 -0.03806735 0.0074232304
0001f0 c8 a8 0e 3c e7 11 65 bd b4 ed 7e 3d ac 92 2f ba
       0.008707233 -0.055925276 0.06223841 -0.0006697576
000200 5b 56 82 3c cb 35 4d bd 97 5c 14 3d 4a be 01 bd
       0.015910318 -0.05010013 0.036221113 -0.031675614
000210 6a e0 50 3d 1f ca 14 3d 45 6b f8 3c 23 ff 58 bb
       0.050995268 0.03632557 0.030324588 -0.0033111058
000220 18 dd 69 3d e8 77 7d 3c f8 75 9a bc af 14 e7 3c
       0.057095617 0.015470482 -0.01885508 0.028208105
000230 38 06 d5 3b a2 bb 1a 3d de f4 ae 3c 42 25 c3 bc
       0.0065009855 0.037776597 0.021356996 -0.023821477
000240 f1 59 8b 3c e2 62 ae 3d 62 df fb bc de 96 20 3d
       0.01701066 0.08514954 -0.030746166 0.03920638
000250 37 22 8d 3c 7a 03 6a bd 34 3d 6f 3d cf 43 26 3d
       0.017228229 -0.05713222 0.058407977 0.04059201
000260 60 2c 74 bc 9d 72 06 3d 67 04 43 3d 78 05 b2 bc
       -0.014903158 0.032824147 0.04761162 -0.021731123
000270 52 7d e4 3b 4b 5e 30 3d 9b da 38 3d c4 c3 8c bc
       0.006972947 0.043058675 0.045130353 -0.017183192
000280 a3 0d d9 3b 90 8f 88 3c e2 82 98 3c c8 98 22 bc
       0.00662394 0.016670018 0.018617097 -0.009924121
000290 ef 1a 72 3d 07 75 ed bc 9f 63 6e 3d 97 6f 29 3d
       0.059107717 -0.028986467 0.058200475 0.041366186
0002a0 86 0a 86 3d fc 1a e3 3b e8 8e 4a ba 78 1f 22 bd
       0.06544976 0.006930707 -0.0007726983 -0.039580792
0002b0 64 6b c6 39 80 f3 3c ba d0 c6 21 3d 61 e7 18 3d
       0.00037845515 -0.0007207915 0.039496243 0.037330035
0002c0 35 6b 3b 3d 72 66 4b 3c e6 28 53 3c f1 a9 47 bd
       0.045756537 0.012414562 0.012888169 -0.048746053
0002d0 80 4d b4 3b 95 57 d5 3c 09 a0 1a bc 68 96 26 3d
       0.005502403 0.026042739 -0.009437569 0.040670782
0002e0 7a 33 81 bc 00 07 ac ba d1 c0 b1 bc a4 d3 62 3d
       -0.015771616 -0.0013124645 -0.021698387 0.055377617
0002f0 6b 50 00 bc 97 3c d3 bc f6 f3 a5 3d 3a 96 33 bd
       -0.007831673 -0.025785727 0.081031725 -0.04384444
000300 63 e5 98 3d c3 aa 65 3d 51 41 66 3d 8b eb 3e 3c
       0.07465627 0.056071054 0.056214634 0.0116528375
000310 b2 b2 11 3c 98 ba de bb 8a 44 88 3d 5c 9a 79 3d
       0.008892702 -0.006797146 0.06653698 0.060938224
000320 22 13 83 3d 02 ef b2 3b dc 6a a7 bc 7a 32 17 3d
       0.06400134 0.005460621 -0.020436697 0.036913373
000330 4a b4 a3 3d a0 0a 07 3d f4 c8 59 3d 60 dc 16 3d
       0.07993372 0.032969117 0.05317016 0.03683126
000340 98 10 8e bc f6 c4 83 bc b1 a5 50 3c 8c f7 db bc
       -0.017341897 -0.01608513 0.012734816 -0.026851438
000350 92 28 4a 3c da 07 b7 3b 25 dd 1a bd c0 93 1e bb
       0.012338774 0.005585653 -0.037808556 -0.0024196953
000360 a5 db 7f 3c 0c 81 54 3d b8 f0 89 3c 3f 75 09 bd
       0.015616332 0.05188088 0.016838416 -0.03355908
000370 e8 d0 2f bd ce c4 58 3d 9e 07 34 3d d2 e9 2b 3d
       -0.042923838 0.052922063 0.043952577 0.041971035
000380 f9 0d 6e 3d aa b8 5c 3d eb 2a 39 3d 40 c8 70 ba
       0.058118794 0.053887047 0.045206945 -0.0009185113
000390 4c dd 17 3d 90 48 9f 3d 39 1a 2e 3d c8 18 cb bc
       0.03707628 0.07777512 0.042505477 -0.02479209
0003a0 cc 75 91 3d 30 e4 8c 3b 17 c0 14 3d ed 2d 9d 3b
       0.07102546 0.004299663 0.036316004 0.0047967345
0003b0 d5 53 06 3d bb f1 0b bd b5 91 2e 3d 26 4c 51 3d
       0.032794792 -0.03416608 0.042619426 0.05109801
0003c0 63 a3 c4 bb 75 aa f6 3c 5d 34 e6 3c b3 76 84 bc
       -0.0060009225 0.030110577 0.02810114 -0.016169881
0003d0 86 47 b3 3c 90 31 60 3d 29 ff 5b bc 23 8f 3f 3d
       0.021884691 0.054734766 -0.013427534 0.046767365
0003e0 d5 14 19 3d 4a b6 ed bc 94 b1 cb 3c 54 7b 23 3d
       0.037373383 -0.029017586 0.02486495 0.039912537
0003f0 1e f2 cd 3c 11 15 36 3d 28 ed 79 3c 6d 3d 6b bc
       0.025139865 0.044453684 0.015254296 -0.014357907

fc1.bias f4 [64]
000000 54 0b ce bb 24 72 3f 3d ef 68 12 3c c4 2f d6 bc
       -0.0062879715 0.046739712 0.008936151 -0.026145823
000010 05 50 15 3d 31 b9 88 3d 54 d4 03 3d da d1 d0 3c
       0.036453266 0.066759475 0.032184914 0.02549069
000020 43 bb 46 3c 7b 22 99 bc 9f 61 03 bd b1 29 85 3d
       0.012129608 -0.0186932 -0.03207552 0.06502093
000030 f2 bf 1f 3c 55 f7 86 bc fa 92 4c bd 05 f9 53 3d
       0.009750353 -0.016475359 -0.049944855 0.051751155
000040 14 e4 01 bd 6a 92 6b bd 1c 90 82 bc 68 f0 1d bd
       -0.031711653 -0.05751268 -0.015937857 -0.038559347
000050 6e 77 1c 3d 68 20 1f bd f3 39 a0 3d be e4 85 3c
       0.038199835 -0.038849264 0.07823553 0.016344424
000060 0c c2 e0 bc 74 2b 06 3d fc 2c a2 3a 39 08 af 39
       -0.027436279 0.032756284 0.0012373026 0.00033384727
000070 9b d3 17 3a 54 93 16 3d c5 61 d9 bb f8 3b 14 3d
       0.00057917245 0.036761597 -0.0066339695 0.036190003
000080 ca 9c 66 bd 1a 42 2c bc e9 f2 8e 3d cc e3 78 3c
       -0.05630187 -0.010513807 0.06979925 0.01519103
000090 60 7f 66 bd 28 ca b6 bc 38 87 04 bd 91 0d 24 3d
       -0.056273818 -0.022313192 -0.032355517 0.040052
0000a0 4a 45 13 bc 05 50 93 3d 7b 83 02 3d 65 0a 38 bd
       -0.008988688 0.07192997 0.03186367 -0.044931788
0000b0 34 e9 cd 3b c8 2b da bb e1 8c 88 bc c4 81 30 3d
       0.0062839035 -0.006658051 -0.016668739 0.043092504
0000c0 f3 c8 b5 3c 6b 9b 93 3d 76 77 6d bc 25 ea 8b 3c
       0.022190547 0.07207378 -0.014493814 0.017079422
0000d0 ed 4f 32 bd 25 ec d4 bc 34 e4 85 3d 02 93 1c 3d
       -0.043533254 -0.025991509 0.06537667 0.038226135
0000e0 6b d7 93 3b 23 51 cf 3c 96 74 36 3c 5a b2 8e bc
       0.004511764 0.025307244 0.011136195 -0.017419029
0000f0 49 3d f0 3c ca 92 b2 3d 56 95 1a 3d 4e 68 8e bc
       0.029326098 0.08719404 0.037740074 -0.01738372

fc2.weight f4 [64, 64]
000000 5a 4c aa bd 06 33 98 3d 87 1b 72 bd 0a 4b 50 bd
       -0.08315344 0.07431607 -0.059108283 -0.050852813
000010 fe 25 86 bd a7 ab ba bd 18 53 87 bd 55 6f 62 bc
       -0.06550215 -0.09114771 -0.06607646 -0.013820489
000020 32 81 3c bd 6b 85 a1 3d ef fa 95 bc cd a0 01 be
       -0.046021648 0.078867756 -0.018308131 -0.12658997
000030 7b fc 52 3c 75 52 15 3a a3 dc dd 3d 13 dd 2a bd
       0.012877579 0.0005696186 0.10833099 -0.04171474
000040 0c 46 db bd 76 78 f0 3d c3 34 f7 3d 83 86 97 bd
       -0.1070672 0.11741726 0.120706104 -0.07398703
000050 a8 30 ad 3d ea 6e 8b bd 70 a5 eb bd 51 f3 45 bd
       0.08456546 -0.068082646 -0.11506164 -0.048327748
000060 39 b4 3d 3c 12 da 01 bd 8a 05 9d bd fe 8e cf 3d
       0.011578613 -0.03170211 -0.07667072 0.101346955
000070 d8 fe 72 3d 45 3e 89 bd 96 3a fb bc ae 33 07 3c
       0.05932507 -0.0670133 -0.030667584 0.0082520675
000080 c5 6c 0a 3d 1d d2 64 3c da d8 28 3d 67 56 02 3d
       0.033795137 0.013966111 0.04122243 0.03182068
000090 86 2d 91 3d 0f 68 df 3c d8 ce 30 3c 0d ff c9 bd
       0.07088761 0.027271299 0.010791503 -0.098631
0000a0 e4 eb 88 bd 88 52 b1 bc a5 44 f9 bd 2c d8 81 bd
       -0.066856176 -0.0216458 -0.12171296 -0.0634006
0000b0 2e 7b b0 3d 5a 97 2d bd 11 50 04 3d 7f 3c 8c 3d
       0.08617245 -0.04238067 0.03230292 0.06847476
0000c0 9e cf 8c 3d 1a 49 56 3d 36 98 68 3c b6 a5 96 3d
       0.06875537 0.05231581 0.014196446 0.073558256
0000d0 2c ee eb 3d c5 2b 67 bd 10 7c 09 3d ab 8b 0b bd
       0.11520037 -0.056438226 0.03356558 -0.034068745
0000e0 51 0f 56 bd 3e bd 60 3c a9 5a fd bc cb 73 d8 3d
       -0.0522607 0.013716994 -0.03092702 0.10568961
0000f0 ff 2d c5 3d 15 49 cf bc ee cc 4a bb 31 fe b2 bd
       0.09627914 -0.025303403 -0.0030944902 -0.087398894
000100 50 cf a3 3c 0e 7f e8 bd e1 ca 72 3c 0a 22 f9 bd
       0.019996315 -0.11352359 0.014818878 -0.121646956
000110 de 34 36 3c 5f 9b fb bd 26 31 72 bd e5 c2 f0 3d
       0.011121003 -0.12285494 -0.059128903 0.11755923
000120 36 09 fb bd 17 7d 85 bd 9a a0 c7 3d 72 41 6b bc
       -0.12257616 -0.065179996 0.09747429 -0.014358865
000130 be 8c ad bc 37 bb 5a bd 53 59 f8 3d a6 7a 43 3d
       -0.021185275 -0.0534012 0.12126412 0.04772439
000140 c1 ed 08 3b 58 18 c1 3d 7e 13 17 bd 54 0d e7 bc
       0.0020893665 0.09428471 -0.036883824 -0.028204598
000150 e0 17 c1 3c 01 77 ff 3c a6 56 2d 3d ee 8e ca 3d
       0.023570955 0.031184675 0.042318963 0.09890543
000160 53 1f 85 3c 92 a3 bd bc 61 cd fb bc cc 68 0d 3d
       0.016250288 -0.023149285 -0.03073758 0.03452377
000170 06 1b bc bd 78 e0 ca 38 3e b6 1c bd e7 43 a5 3d
       -0.09184842 9.673921e-05 -0.038259737 0.08069592
000180 d4 ab 94 bd 84 76 2b bc 1e 12 b9 3d 9a 39 ab 3b
       -0.07259336 -0.010465268 0.09036659 0.0052253725
000190 10 63 f1 bd be fc e8 bd 24 d4 2c 3d 9d c9 c9 3d
       -0.11786473 -0.11376332 0.0421945 0.09852908
0001a0 74 27 98 bd a1 86 d5 bd be 7c 3c bd 0c 03 e5 bb
       -0.074294 -0.10426069 -0.0460174 -0.0069888886
0001b0 1e d1 81 3d e1 1a b3 3d 47 57 41 3d e2 50 e1 3c
       0.06338714 0.08745361 0.047202375 0.027504388
0001c0 a9 4d c2 3c cd 17 de bd 38 e4 9a 3d c9 8a ec 3d
       0.023718672 -0.108443834 0.075630605 0.11549909
0001d0 b8 67 7e bd 0b 10 5b bd 2d 6e a7 bc 2f da 41 3d
       -0.062110633 -0.053482097 -0.020438278 0.047327217
0001e0 66 60 9a bd 6e 31 4b bd c7 0c cb bd 62 43 93 bd
       -0.07537918 -0.049607687 -0.099145465 -0.071905866
0001f0 6c 78 92 3d 4b f5 75 bc 02 e6 a3 3d 0e f6 de bd
       0.07151875 -0.015012096 0.08002855 -0.10886775
000200 91 3d f2 3d 18 bd 9e 3d 49 02 c7 3d e5 08 90 bd
       0.11828149 0.077509105 0.09717233 -0.070329465
000210 ef 6a 27 3d 03 f7 ce 3d 3c 48 97 3d 9f 4d c7 39
       0.040873464 0.101057075 0.073868245 0.0003801407
000220 c1 3d dd bd 93 e1 8c 3d 94 00 ec bd c7 a8 0f 3e
       -0.10802794 0.06878962 -0.11523548 0.14029227
000230 85 02 f5 3d d6 f3 a9 bc 81 36 49 bd d6 91 5d 3d
       0.11963371 -0.020746153 -0.049124245 0.054094158
000240 5c a5 cb bc 4c 44 98 bd 79 d7 2e 3d ad 2b c1 bc
       -0.024859123 -0.074349016 0.04268596 -0.023580397
000250 2c 8f f5 3d 18 b6 3b 3b 0d 7c 05 bd 22 63 eb bc
       0.119901985 0.0028642472 -0.032589007 -0.028733794
000260 e1 d5 c0 bd ba f7 48 3d 59 f1 e3 3c 63 7e 61 bd
       -0.09415794 0.049064375 0.027825044 -0.055052172
000270 eb cd 1b 3e 13 21 86 bd 0d d1 4c 3d 7f 00 bf bc
       0.1521527 -0.06549277 0.050004054 -0.023315666
000280 d2 90 02 bd ce 17 cc 3b b1 46 f6 3d 66 5d 24 3d
       -0.031876393 0.0062284237 0.12025202 0.040128134
000290 13 8a b4 bd b1 a9 9e bd 7f f4 77 3d 00 dc 4b bd
       -0.08815398 -0.0774721 0.060535904 -0.049770355
0002a0 67 eb 30 bc 1d e1 75 3d f4 2d 51 bd ea 02 40 bd
       -0.010798312 0.060029138 -0.051069215 -0.04687778
0002b0 87 85 00 3e 6e 57 cd 3d 84 83 a5 bd 2c b1 57 bd
       0.12550937 0.100264415 -0.08081725 -0.0526592
0002c0 ef 42 00 3e 3a 9c 48 3d 7a 77 4c bd e2 10 14 3e
       0.12525533 0.048977114 -0.04991863 0.14459565
0002d0 0f a6 8d 3d 13 e8 06 bd 6f a8 a5 3d b2 68 01 bd
       0.06916439 -0.032936167 0.08088767 -0.031593986
0002e0 9e f4 93 bc db 9d 0e bc 7d 8a f3 3d 70 b1 07 3e
       -0.018060979 -0.008704628 0.11891649 0.13251281
0002f0 d9 80 25 bd a3 d1 b4 bd b4 7f 8f 3d 0c 6b 0d 3e
       -0.04040608 -0.088290475 0.07006779 0.13810366
000300 69 22 f4 bd 50 cd ca 3b db f6 42 3d fd a8 96 bc
       -0.11920626 0.006189026 0.0475987 -0.018391127
000310 99 67 f2 bd 17 ac 4d bc fa 09 b9 3d f1 31 bf bd
       -0.11836166 -0.012553236 0.09035106 -0.093356974
000320 7c 14 80 3d a7 5e cb 3d 62 79 12 bd 65 82 1b 3d
       0.06253907 0.09930163 -0.03576029 0.03796615
000330 ea d1 4f bd b0 b5 ad bc 73 ed af 3c c4 c5 96 3d
       -0.0507373 -0.0212048 0.02147553 0.073619395
000340 29 7f e0 ba 23 9b f2 bd 31 07 ae 3d e7 a5 1f bd
       -0.001712774 -0.11845996 0.084974654 -0.038976576
000350 a1 0f d1 bd 4c 47 c5 bd 41 1f d7 3d 57 a8 e9 bd
       -0.10208059 -0.096327394 0.10504008 -0.114090614
000360 53 cf d6 3c a7 34 49 bc d5 12 b4 3b 74 fe 03 be
       0.026221907 -0.01228062 0.005495409 -0.12890035
000370 b0 ae 80 bd 5e 01 ba bd 16 91 a1 3d 68 1f b1 bd
       -0.06283319 -0.09082292 0.07889001 -0.086485684
000380 1f 9a 64 bd a8 06 5d bd 38 98 8d 3d 1a c5 8d 3b
       -0.055811044 -0.053961426 0.06913799 0.004326475
000390 df ee f5 3d c2 6c 23 bd ea 22 aa 3d 5f 86 15 bd
       0.12008452 -0.03989864 0.083074406 -0.0365051
0003a0 9e 1f fa bd ad 9b 95 bd b7 88 b8 3d 9a b0 a9 bd
       -0.12213062 -0.073050834 0.09010451 -0.08285637
0003b0 1e 7c aa 3d 06 1f 06 3d fb f9 f4 bd 0e b8 89 3d
       0.08324455 0.03274443 -0.119617425 0.06724559
0003c0 38 ef 05 be 8d 8c c5 bc da 1e 93 bd fe ea c5 3d
       -0.13079536 -0.024114871 -0.07183619 0.09663962
0003d0 78 af cf bd fa c6 d6 bd 60 55 f3 bd 64 d7 b2 bc
       -0.1014089 -0.104871705 -0.11881518 -0.021831222
0003e0 d3 3a a3 3d 2b 10 3b bc 76 db 68 3d c1 fb d8 bd
       0.07970204 -0.011417429 0.05684992 -0.10594893
0003f0 18 cc 87 3d 98 a8 37 bd 89 a0 b4 3d 69 35 9c bd
       0.06630725 -0.044838518 0.08819682 -0.07627375

fc2.bias f4 [64]
000000 80 a3 78 bd af ea 46 bd 35 4b b6 bd d3 19 e4 bd
       -0.0607028 -0.048563655 -0.08901063 -0.11137738
000010 ce b3 ce bd 23 e0 07 be 4d e2 b7 bc 73 a6 2e bd
       -0.10092889 -0.13269095 -0.022446776 -0.042639207
000020 81 ce 90 bd 41 3f 3c 3d 07 c2 24 3d 7f c9 97 bd
       -0.070706375 0.04595876 0.0402241 -0.07411479
000030 cf ac ac 3d 3f 2b 12 3d a5 00 55 3d 8b c6 e7 bb
       0.08431398 0.035685774 0.052002568 -0.0070732287
000040 d7 ba 49 3d 45 5f b0 bd cd 5b df bc ac 37 19 3d
       0.04925045 -0.08611921 -0.027265454 0.03740661
000050 e6 84 ab bd f0 dd 91 bc 54 fd ae 3d ce 22 e4 bd
       -0.08374958 -0.017806023 0.08544412 -0.11139451
000060 4a ac 3e bd 51 41 96 3d 3a e8 50 3d ce 9e 5d 3d
       -0.046551026 0.07336677 0.05100272 0.054106526
000070 fd f2 64 3d 19 46 d1 3c 71 da ac 3d 30 e7 ac bd
       0.055895794 0.02554612 0.08440102 -0.08442533
000080 83 c7 92 3d 4f 4c 06 3e 38 88 22 bd 77 22 d7 3d
       0.0716696 0.13115047 -0.03968069 0.105046205
000090 4e f6 a9 3d c8 00 e6 bd 37 7e 70 3d b1 2e 43 bd
       0.08298932 -0.11230618 0.058714118 -0.04765195
0000a0 20 9c eb bd 15 90 ea 3d 09 4f 8a 3d a2 65 ca bd
       -0.11504388 0.11453263 0.06753356 -0.09882666
0000b0 07 7a 97 bd 54 de ad 3d d0 31 9f 3d fa b5 5b 3b
       -0.07396322 0.08489671 0.07773173 0.0033525215
0000c0 c4 9b 97 bb 62 a6 f6 bd 33 1f 09 3c 68 2e 24 bd
       -0.004626723 -0.12043454 0.008369255 -0.04008332
0000d0 3e 77 a9 3d e0 2c 6a 3c 06 c4 c1 3d d6 b3 23 bd
       0.08274697 0.014292926 0.09461217 -0.039966427
0000e0 df 28 f7 bc c9 4e 5d 3d 18 0b 5a bc 03 31 56 3d
       -0.030170856 0.054030214 -0.013308309 0.052292835
0000f0 c2 3a a9 3d ad af f0 bc b3 ed 70 bd 8a f7 cf 3d
       0.0826316 -0.029380644 -0.058820438 0.10154636

actor_Q.1.weight f4 [8, 64]
000000 48 a9 2a bd e8 d0 d1 3d 88 98 e8 bd 69 42 71 3d
       -0.041665345 0.10244924 -0.11357218 0.058901224
000010 1e d2 88 bd ff 3d d6 3d c2 ee 9e bd d2 b0 b8 3d
       -0.06680702 0.104610436 -0.07760383 0.09018101
000020 85 54 2d bd cb 03 cf 3d 5a 46 c0 3d 9e c4 f8 3c
       -0.042316932 0.10108145 0.093884185 0.030367192
000030 54 1f 03 3d d5 d8 a7 bd a2 87 61 bd 9d 36 ef 3d
       0.0320123 -0.08195654 -0.05506099 0.116803385
000040 b0 fc ce 3c d7 93 89 bd f3 b8 88 bd 5f 6a 50 bd
       0.025266975 -0.06717651 -0.06675901 -0.050882693
000050 b8 87 9e 3d 03 57 34 bd 30 0e 81 bd 39 86 48 3d
       0.0774073 -0.044028293 -0.06301534 0.04895613
000060 8d 0a d9 bd 42 21 96 3d 31 57 64 bc ac a0 eb bd
       -0.105977155 0.07330562 -0.013936804 -0.11505255
000070 20 43 b3 3a ef 56 78 bc 74 88 41 bb 3d 34 1d 3d
       0.0013676621 -0.015157445 -0.0029530795 0.038379896
000080 27 d7 ea bd f8 30 34 bc 34 35 c1 bd e9 4b 6e 3d
       -0.11466818 -0.010998003 -0.09433976 0.058177862
000090 6d 46 9d bd 4f 4d 92 bc 0c ef cc bc e4 0c 96 bd
       -0.07679448 -0.01785913 -0.02501633 -0.073266774
0000a0 84 9a 9d bd b0 8e 4b 3d 5f d9 6e bd cc f5 8d bd
       -0.07695487 0.049696624 -0.05831277 -0.06931648
0000b0 fd f3 2e 3c 0a 67 dd 3d bf 36 47 bd 78 0d 2b bd
       0.0106782885 0.10810669 -0.048636194 -0.04176089
0000c0 7c fd 9f 3d 02 98 c6 bd 8f 05 7a bd 43 12 da bd
       0.0781202 -0.09696962 -0.061040457 -0.106480144
0000d0 76 a2 96 bd 00 5a 3c 3c 25 a8 f3 3d cb 92 40 bd
       -0.07355206 0.011496067 0.118973054 -0.047014993
0000e0 a6 d0 40 3d 33 a5 bc 3d 61 67 cf 3d 25 e1 98 3d
       0.047073983 0.09211197 0.1012714 0.07464818
0000f0 bc 8a 86 bd e6 a3 95 3d 90 2f df 3d 46 74 5d bd
       -0.0656943 0.07306652 0.10897744 -0.054065965
000100 7d 0f c5 3d a8 80 97 bc 56 f3 aa bd 29 a7 a5 bd
       0.09622095 -0.018493965 -0.08347194 -0.08088524
000110 9a 39 ea bd ef 5a b9 bc ef 32 b0 bc 15 5f fe bd
       -0.11436768 -0.022626368 -0.021508662 -0.12420479
000120 27 2a e6 bc d1 6e 42 3c dc de 8a 3d 32 ed 08 bc
       -0.028096272 0.011867241 0.06780788 -0.008357333
000130 1a 23 bd 3d 86 e8 4d bd 61 87 91 3c c1 ed 93 bd
       0.09235211 -0.05027058 0.017764749 -0.07223082
000140 1e 4a 3e 3d 2c 9a 3b bc 4d 7a 0a 3d 65 06 4a 3d
       0.046457402 -0.011450332 0.03380804 0.049322505
000150 5e 5b bb 3c ae 64 1b 3d 65 6e 5a 3c 37 60 8c 3c
       0.022870716 0.037937813 0.013331984 0.017135723
000160 d8 8d cb bc cc a9 48 bc 9b 79 fc bd 01 9e d2 3d
       -0.02484791 -0.012247514 -0.12327882 0.10284043
000170 0d b6 01 3e 80 f4 d1 bd 5d 9b 0c bc 3f b4 25 bc
       0.12667103 -0.10251713 -0.008581963 -0.010113775
000180 35 c7 bf 3d 38 5b c4 bd a3 bb 68 bd bd db ad bd
       0.093641676 -0.09587711 -0.05681957 -0.084891774
000190 9b ca 88 3c 51 48 49 bc af a3 a3 3d 66 16 93 bb
       0.016698172 -0.012285308 0.079902045 -0.004488754
0001a0 56 b3 42 3d a2 17 87 bd 44 a9 eb 3c 1b a8 44 3d
       0.04753431 -0.065963045 0.028767236 0.04801188
0001b0 2a d1 24 bb 85 6f 09 bd 68 59 c4 bc 3d 48 dc 3d
       -0.0025149086 -0.03355362 -0.023968413 0.10755966
0001c0 16 00 0b bd 53 23 bc 3d 83 d1 ef bc 37 6f e1 3a
       -0.03393563 0.09186425 -0.029274708 0.0017199282
0001d0 aa 3b d4 bd 02 66 81 bd 2a 56 01 bd ef d5 e4 bd
       -0.103629425 -0.063182846 -0.031576313 -0.11173617
0001e0 63 b6 b0 bd a7 12 bd 3d df a8 ee 3d 2e da a1 bc
       -0.086285375 0.09232073 0.11653303 -0.019757356
0001f0 b7 fe d4 3d b5 5d 34 3c 52 7a bb bd f3 56 2e bd
       0.104001455 0.01100867 -0.0915419 -0.04256339
000200 16 46 d7 3d ab dc b6 bd b1 90 5d 3d 23 f3 f1 bc
       0.10511415 -0.08928808 0.054093067 -0.029534882
000210 a9 16 57 bd 8b 9e 18 bd 79 b5 e7 bb 83 ef 65 3d
       -0.052511845 -0.037260573 -0.007071194 0.05613662
000220 be 1f d1 3d 3b 30 fa bd e2 e9 f7 ba d9 4c cb bd
       0.102111325 -0.122162305 -0.0018914307 -0.09926767
000230 af b1 9e bd 50 7a e0 3d c3 0d ff bc ae 17 54 3c
       -0.07748734 0.10960829 -0.031134492 0.012945099
000240 b8 9e 87 bc 90 98 b2 b8 32 c4 35 3d 03 7d 72 3d
       -0.016555175 -8.5161184e-05 0.04437656 0.05920125
000250 ca 17 eb bc 5d 10 68 3d 60 84 d6 bd ba 2f 5c bc
       -0.028697867 0.05665623 -0.10474467 -0.013439113
000260 84 c6 d4 3d 49 1d cb bd 1e f0 ee 3b 0c 69 f6 3b
       0.10389426 -0.09917695 0.007291808 0.007519847
000270 ce 0b a1 3c 3f 28 51 bd e6 f9 58 3d c1 c8 d2 3d
       0.01965895 -0.051063772 0.052972697 0.10292197
000280 c9 4f 8c 3d 20 24 20 bd 4f b4 e2 3d 43 69 16 bd
       0.06851155 -0.03909695 0.110695474 -0.03672148
000290 24 26 31 bd 43 70 13 bd 98 e7 c4 bd 56 38 f9 3c
       -0.043249264 -0.035995733 -0.096144855 0.03042237
0002a0 75 d0 2d bd 5e 63 b2 3d 5f e7 42 bd b5 98 d8 bd
       -0.04243513 0.08710359 -0.047583934 -0.105760016
0002b0 1b e5 e2 bd b7 9d d1 3d 6f d6 22 bd ed 53 fe 3b
       -0.11078855 0.1023516 -0.03975528 0.0077614696
0002c0 04 2d 2f bd a7 cd 67 3c a5 a6 02 3e a0 c1 ba bc
       -0.04276754 0.014148152 0.12758882 -0.022797406
0002d0 1e d3 7a 3d 92 d6 a6 3d 33 73 fb 3c 9d 38 e7 bd
       0.061236493 0.08146395 0.03069458 -0.11290095
0002e0 d4 6f bd 3d c4 fa 8f bd 03 cd b6 bd 77 ea 5f 3d
       0.09249845 -0.070302516 -0.08925822 0.054666962
0002f0 db 9a f4 bd 9c 9c 05 be fa 16 dd bb d0 7d 98 3d
       -0.11943599 -0.13048023 -0.006747124 0.07445872
000300 9e 5d 1c bd fd c9 d2 3c b9 61 a4 3d c8 68 96 3d
       -0.038175218 0.025731081 0.080264516 0.07344204
000310 b7 db 87 3c 9a 46 24 3d 4b 5f e2 3d 1c e9 3a bd
       0.01658426 0.040106393 0.11053332 -0.045632467
000320 18 17 af bd 53 b6 09 3e fc 95 dd 3d 89 3a bd 3c
       -0.08549327 0.13448457 0.10819623 0.0230992
000330 bd ad 99 bc dd 4d d8 3d 3d dd 5f bd bf d5 08 3e
       -0.018759603 0.10561726 -0.05465435 0.13362788
000340 48 9e 95 3d 7f 1d c3 3d f1 43 03 bd d5 ce b9 3d
       0.073055804 0.0952711 -0.032047216 0.09072653
000350 d0 60 bd bc c2 a1 6e 3c bd 21 ec bc 23 23 6e 3d
       -0.023117453 0.014564933 -0.028824681 0.058138978
000360 bd 65 b8 bd fc 78 94 3c 53 67 ed 3d e1 a2 80 bc
       -0.0900378 0.018124096 0.11591973 -0.015702667
000370 4b ee ba bd 1a 17 f7 bc 2d 9b bf bd 1c 71 a7 bd
       -0.09127482 -0.030162383 -0.09355769 -0.08175871
000380 4d 86 f7 3d 01 c7 ec bc 52 80 19 3d 2d ef 1d 3c
       0.12086163 -0.028903486 0.03747589 0.0096395435
000390 d7 df 9f 3d 32 f8 7a 3d dd 91 12 bb 78 69 5f bb
       0.07806366 0.061271854 -0.0022364773 -0.0034089964
0003a0 09 4d 93 3d 34 28 48 3d 83 04 ba 3d 34 e7 87 bd
       0.07192428 0.048866466 0.09082892 -0.06635895
0003b0 ab 57 4e bd e7 00 31 bd 6d 58 b4 3d f8 37 3d bd
       -0.050376575 -0.04321375 0.088059284 -0.046195954
0003c0 29 58 bc 3d 52 7b a6 3d fd d9 05 bd 33 6e 25 3c
       0.09196503 0.0812899 -0.032678593 0.010097074
0003d0 6b 64 96 bd df 6a 9f bd 0e fd 25 bc aa 34 6b 3c
       -0.07343372 -0.07784056 -0.010131134 0.014355818
0003e0 69 c7 c1 3d d1 2b 50 3c 73 32 e9 bd a6 00 a7 bd
       0.094618626 0.012705759 -0.113865755 -0.081544206
0003f0 c0 7a 0c 3d 64 a8 c2 bd 9a a5 88 3d c5 4c 3d 3b
       0.03429675 -0.09504774 0.06672211 0.002888487

actor_Q.1.bias f4 [8]
000000 26 4d 90 bd 04 1d 64 bd b9 11 e6 3d 6a b4 28 3c
       -0.07045965 -0.055691734 0.11233849 0.01029692
000010 86 5c 9c bc 77 e5 9e 3d 5a a8 9a 3c 6d 89 e0 3c
       -0.019087087 0.07758611 0.018879104 0.02740928

actor_K.1.weight f4 [8, 64]
000000 7c a0 de 3d ba a9 a8 bb 24 d0 02 3d 09 64 4f 3d
       0.10870454 -0.005147186 0.03193678 0.05063251
000010 f8 b0 29 bd d4 3c f1 3d e5 f5 b7 bd 6c 05 7e bd
       -0.041428536 0.1177918 -0.089824475 -0.06201689
000020 b8 66 d3 3d fe ec 73 bd 1f 53 18 3d a2 01 20 3c
       0.103223264 -0.059552185 0.037188645 0.009766014
000030 e1 ce 90 3b e1 6f fe bc ef 62 e4 3c 7b 43 bb bd
       0.004419193 -0.031059207 0.027879206 -0.0914373
000040 2b 46 99 3d 85 5f 6f bd e9 e6 ce 3c 77 bd 5f 3d
       0.074840866 -0.058440704 0.02525659 0.054624047
000050 64 6d 78 bd fb 13 2f bd e8 cf e1 3d 3e 1c c1 3c
       -0.060651198 -0.042743664 0.11025983 0.023573037
000060 2a 52 a3 bd 9d 7e 13 bd 29 36 2f bd 6f 56 45 bd
       -0.07974656 -0.03600942 -0.04277626 -0.048178133
000070 63 38 8f 3d 5b 4c 84 bd 87 1e b1 3d f8 4c ee 3a
       0.06993177 -0.06459876 0.08648401 0.0018180897
000080 b3 eb a9 bc 69 d2 3e bd 0e 0e 2b 3d 3f e6 f9 3d
       -0.020742273 -0.04658738 0.04176145 0.12202119
000090 ad f2 6c bd 0f 69 fc 3c 7a b1 ea bd 18 17 a9 3d
       -0.05784862 0.030811815 -0.11459632 0.08256358
0000a0 fd 2a c1 bd 61 22 0c 3e 6d 1b e7 3d 03 bd db 3c
       -0.094320275 0.1368499 0.11284528 0.026823526
0000b0 73 bc a6 bd 63 64 a6 bd 9d 94 a6 bd fb a3 73 3d
       -0.081414126 -0.08124616 -0.081338145 0.059482556
0000c0 76 6c 2c 3d e2 f3 14 3d 5d c0 a4 bb 87 e5 7a bd
       0.042095624 0.036365397 -0.0050278143 -0.06125405
0000d0 6f d1 4e 3d 10 4a 9b bc 44 45 76 3d 07 82 65 bd
       0.0504927 -0.018956214 0.06012465 -0.056032207
0000e0 06 cc 43 bd c5 b4 84 3d 70 42 80 3d b7 17 86 bd
       -0.047801994 0.064797916 0.06262672 -0.06547492
0000f0 11 61 0c 3d 9a 69 57 3d 18 c7 aa bd 5d 40 10 bd
       0.034272257 0.052590944 -0.08338755 -0.03521763
000100 99 78 ea bd aa f7 9f bd 0d ac ea 3b 11 53 cf bd
       -0.114487834 -0.0781091 0.0071616233 -0.101232655
000110 cb 18 2a 3c 2c 60 8b bd fc e1 da bc 9e e5 a5 bd
       0.010381888 -0.06805453 -0.026719086 -0.08100437
000120 9d c8 c5 3d 05 e7 32 bd 51 bb 2c 3d 67 30 65 bd
       0.096574046 -0.04367735 0.042170826 -0.055954363
000130 55 20 de bd 73 4e 92 bc cb 5b 50 3c a2 68 26 3c
       -0.108460106 -0.017859673 0.012717198 0.010156782
000140 65 67 27 bc a1 59 ab 3d 48 46 77 bd ae fa a2 3d
       -0.010217522 0.08366705 -0.06036976 0.079579696
000150 2b 32 01 3e 50 84 a2 3d e0 7a da bc 94 f2 d3 bd
       0.12616794 0.07935393 -0.02666992 -0.103490025
000160 d6 a0 30 bd 7d 6e 99 bd 46 4a 62 bc eb 0b ce 3d
       -0.043122135 -0.07491777 -0.0138116535 0.10060867
000170 74 fd b4 bd 13 50 02 3d 54 d3 6b bd 98 95 84 3d
       -0.08837405 0.031814646 -0.057574585 0.06473845
000180 88 ea 81 bc 02 a4 4e bd 35 2a 8b bd 27 e2 be bd
       -0.015858904 -0.05044938 -0.0679516 -0.09320479
000190 02 af e5 bd 5f ae fa bc 86 ca 43 bd 0d f2 b6 3c
       -0.11215021 -0.030600725 -0.047800563 0.022332216
0001a0 25 1a af 3d 5a 86 ef bd 21 ab 8d bc 42 ba f9 3d
       0.085499085 -0.116955474 -0.017293515 0.12193729
0001b0 a8 86 ec 3d be 04 db bc 32 03 e6 bd 24 f4 b1 bc
       0.11549121 -0.02673566 -0.11231078 -0.02172286
0001c0 fe bc 36 bd 2a ba db 3d 0f eb b2 3d b6 d3 2c 3d
       -0.04461383 0.10728867 0.0873624 0.04219409
0001d0 b3 8e 53 bd 04 69 f6 3c 80 af 93 bd 97 c8 aa 3d
       -0.05164976 0.030079372 -0.07211208 0.08339041
0001e0 3f 8a ed bd 21 19 7f 3d 38 64 01 bc b5 17 cc 3d
       -0.11598634 0.062279824 -0.007897429 0.09965459
0001f0 2c 8f 0b 3e 24 47 ff 3d 52 7f 19 3d 7f 21 ef 3d
       0.13628834 0.12464741 0.037474938 0.11676311
000200 79 15 08 3d 29 37 ab bd e4 97 d4 3d 31 39 57 bd
       0.033223603 -0.0836013 0.10380533 -0.052544776
000210 d4 19 c4 3d 7b 6b e3 bc 30 30 02 3d 0c e2 22 3c
       0.09575239 -0.027761212 0.031784236 0.009941589
000220 ee d2 fa bd 8f 28 fa bd df 2e 80 3b 05 a5 17 bd
       -0.12247263 -0.12214767 0.0039118375 -0.03702261
000230 b2 2b be 3d eb 4f 4d 3d 64 0f ca 3b 32 f0 40 bd
       0.09285678 0.050125044 0.0061663855 -0.047104068
000240 10 3b 79 bc 64 89 33 bd bf f5 9e 3d b5 2c b0 bd
       -0.0152118355 -0.043832198 0.07761716 -0.08602277
000250 cf 2b ab bd 20 4a a2 3d 8f ba b7 bd d2 23 98 bd
       -0.08357965 0.079242945 -0.0897113 -0.07428707
000260 3f 95 e3 3d 66 c8 f0 3d ff 56 e0 3d 12 76 8d 3d
       0.11112451 0.11756973 0.10954093 0.06907286
000270 c9 fd ee bd 4e a3 65 bb d5 42 d4 3d 9c 49 ec 3d
       -0.116694994 -0.0035039964 0.1036431 0.115374774
000280 79 4f 7a bd da 42 8d 3c 66 73 ed bd 0f 17 05 3e
       -0.061110947 0.017243791 -0.11594276 0.12997077
000290 57 9b 42 bb e5 66 ec bd 2c bd f3 bd a4 e1 e8 3d
       -0.002969464 -0.11543063 -0.11901316 0.113711625
0002a0 46 7d b9 bd 0f b5 b9 bd 08 69 e3 bd 6d ca 77 3d
       -0.09057097 -0.09067737 -0.111040175 0.060495783
0002b0 d7 d4 bd bd 16 65 43 3d 8b 03 eb bc 27 20 d5 bc
       -0.092691116 0.047703825 -0.028688213 -0.026016308
0002c0 7f 43 25 bd 41 28 cb ba 2f b9 12 bd 70 c6 50 3a
       -0.040347572 -0.0015499667 -0.035821136 0.000796414
0002d0 72 16 93 3c 81 fc cd bc f6 bd 53 bd e2 1b a0 bd
       0.017955039 -0.025144817 -0.051694833 -0.07817818
0002e0 a4 c2 3f bd 1d df a0 bd 11 8c ac 3d a9 10 10 bd
       -0.046816483 -0.078550555 0.08425153 -0.03517214
0002f0 9e b1 13 3a d8 a2 ad 3d 3a c0 a3 3d 40 f0 c3 bd
       0.0005634072 0.084783256 0.07995649 -0.095673084
000300 98 0b f8 3d af 3b c7 3d 62 9f fc 3d 86 ff a9 3c
       0.12111586 0.097281806 0.12335087 0.020751726
000310 9d 44 aa 3d 38 9b 27 3d 20 ae 13 bd c8 8d 2b 3d
       0.08313868 0.040919513 -0.03605473 0.04188326
000320 2e 87 ad bd b1 a5 ff 3c c5 f7 d5 3d cb 95 68 3d
       -0.08473049 0.031206938 0.10447649 0.05678348
000330 f2 ff 87 3d 8d 14 6a 3d eb 2a 91 bd b7 75 f2 3d
       0.066406146 0.057148505 -0.07088264 0.118388586
000340 42 dd b5 bc 5f 17 8e 3d 2c 6c 2a 3d ca f1 c5 3c
       -0.02220023 0.069380514 0.041607067 0.024163146
000350 0a 4e e3 bb f9 bb bd bc bb 70 ce bc ba 82 88 bd
       -0.006936793 -0.023160921 -0.025200238 -0.06665559
000360 ec d1 b1 3d fe dd 0d 3d 31 9e 02 bd 1c 14 e1 3d
       0.086826175 0.034635536 -0.031889144 0.10990164
000370 6b df 12 3e d8 9c a9 3c b0 2e 97 3a 38 66 ad bc
       0.1434304 0.020704672 0.00115343 -0.021166906
000380 b5 c3 a9 bd 21 03 7d 3d d4 dd da 3d e2 30 f7 3c
       -0.08289281 0.061770562 0.106868416 0.030174676
000390 30 97 aa bc ee 62 9d bd 93 d2 31 3a 97 0c 60 bd
       -0.020824045 -0.07684885 0.0006783392 -0.054699507
0003a0 62 9c e0 3c 2c 29 91 bd a6 d7 43 bd 85 03 09 3d
       0.02741832 -0.07087931 -0.04781308 0.033450622
0003b0 5b be c0 bd fa cc 0e bd 0d 23 b7 bb e6 a8 a2 bc
       -0.094113074 -0.03486345 -0.005588895 -0.019855928
0003c0 b0 52 c7 3d d0 c5 c7 3d 8c ec e5 bd e2 ba 81 bd
       0.09732568 0.097545266 -0.11226758 -0.06334473
0003d0 08 a4 f2 3d 57 63 0e bd 52 c6 e4 bc 80 07 94 3b
       0.11847693 -0.034762707 -0.027926598 0.0045174956
0003e0 9d cc a2 bd 7b 53 4e bd f5 61 6a 3c 74 90 dd bd
       -0.07949183 -0.050372582 0.014305581 -0.10818568
0003f0 58 a8 12 3e ad 37 70 bd 81 76 a3 3d c0 e3 f6 3d
       0.1432203 -0.058646847 0.07981587 0.120551586

actor_K.1.bias f4 [8]
000000 bb 5b 77 bc 31 6e 4a 3d 5f 39 76 3d aa 00 36 bd
       -0.015097554 0.049421493 0.060113307 -0.044434227
000010 54 47 0f 3e 69 fc 96 bd ed d5 d2 bd 4b c1 a7 3d
       0.13992053 -0.07372362 -0.10294709 0.081911646

actor_V.1.weight f4 [3, 64]
000000 3c de f5 3d fc bf 08 3d ef 54 73 3c 67 57 2f 3d
       0.120052785 0.033386216 0.014851793 0.042807963
000010 90 e7 23 3d 5e f5 2a 3d 8b c9 8e bd b4 20 5a bd
       0.040015757 0.041737907 -0.06972035 -0.053253844
000020 86 b0 f0 bd 0e 4a fa bd 15 17 83 bc ae d1 35 bd
       -0.11752419 -0.12221156 -0.016002217 -0.04438942
000030 08 22 0b bd ad b1 98 bd 8f c6 52 bd c9 05 29 be
       -0.033968 -0.07455764 -0.05145889 -0.16506113
000040 3f 21 b5 bd 58 b9 2f be 95 3d 56 bd ff c6 89 3d
       -0.08844232 -0.17160547 -0.052304823 0.067274086
000050 6b 32 1a bd 57 09 b3 3c 13 53 7a 3d b7 f5 69 bd
       -0.03764574 0.02185504 0.061114382 -0.057119098
000060 f8 98 75 3c 76 b2 17 bc da a5 e6 3d db b4 32 be
       0.014990084 -0.009258857 0.112621024 -0.17451803
000070 c2 b0 16 be 97 a4 b4 3d ea 9d e1 bd 38 4a e0 bc
       -0.14715865 0.088204555 -0.11016448 -0.02737914
000080 83 34 75 3d 0c 5e d7 bd e3 21 86 3d 4a 20 9e 3b
       0.059864532 -0.10515985 0.06549432 0.0048256265
000090 93 2f 73 bc 12 3f 31 be 04 66 a6 bc eb 67 cc 3d
       -0.014842886 -0.17309216 -0.020312317 0.09980758
0000a0 29 1f a1 3d d3 e4 ed bd a2 83 4d 3d 60 e6 3a 3b
       0.078672715 -0.116159104 0.050174363 0.0028518662
0000b0 96 0d 80 bd b3 3a 7c bd a7 64 05 3d de 72 3c be
       -0.06252591 -0.061579417 0.032566693 -0.18403193
0000c0 35 28 ed bc 55 4c ae 3d bf 1e da bd 54 ef 09 be
       -0.028949836 0.08510653 -0.106503956 -0.13470203
0000d0 1b 2f 01 be fa 19 48 3d b1 e0 cd bd 6c 34 62 bd
       -0.12615626 0.0488529 -0.10052622 -0.055225775
0000e0 73 5f 04 3d 8a 82 26 bd 1c 94 9a bc 16 90 28 bd
       0.03231759 -0.040651836 -0.018869452 -0.041153036
0000f0 3b f8 c3 bd 76 5f 64 bd c6 bb 07 bd 41 1c 12 3d
       -0.095688306 -0.0557551 -0.03313806 0.035671476
000100 28 c2 99 bc 7c cc 96 bb 20 bc c2 3d e3 0d 73 ba
       -0.018769339 -0.004602013 0.09508538 -0.00092717836
000110 cb e2 dc 3d c3 a5 13 3d 2f e5 64 3d e7 cc 88 3d
       0.10785445 0.036046755 0.05588263 0.06679707
000120 2b d1 2e 3d a7 ba 9d bd 53 69 b7 bb 60 5c f0 bd
       0.042679947 -0.07701617 -0.0055972724 -0.11736369
000130 73 9a f0 3d 72 11 c8 3c e8 3e ee 3d 6b 15 b2 bd
       0.11748209 0.024422381 0.11633092 -0.086954914
000140 9c ed da 3d 52 d4 00 be 1f 98 5d 3d 92 47 91 bc
       0.10689852 -0.12580994 0.054100152 -0.017734323
000150 9d de ce bc 3c 84 a6 3d a3 54 50 3d 2f 94 ce 3d
       -0.025252635 0.081306905 0.050861966 0.100868575
000160 2f dc fe 3c 68 88 e1 bd 8b 3d 3f 3d c6 f9 c3 3d
       0.031110851 -0.110123456 0.04668955 0.09569125
000170 2b 0e 25 3d 28 9d e3 3d da 81 a5 3d 8d a4 eb 3d
       0.040296715 0.111139596 0.08081408 0.11505995
000180 e1 46 b8 3d 42 8c b0 3d fd 44 ba bd ea 0d d6 3b
       0.08997894 0.08620502 -0.0909519 0.0065324204
000190 01 19 a2 3d b6 34 09 bb 18 17 d6 3d 0b 69 55 3c
       0.07914925 -0.002093596 0.104536235 0.0130255325
0001a0 66 48 91 bd 02 43 92 bd fe 66 ec 3d bb e3 4d bd
       -0.07093887 -0.07141687 0.11543082 -0.05026601
0001b0 07 11 81 bd 52 45 67 bc 82 36 be bd 53 44 5b 3d
       -0.06302076 -0.014115648 -0.0928774 0.053531956
0001c0 89 70 ce 3d b3 f8 ca 3c 0a 93 ec 3d ba f4 08 bd
       0.10080058 0.024776792 0.11551483 -0.033436514
0001d0 63 27 22 3d 02 fa 0c bd 72 6b 74 bd 36 a4 93 3d
       0.039588343 -0.034418114 -0.05967278 0.07209055
0001e0 c1 b5 1e 3c c7 9d ee bd 19 db cd 3d 32 77 6a 3d
       0.009686888 -0.116511874 0.10051555 0.05724258
0001f0 79 27 26 bd d0 a1 2f bd 6a 0d 11 bc 3f 85 9a 3d
       -0.040564988 -0.042878926 -0.008853296 0.07544946
000200 7f 07 8f bd 7c 02 4e 3d c9 0f 2b 3e 58 41 a4 bd
       -0.06983852 0.050295338 0.1670524 -0.08020276
000210 c3 e5 16 3d 9d 47 6b bd f8 82 89 bc 13 ec 99 bc
       0.03684021 -0.057441343 -0.016786084 -0.018789327
000220 b9 97 eb 3d 7f 94 e9 3d 1a c5 8e bc 47 ad 52 bd
       0.11503548 0.114052765 -0.01742797 -0.05143478
000230 c3 67 9d 3d b3 11 ab 3c c0 a9 d6 3d 23 96 8e 3d
       0.076858066 0.020882463 0.10481596 0.0696223
000240 54 60 f5 3c 44 f7 bc 3c f6 60 f3 bc cb 49 73 bd
       0.02995316 0.023067124 -0.02970932 -0.059396546
000250 f7 a1 a3 3d 80 66 52 bd b1 f7 cb bc 27 06 f3 bc
       0.07989877 -0.051367283 -0.024898382 -0.02966602
000260 2e a0 25 ba 56 ab dc 3d 98 26 6b 3c 8c 59 1a 3d
       -0.0006318119 0.10774867 0.014352463 0.037683055
000270 15 21 e8 3c a3 29 ad bd a6 bd 8b 3c 08 7f 61 3c
       0.028336087 -0.08455207 0.017058205 0.013763197
000280 87 08 39 bc eb 3a b1 bc 52 76 a8 bd de 58 b3 bd
       -0.011293537 -0.02163454 -0.08225693 -0.087571844
000290 54 e2 dc 3d 5f 1f 9f bd e2 64 db bd 19 28 b8 bd
       0.10785356 -0.077696554 -0.10712601 -0.08992023
0002a0 05 dc 00 3e b5 9c f0 3d ed ca 06 bd a8 7d dc bd
       0.12583931 0.117486395 -0.03290837 -0.107661545
0002b0 39 e8 7f bd 83 93 c5 3d bd b9 61 bd c2 30 2e 3e
       -0.062477324 0.09647276 -0.055108774 0.17010787
0002c0 46 e1 ad bd b7 bd 5b bd ea 3c ce bd 15 ea f3 bb
       -0.08490233 -0.053647723 -0.10070212 -0.0074436762
0002d0 9e 80 83 bd bc 77 bc 3d e5 48 a6 bc 94 a3 3b bb
       -0.06421016 0.09202525 -0.02029843 -0.0028631436
0002e0 f3 7c cb 3b ad 9c db bd f5 3f 93 bd 23 f7 af bb
       0.0062099635 -0.10723243 -0.07189933 -0.005370037
0002f0 d0 25 71 bc a2 57 b8 3d de a3 dd 3b fa 5d eb bd
       -0.014718488 0.0900109 0.0067639193 -0.11492534

actor_V.1.bias f4 [3]
000000 ac 95 79 bd 68 24 3a 3d 57 1c b8 3d
       -0.060933754 0.045444876 0.089897804

expert_K.weight f4 [3, 8]
000000 d3 40 50 3f 9a de ff bf 19 92 c8 be 51 ea 25 3d
       0.81348914 -1.9989808 -0.39173964 0.040506665
000010 be 4a 83 bf 2e 91 30 3f 93 d9 c1 3f 7e 5a c7 3f
       -1.0257185 0.68971527 1.5144523 1.5574491
000020 69 42 b5 bc 2b d0 c8 3e 58 27 21 3f 28 e0 d2 be
       -0.022126393 0.3922132 0.6295066 -0.41186643
000030 e4 f5 7b bf 7e f5 8b bd 72 49 91 be f6 a2 e3 bf
       -0.98422074 -0.06833933 -0.28376347 -1.7784107
000040 e2 24 24 bf e6 eb 9a 3f f0 60 49 3e dd b0 87 bf
       -0.6411878 1.210324 0.19665885 -1.0600849
000050 92 39 a8 bf df 23 34 bf f4 a7 68 3e 66 d1 1a 3f
       -1.3142569 -0.70367235 0.22720319 0.60475767
