gym-multigrid-master/results/coma/key/steps_1500000_ngames_NA_USE_KG_ball + key/model_weights_save_dir/actor_0_episode_10000.pth (torch, 101114 bytes, 11 tensors)

fc1.weight f4 [64, 294]
000000 d0 44 26 3d 28 24 2a 3d 1e 4a 7f bd 7a 41 b0 3c
       0.04059297 0.041538388 -0.062326543 0.021515597
000010 ac 3b 37 bc 88 8c 47 3c 37 e3 8e 3c 9d c2 33 bd
       -0.0111836605 0.012179501 0.017442329 -0.04388677
000020 30 6a be 3c 04 3a 63 bd 13 84 10 bd 1a 88 27 3d
       0.023243994 -0.05547525 -0.035282206 0.04090128
000030 2b 55 30 3c 07 15 5f bd ab 8a e1 3c f9 46 8e bc
       0.010762493 -0.054463413 0.027531942 -0.017367827
000040 45 5b b9 3b da 78 31 3d 8b de e0 3b 72 ec 83 bd
       0.005656632 0.043328144 0.0068624667 -0.06441583
000050 38 66 45 ba a8 79 bb bb f6 c5 4b 3d 6c dd 38 3d
       -0.00075301854 -0.0057212897 0.049749337 0.04513304
000060 b5 b0 ce 3c 8e f2 6d bb 11 eb 87 bc 39 78 3b bd
       0.025230745 -0.0036307904 -0.01659158 -0.04576895
000070 7b c9 02 3d 64 e4 f7 3c 90 de fa bc b4 3e 20 3d
       0.031930428 0.030260272 -0.030623704 0.0391223
000080 8a e9 36 bd 56 23 27 bd e7 4d d9 bb 7c e5 4d 3d
       -0.044656314 -0.040805183 -0.006631601 0.05026768
000090 23 e8 d2 3c e3 88 7e bd bd 43 a7 3c e4 a5 89 3b
       0.025745457 -0.062142264 0.020418042 0.004200684
0000a0 73 8f 89 bd 60 15 fe bb cb 0a 30 bd 0e 85 20 bd
       -0.06716814 -0.007754013 -0.042979043 -0.03918939
0000b0 72 9c 2f bd 67 73 26 bd a5 8c 43 bd 54 e0 25 bd
       -0.042873807 -0.0406374 -0.04774155 -0.04049714
0000c0 ab e8 65 3c ba 63 00 bd cd b1 e8 3c 89 11 35 bd
       0.014032523 -0.031345107 0.028405095 -0.044206176
0000d0 8e db c2 3c 60 24 0b bb c4 c3 46 bd 06 ce d5 bc
       0.023786332 -0.0021231398 -0.04852654 -0.026099216
0000e0 aa ce 5f 3c 2c 30 53 3a 21 a4 52 3b 74 85 db 3c
       0.013660112 0.00080561894 0.0032141285 0.026797034
0000f0 8b 0e 84 bb 9b 3f 24 3d 6f cf 59 bc 2b 77 5a bd
       -0.004030054 0.04009972 -0.013294085 -0.053336304
000100 0b 5d 5c bd b0 de 8b bc f3 b3 f8 3c 97 c2 c8 bc
       -0.05379967 -0.01707396 0.030359244 -0.02450685
000110 62 ea 8b 3c 68 1f 3f bd 30 fb 4f 3d d0 f8 f5 bb
       0.017079536 -0.04666081 0.05077666 -0.0075064674
000120 42 40 d6 3c 7d b4 30 bc 98 28 3b 3d 34 08 1d 3d
       0.026153687 -0.010785219 0.04569301 0.0383379
000130 8d 68 21 3d 28 75 2f 3c 00 54 48 3c 09 29 62 bd
       0.039406348 0.010709085 0.012227058 -0.055214915
000140 9f ca 22 bd 5c e5 52 bd 14 81 65 bc e2 bd e3 bc
       -0.039744016 -0.051488265 -0.014007825 -0.027800504
000150 d3 85 28 3d 01 35 f7 bc 9c b1 a0 bc df 8c b4 3c
       0.04114325 -0.030176641 -0.01961594 0.022039829
000160 a9 06 e5 3c f2 0f 14 bd 79 ce 63 3c 72 10 5b 3d
       0.027957277 -0.03614802 0.013904207 0.05348248
000170 09 f8 52 bb ca 20 66 bd a7 03 6f 3c f0 fc ba 3b
       -0.0032191298 -0.056183614 0.014588273 0.005706422
000180 83 ed 64 3c 51 94 49 bd 4e 3f 54 bd 14 8f 1a bd
       0.013972643 -0.04921371 -0.051818185 -0.037734106
000190 b4 d0 d0 bc f0 74 d5 3c e0 9d c5 bb 9f 99 d2 bb
       -0.025490142 0.026056737 -0.006030783 -0.0064270045
0001a0 95 7c f4 3b 19 44 3d ba 9b 2b 47 3d 62 43 e9 bc
       0.0074611404 -0.0007219925 0.04862557 -0.028474513
0001b0 63 5a 37 bd ce 61 35 bd 0f ac da 3c 43 c9 92 3c
       -0.044763934 -0.044282727 0.026693372 0.017918235
0001c0 5d 4f 81 3c 00 ce 74 ba 06 ce 0a bd 5f a0 4a bd
       0.015784914 -0.0009338558 -0.033887886 -0.049469348
0001d0 b3 d6 42 bc 6e 0a 18 bb e4 52 99 bc 98 82 5d 3c
       -0.011892009 -0.0023199576 -0.018716283 0.0135199055
0001e0 ea ed 90 39 e7 0c 1f 3c 77 a0 77 39 b9 0c 1e bd
       0.0002764308 0.009707666 0.00023615533 -0.038586352
0001f0 82 42 15 3d 9e a7 b0 bc d1 a1 0d 3d c0 74 4a 3d
       0.03644038 -0.021564301 0.03457815 0.049427748
000200 58 9c 46 bd 1b 5e 44 bc 2e 42 27 3b 0a ba da bc
       -0.048488945 -0.011985327 0.0025521624 -0.026700038
000210 44 3a cb bc 0a 9f f9 bc 94 a8 39 bd 12 27 dc bb
       -0.024808057 -0.030471344 -0.045326784 -0.0067185247
000220 2b 45 15 3d 76 40 c0 bc c6 f5 ee bb cb 89 22 bd
       0.036442917 -0.023468237 -0.007292482 -0.03968219
000230 ec 75 29 3d 29 2a a9 3c 96 79 5c bd c7 19 60 bd
       0.041372225 0.020649986 -0.05382689 -0.054712083
000240 79 a3 2e 3d 23 78 19 3d b9 88 d4 bc fc 2e 13 3d
       0.04263637 0.037468087 -0.0259441 0.03593348
000250 2b ee 4c bd 10 b8 ae 3b 8b 64 4a bd 26 b8 36 3c
       -0.050031822 0.0053320006 -0.04941229 0.011152303
000260 aa d7 21 3c b1 3a 64 bd 49 a5 37 3c 84 af 2d 3d
       0.0098780785 -0.055720035 0.011208841 0.042403713
000270 cd 26 d1 3c 6d 45 2e bd ce 32 0a bd ce 07 0f bd
       0.025531197 -0.04254668 -0.033739857 -0.034919553
000280 37 24 1b 3d 2e cd b2 bc 35 11 dd 3b 96 30 11 3d
       0.037876334 -0.021826353 0.006746436 0.035446726
000290 e9 59 f5 bc 4c 48 db bc a6 a8 51 bd e0 5e 31 3c
       -0.029950099 -0.026767872 -0.051186226 0.010825843
0002a0 cd 21 2c bc 8f 08 2a 3d 54 4d 83 bd 1f 6a 7a bd
       -0.010506106 0.04151207 -0.064112335 -0.06113636
0002b0 a1 7c 6c bd a0 98 15 3b 9a a6 90 bc 76 d1 a2 bc
       -0.057736043 0.0022826567 -0.017657567 -0.01987527
0002c0 b4 98 07 3c 41 5b 13 bd 37 c7 d6 bc 3d 44 30 bd
       0.008276153 -0.0359757 -0.02621804 -0.043033827
0002d0 b4 a8 30 bd b8 88 ec bc fe f8 fa bc 0e 5d 52 3d
       -0.043129638 -0.028873786 -0.030636307 0.051358275
0002e0 4a 51 3f bd 2c 92 0f bd e2 d4 30 3d 23 85 ea bb
       -0.046708383 -0.03505151 0.04317177 -0.0071569844
0002f0 38 36 32 bd 6b 2a fc ba 0c a3 43 bd 88 90 5c 3d
       -0.04350874 -0.0019238716 -0.047762915 0.053848773
000300 da 52 b8 bc 12 b5 08 bc fd b6 cb bb f0 85 65 bc
       -0.022500444 -0.008343952 -0.0062168823 -0.014008984
000310 10 c5 c8 bc 18 1a f5 3c 10 9c b8 3c 93 4e ed bc
       -0.02450803 0.029919669 0.022535354 -0.028968131
000320 bb 60 70 3b 2e f7 59 bd b0 b4 46 3d 60 d7 1e bd
       0.003667875 -0.053214245 0.04851216 -0.038779616
000330 a4 83 09 bd a5 c6 2f bd c5 73 5f 3c c4 d3 4f bb
       -0.033572808 -0.04291405 0.013638441 -0.0031711916
000340 0b 9f c2 3c 88 1a 86 3b 55 70 26 bd 05 cd 33 3d
       0.023757478 0.0040925182 -0.040634472 0.043896694
000350 0a b6 75 3c 36 01 a6 bc 5c 2b 1f 3c 7a 2f 8b bc
       0.014997015 -0.02026425 0.0097149275 -0.016990412
000360 4c 51 15 bd e9 cb d0 3c 3a 93 af 3c 1c a7 42 bd
       -0.036454484 0.025487857 0.021432508 -0.04752265
000370 b0 69 eb 3c 5a 65 c4 bc 1b c3 66 bd c7 e3 14 bd
       0.02873692 -0.02397411 -0.05633841 -0.036350038
000380 33 1e 12 3d d8 16 45 3d 9a 7b d6 3b ce 6a f7 bc
       0.03567333 0.04811749 0.006545496 -0.030202296
000390 d6 70 e2 3c 56 e6 72 bd 9b 09 56 bd 51 23 e2 3c
       0.027641695 -0.059301697 -0.052255254 0.02760473
0003a0 61 a1 28 3c 70 fc e5 3b f4 f1 00 3d 51 7d 25 3d
       0.010292382 0.0070186183 0.031480744 0.040402714
0003b0 68 1c 3b bc 98 1d 2d 3d 97 60 61 3c 78 2f 62 3c
       -0.011420347 0.04226455 0.013755939 0.013805263
0003c0 88 7d 64 bb a2 3a 0c 3c 75 19 2a 3d 99 27 ed bc
       -0.0034864862 0.008558901 0.041528184 -0.028949546
0003d0 f4 fa 31 bd f0 d7 43 3c c7 10 90 bd 59 ce a8 3c
       -0.04345222 0.011953339 -0.0703445 0.020606207
0003e0 fe ed c4 3b 12 e1 12 bd 63 88 45 bd 3c ab 98 3c
       0.006009816 -0.035859175 -0.04822577 0.018636338
0003f0 d0 53 82 bd dc 3d 1e 3d 9f 96 21 3c 0a 61 3b 3d
       -0.06363642 0.038633212 0.009862571 0.04574684

fc1.bias f4 [64]
000000 1f a4 8d 3c 85 e3 8f 3d fa 49 f2 3c af df 0f bd
       0.017290173 0.07025818 0.02957629 -0.03512543
000010 0c ec a0 3d ca e5 7d bd 28 87 28 3d dc cd 0d bd
       0.07857522 -0.061986722 0.04114452 -0.03462015
000020 f8 ea dc bc a0 4c 91 38 15 28 72 bc 6e 92 a2 3c
       -0.02696751 6.928411e-05 -0.014780064 0.019845214
000030 95 b4 23 bb ce 75 c6 bc 18 fb 39 bb fa c3 3b 3d
       -0.0024979461 -0.024226096 -0.0028378423 0.045841195
000040 03 40 ab 3c 00 1b ad 3d c4 96 24 3d 59 05 43 3d
       0.020904547 0.084524155 0.040182844 0.04761252
000050 ce 7c e2 3c 03 ae ec bc 78 a7 38 3d 0b 67 5a 3d
       0.027647402 -0.028891569 0.045081586 0.053320926
000060 15 ce 3c 3d 0d c0 7f 3d 65 c5 f7 bc 0f 27 ff 3c
       0.046094973 0.062439013 -0.030245492 0.031146554
000070 fa 43 9c bc eb e7 a1 bc dc 45 8c 39 3e 4e 89 3c
       -0.019075383 -0.019763907 0.0002675493 0.016760942
000080 5d c9 6e 3d ff 22 32 3d df 90 a9 3c a1 43 7a bc
       0.058297504 0.043490406 0.020698963 -0.015274913
000090 4f 11 74 3c aa 27 f6 3b 84 04 0d bd 22 51 3e 3d
       0.014896705 0.0075120525 -0.034428135 0.046464093
0000a0 ac da 52 3c b2 6a 69 3c 27 cb 5b bd 3d 54 77 3d
       0.012869518 0.01424663 -0.053660538 0.06038307
0000b0 e9 71 10 bd 77 2d b2 3a ab b0 6c 3d 89 1c 82 3d
       -0.035264883 0.0013593872 0.05778567 0.06353099
0000c0 f3 c1 d8 bc 14 57 1e 3d 1c f3 27 bd 95 32 5b 3d
       -0.02645967 0.038657263 -0.04100333 0.053515036
0000d0 6b 75 e2 3c 57 33 17 bc 70 1c e2 bc 7e 9b 7a bd
       0.02764388 -0.009228549 -0.02760145 -0.061183445
0000e0 43 e6 8c 3d 53 48 c8 bc a8 40 b4 bc 07 13 6a bd
       0.068798564 -0.02444855 -0.022003487 -0.057147052
0000f0 e1 ae 26 3d 6d 02 f4 3c fb ca 07 3d 39 a3 30 bd
       0.04069412 0.029786313 0.03315256 -0.04312441

fc2.weight f4 [64, 64]
000000 a5 ff 4a bd 25 75 9b bd 1c ca eb bd ab a1 2f bd
       -0.049560208 -0.07590703 -0.11513159 -0.042878788
000010 e8 4f 49 bd 05 34 44 bd f8 24 74 bc 92 26 ee 3d
       -0.04914847 -0.047901172 -0.014901392 0.116284505
000020 98 6c a3 bc 7e 1f 66 3d 9f cd c3 3d 33 8c ab bd
       -0.019949242 0.056182377 0.095607035 -0.0837635
000030 fe 47 9d bd 47 99 d5 3c ef 44 f3 bd 18 6b d9 3d
       -0.07679747 0.026074065 -0.118783824 0.1061613
000040 f2 00 a8 bb 4a 60 0e 3d 27 92 da 3c df 59 a3 3c
       -0.005127066 0.034759797 0.026681019 0.019940315
000050 4b 7a 89 bd fa b6 d8 3d 9b dd 8c bd bf f4 91 bc
       -0.06712779 0.10581775 -0.068782054 -0.0178169
000060 b3 37 1f 3c ac 48 51 bd 07 eb 72 bd aa f1 ce bc
       0.00971787 -0.051094696 -0.05930617 -0.025261719
000070 af 15 4f 3d bb d8 b3 3b 1d 95 83 3d 8a ed f8 bc
       0.05055779 0.005488483 0.064249255 -0.030386705
000080 3f 40 bf bd 0d 22 7b bd 96 91 e3 bd c0 e8 00 be
       -0.09338426 -0.06131177 -0.11111753 -0.12588787
000090 2c 1e 15 3a 14 3f 27 3d 7f e4 e4 bd 17 8e 1e bd
       0.0005688395 0.04083164 -0.11176395 -0.038709726
0000a0 0e bd 9a bd 2b c1 91 3c 8c 7c c0 3a b1 0d 52 3c
       -0.075555906 0.017792305 0.0014685555 0.012820647
0000b0 ea 45 c6 3d b7 57 94 bd 8b dd 96 bd 72 ce 02 3d
       0.09681304 -0.07243293 -0.07366475 0.031935163
0000c0 d2 e5 db bd d9 d9 81 3d 6f ec 05 3c b4 5c d8 3d
       -0.10737194 0.06340379 0.008174046 0.10564557
0000d0 96 67 91 bd 54 70 4a 3d 31 b1 fe bd 38 7c 1a 3c
       -0.070998356 0.04942353 -0.1243614 0.00942903
0000e0 9d 10 fc bd f9 06 40 bd d5 13 ea bd 52 83 e1 bd
       -0.12307856 -0.04688165 -0.11429564 -0.110113755
0000f0 bc 83 cc bd 86 c7 3b bd 5d 7d 3d bd c4 92 49 bc
       -0.09986064 -0.045844577 -0.046262134 -0.012303058
000100 2b 2f 3e bd 96 87 89 3d cd 8c 9d bd 62 65 8c 3d
       -0.0464317 0.06715314 -0.07692871 0.06855275
000110 28 f6 93 3d e0 8f 8b 3c 90 15 87 bd 39 fb 22 3c
       0.07224685 0.017036378 -0.065959096 0.009947591
000120 3b 76 14 bd 4b 8b 02 3e 21 ee 9f bb 1d 7b 1a bd
       -0.036245566 0.12748449 -0.004880682 -0.037715066
000130 e0 0e 32 3d 0b 36 a6 bd 1e 0b 4c bd ae c1 a2 bd
       0.043471217 -0.08115777 -0.04981529 -0.07947098
000140 e3 09 f6 bc fe f2 1e 3e 69 95 f9 3d 07 1c 66 3d
       -0.030034011 0.15522382 0.12186701 0.056179073
000150 24 3c b9 3d ec 8f 13 3d 9c 7c 81 3d 51 12 ac bd
       0.09044674 0.036025926 0.063225955 -0.08401931
000160 37 83 55 3d eb 32 35 ba 8a 5f 38 3d 12 e4 ed 3c
       0.05212709 -0.00069121894 0.04501299 0.029039416
000170 9c 9f fc 3d f4 bb 20 3e 7a a7 23 bc cf a1 bc 3c
       0.123351306 0.15696698 -0.00998866 0.023026375
000180 49 4a bb bc 05 50 77 bd e9 e6 2a 3d 46 78 e2 bc
       -0.02286257 -0.060379047 0.04172412 -0.027645241
000190 db e8 10 3d 09 c3 fe 3c 65 d8 d8 3d b6 5b c9 bd
       0.03537832 0.03109886 0.10588149 -0.098319456
0001a0 57 0f f2 bc 87 b3 a2 bd 78 21 bd bd b8 7c 3d ba
       -0.02954833 -0.079443984 -0.09234899 -0.00072283624
0001b0 82 ed 8d 3d 74 0a 0a 3b 91 43 d1 bd f7 9a 0f 3e
       0.06930067 0.002106336 -0.102179654 0.14023958
0001c0 b5 b8 a7 3d c2 53 cf bc 75 46 e9 3d 8e 2f 1d 3d
       0.08189527 -0.025308494 0.11390392 0.03837543
0001d0 13 2b 2c 3d 9d 3d 00 bd 17 ef 3d 3d 39 07 c7 bd
       0.042033266 -0.03130876 0.046370592 -0.097181745
0001e0 bf b9 01 3e a9 82 85 bd 12 28 19 bc e8 30 9e bd
       0.12668513 -0.06519062 -0.009347932 -0.07724172
0001f0 b5 6f 78 bc 0d e8 8e bd 1a 21 1d 3e 2a e4 d1 bd
       -0.015163352 -0.06977854 0.15344658 -0.10248597
000200 73 bf 33 bc 27 21 78 bd 29 90 18 3d eb 49 d0 bd
       -0.010970938 -0.06057849 0.037246857 -0.10170349
000210 23 e1 01 3e 90 e0 8d bc c2 df 00 bd 92 40 17 bc
       0.12683539 -0.017318994 -0.031463392 -0.009231703
000220 96 65 bf 3d 62 39 9a bd e9 1d cb 3d c3 79 82 bc
       0.09345548 -0.07530476 0.09917814 -0.015927201
000230 26 c8 3c bc 7f a2 be 3d 95 f1 54 3d b4 74 5d bd
       -0.0115223285 0.093083374 0.051988203 -0.054066375
000240 90 48 b7 bd aa aa cc bd 9b f5 d3 bc 04 f1 48 3d
       -0.08949387 -0.09993489 -0.02587395 0.049057975
000250 13 56 4b 3d 6f e9 b6 3d 0c 03 63 bd b7 23 20 bd
       0.049642634 0.08931243 -0.055422828 -0.03909656
000260 46 12 08 3e f5 ad f9 3d 8d e1 f5 3d a1 bf f5 ba
       0.13288221 0.12191383 0.12005911 -0.0018749126
000270 97 5b da bd ad e4 c5 bb 14 5e 05 3e be 21 3e bd
       -0.106620006 -0.006039223 0.13024169 -0.046418898
000280 b1 cf 8c bd 52 d6 06 3e b5 46 f1 bb de 42 0a 3e
       -0.068755515 0.13167694 -0.0073631653 0.1350207
000290 bc 52 e5 b9 30 58 a0 bc 2f 19 9d bd 90 98 91 bd
       -0.00043739926 -0.019573301 -0.07670819 -0.07109177
0002a0 3f d9 34 3d 5e 9a 04 3e 67 ff a3 bd 3f 3b f3 3d
       0.044152495 0.12949511 -0.080076985 0.11876535
0002b0 03 bc 9f bd eb af 03 3e ae a1 0c 3d ef f3 ef 3d
       -0.07799532 0.12860076 0.034333877 0.117164485
0002c0 0a e1 4d bc fd 04 2d bd d3 14 a8 bd 86 13 90 3d
       -0.0125658605 -0.042241085 -0.08207097 0.07034974
0002d0 80 08 a4 ba db 82 37 3d 3d a9 fc bc 72 8d 16 bd
       -0.001251474 0.044802528 -0.030842418 -0.036755987
0002e0 10 f8 53 bd eb 29 82 bd 6d a0 af 3d 58 ec 8d bd
       -0.051750243 -0.063556515 0.08575521 -0.069298446
0002f0 4f 28 1a 3d 2e 50 09 3e cb 2e f2 bc 69 12 bd bd
       0.037636098 0.13409492 -0.029563328 -0.09232027
000300 01 f7 26 3d d1 c2 8a 3d f2 e0 1e bc 0e f7 ad 3d
       0.040762905 0.067754395 -0.009697186 0.084943876
000310 17 6c 71 3d 6a 9e d6 3d 45 9b b3 bd 2a f7 81 3d
       0.058940973 0.10479434 -0.0876985 0.06345971
000320 d0 ae 0c be 3e e2 b6 bd 16 fd 59 3d dc 1c 87 bd
       -0.1373856 -0.08929871 0.053219877 -0.06597301
000330 8a 2e ca 3c ef 73 ab 3d d6 96 94 3d 68 77 e0 3d
       0.024680395 0.08371722 0.07255332 0.10960275
000340 ad 89 c7 bd 69 ae c9 3d 8d fa 4d 3d 86 4c 61 3d
       -0.097430564 0.09847719 0.050287772 0.05500462
000350 7c 80 72 bd 05 a3 08 be 96 d5 97 3d 9b 66 44 bd
       -0.059204563 -0.13343437 0.07413785 -0.047949415
000360 4e d6 86 bd ca 3c 69 bc f8 9c ca bd 1a 4c 53 bd
       -0.06583844 -0.014235685 -0.09893221 -0.051586248
000370 2f 02 85 3d 48 2f 85 3d 02 97 43 3d a2 25 94 3c
       0.06494557 0.06503159 0.047751434 0.018084351
000380 f7 eb 82 3d 3f 9d fc 3c 9f 69 d4 bd 77 18 1d bd
       0.06392663 0.0308367 -0.10371708 -0.03835341
000390 9f 58 be bb 11 68 96 3d 1d 10 98 3d c9 2f 92 3d
       -0.0058089043 0.07344068 0.07424948 0.071380205
0003a0 c3 20 cc 3d f4 26 e0 bd 8f 06 dd 3d 42 4c e2 bb
       0.09967186 -0.1094493 0.107922666 -0.0069060633
0003b0 a6 fc 77 3d 9f 02 5d 3d a4 13 29 bd 58 1e af bd
       0.06054368 0.053957578 -0.041278496 -0.085507095
0003c0 cd f7 a0 bd b9 44 06 be 5a 8f b6 3d 97 23 23 bd
       -0.07859764 -0.13112153 0.08914061 -0.039828863
0003d0 7d e7 8b 3d 82 30 96 bc 64 02 38 3d b4 56 69 bd
       0.06831262 -0.018333677 0.044924155 -0.056967452
0003e0 8f 24 37 bd c0 da d1 bd 96 35 0b bd b1 d5 da 3d
       -0.0447126 -0.102468014 -0.03398665 0.1068529
0003f0 5d cb 53 bd 6c 3e 22 bd 27 7c 04 be 26 60 b3 3d
       -0.051707614 -0.03961031 -0.12937985 0.08758573

fc2.bias f4 [64]
000000 7c b7 bc 3d 08 fa 54 3c d9 73 f2 3c f0 2a cc bd
       0.09214684 0.012999065 0.029596256 -0.09969127
000010 dc 6b a0 3d c4 8e 6f bd 34 8f 15 bd 62 a1 9e 3c
       0.078330725 -0.05848576 -0.036513522 0.019364063
000020 b9 ac c8 bd 64 f7 77 bd f2 4d 1d bd 07 ac 86 bd
       -0.09798569 -0.060538664 -0.038404413 -0.0657578
000030 88 3f 9f bd 98 fa 80 3d e6 2b bb ba 59 e2 18 3d
       -0.077757895 0.06297797 -0.001428005 0.037325237
000040 70 53 b9 bd c1 a7 1b bd 32 78 40 bd 44 ac 12 bc
       -0.090491176 -0.03800178 -0.046989627 -0.008952204
000050 cb ed 9c bd 96 d9 09 be ed 28 0c bd d0 5c 91 3b
       -0.07662543 -0.13461909 -0.034218717 0.004436113
000060 ea 05 d1 3d d8 11 d6 bd 22 c1 83 bd 78 62 81 3b
       0.10206206 -0.10452622 -0.064333215 0.003948506
000070 f5 a7 9f bc 2d 52 ce bd cb 6f f0 bc ce 67 29 bd
       -0.019489268 -0.100742675 -0.029350182 -0.04135876
000080 a6 93 23 3d e4 81 41 3b d1 b3 d8 bc a6 8f 05 be
       0.03993573 0.0029526884 -0.02645293 -0.13043079
000090 3e b4 22 3d 74 81 9c bc 6c b1 bd 3d 68 36 e2 3d
       0.039722674 -0.019104697 0.09262356 0.110455334
0000a0 67 43 c2 bd 00 c9 4b 3d 9e 95 88 bd 37 72 ff 3d
       -0.09485512 0.049752235 -0.06669162 0.12472957
0000b0 a4 d6 aa bb fe d8 b2 3c 26 d8 b8 3c ce 15 51 bd
       -0.0052135754 0.021831986 0.022564005 -0.051046185
0000c0 a2 28 09 3e 92 50 ac bd 23 2d 44 bd cf 1d ea 3d
       0.13394406 -0.08413805 -0.04789461 0.11431467
0000d0 0f 26 f7 3d 18 6a 1a bd 4e ff ca 3d fb ca fa 3c
       0.12067806 -0.037698835 0.09911977 0.030614367
0000e0 1c 3b 5a bd c4 85 ef 3d 9f d5 d8 bd b6 2e e1 3d
       -0.053279027 0.11695436 -0.1058762 0.109952375
0000f0 15 e0 a5 3d 17 0b bc 3c da 26 01 3e 60 69 ae bc
       0.08099381 0.022954507 0.12612477 -0.021290481

actor_Q.1.weight f4 [8, 64]
000000 6d ba 79 bd 68 8d ec bd c4 0a ea 3d 49 02 47 bd
       -0.060968805 -0.115504086 0.11427835 -0.048586164
000010 a8 c9 95 bd 08 82 45 bd 91 ad 4e bd de d3 a1 3b
       -0.073138535 -0.04821971 -0.050458495 0.0049385866
000020 70 5e ee 3b fe 9f c0 3d 71 19 07 bd 07 61 5c 3d
       0.0072744414 0.09405516 -0.032983247 0.05380347
000030 84 e3 f6 bd 83 b8 f4 3d f4 b4 02 bd b0 47 e1 bd
       -0.12055114 0.11949255 -0.03191085 -0.110000014
000040 4f 8f f0 3d 13 dc d0 bd 2a 2c 85 bc 97 fd ab 3d
       0.11746084 -0.10198226 -0.01625641 0.08397978
000050 b0 bc d0 3d df 13 e4 bd dd 69 09 3e 5a cc 2e bd
       0.10192239 -0.111366026 0.1341929 -0.042675354
000060 3c 24 a6 bd 8f e6 42 bd a7 c6 e6 3d 84 b1 63 bc
       -0.0811238 -0.04758316 0.11268359 -0.0138973035
000070 4e 1f a8 3b 26 3a 3a 3d f6 12 2a bd 7c 66 3a 3d
       0.005130685 0.04546561 -0.04152199 0.045507893
000080 be 9a cc bd 4b 71 b0 bd 0c 76 b0 bd 61 49 b6 3d
       -0.09990452 -0.08615359 -0.08616266 0.08900715
000090 1c 41 8e bc e8 28 a9 bd 6b cb 53 3d cf 89 41 3d
       -0.017365031 -0.082597554 0.051707666 0.047250565
0000a0 f9 72 72 3d 39 e7 37 3d 96 21 17 3d 7a b4 de bd
       0.059191678 0.044898245 0.036897264 -0.10874267
0000b0 c4 8f b8 3d ae f6 87 bd aa 60 bb ba a8 68 1e bd
       0.09011796 -0.06638847 -0.0014295776 -0.038674027
0000c0 57 63 39 3d bf b0 92 bd 2f e5 08 3e dd 9b 9f bd
       0.045260753 -0.07162618 0.13368677 -0.077934004
0000d0 3e 90 73 3d 40 c0 89 3d d0 d0 07 3d 62 e1 45 bd
       0.059463732 0.06726122 0.033158123 -0.048310645
0000e0 75 bf 19 bc f2 19 7d bd cf 2e 42 bd a4 99 9a 3c
       -0.009384026 -0.06179232 -0.04740792 0.01887209
0000f0 0f 74 b1 3d fc 54 01 bc 8d 2e 06 3e 15 e6 a0 3b
       0.086647145 -0.007893797 0.13103695 0.0049102404
000100 41 50 9d bd a4 62 89 bd ea b9 06 3d 02 c2 4b 3b
       -0.07681323 -0.06708267 0.032892145 0.003109098
000110 3a 92 20 bd 8d 98 8e bc 72 c9 b0 bd e6 78 db 3c
       -0.039201953 -0.017406726 -0.08632173 0.026791047
000120 02 e9 ce 3d ba ff 55 bd cc 53 de 3d 31 87 b1 bd
       0.101030365 -0.052245833 0.10855827 -0.08668364
000130 22 6c 90 3d 11 4a da 3d 66 96 6f bd e8 ed c0 3c
       0.07051875 0.10658658 -0.05849304 0.023550943
000140 73 97 92 bd 02 a3 00 3d 7c 8e 43 3c ff 52 4c 3d
       -0.07157793 0.031405456 0.011935826 0.04988384
000150 1b ae 46 bd 46 d6 18 3c 1d 51 3a bc ac d0 83 3d
       -0.048505884 0.0093284305 -0.011371878 0.064362854
000160 f8 9c 4e 3d a1 35 d4 bd da a7 c8 bd cf 0d 49 bd
       0.050442666 -0.103617914 -0.0979764 -0.049085435
000170 3f b8 c6 3d dd 6d 3d bd 2c 38 d2 3d 77 91 ca 3d
       0.09703111 -0.046247352 0.1026462 0.098910265
000180 a4 67 5e 3c 7c f5 14 3c 0e ae 05 3d c0 5f b6 3d
       0.013574515 0.009091731 0.032636695 0.089049816
000190 3f 21 f6 3d 8d 70 9d 3c 53 9b 8b 3b 63 61 db bd
       0.1201806 0.019218707 0.0042604594 -0.107119344
0001a0 4d d7 ff bd 84 fe 81 bd 9f 9d e3 bd 87 91 f6 bc
       -0.12492237 -0.06347373 -0.11114048 -0.03009869
0001b0 af 8a f0 3d d1 b8 84 bd ca 79 4b 3d bd 50 1a bd
       0.11745202 -0.064805634 0.049676694 -0.037674654
0001c0 a6 a0 9f 3d c5 6d 1b 3d f3 78 ff bd c7 e6 16 3d
       0.07794313 0.03794648 -0.12474241 0.03684118
0001d0 18 99 f9 bc 1a 10 e6 bc 4b 6b ba 3d a0 f7 da 3d
       -0.030468509 -0.02808385 0.09102496 0.10691762
0001e0 34 84 8b bd 81 2a e5 3c c8 d9 44 3d 3d 6d b0 bd
       -0.06812325 0.027974369 0.048059255 -0.086145855
0001f0 e9 ea e2 bc 28 e4 5c 3a 6b 64 d3 3d 75 b9 f2 3d
       -0.027699905 0.0008426332 0.103218876 0.11851779
000200 da 69 dd bd ff 4a 56 3d a9 8b a9 3d ff 5f a9 bd
       -0.10811205 0.052317616 0.08278591 -0.08270263
000210 e0 ef 70 3c 23 9e c0 bd da 31 45 bd dd 2b 59 3d
       0.014705628 -0.09405162 -0.048143245 0.053020347
000220 0c a4 fa bb f1 6c 3d bd 8d b3 13 bd 38 37 97 3d
       -0.0076489504 -0.046246473 -0.036059905 0.07383579
000230 76 6e b4 3a 8a 9c 92 3d ec ec c9 3c e1 0b 06 3d
       0.001376583 0.07158764 0.024649106 0.032726172
000240 7b 62 6e 3d 24 01 d4 bd c4 14 b3 ba a8 88 c7 3d
       0.058199387 -0.1035178 -0.0013662805 0.09742862
000250 03 53 be 3c 08 9c e6 3d d3 a6 b3 bd 56 c1 04 be
       0.023232942 0.11260229 -0.087720536 -0.12964377
000260 bd 97 da 3c 8a 4b dd 3d e6 d9 27 3d 78 98 45 bd
       0.026683683 0.108054236 0.04097929 -0.04824111
000270 7e 57 9c 3c 4b 08 ce 3d 38 eb 99 bd 9f fe f6 3d
       0.019084688 0.100601755 -0.075155675 0.12060284
000280 3d 39 ea bd 43 46 e6 3d 30 6b b4 3d 7d 79 01 3e
       -0.114366986 0.1124387 0.08809507 0.12644
000290 49 fb 9b 3b 16 ee a7 3d dc 80 a2 bd f2 9b c0 bd
       0.00476018 0.08199708 -0.07934734 -0.09404744
0002a0 bd db 1b 3d 2f a1 ea 3d a6 80 07 bd 02 37 cc 3c
       0.038051356 0.114565246 -0.033081673 0.024928574
0002b0 66 d6 26 3d cf 8b bb bd a5 58 d7 3d 29 d1 57 3d
       0.04073181 -0.09157526 0.105149545 0.052689705
0002c0 77 6d ab 3d 42 1e 49 3d ca d2 fc bd 99 fe 52 3c
       0.08370488 0.04910112 -0.12344892 0.012878084
0002d0 50 81 d5 bd 47 71 95 bd 94 9d 80 bd d0 49 01 bd
       -0.10425055 -0.072969966 -0.06280056 -0.031564534
0002e0 5c 19 c4 3c f3 28 c1 3d 6f ae 9a bd ea 16 e5 bd
       0.023937874 0.094316386 -0.07552802 -0.11186011
0002f0 cf cd 0b bd cf 83 b7 bd c0 03 c4 3b fd cb bf 3d
       -0.03413182 -0.08960687 0.0059818923 0.093650796
000300 26 b5 87 bc d7 79 d9 bc 20 51 ca bd 92 f3 26 bd
       -0.01656587 -0.026547356 -0.098787546 -0.04075963
000310 66 2a 3f bd cf 32 15 bc ad 53 e1 bd 96 0e 50 bd
       -0.046671294 -0.009106352 -0.11002288 -0.05079516
000320 3b 11 1d be 45 91 a2 bd 0b a6 2e bd 7c 95 ba 3d
       -0.15338604 -0.07937864 -0.04263882 0.09110543
000330 d9 8b 31 bd 33 2c 1f bd d0 13 b5 bd 68 e8 27 3d
       -0.04334626 -0.03886051 -0.088416696 0.040993124
000340 70 1d 2e bc 94 d3 51 bc 46 c8 03 be ca 71 b7 3b
       -0.010627136 -0.012806792 -0.12869367 0.0055982815
000350 81 7e a9 bc c5 8f d8 bd 10 ec 3a 3d 4c ff 24 bc
       -0.020690205 -0.10574297 0.045635283 -0.010070633
000360 3b 5d b1 3d cf 5c 57 bd 3a c8 b4 bc b5 99 08 be
       0.086603604 -0.052578744 -0.022068132 -0.13339885
000370 af 07 9f bc e0 00 8c bd cc 4a d9 3d b1 96 e2 bc
       -0.019412844 -0.068361044 0.106099695 -0.027659746
000380 19 25 a5 3c 39 72 b9 3d c2 39 a0 bd 93 b6 fb 3c
       0.020159291 0.09054989 -0.078235164 0.030726707
000390 6b a1 11 3d e1 a6 41 bd 97 dd 6e 3d 0b 0e ff bd
       0.03555433 -0.04727829 0.058316793 -0.1245385
0003a0 12 1d a2 bb bd 5c e7 3c 5c de 90 ba 11 0b 75 bd
       -0.004947313 0.028242463 -0.0011052596 -0.059825007
0003b0 74 89 18 3d 2e 12 8e 3d 31 61 6a 3d 50 6d 0d be
       0.03724046 0.06937061 0.057221595 -0.1381123
0003c0 1d 6d 6f bc 1e c3 87 3c df 31 d7 bd 3c d3 b7 3c
       -0.014613417 0.016572531 -0.10507559 0.022439592
0003d0 04 e5 a9 bb 42 84 d5 3d 81 7d 01 3d 2c 9a 02 be
       -0.0051847715 0.10425617 0.03161383 -0.12754124
0003e0 8d 79 77 3c 04 85 34 bd 13 58 5e 3d 17 ec aa 3d
       0.015104664 -0.044072166 0.054283213 0.08345812
0003f0 74 c4 d1 bc 52 7a a9 3d 8a 2b 03 ba 0a c0 dc bd
       -0.025606371 0.08275284 -0.0005003741 -0.10778816

actor_Q.1.bias f4 [8]
000000 c5 9e ff 3d 3b d0 b1 b9 04 41 45 3d 47 64 b8 3d
       0.12481455 -0.00033915215 0.048157707 0.090035014
000010 63 ff bd bc 54 90 d1 bc b6 cd 27 3d 68 ea f3 bd
       -0.023193067 -0.025581516 0.040967666 -0.11909944

actor_K.1.weight f4 [8, 64]
000000 d8 ba df bc e1 ad c3 3d c3 4d e7 3c bc dd 13 bc
       -0.027310774 0.09554649 0.028235322 -0.009025034
000010 83 29 80 3d 93 57 14 bc 08 fb 83 bd ca b2 7d bd
       0.06257918 -0.009054082 -0.06444365 -0.061938085
000020 81 59 a4 bc f7 d5 09 3d a5 2c 0d 3e 17 02 2b bd
       -0.02006221 0.03365132 0.13786562 -0.04175004
000030 c1 0d e1 bc b3 6e 5f ba 32 b0 c7 bd b7 0c cf 3d
       -0.027472379 -0.00085232704 -0.097504035 0.10109847
000040 e7 4b 6f 3b ee 38 aa bd 43 f4 12 3d 0d 7f 1b bd
       0.0036513747 -0.0831164 0.035877477 -0.037962962
000050 28 46 12 3d 56 1d c1 bd 8d 50 87 3d 0f 66 a5 bd
       0.035711437 -0.094294235 0.06607161 -0.08076107
000060 b3 4f 00 bc 4a 84 8d 3c 4b 5b b0 bd ad f5 da bd
       -0.007831502 0.017274994 -0.08611163 -0.1069139
000070 2c 99 35 3b 2b 5c 00 3e 6d 45 e6 bd 70 70 d0 bd
       0.0027709706 0.1253516 -0.11243711 -0.10177696
000080 18 3f f4 bd 85 35 60 bd b7 95 63 3b f0 bd 0a bd
       -0.11926097 -0.05473854 0.0034726688 -0.033872545
000090 cb 4f bc bd 4b 53 42 bd c1 f6 90 3c 0f 0e dd 3d
       -0.09194907 -0.047442716 0.017695786 0.10793697
0000a0 ed 1c 82 3d 6f 65 f0 3d 85 ca 49 3d 3c 28 d1 3c
       0.063531734 0.11738097 0.049265403 0.02553188
0000b0 e7 41 36 3d de 33 8a 3c 7d c9 89 bd 9a e2 2b 3d
       0.044496443 0.016870435 -0.06727884 0.04196415
0000c0 ba d6 06 3d 86 98 86 bd 23 0c c1 bd cb b1 d0 3d
       0.032919623 -0.0657206 -0.09426143 0.10190161
0000d0 1e 75 e5 3d ea 1c a1 bc 2b a6 63 bd 42 d6 b7 3d
       0.11203979 -0.019667108 -0.055578392 0.08976413
0000e0 9b d5 a7 3d 2b 53 d7 bd 04 84 45 3d 79 9d d1 bc
       0.08195039 -0.1051391 0.048221603 -0.025587784
0000f0 d4 06 05 3d ed 92 df bc e9 34 8e bd 87 ed 53 3d
       0.032477215 -0.02729174 -0.069436856 0.051740196
000100 3f ec da 3d 73 f4 d7 3d 17 e0 8b 3d 4f 44 15 bc
       0.106895916 0.10544672 0.06829851 -0.009110524
000110 b7 c1 cb 3d 84 bd 35 3d f1 40 b2 bd 49 1c a0 bd
       0.099490575 0.04437019 -0.08703793 -0.07817895
000120 bc ca c9 bc 5b 24 ab bd 31 10 ed bd 26 7b b0 3d
       -0.024632804 -0.08356544 -0.11575354 0.08617239
000130 6b 0b b5 3d de 15 c8 3d 21 77 cf bd 15 45 9a bd
       0.088400684 0.09769796 -0.10130144 -0.075327076
000140 fb a1 35 bd ed c8 e1 bd ec 9a 61 bc 57 57 ed bc
       -0.04434393 -0.11024652 -0.013769846 -0.028972311
000150 cf d4 38 3c 50 07 b5 bd ba ce b1 3c 92 b1 ed bb
       0.011281206 -0.088392854 0.02170502 -0.007253834
000160 df b1 99 3d e1 6a c0 3d 23 b1 b3 bc 5c 64 1f bd
       0.07504629 0.093953855 -0.021935051 -0.03891407
000170 7d 1c d4 bd 4d 52 c4 3d 72 06 8e 3c be a3 bf 3d
       -0.10356996 0.0958601 0.017337058 0.09357403
000180 4a fa 04 bd 1b dc ba 3d a8 6b aa bb e6 52 3e 3d
       -0.032465257 0.09124013 -0.005200822 0.046465777
000190 bc 12 a5 bc c4 d6 0a bd 83 14 07 be 8f e6 78 3d
       -0.020150535 -0.033896223 -0.13191418 0.060766753
0001a0 cb 31 a3 3d a1 43 86 3d e8 d8 ce 3d d9 2c d2 bd
       0.07968482 0.06555868 0.10099965 -0.1026246
0001b0 55 20 d6 bc cc 4a 0d bd 05 97 11 bd 7d 8b d9 3d
       -0.026138464 -0.03449516 -0.035544414 0.106223084
0001c0 b6 33 fd 3c d3 77 bc bc d4 31 02 be b9 f3 cf bc
       0.030908447 -0.023006355 -0.1271432 -0.02538477
0001d0 bb 7f a1 3d 68 c4 48 bd 3c 22 30 bd 81 b6 58 3d
       0.07885691 -0.049015433 -0.0430014 0.052908424
0001e0 e9 43 a7 3d 2f 49 f0 3d dc 5d de bd 57 d3 8d bd
       0.0816725 0.11732709 -0.10857746 -0.069250755
0001f0 0e 2a 06 bc a3 94 db bc 8f 57 a3 bd 2a 9b 53 3d
       -0.008188738 -0.026804274 -0.07975685 0.051661648
000200 01 fe aa 3d 56 8f 73 bd 96 90 ba 3d 61 6d f3 bd
       0.08349229 -0.059462868 0.09109609 -0.11886097
000210 7f 20 a5 bc 28 92 b4 3d a7 db 8e 3d 89 9b 2a 3d
       -0.020157097 0.088169396 0.06975489 0.041652236
000220 c0 6b 5e 3d d7 0d 2b 3d a3 a1 94 3d e9 56 03 bd
       0.054301977 0.041761246 0.07257392 -0.032065306
000230 d7 cc 00 3c 90 85 94 3d 8d f1 6a 3d 6e bf 1c 3b
       0.007861338 0.072520375 0.057359267 0.0023917812
000240 eb 8c bd bd c2 62 ab 3d af 8e c7 bd 46 83 e4 bd
       -0.092553936 0.08368446 -0.097440116 -0.11157851
000250 97 0a b0 bd 5b e0 f0 3c 25 85 06 3c 0a 40 ab bd
       -0.0859577 0.029403856 0.008210455 -0.08361824
000260 6f ca df 3c 4b e2 1e bd 5e c5 ba 3d 81 42 be 3d
       0.027318208 -0.03879003 0.09119676 0.09290028
000270 18 39 f7 bd 5f f7 68 bd 18 75 be 3c db ce ac bd
       -0.12071437 -0.056876536 0.023249194 -0.08437892
000280 05 bd b9 bd 7d 08 53 3b d8 e5 b9 bd bd 41 e3 bc
       -0.09069256 0.0032201104 -0.09077042 -0.027741307
000290 10 ea fd 3d 91 e2 8b bd 1b 3e b1 3d 8d f8 f7 bd
       0.123981595 -0.068303235 0.08654424 -0.12107954
0002a0 d6 62 6b 3d e1 b0 ac bd cf 48 07 be ce f9 9f bd
       0.057467304 -0.084321745 -0.13211368 -0.07811318
0002b0 84 91 a9 bd f8 d0 84 bd a7 9b 64 3d ca 78 d2 bc
       -0.08279708 -0.0648517 0.055812504 -0.025692362
0002c0 d8 52 c5 3d c4 ac 5f 3d 5b e8 bd 3d 32 29 af bd
       0.09634942 0.05460812 0.09272834 -0.08552779
0002d0 99 86 ae 3d 57 7a 5e bc 18 38 e7 bd 10 a9 9c bc
       0.08521766 -0.013578973 -0.11289996 -0.019123584
0002e0 21 35 c6 bd 2b 6c a2 bc 13 5f 40 3c 69 ad b5 bd
       -0.09678102 -0.01982697 0.011741417 -0.08870966
0002f0 d5 b5 38 bc b2 bf e4 3d 43 92 9c 3b c1 4b 47 bd
       -0.011273821 0.111693755 0.004778178 -0.04865623
000300 d9 7b a4 bd ef 97 f4 bd 14 6c 13 bd c4 35 b3 3c
       -0.080314346 -0.119430415 -0.035991743 0.021876223
000310 75 41 1c 3d b3 a3 89 3d 6f a9 b4 bd 95 f6 d4 bd
       0.038148362 0.06720676 -0.088213794 -0.10398594
000320 fa 85 e8 bd bb a7 06 3d 0b 52 f4 bd 89 48 9c 3d
       -0.11353679 0.032874804 -0.11929711 0.076310225
000330 2e b9 0d 3d b0 ad c6 3a 4c 1b d2 bd 73 f9 b4 bd
       0.03460043 0.0015157964 -0.10259113 -0.08836641
000340 ca af f5 bd 55 0b 84 3c 76 c7 07 bd 3c 05 76 bc
       -0.1199642 0.016118685 -0.033149205 -0.015015896
000350 65 b5 29 3d 4c d3 69 3d f3 a3 c8 3c 53 a4 1c 3d
       0.041432757 0.057086274 0.02449224 0.03824265
000360 a0 6a 8b ba c0 f3 7c 3d f2 b6 56 3c a4 4e 98 3d
       -0.0010636635 0.061755896 0.013105141 0.074368745
000370 7a db 01 bd 1c 55 1c 3d 1d 57 7a bd c3 63 0b 3d
       -0.03170345 0.038167104 -0.061118234 0.034030687
000380 86 23 52 3d ba 62 df bd 60 40 6f 3c 46 59 e3 3d
       0.05130341 -0.109075025 0.014602751 0.11101012
000390 5a 78 b1 bd 8f 24 38 3d 81 76 ec 3c a8 ce ac bc
       -0.08665533 0.04495674 0.0288651 -0.021094635
0003a0 57 f6 3f 3d 64 fb 31 bd db 05 b0 3d bc 36 f4 3c
       0.046865787 -0.043452635 0.08594867 0.029811256
0003b0 5d d3 00 bd d7 2a 31 bd bc d1 a4 3d 87 d0 08 be
       -0.03145157 -0.043253746 0.08047816 -0.13360797
0003c0 6d 73 cb bd 91 00 a0 bd 7c cd c3 3a 37 fc f8 bc
       -0.09934125 -0.07812608 0.0014938558 -0.030393703
0003d0 56 8a 14 be 2a 5f c0 3c 7b cc 2d bd d6 79 44 bd
       -0.14505896 0.023482878 -0.042431336 -0.047967754
0003e0 d9 97 ca bd 09 2c 97 3d 19 33 ad 3d 63 e0 c4 3d
       -0.09892244 0.07381446 0.08457012 0.09613111
0003f0 32 da c5 bd bd 9f 93 3d 5f 89 f9 bd e7 70 98 3b
       -0.09660758 0.07208202 -0.121844046 0.004652131

actor_K.1.bias f4 [8]
000000 d6 72 ec 3c 9f a4 df bd 47 21 46 bc f9 2a 34 3d
       0.028863352 -0.10920071 -0.012092895 0.043986294
000010 37 e9 bd bd 2f 4f d4 bd 15 19 0b 3e e3 32 4a 3d
       -0.09272998 -0.103666656 0.13583787 0.049364936

actor_V.1.weight f4 [3, 64]
000000 12 41 16 3b 14 41 28 be 0b fb 9f bb 99 7b b9 3d
       0.0022926969 -0.16431075 -0.0048822216 0.090567775
000010 37 e2 cf bc b8 89 55 3d 61 1c 09 be 9e 54 e2 bd
       -0.025376422 0.052133292 -0.13389732 -0.11051296
000020 de 56 0d be 30 04 bf bd 6f 6f 25 be 4a 74 1b be
       -0.13802668 -0.093269706 -0.1615579 -0.1518108
000030 98 0f a9 3d d7 eb c4 3b 28 3c 95 3d 15 ac 39 3d
       0.082549274 0.0060095596 0.072868645 0.045330126
000040 5a 45 de 3c 4f ed 6e 3d a2 a3 23 be 29 ef 43 3d
       0.027132679 0.058331784 -0.1598039 0.047835503
000050 7b 5e dc bd 61 09 6f bd bd 3c 58 3a 04 5f 9a bd
       -0.10760208 -0.058358554 0.0008248797 -0.07537654
000060 b1 ca de bd 07 d4 b6 bc fd 3d 09 be 05 22 09 be
       -0.10878504 -0.0223179 -0.13402553 -0.13391884
000070 46 26 1d be 92 2b a6 3d f0 04 e1 3c 27 0c 92 3d
       -0.15346631 0.08113779 0.027468175 0.07131224
000080 04 2c e5 3d d2 24 b0 3d 1a 64 a4 3d 4d 90 89 3d
       0.11190036 0.08600773 0.08026905 0.06716976
000090 e3 d5 25 3c d4 a0 34 bd 55 a2 10 be f2 e6 71 bd
       0.010121795 -0.04409869 -0.14124425 -0.059058137
0000a0 a1 e1 3f bd 55 78 d4 bd 74 47 17 be c9 3f 88 bd
       -0.046846036 -0.10374514 -0.14773351 -0.06652791
0000b0 e5 f6 9f bc e7 46 7d 3d f4 97 73 bd 1d 7a 1a be
       -0.019526908 0.061835196 -0.059471086 -0.15085645
0000c0 3b 9a fe bd d9 ff cd 3d eb 6f cf 3b 02 53 be bd
       -0.12431761 0.10058565 0.0063304803 -0.09293176
0000d0 db 76 92 bc 2e 28 df 3d 9b 38 93 3d 36 74 d2 bc
       -0.01787894 0.108963355 0.07188531 -0.02569018
0000e0 8f c0 26 bd 26 e9 bd bd c0 a7 98 bd f8 fe 61 bb
       -0.040710982 -0.09272985 -0.07453871 -0.0034484249
0000f0 c5 e8 5c bd b6 ec f2 bd 6d f5 2c be eb af c7 bb
       -0.053932924 -0.11861555 -0.16890498 -0.006093969
000100 89 fc 03 be bb 45 47 bd 73 63 ca bd ca bd f6 3d
       -0.12889303 -0.048650485 -0.0988225 0.12047918
000110 73 46 a4 bc 88 7b e5 3d 40 34 97 3d 71 f4 27 bd
       -0.020053124 0.11205202 0.07383013 -0.041004602
000120 97 68 cb 3d 0e 4b 2f bd c0 10 fd bd 8b 2a e9 bd
       0.09932058 -0.042796187 -0.123567104 -0.113850676
000130 0a 28 14 bc 73 1e 5f bd a4 96 6e 3d 34 57 ac bd
       -0.009042749 -0.054472398 0.05824913 -0.0841507
000140 df d7 7e bd 65 9c 5e 3d 52 f0 e7 3d c1 1b 97 bd
       -0.06221759 0.05434837 0.11325134 -0.073783405
000150 9c b1 e2 3d 04 e5 46 3c 2a 38 96 3d 71 32 c3 3d
       0.110690325 0.0121395625 0.07334931 0.09531105
000160 f4 a9 7a 3d bb 96 dd 3d f5 7d c3 3d 12 81 bb bd
       0.061197236 0.10819765 0.09545509 -0.091554776
000170 86 7c d3 3d 0b 78 f9 bd 3c 8e 6c bd 88 97 00 be
       0.10326485 -0.121810995 -0.057752833 -0.12557805
000180 60 b4 ec 3c ab f6 cb 3d 0c ee af 3c 9a 77 b3 3c
       0.028894603 0.099591576 0.021475814 0.021907616
000190 0c 5c c1 3d 64 5f fc 3c f2 15 a1 bc 8c 51 e3 bd
       0.09441385 0.030807205 -0.019663785 -0.11099538
0001a0 f2 79 d8 bd d1 d1 9a 3d 0b 95 96 3d 5b 16 99 3d
       -0.10570134 0.075595506 0.073526464 0.07474967
0001b0 32 e9 81 bd ed 8e 78 bd de b9 f1 3d e7 72 f3 bd
       -0.063433066 -0.06068318 0.118030295 -0.1188715
0001c0 b6 68 e0 bd d3 a2 27 bd f8 64 72 bd 41 cd f7 bd
       -0.10957472 -0.040926766 -0.059178323 -0.12099696
0001d0 45 5f 64 3c 36 3b c5 3d 1e 6b f6 bd ae de c6 3d
       0.01393873 0.09630434 -0.1203215 0.097104415
0001e0 38 2b 89 bd c7 85 d8 bb 66 cd d7 bc b3 0a 6e bc
       -0.066976964 -0.0066077444 -0.026343059 -0.014528918
0001f0 75 d7 50 3d da 94 cd 3d e4 75 b8 bd b3 08 10 bd
       0.050986726 0.10038157 -0.09006861 -0.035164546
000200 4a 61 38 3d c5 96 65 3d 69 9f 94 3d d8 98 1c 3d
       0.045014657 0.05605199 0.072569676 0.0382317
000210 ad 66 9b 3c 6c 08 6b bd 39 b6 42 bc 79 29 38 bd
       0.018969858 -0.05738108 -0.011884266 -0.044961426
000220 69 e2 da 3d 0f aa b9 bb 0c 3a 27 bd a3 46 15 3e
       0.106877156 -0.0056660245 -0.040826842 0.14577727
000230 f6 cf 2c 3d e4 2b b0 bd 67 4a 99 bd 78 5e f4 3d
       0.042190515 -0.086021215 -0.07484894 0.11932081
000240 21 05 a5 bd fa 88 03 bd d6 da f8 3d fb 07 e2 3d
       -0.08057619 -0.032113053 0.12151115 0.110366784
000250 04 78 39 bd 0c 2a 46 bd c8 3b 05 3e 19 e6 e3 3d
       -0.04528047 -0.048379943 0.13011086 0.11127872
000260 66 af be bd e5 a8 d5 bd 82 e4 10 bd 80 5c d1 3d
       -0.09310798 -0.10432605 -0.035374172 0.10222721
000270 70 da 98 3c 93 87 42 bd 92 bb bd bd a6 a5 00 bd
       0.018658847 -0.047492575 -0.09264292 -0.031407975
000280 75 b3 e5 bd 06 2f be 3d 10 2a ae bd f8 05 3a 3c
       -0.11215869 0.09286313 -0.085041165 0.011353962
000290 8e 63 da bc fc d4 59 3c a4 de 67 bd 16 c4 3b bd
       -0.0266588 0.013295408 -0.05660881 -0.0458413
0002a0 b4 07 40 bd f6 31 c7 bd a5 09 24 3d bb 18 07 bc
       -0.046882346 -0.09726326 0.04004826 -0.008245642
0002b0 bc c7 bc bb f5 03 08 3e 36 49 cc bd 5f d1 b3 3d
       -0.005761115 0.1328276 -0.099749014 0.08780169
0002c0 0d 3a fd 3d bb 2b 2e bd a6 30 da 3d 5a 1d f7 3d
       0.12364588 -0.042522173 0.1065381 0.12066145
0002d0 84 59 11 3e 4b af dd bd 12 4c 7c bd fa 8a c6 3d
       0.14194304 -0.1082445 -0.061595984 0.096944764
0002e0 92 61 3c 3d 2e 6a 5c 3d 65 4a dd bd 7b 3b 23 bd
       0.045991488 0.0538122 -0.10805205 -0.039851647
0002f0 0f 04 36 3d 27 6b 8e 3d 73 80 47 bd ec 25 96 bd
       0.044437464 0.069540314 -0.048706483 -0.07331452

actor_V.1.bias f4 [3]
000000 17 15 a7 bb 7f b5 20 bd f5 56 29 bd
       -0.0050989497 -0.03923559 -0.041342694

expert_K.weight f4 [3, 8]
000000 6e e8 11 be c3 50 5a be 3f 74 88 be 85 cb ac 3f
       -0.14248821 -0.2131987 -0.2665119 1.3499609
000010 d5 aa c0 3e 17 cb 54 bf 7a 19 1a 3e d2 32 29 be
       0.37630334 -0.8312239 0.15048781 -0.16523293
000020 b7 87 28 3f 13 d7 6c 3f 31 c1 e5 3f ca 9b be 3f
       0.65832084 0.9251568 1.7949582 1.4891293
000030 88 cb ce bc 18 5f 1d bf 8a 72 46 3d d8 9a 03 3f
       -0.025243536 -0.61473227 0.048449077 0.5140815
000040 04 fc a3 be b0 4d 47 3f 9c 64 46 3f af 2f 91 be
       -0.3202821 0.77852917 0.7749727 -0.28356692
000050 50 fb c2 3e 2d 13 ae 3f 54 a2 2f bf 18 e3 6b 3b
       0.3808236 1.3599602 -0.6860707 0.0035993513
