gym-multigrid-master/results/coma/key/steps_1500000_ngames_NA_USE_KG_ball + key/model_weights_save_dir/critic_episode_10000.pth (torch, 322303 bytes, 6 tensors)

fc1.weight f4 [64, 1181]
00000000: 9617 b4bd f9d5 76bd 5dcd 9ebb c975 3fbd
00000010: 1e04 b3bc 2eba e6bc 9507 cfbc c4d6 2cbd
00000020: 79d2 5ebd 70aa 5fbd f8bf 8b3b f9bc e2bc
00000030: 243b 173c 246a 6cbc 1540 32bb 67d6 4cbd
00000040: e412 d2bc 27bc 4b3c 125f 6bbc dc01 90bd
00000050: 0492 0e3b 46bb 963b bb98 0bbd 889a 3bbd
00000060: ec74 5e3c 4b3d 8bbd bbdd 54bc f5aa 223d
00000070: 236e 3d3c 8edd 03bd c843 ad3c 8789 babd
00000080: d570 ddbc ca6c 9dbc da05 6abb 5806 9cbd
00000090: 30c3 7f3b b488 63bd 945d e63b 2362 6dbd
000000a0: 682d 26bd cee1 adbd f8b9 71bb 620a 06bd
000000b0: b4b1 5abc ce72 ce3c c0d3 be3c e6eb 56bd
000000c0: 8845 26bb 3f2c 85bd dc92 153b fe81 12bd
000000d0: fa75 bebc 0b87 6f3d 6035 d8ba a447 58bc
000000e0: 3df1 42bc 70ce 34bd ded7 a6bc f5b5 1fbd
000000f0: a856 06bb a54b 3dbd 7cb3 51bb 18c8 ebbc
00000100: c415 1bbc cb7a 19bd 84cf 96bc e95d 20bc
00000110: 2041 fd3b 62f3 2a3d 48e4 21bd f18b a5bd
00000120: b03d 5bbc ab49 00bd e5fd cb3c f0b1 47bd
00000130: 32df c6bd 3996 7c3d c20f 943c 6355 85bd
00000140: c342 023d 37f6 283d 02c1 36bd 0a17 b7bd
00000150: 3e18 5ebc 9c8c 6ebd 045c 85bd 9a2b 4abc
00000160: a45c 86bc 1230 87bc c007 b93c efa6 83bc
00000170: 5e27 7dbc 1acb fa3b f00e 653c fb3b bfbb
00000180: 803d eab9 fb8b 90bd 8dcb 81bd 429c 6dbd
00000190: 1895 65bd 1e7f 3cbd acaa d73c c077 27bd
000001a0: fdad 723c c0aa 663d 52e5 cabc c105 7ebd
000001b0: 5260 b2bc d89d 6bbd aca7 f8bc 421f 4abd
000001c0: bed1 b5bc 2f6c b9bd 3825 d03b 3ded b03a
000001d0: 1ec2 323d 63e5 443d cbfb e03b 4b37 c83b
000001e0: 7083 e53b d3c7 ba3b b23a 3bbd d981 bfbc
000001f0: 516a a2bd 895b 3abd f438 b6bb 28b5 88bd
00000200: 7bbe 62bd 3ff4 ba3c 3407 683c 0d94 fcbc
00000210: 00d6 caba a26f 9bbc 0435 d0bc 71c7 c3bc
00000220: 4dd5 0d3c 9b81 fabb 9cdf 90bc bfc2 8bbd
00000230: ebf6 2fbd d458 81bd 6bf6 32bd afc8 debc
00000240: c044 8bbc ee85 b7bc 1179 efba 2eb6 113d
00000250: 598f 223c 3e5c 913c e071 683c cba5 b13c
00000260: e4ea b5bc 603c 9c3d 2d57 7d3d 7bdc ec3c
00000270: c0ee 6dba 88d5 adbc d382 77bc ac98 e83c
00000280: 8a42 913d ccba a4bd ab20 b6bc 3773 01bd
00000290: f86d 803c 1c34 983c d27c 18bc 511e e2bb
000002a0: 8c13 aeb9 f235 95bd 5d39 28bd f85a 7b3c
000002b0: e563 513d 076c dd3a c6c0 b0bc 65ef fabc
000002c0: e870 0e3c 273f 91bb a088 6b3c feb7 2dbd
000002d0: b60b eb3c b053 cbbc e3f5 85bd a5d7 a23d
000002e0: b909 503d 053e a83c c058 e8b9 f5d2 fcbc
000002f0: 3155 f5bc 0e23 6e3d 7057 c8bc 79b0 79bc
00000300: 79ba 97bc 74a1 34bd c5fb 95bd f928 b2ba
00000310: 71b5 65bb 2281 babd dc1b 3c3c a0ba 073c
00000320: f683 1cbd c5c2 e03c c367 3dbd c37c bb3d
00000330: f65e ed3c 724d 873b a4f2 bfbd e755 93bd
00000340: 9d6c 79bd 64c8 78bd 84d7 953c 579a 43bc
00000350: bfca 51bd 4072 1a3c 76b4 82bc 9c3a e43c
00000360: 1716 91bc 990f 053d 31da 083d 9666 713d
00000370: 398d 523d 9f4f 693d 38b4 c9bb c881 97bd
00000380: ff83 65bd 3912 14bd 45d1 e93b 4e77 84bd
00000390: 96ed 58bc 193d b2bc f459 193d 9e8d c83d
000003a0: 8d12 1a3d 7b93 febb 0484 a63c c642 813c
000003b0: 6bbf 11bd 09d2 b33d 5625 a13d 9e3c fd3b
000003c0: 8ec3 bb3c 0254 67bd 2730 5d3c 69b4 52bd
000003d0: 4428 41bd 29e6 3cbd c2c0 0abc ec22 2abc
000003e0: 3af4 043c 2f44 88bd 3b71 01bd c04a 59bd
000003f0: c22d cf3c 92a4 e63c c9fe 7cbc dc81 713c
-0.08793561 -0.060262654 -0.0048462586 -0.046743188 -0.02185255 -0.02816495 -0.02527217 -0.042197004
-0.05439994 -0.0546059 0.004264828 -0.027678 0.009230409 -0.014429603 -0.002719884 -0.050009158
-0.025643773 0.012434996 -0.014365928 -0.07031605 0.0021754513 0.0045999615 -0.034081202 -0.04580167
0.013577681 -0.067988 -0.012992318 0.03971382 0.011561903 -0.032193713 0.021150485 -0.091082625
-0.027031342 -0.019216914 -0.0035709054 -0.076183975 0.0039026253 -0.055550292 0.0070301984 -0.05795492
-0.040570647 -0.084903345 -0.0036884528 -0.032724746 -0.013348032 0.025201228 0.02329433 -0.052471064
-0.0025371034 -0.0650258 0.002282313 -0.0357685 -0.023249615 0.058478396 -0.0016495399 -0.013200674
-0.011898336 -0.044142187 -0.020366605 -0.038991887 -0.0020498428 -0.04621472 -0.003199785 -0.028781936
-0.009465639 -0.03747062 -0.018409498 -0.009788015 0.007728711 0.041736014 -0.039524347 -0.08083332
-0.013381407 -0.031320255 0.02490134 -0.04875368 -0.0971054 0.0616667 0.01807392 -0.06510427
0.03180195 0.041250434 -0.04461766 -0.08939941 -0.0135555845 -0.058239564 -0.06511691 -0.012339497
-0.016401596 -0.016502414 0.022586703 -0.016070811 -0.01545128 0.007653606 0.013980612 -0.0058360077
-0.0004467778 -0.07057949 -0.06337652 -0.058010347 -0.05605039 -0.046019666 0.0263265 -0.040885687
0.01481199 0.056315184 -0.024767552 -0.062017206 -0.021774445 -0.05752358 -0.03035339 -0.049346216
-0.02219474 -0.090538375 0.006352093 0.0013498437 0.043642156 0.048070323 0.0068659536 0.006110107
0.007004194 0.0057000904 -0.045710273 -0.023377346 -0.079304345 -0.04549745 -0.0055609886 -0.06675178
-0.055357438 0.022821544 0.014161874 -0.030832315 -0.0015475154 -0.01897413 -0.025415905 -0.023898812
0.008656812 -0.0076448447 -0.01768475 -0.06824254 -0.04296009 -0.06315771 -0.043692034 -0.027195303
-0.017000556 -0.02240273 -0.0018270334 0.03557413 0.009921872 0.01774418 0.014187306 0.021685502
-0.022206731 0.07628703 0.061850715 0.028913727 -0.0009076409 -0.021219984 -0.0151068745 0.028393112
0.070927694 -0.08043441 -0.022232374 -0.031604018 0.015677437 0.018579535 -0.009307103 -0.0069005867
-0.0003320243 -0.0728568 -0.04107033 0.015341513 0.051120657 0.0016893157 -0.021576297 -0.03063173
0.008693911 -0.004432577 0.014375836 -0.042411797 0.028692108 -0.024820179 -0.0654104 0.07951287
0.050790522 0.020537386 -0.00044316612 -0.03086231 -0.029947849 0.0581389 -0.024455756 -0.015239828
-0.018521534 -0.044099286 -0.07323412 -0.0013592533 -0.0035050774 -0.091066614 0.011481252 0.008284241
-0.038211785 0.027436623 -0.046241533 0.09154656 0.028975945 0.0041291052 -0.09372452 -0.07194119
-0.060894597 -0.060737982 0.018291242 -0.011938653 -0.051218744 0.009426653 -0.015955191 0.027859978
-0.017710729 0.03248558 0.03341121 0.058935724 0.05140421 0.0569607 -0.006155517 -0.07397801
-0.056034084 -0.03615019 0.0071355426 -0.06468068 -0.013240239 -0.02175765 0.0374393 0.09792636
0.037615348 -0.007769046 0.020326622 0.01577891 -0.03558294 0.087802954 0.078684494 0.0077281734
0.022920396 -0.0564766 0.01350025 -0.051441584 -0.04715754 -0.046117935 -0.008468809 -0.010384303
0.008114869 -0.0665363 -0.031602126 -0.053049803 0.025290374 0.028154645 -0.015441605 0.014740434

fc1.bias f4 [64]
00000000: c9ca 46bd e379 c1bc 8aa7 69bc 9e61 20bd
00000010: 2427 babc 469a 15bd b32d 73bd 7527 d0bb
00000020: b154 e3bd 3c35 66bc 9811 4fbd cc32 0bbd
00000030: d4de 7dbb 5d19 1dbd 5465 813d 3cd4 26bd
00000040: 2756 98bd b643 33bd dfaa c6bd 12e1 2abd
00000050: da24 28be e25c e33e 48b5 6ebd 4745 0ebd
00000060: 6a22 47bc 9437 59b9 45d9 5abd 5a4d cabc
00000070: d28c acbd fb79 6abd 1916 b7bc fc6e 18bd
00000080: 8e74 e6bc 27f9 e3bc 550b 1fbd abfd 01bd
00000090: 7063 66bd 86b6 8cbd e6c6 23be 896e 4bbd
000000a0: 6752 5bbd a27e 46bd 5292 eabc 3608 20be
000000b0: 4527 20bd a63a a9bd 1afd 35be d467 26bc
000000c0: 7a1a 0fbc 4029 3fbd 79d3 d9bc 4afd 1f3c
000000d0: 2dc6 90bd c080 36bd 809e 6ebe 6367 3fbd
000000e0: 824e aabd 9848 92bc eeeb ddbc 30b4 89bc
000000f0: 06d2 66bd f6a4 70bd ab44 11bd 8e95 7cbe
-0.048533235 -0.02361769 -0.014261136 -0.039155595 -0.022723742 -0.03652408 -0.059369754 -0.00635236
-0.11100138 -0.014050778 -0.050553888 -0.03398399 -0.0038737552 -0.038354266 0.06318155 -0.040729746
-0.07438307 -0.043765746 -0.0970056 -0.04171855 -0.16420308 0.444068 -0.058278352 -0.034734037
-0.012154201 -0.00020715437 -0.05342986 -0.024695087 -0.08425297 -0.057245236 -0.022349404 -0.037215218
-0.02813175 -0.027828766 -0.038829166 -0.031736057 -0.056247175 -0.06870751 -0.15993842 -0.04966596
-0.053545382 -0.04846061 -0.028634224 -0.15628132 -0.03909995 -0.082631394 -0.17772332 -0.0101565905
-0.00873434 -0.0466702 -0.026590096 0.009764979 -0.07069049 -0.04455638 -0.2330265 -0.046729457
-0.083157554 -0.017856881 -0.02709004 -0.016809553 -0.056352638 -0.05875107 -0.035465878 -0.24666426

fc2.weight f4 [64, 64]
00000000: d168 cd3c bd4a 473c f0cf 963d 7370 94bd
00000010: 6303 b7bd ed20 44ba f4a0 d8bd a45c 0e3d
00000020: f62c 7fbd 3f4d 7c3d 083e 0ebd 9cc0 09bc
00000030: 0ac8 91bd dbc2 9f3d d806 52bd 2ba7 12bc
00000040: 064a 01be 4abb f33d 3d1f 2cbd 6884 623d
00000050: 7b0e 5dbe 6220 4abe 6d11 e9bd ab5c 983d
00000060: 4f78 71bd 306f 7a3c 290e e0bd 2e79 14be
00000070: e0c9 6c3c 0826 903d 476a 13be 04ae f5bd
00000080: fdca eb3c 6a25 a33d e4e0 483d 410b a53c
00000090: de68 dd3d ed5c 083d fe57 5fbd 5622 883b
000000a0: ce60 09bd cf2b 8abd 4f6b 0d3d e51c f4bd
000000b0: ec74 763c b391 3e3d 709f 273b 72d9 603d
000000c0: ea6f c03d 5c77 dabd e03e 263e d421 00bd
000000d0: 1a16 923d 209d 65bd 20fd 4abe c7b1 b5bc
000000e0: 617b d9bd 4167 0cbc 9b06 483d 20f0 90bc
000000f0: 9300 6bbb f0f2 503d 3da6 0a3d 270b 023e
00000100: 6682 f8ba 2d8f 7cbd 4bd6 5dbd f031 babc
00000110: 25fc 99bc 6e15 083c 8925 68bd 84f7 35bd
00000120: 9daf 0fbe bef7 03be ea12 e5bd 5559 0fbe
00000130: e4f1 943d 51ec e0bd 0758 89be 3695 16be
00000140: 1eda b73c e168 d53d b5ff d43d bf59 5dbd
00000150: d463 683d 5b60 8ebe de8f 693d 314f 8a3d
00000160: 6828 33bd 74f8 10bd 6683 4bbd 878c 933d
00000170: 97ca 5e3c 8288 923d 2211 05be 9911 8a3c
00000180: 8c43 003d 9dc4 e9bd 4614 0dbe 63e0 e83d
00000190: 3b6e bf3d b37c 41be 421a 06bd 8b2d 723d
000001a0: cbfe 3abd 5b84 19be 6465 38ba eac4 acbd
000001b0: c0cb a7bc d64e af3d e9ae 163d 0b52 90bd
000001c0: ee1b 47bc d612 82bd 13bc 9d3d 6d61 a53d
000001d0: 9edf 2c3b 45d1 9cbc b763 c0bd a712 0a3d
000001e0: d0da dabd 1e37 d03d c44f 02be 97a6 123e
000001f0: 2db5 7d3c e877 443d 7e19 efbd e4c5 24be
00000200: 6e41 903c 2302 e9bd 8d87 9bbd 2648 91bd
00000210: 4f97 b13d a210 4d3d 78bc 21bd 65ed febc
00000220: e4f6 0abd 9130 0e3e ed76 01bd 3ab0 bf3d
00000230: cde2 843d 98fa c5bb 2731 15be 5cf9 993d
00000240: 583e afbb e8b6 67bc 209a b6bd ea6e b33d
00000250: 5116 99bc c19f 01bd aca9 f0bd 8527 433c
00000260: 5d6f c23c dd67 073e 7b65 c4bd d28a 87bd
00000270: 3388 62bd c33d f5bd 73bd 073e 6422 e53d
00000280: bab9 14bb 151f a5bc 8a0e 1dbe 61c0 743d
00000290: 22c1 c3bd 2cc7 ddbb 41bc 0ebd a45d ef3d
000002a0: 52e1 f1bc 20fc 4ebd 4e52 a2bd 1ea1 9bbd
000002b0: 07ef aabb 9e6e 0f3d 2373 34bc c552 33bd
000002c0: 5080 14be 73f4 ec3c 90b8 ad3d 337a 1dbe
000002d0: f39a e53d cb3a 8b3d 5b99 ffbb d176 003d
000002e0: aba7 b33d b846 0abe 8226 86bd c974 683d
000002f0: c175 a63d b0dc 93bc 85de 81bd de13 cebd
00000300: 37ae 9f3d cedf 2ebd 0b3a 33bd 3598 b63d
00000310: 6878 073e 586a 3b3d 4b34 41bd 245b 913c
00000320: f236 4a3e 40dd e73d 386f 073e 5d7c 473d
00000330: c423 d9bd 348b 8db9 f01f c2ba a211 083d
00000340: 3658 42bd 71e2 cabd b034 c7bd 079b 90bd
00000350: 59e7 e0bd a12d 36bd 66df a0bd b689 04bc
00000360: 985e 04be 2d8a 19bd 0b00 ab3d 53b3 b73d
00000370: 8d6c 173d c983 6a3d b82e 8bbd 9eac c13c
00000380: 43b1 173e 9c9f 9f3d 8a41 95bc 5844 873c
00000390: 27e6 52bd 1cce f33d 20e8 4bbe d43c 14bd
000003a0: 37f0 be3d 1aca c1bd 83eb d0bd 6ec0 86bd
000003b0: 3e57 d33b 7a7a d43d 262d 86be 3246 7c3d
000003c0: ffc1 b93d eb6b 88bd 00d6 053d da81 3dbd
000003d0: 1482 a4bc e663 863d 3ea5 18be de63 883c
000003e0: 6a7f 6d3d 4adc 1a3d 6e2d 1cbd 9358 2a3c
000003f0: 039b 92bd a47c c6bc e6ea 683d e463 ebbc
0.025074394 0.012163815 0.0736388 -0.072480105 -0.08936193 -0.0007481713 -0.10577574 0.034756318
-0.062298737 0.061597105 -0.034727126 -0.008407738 -0.071182325 0.078008376 -0.051276058 -0.008950989
-0.12625894 0.11900957 -0.04202198 0.055302054 -0.21587555 -0.19738916 -0.11380277 0.0743955
-0.058952626 0.015285298 -0.10940201 -0.14499351 0.014452428 0.07038504 -0.1439601 -0.119960815
0.028783316 0.079661205 0.049042597 0.020146968 0.108110175 0.033291746 -0.054527275 0.004154484
-0.033539586 -0.06746637 0.034526166 -0.11919574 0.015042525 0.04652567 0.002557721 0.054894872
0.09396346 -0.10667297 0.16234922 -0.03128226 0.07133122 -0.05605805 -0.19823122 -0.022179497
-0.10619236 -0.0085695395 0.048834424 -0.017692626 -0.0035858497 0.051012933 0.033849943 0.12699567
-0.001895976 -0.06165998 -0.054159444 -0.02272889 -0.01879699 0.0083058905 -0.05667642 -0.044425502
-0.14031835 -0.12887475 -0.11185248 -0.13998921 0.072726995 -0.10982574 -0.26824972 -0.14705357
0.022442874 0.10420395 0.10400335 -0.054040667 0.05673583 -0.27807888 0.057021968 0.06753386
-0.043739706 -0.035393193 -0.04968586 0.07204538 0.013598106 0.07154943 -0.12994817 0.016854094
0.031314418 -0.11414454 -0.13777265 0.11370923 0.09347197 -0.18895225 -0.032739885 0.059125464
-0.045653146 -0.14991896 -0.00070341513 -0.08435996 -0.020482898 0.08559959 0.0367879 -0.070468985
-0.012152655 -0.06351249 0.07701888 0.08075223 0.0026378403 -0.019142756 -0.09394019 0.033709195
-0.106862664 0.10166763 -0.1272574 0.14321361 0.01548509 0.047965914 -0.11674784 -0.16091114
0.017609324 -0.11377361 -0.07594214 -0.07093839 0.08671438 0.05006469 -0.03948638 -0.031119058
-0.03392686 0.13885714 -0.031607557 0.093597844 0.06488571 -0.006041836 -0.14569531 0.07518265
-0.005348008 -0.014142729 -0.08916116 0.087613896 -0.0186874 -0.031646494 -0.11751112 0.011911278
0.023734743 0.13223214 -0.09589668 -0.06618275 -0.05530567 -0.11974671 0.13255863 0.111882
-0.002269371 -0.020156423 -0.15337577 0.05975378 -0.095583215 -0.006768128 -0.0348475 0.116877824
-0.029526386 -0.050533414 -0.079258546 -0.0759909 -0.0052164826 0.035017602 -0.011013779 -0.043780107
-0.14502072 0.028925156 0.08482468 -0.15378647 0.11211195 0.06798323 -0.007800264 0.031363312
0.087722145 -0.1350354 -0.065503135 0.056752 0.081279285 -0.018049568 -0.0634127 -0.10062383
0.07796901 -0.042693906 -0.043756526 0.0891575 0.13229525 0.045755714 -0.04716901 0.017743655
0.19747522 0.11321497 0.1322602 0.048702586 -0.10602525 -0.0002699733 -0.0014810544 0.03321994
-0.047447406 -0.099064715 -0.09726846 -0.07060819 -0.10981626 -0.04447711 -0.0785511 -0.0080894735
-0.1292671 -0.03748529 0.083496176 0.0896975 0.036968756 0.057254586 -0.0679602 0.02364188
0.14813714 0.07794115 -0.018219728 0.016512081 -0.05148902 0.119045466 -0.19912767 -0.036190823
0.09323161 -0.09462376 -0.1020117 -0.06579672 0.006449609 0.10374923 -0.2620632 0.06159038
0.09070205 -0.06661209 0.03267479 -0.046266414 -0.020081557 0.06562023 -0.14906785 0.016649183
0.05798284 0.03780774 -0.038129263 0.010397094 -0.071584724 -0.024229355 0.05686464 -0.028734155

fc2.bias f4 [64]
00000000: 829b 6fbe 0813 66bd 980e a5bd 6661 0eba
00000010: b25a 0fbe 3be6 0fbe d608 2cbd 313d b0bd
00000020: 4927 25be 412a ffbd ead2 a33e 7559 1abe
00000030: 35e8 c5bd c8ef 08be 1e2c 453f 3136 d63f
00000040: c736 37be b638 ab3d 03aa 993f 003d 5cbe
00000050: b8ad b7bc afcc 8bbc 20d7 6dbe 5491 9f3e
00000060: 9d71 63be a41a ab3f 5d8c 89bd e1c5 22be
00000070: ccc8 d9bd 48fa 2cbd 9c78 a8bd 2b2d 56be
00000080: 1557 dbbc 4968 3abe 64f6 41be caad 18be
00000090: 1647 67be 299d 5a3e 8c83 d3bd dcb8 15be
000000a0: ff9e 953f 9d7b c2bd eb0f 33be def3 35be
000000b0: d0cf 2ebe ecce 74be e8df 21be 656f 50be
000000c0: 5dc6 86be 7efd 49be ff40 3cbe 1f98 64bd
000000d0: f16a 61be 8d95 a7bd 583f 12bd 0ec2 0f3e
000000e0: 67cc fcbc 0891 923d ab71 75bc e37b 9dbd
000000f0: 30ac 583e d097 babd 36cb 623f 124e 49be
-0.23399165 -0.056170493 -0.08059424 -0.00054313836 -0.13999441 -0.1405267 -0.042000614 -0.08605421
-0.16128267 -0.12459231 0.31996852 -0.15073188 -0.096634306 -0.1337272 0.7702044 1.6735288
-0.1789199 0.08360426 1.2005008 -0.21507645 -0.022421703 -0.017065374 -0.23226595 0.31165564
-0.22211309 1.3367505 -0.06716225 -0.15895797 -0.10634002 -0.042230874 -0.082261294 -0.20915668
-0.026774922 -0.18203844 -0.18941647 -0.14910045 -0.22585711 0.21349014 -0.10327825 -0.146213
1.1689147 -0.094962336 -0.17486541 -0.17768809 -0.17071462 -0.2390706 -0.1580807 -0.20354994
-0.26323214 -0.19725606 -0.18384169 -0.055809136 -0.22013451 -0.081828214 -0.03570494 0.1403887
-0.030859185 0.07156569 -0.014980714 -0.07689645 0.21159434 -0.09110987 0.88591325 -0.19658688

fc3.weight f4 [3, 64]
00000000: b3bf fc3b e16b a23d 6e8c 9dbc a53f de3a
00000010: 8f77 19bd ba51 2e3c 0a78 80bb 6e60 b73c
00000020: ba4b efba d17c 91bd f42e 713a 7e52 b0bc
00000030: 0e1f 24bc f3d9 20bc 0b4b f1bd 02e6 adbe
00000040: 387c 173d 32cc 3cbd ef2c 88be 83c3 a03d
00000050: 212f 71bd d990 423d 8ecb 18bc 47db 13bd
00000060: 912e b93c 4147 86be 7561 c5bb 2ae5 cc3c
00000070: f8c5 5a3c e2c0 0f3c 058c 85bb a12d 903c
00000080: b20c c83c 539d c73d 4642 3cbd e248 733c
00000090: b678 353c 73c1 a7bc c0e6 d73b 06cf ce3d
000000a0: 98bc 6ebe 0be1 633d 7ce2 c93c f916 31bd
000000b0: fa2a bb3c a909 90bb f09e 0abb 94ff 5dbc
000000c0: 62ef 0c3e a7f9 9f3d e7f3 b53c 47cb 1d3d
000000d0: 89b2 123d beae 8d3d e640 e13b f4c5 6e3c
000000e0: 2880 dcbc 02c3 97bc 6be9 573d cdc3 44bc
000000f0: b7d8 d13d 399d 563d 712a b6bd c32a db3a
00000100: 62c1 82bc 147e 8c3d 70e1 873d b4ee 6abc
00000110: 579b 0e3d 62ea 383d 05f7 c0bb d70c edbd
00000120: e4f2 773d 07fe e8bd 22b7 863d 6239 b83d
00000130: 29e4 ac3c b4e4 3abd 7c32 cdbd e5c7 b9be
00000140: 169f e3bc af26 913c fb02 8bbe a27d 33bc
00000150: 3702 86bd 0062 82ba 4fe1 1cbc 724d 49bd
00000160: ba6c f53c f0d0 98be 4ab1 acbb 108e 893d
00000170: 9836 fe3b 1dbf 3ebd bed7 943d 5983 1cbc
00000180: 89a3 8d3d 3169 8a3d e32d 813c f2ad 26bc
00000190: 51b6 b2bd a046 afbc c69b 10ba 5a51 19bd
000001a0: b322 50be 3523 82bd 57a9 fd3c 261a b63c
000001b0: c04d aa3d 1352 bb3c f062 6a3d 1b9d 2c3d
000001c0: 4824 623d 94d6 963b c27c bc3c 183b a9bd
000001d0: c208 31bc 886c 1f3d 7d01 7e3b 35f0 2e3c
000001e0: b8ae debb 5372 e3bc 506b 273d d60a fc3c
000001f0: 6e4c 5fbd 76a3 e03c b31b 8dbd 472f a7bd
00000200: 9788 ec3d fba8 a9bc 99e1 a4bd 9355 a63b
00000210: 2803 8f3d 3ab2 34bd 6bce 353c 64e8 8d3d
00000220: e115 763d 2021 e4bb f8f1 323e 6724 0a3d
00000230: 2dda 30bc 433d 3d3d 46c6 8dbd 05d8 c5be
00000240: 9cc3 bc3b 7d19 503d ebbb 92be 52fd 5cbd
00000250: 32bc 893d d891 093e 0866 943d 2b73 b5bb
00000260: aafd 3b3b 351c 51be 5847 343c 5634 8cbc
00000270: 03e0 da3c 81c3 053c 5f7f 4fbd 4484 bf3c
00000280: 9229 953d f42d 563d e545 643c a165 afbc
00000290: 31cc 523d e63e f1bb 3d9c ad3b 823e 31bd
000002a0: a6df 51be 5158 693c be2d 97bd e2c0 593d
000002b0: ffbd 6f3e a5c4 43bd 8c9a ff3c ecb0 be3b
000002c0: 5f87 053d f4c6 55bd a890 88bc 2237 1d3c
000002d0: ea4a 07ba aa29 2bbd 4498 96bc b707 6e3d
000002e0: e1f9 26bc 58c2 4d3d 5408 7bbd 97f0 d23d
000002f0: 9031 003e e56b ac3d 4c0e 6bbc adaa c93b
0.007713282 0.079307325 -0.019232001 0.0016956223 -0.037467536 0.010639602 -0.00392056 0.022384848
-0.0018256821 -0.07103885 0.0009200417 -0.02152371 -0.01001717 -0.009817588 -0.117818914 -0.33964545
0.0369837 -0.046093173 -0.26596782 0.07849791 -0.058882836 0.04750142 -0.009325875 -0.03609779
0.022605212 -0.26226237 -0.0060235807 0.025011618 0.0133528635 0.008774014 -0.0040755295 0.017599883
0.024420116 0.09746804 -0.04596164 0.01484892 0.011076143 -0.020477986 0.006588787 0.1009808
-0.2331413 0.05563454 0.024644129 -0.0432348 0.022847641 -0.004395683 -0.0021151863 -0.013549704
0.13763192 0.07811289 0.022211028 0.03852394 0.035814796 0.06918095 0.0068741916 0.014573563
-0.026916578 -0.018525604 0.05271284 -0.012009573 0.10246413 0.052396033 -0.08894814 0.0016721118
-0.015961353 0.06859985 0.06634796 -0.014339138 0.034816112 0.0451454 -0.005888822 -0.11574715
0.060534373 -0.11376577 0.065778986 0.0899532 0.021104889 -0.045628265 -0.10019395 -0.3628532
-0.027785819 0.017718641 -0.2715071 -0.010955246 -0.06543391 -0.0009947419 -0.009575202 -0.049146123
0.029959071 -0.29846907 -0.005270158 0.067165494 0.007757973 -0.04656898 0.07267712 -0.0095528
0.069159575 0.06758345 0.01576895 -0.010173308 -0.0872618 -0.021395981 -0.0005516376 -0.0374311
-0.20325737 -0.063543715 0.030964537 0.022229265 0.08315611 0.022866284 0.05722326 0.042142015
0.05521038 0.0046032164 0.023008708 -0.08263224 -0.010805311 0.038921863 0.0038758211 0.010677387
-0.0067957304 -0.027764475 0.040873826 0.030766886 -0.05451625 0.027421694 -0.06890049 -0.08163314
0.1154949 -0.020710459 -0.08050842 0.005076119 0.06983024 -0.044115283 0.011096577 0.069290906
0.06007946 -0.0069619566 0.17475116 0.033726122 -0.010794205 0.046201 -0.06922583 -0.38641372
0.005760623 0.050805558 -0.28658995 -0.053952523 0.067253485 0.13434541 0.072460234 -0.0055374107
0.002868513 -0.20420916 0.011003338 -0.0171148 0.026718145 0.008164288 -0.05065858 0.023378499
0.072833195 0.052289918 0.01393268 -0.021410765 0.051464263 -0.0073622344 0.005298166 -0.043272503
-0.20495471 0.014242248 -0.073817715 0.053162463 0.23412322 -0.047794957 0.031201623 0.0058194306
0.032599803 -0.05219169 -0.01667054 0.009595664 -0.00051610044 -0.04178778 -0.018383153 0.058112826
-0.010191412 0.05023417 -0.06128724 0.10299795 0.12518907 0.08419017 -0.01434667 0.0061543793

fc3.bias f4 [3]
00000000: 80ce 8ebf 6236 83bf 30b7 71bf
-1.1156769 -1.0250971 -0.94420147
